evaluation_results/models/list_npi_2020_3_3-21_0_32-3657-False-False-1.0-False-0.0-True-False-True-False.pth (torch_old, 964357 bytes, 16 tensors)

Mprog.weight f4 [4, 256]
000000 e2 bc 20 3f 66 0f 84 bf 61 28 d4 be 97 65 9b 3f
       0.6278821 -1.0317199 -0.41437057 1.2140378
000010 6e 60 f8 bd e7 0f 37 3f 87 4c 38 c0 25 b0 b3 3e
       -0.121277675 0.7150864 -2.8796709 0.35095325
000020 21 da 54 3f ad 51 15 3e c2 8f 0c c0 cf 65 fb 3c
       0.8314534 0.14581938 -2.1962743 0.030688195
000030 55 c6 0a 40 51 37 8e 3f 10 39 44 3f 65 dd 48 3f
       2.1683552 1.1110631 0.7664957 0.7846282
000040 4e e5 96 bf 84 f1 98 3f 82 b2 7d bf 0d a0 41 bf
       -1.1788728 1.1948705 -0.99100506 -0.75634843
000050 ab 46 11 3c 13 7f af 3e 8c cb dd bf 71 53 d0 3e
       0.008866946 0.34276637 -1.7327743 0.4068866
000060 2b dc 46 3f 7d 52 45 3f 48 63 8a 3f 04 b2 e6 bf
       0.776797 0.7707899 1.0811548 -1.8023076
000070 e1 f6 56 bf fd 0a 22 3f 52 b9 33 be 31 42 08 c0
       -0.8397046 0.63298017 -0.17551163 -2.12904
000080 79 aa 9b 3f 54 21 33 3f e1 00 64 bf fa dd 81 bf
       1.2161399 0.6997273 -0.8906384 -1.0145867
000090 0e f0 a4 be 88 48 12 3f e4 e3 17 bf 6c e9 8f bf
       -0.32214397 0.57141924 -0.5933211 -1.124311
0000a0 a2 de ea bf 6c d1 8c bf 75 b1 c3 3d 66 76 1e 3e
       -1.8349192 -1.100141 0.095553316 0.15474853
0000b0 dd 62 9b bf 86 53 6d 3f fe 69 27 3e ac 6f 82 3f
       -1.2139546 0.9270557 0.16349027 1.019033
0000c0 dd 3d 32 c0 86 87 b7 3f 07 80 b7 3e a9 e5 b9 bf
       -2.7850258 1.4338233 0.35839865 -1.4523212
0000d0 50 fe fe be f2 1a bb bf 5b 33 e8 3e cf 86 d7 bf
       -0.498034 -1.4617598 0.4535168 -1.6838015
0000e0 14 2f 5e 3f d0 83 8e be d2 03 4b bf 92 54 9d bf
       0.86790586 -0.2783494 -0.79302704 -1.2291434
0000f0 11 e8 9f be 0c d3 c4 3e 36 09 03 bf 58 ee 35 3e
       -0.3123174 0.38442266 -0.5118593 0.17766702
000100 4e 8b e4 3f 82 3a f0 bd ae 35 ab bd c4 94 8e 3d
       1.7855012 -0.117299095 -0.08359848 0.069619685
000110 26 c8 d5 3c 64 d5 e9 be 32 da 0f bf 00 9c 91 3e
       0.026096415 -0.45670617 -0.56192315 0.2843933
000120 bb a9 fd bc 21 66 a6 be 28 5e fb 3d 2e c6 07 bd
       -0.030964723 -0.32499793 0.12273818 -0.033147983
000130 de 63 17 be c6 3a c7 bf 78 b6 d5 bf 7a 41 5c bf
       -0.1478419 -1.5564811 -1.669631 -0.8603741
000140 70 3a 91 3d e2 0f 91 3e 7b 7e 9a be 2f 2e 00 3f
       0.07091224 0.2833243 -0.30174622 0.5007047
000150 71 13 72 be 2d 8c 1a 3f db c2 eb 3e 44 b4 09 40
       -0.23640229 0.6037014 0.460471 2.1516275
000160 91 a7 80 3e 75 1a 48 3f 95 df ee bf a9 b6 0a 40
       0.25127843 0.7816537 -1.8661982 2.1673987
000170 a6 fc 39 3e ce e6 bc bf 35 c7 95 bf 17 82 f1 3e
       0.18162784 -1.4757936 -1.1701418 0.47169563
000180 b0 e9 00 bf 5d e9 f6 bc bb 97 5a 3f 35 73 72 bf
       -0.5035658 -0.030140573 0.8538777 -0.9470704
000190 18 00 88 3f 71 8d 57 3d 1b 9c 1a 3f 73 b0 33 3f
       1.0625029 0.052625123 0.6039445 0.70191115
0001a0 20 e8 16 be f1 91 06 c0 a0 e0 b1 bf 76 58 ed bd
       -0.14736986 -2.1026576 -1.3896675 -0.11589138
0001b0 a1 90 74 3f 86 d3 71 bf 91 59 ad 3e 39 8d e7 3e
       0.95533186 -0.94463384 0.33857396 0.45224932
0001c0 32 3b 7e 3e b6 7e 10 3f 2c 0b 0d be 97 48 b6 be
       0.24827269 0.56443346 -0.13773793 -0.35602257
0001d0 d8 aa 76 be 8c 22 ed 3e ab bd 16 3e 9c 25 a2 3e
       -0.24088609 0.4631542 0.1472079 0.3166932
0001e0 0c 6a 46 3f 03 7f 05 c0 a5 70 17 bf 0b 46 17 c0
       0.77505565 -2.0858772 -0.59156257 -2.36365
0001f0 38 a5 32 ba c0 bc d2 bf ec 72 2a 3f 29 0c 0a 3f
       -0.00068147806 -1.6463852 0.66581607 0.53924805
000200 db 10 0d 3f 8b f1 08 bf 2f d0 eb 3e 98 70 2c bf
       0.55103844 -0.53493565 0.4605727 -0.67359304
000210 5d b0 cf 3f 14 df ac bf f0 86 8d bf c0 6f 44 3f
       1.6225697 -1.3505578 -1.1056805 0.76733017
000220 7b fd c4 bf 7f 19 ca 3f b2 47 36 3f e3 74 12 3f
       -1.5389856 1.5789031 0.7120315 0.57209605
000230 bb b6 ad be fa b8 42 bf 61 81 8f 3f cd af 53 bf
       -0.33928475 -0.760635 1.1211358 -0.82690126
000240 d1 d2 9a bf af b7 a9 bf bf f3 e7 3f 4c 8f e8 bf
       -1.2095586 -1.3259181 1.812126 -1.8168731
000250 aa 86 23 bf f5 69 d7 3c a2 3e b8 be 59 b8 a0 3f
       -0.63877356 0.026295641 -0.35985285 1.2556258
000260 08 63 36 be f8 2c 6a 3f 20 9f c1 3d 7f 67 9f bf
       -0.17811215 0.91474867 0.09454179 -1.245346
000270 be 7a 68 3e c7 30 1b 3f 37 58 a0 3e 41 78 1b bf
       0.22703072 0.60621303 0.31317303 -0.6073037
000280 1f 58 d0 be 01 2d 51 40 d2 7f b0 bf 8f f4 7b 3f
       -0.4069223 3.2683718 -1.3789008 0.9842004
000290 33 0d 3f 40 d6 5c c3 3e e6 83 9c 3f 6a 11 f1 3e
       2.9851806 0.38156766 1.2227752 0.47083598
0002a0 af 23 f6 be 03 18 ba 3e ab 09 6d bf 7b 6b ea 3f
       -0.480741 0.36346444 -0.9259288 1.831405
0002b0 2e fe 26 3f 70 81 3e 3f fb 32 b1 3f 91 30 20 3e
       0.652316 0.74416256 1.3843683 0.15643527
0002c0 e3 ab 52 be 87 0f e0 3d 11 cf 2c bf 23 3b 55 3f
       -0.20573382 0.109404616 -0.6750346 0.8329336
0002d0 25 9d 38 3f 96 d3 ec be e7 94 84 bf 58 23 95 3e
       0.72114784 -0.46255177 -1.0357941 0.29128528
0002e0 cb e7 19 c0 fe 46 a0 3f bf 76 d5 3e f9 13 06 bf
       -2.4047725 1.2521665 0.4169216 -0.52374226
0002f0 90 b7 ae 3f 99 66 c2 3f 04 7f 8b 3d 83 b1 0f bf
       1.3649769 1.518756 0.06811336 -0.56130236
000300 1d 4c e0 be b5 8a a7 3f 56 a4 96 3e 83 b7 34 3f
       -0.4380807 1.3089205 0.29422253 0.70592517
000310 5d e6 e1 bf 56 be b4 bf cb e6 1d c0 3f 02 38 be
       -1.7648426 -1.4120586 -2.4672115 -0.17969607
000320 1c 03 21 be 4e e3 d6 3f 65 35 5a bf 90 1a 81 3e
       -0.15723842 1.6788118 -0.85237724 0.25215578
000330 fa dc e9 be 15 c8 4e 3f ac ba 50 bf bb 45 00 3d
       -0.45676404 0.8077405 -0.8153484 0.0313165
000340 d1 a7 0e 3f ec d2 21 c0 f8 d1 c7 be a6 f4 6f be
       0.5572482 -2.5284986 -0.3902738 -0.2343317
000350 b8 14 99 3f cd 20 42 3e 3f 34 7f 3d 53 42 6a 3d
       1.1959448 0.18957825 0.062305685 0.057192158
000360 11 6b 5e 3d 39 b6 8d be 00 74 0e bf 9d 1c 4e bf
       0.054301325 -0.27678087 -0.5564575 -0.8051241
000370 ac 4c a1 bd 42 48 c4 be 4b 21 9a 3f b0 da d7 be
       -0.07875952 -0.38336378 1.204141 -0.42159033
000380 cd 67 d4 3e 05 4a 96 bf 74 66 19 bf 28 8f 96 bf
       0.41485444 -1.1741339 -0.59921956 -1.1762438
000390 33 4d f4 3e 5d 21 a5 be 3f 4b c3 3f 29 0d 30 bf
       0.47715148 -0.32252017 1.5257338 -0.6877008
0003a0 17 ef 8a 3d 45 cf 87 bb b3 b0 ab 3f 4a b1 23 be
       0.06783884 -0.0041445815 1.3413299 -0.15985599
0003b0 ad e3 1b bf b2 4b c8 bf 57 14 20 bf 83 db 73 3f
       -0.6089428 -1.56481 -0.62531036 0.95256823
0003c0 ee 28 07 c0 b0 17 15 40 43 27 22 3f 29 0f 2b be
       -2.1118731 2.3295708 0.6334116 -0.16705002
0003d0 1b 35 e1 3e 37 e9 1e 3f 3d dc e5 be 32 9d 3f 3f
       0.4398583 0.6207461 -0.4489459 0.74849236
0003e0 fa ba 33 3f 35 99 44 3f 81 7d 8c be e9 a5 7c bf
       0.7020718 0.76796275 -0.27439502 -0.9869066
0003f0 9b 7f c6 3c a7 0e ba 3f 83 3c b6 3f 57 79 2d bf
       0.024230769 1.4535722 1.4237217 -0.67763275

encoder.l1.weight f4 [100, 44]
000000 d1 51 fb 3d f7 e8 1f 3d e2 ed 77 bd 20 ee 28 3d
       0.122714646 0.039040532 -0.060529597 0.04124272
000010 39 a2 3a 3d a5 47 be bc da 18 45 3e 0f 5b 9d bd
       0.045564864 -0.023227522 0.19247761 -0.07683384
000020 91 59 53 3d aa 47 61 3e 06 41 8c 3e 90 18 33 3e
       0.05159909 0.21999994 0.2739336 0.17489839
000030 48 8e 13 bf 47 65 33 3e 3c 8d b0 3d 49 ab be be
       -0.5763898 0.17519103 0.08620688 -0.37240055
000040 36 69 61 3e 73 9c 0e 3d bc 19 15 bd 8d 75 32 3d
       0.22012791 0.03481717 -0.036401495 0.043569136
000050 ce 32 26 3e e9 44 09 3e df 26 51 be 9a e1 70 bd
       0.16230318 0.13405193 -0.20424984 -0.0588089
000060 08 0e 6d 3e 2f 4b 73 be fc 0d 04 3e 42 ba 84 3d
       0.23149884 -0.23759149 0.1289596 0.06480838
000070 cb 25 2a 3d 48 b7 cf 3d d2 ff 72 3e 52 4d 37 3d
       0.04153995 0.1014238 0.237304 0.044751473
000080 89 0a aa be 76 19 1c 3d 7d 4d 84 3d 7f c5 82 bd
       -0.33211163 0.03811022 0.06460092 -0.06385326
000090 1e 3d 9d be 07 80 d0 3d 0a bb af 3d 71 3f 4f 3e
       -0.3071069 0.10180669 0.08580597 0.20239045
0000a0 e6 50 cc bd 75 c2 18 3d 0e a5 d1 3d 1d 67 d6 3c
       -0.09976368 0.037294824 0.1023656 0.026172215
0000b0 ad 47 85 3e 28 9c 4c 3e be 3c bf 3d ba ae 99 be
       0.26031247 0.19981444 0.093377575 -0.30016118
0000c0 e5 6f d1 3d 5e 26 31 bd ba 2e 0b be 5c 98 97 3d
       0.1022642 -0.04324948 -0.13592044 0.07402107
0000d0 6d b8 82 bd fe 4b 1b 3e 73 74 81 3e 76 7f 74 be
       -0.06382833 0.15165707 0.25284156 -0.23876747
0000e0 c6 dd 7e bd bc 43 98 3e fc e0 f1 be 1d c6 1b bd
       -0.06222322 0.29739177 -0.47241962 -0.038030732
0000f0 55 16 51 3d 87 3a 00 3d bf 27 e5 b9 0f 11 8b bd
       0.051046688 0.031305816 -0.00043707897 -0.06790363
000100 f8 b3 24 3e 2f 35 33 3d fc 71 43 be fb 89 c1 3c
       0.16084278 0.04375189 -0.1908645 0.023625365
000110 47 3d 82 be 34 b8 2b be 3c e3 b0 3c 8b c2 73 3e
       -0.25437376 -0.16769487 0.021592729 0.23804681
000120 0c 14 52 3e 03 31 f0 3d 8e 0a 21 3d ce a0 48 3d
       0.2051546 0.11728098 0.039316706 0.04898148
000130 8f 97 5c be 4e 1d 38 3b b9 73 a2 bd 37 4f 47 be
       -0.2154219 0.0028093639 -0.079322286 -0.19463812
000140 2e 16 db bd ef 4a 82 be b0 b0 c7 3d f7 e3 b1 3e
       -0.1069759 -0.25447795 0.09750497 0.34744236
000150 18 39 b1 3e b6 fd 68 be 94 dc b0 bd 05 a9 87 3d
       0.34613872 -0.22753033 -0.08635822 0.06624035
000160 b5 bd af 3e 37 03 4d 3e e9 31 94 be 20 b9 30 3e
       0.34324422 0.20020758 -0.28944328 0.1725812
000170 00 6a 39 3d 90 70 6b be 28 80 97 3e c5 59 82 be
       0.045267105 -0.22992158 0.29589963 -0.25459114
000180 e4 d0 4f be f7 f1 3e 3e ce f4 5e be 2e b6 01 be
       -0.20294529 0.1864699 -0.21773073 -0.12667152
000190 de 72 8e 3e 4c 45 39 be 2b 35 9b 3d 2b c5 a1 3d
       0.27822012 -0.18092841 0.075785 0.07898935
0001a0 05 bf f0 bc e6 ff 21 3e 39 27 16 3d 03 93 c2 ba
       -0.02938796 0.15820274 0.0366585 -0.0014844838
0001b0 98 40 48 3d 7c 13 23 3e 7d e0 37 3e 92 70 8c 3d
       0.048889726 0.15925401 0.17956729 0.068574086
0001c0 06 0b 40 3c 27 cb 31 bd 24 18 dd bc 70 c6 b0 bb
       0.011721378 -0.04340663 -0.02698905 -0.0053947493
0001d0 79 10 f3 bc 5d bd 90 bb 0c 4e f8 3d 00 d9 41 3d
       -0.02967094 -0.004417105 0.12124261 0.047326088
0001e0 77 d5 bb 3e 96 60 a1 bd b6 fd 06 bd 2a b4 8d bd
       0.36686298 -0.078797504 -0.0329568 -0.06919129
0001f0 7f c4 b5 3d f5 db 3d be 88 54 c1 bd 8a 26 47 be
       0.08875369 -0.18540938 -0.09439951 -0.19448295
000200 c6 68 fe 3d 67 6d 0a 3e 26 ce c7 3d d9 5a 0d 3e
       0.12422328 0.13518296 0.097561166 0.13804187
000210 f5 76 14 3e f7 cb c0 3d f6 82 1c bd bb 91 11 3e
       0.14498504 0.09413903 -0.03821083 0.14215748
000220 e0 99 ea bd fa ed 6f be fa 8c d2 bd c8 30 11 3e
       -0.114551306 -0.23430625 -0.102807954 0.14178765
000230 8d b7 d2 3d d1 b6 9f 3c 2e 0e af bb 95 53 39 be
       0.10288916 0.019496353 -0.0053422665 -0.1809829
000240 45 0b 5c bd ea 8e 6d be e9 5b a2 3d d2 f3 53 bd
       -0.053721685 -0.23199049 0.07927687 -0.051746197
000250 2e fd 61 be a3 96 dc bd 1b b0 f1 3d 0a 27 b9 3e
       -0.22069237 -0.10770919 0.118011676 0.36162597
000260 f1 5b c0 3d c6 9d dc 3d e4 09 84 3e 2b eb 92 3d
       0.093925364 0.107722804 0.25788796 0.07173761
000270 1e b3 03 3d c3 ef 97 be ab fb 4d bd 5a 52 ab bd
       0.03215324 -0.2967511 -0.050288837 -0.08365317
000280 bd 26 cc bd 5d e7 5a bd 27 52 3c bc 80 e7 0c 3e
       -0.09968326 -0.0534433 -0.011494196 0.13760185
000290 c0 ca 6e 3d f3 f9 a5 bd 60 14 83 3d f6 f2 9f bd
       0.058298826 -0.08104315 0.064003706 -0.07810013
0002a0 dc 31 10 3e 58 96 4f 3e 9e 4d 66 3e d6 f8 f6 3d
       0.1408152 0.20272195 0.22490546 0.120591804
0002b0 24 17 63 3e 1f 26 22 be bf 42 89 3c 14 60 2c bd
       0.22176796 -0.15834855 0.01675546 -0.042083815
0002c0 55 22 87 3d 32 10 e1 bd 5f e2 a9 3d a6 ea de 3d
       0.06598345 -0.10989417 0.0829513 0.108845994
0002d0 1b 9d e6 bc 01 7b 81 3d 1c a3 4b 3d a1 6e 02 3e
       -0.028151086 0.06322289 0.0497161 0.12737514
0002e0 89 db 20 be 49 c0 30 be 8a 67 9f 3d 4c 55 aa 3d
       -0.15708746 -0.17260851 0.077834204 0.0831705
0002f0 7f fa f1 be f6 5a 0d be f8 83 14 3d 6d 16 83 bd
       -0.47261426 -0.1380423 0.036258668 -0.06400762
000300 2d d8 5e bc cd 69 22 bc 67 46 39 3e 19 d9 89 3d
       -0.013601345 -0.00991292 0.18093263 0.06730861
000310 e7 d3 62 3e 1d 1f 9d ba c2 b0 bb be 60 79 bf bb
       0.22151147 -0.0011987422 -0.36658293 -0.0058433264
000320 49 54 6f 3d dc d9 0d be c0 6c 3c bd ef 79 15 bc
       0.05842999 -0.13852638 -0.04600215 -0.0091233095
000330 a4 d5 34 3d 88 38 80 3e 35 20 d3 3d dd 71 dc 3d
       0.044149056 0.2504313 0.103088774 0.10763905
000340 bf 7b cf 3d a8 5a ad 3d 92 75 90 3d 5d 17 c8 be
       0.101310246 0.08464557 0.07053675 -0.39080325
000350 cb 28 84 3d fb 37 76 be e4 97 eb 3d 9a be ae 3d
       0.06453093 -0.24044792 0.1150358 0.08532448
000360 30 9e 02 3e 56 f4 81 3e c3 7f 97 bd 12 b0 4e 3e
       0.12755656 0.25381726 -0.073974155 0.20184353
000370 cf e2 66 bd a8 99 20 3d 3c 61 22 3d e8 4b c6 bc
       -0.056368645 0.039209038 0.03964351 -0.024206117
000380 dc ac e6 bb 6d 55 4d 3e b4 8c 24 bd f9 cc 51 bd
       -0.0070396494 0.20052119 -0.040173247 -0.051220868
000390 b0 f6 c3 bc fb b1 98 3e 50 79 a2 3d 01 cb 12 3e
       -0.02392134 0.29823288 0.07933295 0.14335252
0003a0 78 09 9e 3d 24 e9 41 be c0 37 fb 3c d6 23 32 3e
       0.0771665 -0.18936592 0.030666232 0.17396483
0003b0 cd f1 34 3e d0 b9 7e bc 20 52 11 3c 35 b4 ff bd
       0.17670365 -0.015547231 0.008869678 -0.12485544
0003c0 98 db 1e 3d 69 b0 d5 3d d6 d0 29 3e ef 4b 19 3e
       0.03878364 0.10434038 0.16583571 0.14970373
0003d0 af a3 71 bd ef 30 a9 3d d3 f7 2d ba 4f 93 90 3d
       -0.05899399 0.082612865 -0.0006636355 0.07059347
0003e0 cc 57 03 bd bb 31 ca 3c 4d 90 84 3e fb 81 de be
       -0.03206615 0.024681916 0.25891343 -0.43458542
0003f0 9e e2 74 be 26 4c 4a 3e bb 7f 94 3d 6a 4b 06 3f
       -0.23914573 0.19755611 0.07250925 0.5245882

encoder.l1.bias f4 [100]
000000 de 90 d8 3b 73 aa 56 bb c8 f5 ed bc 48 ba 61 3d
       0.0066090664 -0.0032755404 -0.029047862 0.055109292
000010 25 f7 b4 bd 9e 34 8f bb 55 ab da 3d 09 ce af 3d
       -0.088362016 -0.004370286 0.1067721 0.0858422
000020 f4 15 1f 3e 59 dc 3e bd 3f 95 f0 bc b8 54 2e 3e
       0.15535718 -0.04659686 -0.029368041 0.17024505
000030 a6 35 0d 3c a3 ad 1f be d8 a8 ab 3d f4 f0 1d bd
       0.008618748 -0.15593581 0.08381814 -0.03855987
000040 94 71 d5 bd 83 8a 16 3c 94 fe 82 3d 94 65 cb bc
       -0.10422054 0.009188297 0.06396213 -0.02482871
000050 6f 5b b3 3d b2 b6 60 3d f3 8b af bd cc e7 f9 3b
       0.08757674 0.05486173 -0.08571615 0.0076265093
000060 5f 88 b9 bc 3e 68 bc bd be b6 7e bd ac 29 34 3b
       -0.022648035 -0.0919957 -0.062185995 0.0027490659
000070 38 9e 75 bd d9 9e 92 3c 6b 09 85 3d ab e8 ae bd
       -0.059965342 0.01789801 0.06495937 -0.08540472
000080 13 b0 83 bc df 83 99 3c a0 3c a2 3d c3 e4 89 bd
       -0.01607517 0.018739639 0.079217196 -0.06733086
000090 7e 03 97 bc ef 02 40 bd 4a 03 1e 3b 48 b1 4d 3b
       -0.018434282 -0.046877798 0.0024110847 0.0031386185
0000a0 76 e3 48 bc 20 84 69 bd 0f 9b e0 3d 0b 5b 44 bd
       -0.012261262 -0.05701077 0.10967075 -0.047938388
0000b0 c8 7d e5 3b d9 93 2a 3d 50 75 49 bb 7f da 03 3e
       0.0070035197 0.041644905 -0.003074009 0.12876318
0000c0 21 42 84 bd 94 0e 9e 3c bd cc f8 bc 77 fc ed bd
       -0.064579256 0.01929406 -0.030371064 -0.116204195
0000d0 c1 43 ca 3d e8 a2 f0 3d fc 82 bb bd 71 0a d6 bc
       0.09876204 0.11749822 -0.09155843 -0.026128026
0000e0 72 7a d3 3b ad ec 77 3d 88 3a bc bd 16 d7 78 bc
       0.0064538056 0.060528446 -0.091908514 -0.015187999
0000f0 0c 3e 8e 3d d3 c8 d3 bd b1 53 63 3d 88 d6 dc 3b
       0.06945428 -0.103410386 0.055499736 0.0067394413
000100 6e bf d8 3c 0a 76 9b bd 79 ee 52 3b 9b cf bd 3d
       0.026458468 -0.075908735 0.0032185598 0.09268113
000110 a4 6a 5a 3d 0b a8 02 3e 53 16 d0 bd 06 d0 a8 bd
       0.053324357 0.12759416 -0.10160508 -0.08242802
000120 39 f2 c1 3d 61 a8 e3 bc 14 3d 81 3d fd b1 80 3d
       0.094700284 -0.02779025 0.06310478 0.062839486
000130 16 44 f2 3b f7 04 32 3d 74 8e b6 3d 9b af 11 3e
       0.0073933704 0.043461766 0.089138895 0.14227144
000140 bf 1f b6 3d f0 c1 64 3c e8 fc bf 3d 79 42 ac bd
       0.08892774 0.013962254 0.0937441 -0.08411116
000150 3f 47 15 bd f2 2d aa 3d 3a 01 8c bd 0d 4c a4 bb
       -0.0364449 0.083095446 -0.068361714 -0.005013949
000160 db 82 14 bd fd 07 88 bd a3 6f 15 3d da a5 db bc
       -0.036257606 -0.06642149 0.03648342 -0.026812483
000170 aa 1a b6 3c 6c e1 36 3d 5d e4 c3 3c 6f dc 57 3d
       0.022229511 0.044648573 0.023912603 0.052700456
000180 2d 61 a9 bc 2e 4b 93 bd 2d 30 6b 3d 73 23 1b 3d
       -0.02067622 -0.07192074 0.05741899 0.037875604

encoder.l2.weight f4 [32, 100]
000000 bf 1a b6 be c3 a7 33 be 0a 84 e1 3e d1 c5 60 be
       -0.3556728 -0.17544465 0.4404605 -0.21950461
000010 e4 b4 df 3c 71 a2 eb 3d 12 d0 fd 3c 06 a2 37 3d
       0.027307935 0.115055926 0.030983005 0.044832252
000020 57 08 7c be 22 cf e1 3c 54 5e c2 3e f9 72 4c 39
       -0.24612556 0.027564589 0.37962592 0.00019497787
000030 3f 57 9a be 31 85 80 3e 53 7f 98 3d f8 ac 4f be
       -0.30144688 0.25101617 0.0744616 -0.20280826
000040 b0 a3 65 bd a4 d7 38 3e 74 d3 0b be e0 d4 53 be
       -0.056064308 0.1805101 -0.13654882 -0.20686674
000050 1f cb 52 be 5d e6 f8 be cb 57 23 3f 40 2c 36 be
       -0.20585297 -0.48613253 0.63805836 -0.17790318
000060 83 77 9b 3e 5a 89 4e 3e 60 d5 75 3d 06 a9 1e 3e
       0.30364618 0.20169583 0.060017943 0.15494165
000070 af c3 a8 be 40 8f 0e 3e 6e e4 27 3d 71 0b fa 3e
       -0.32961795 0.13921833 0.040989332 0.48836854
000080 9f b8 8b 3d 53 28 30 be 26 6a ca bd 27 25 bf bc
       0.06822323 -0.17202882 -0.098835275 -0.023333145
000090 f5 af 10 be 21 3a d6 bd fe 09 89 3d dd 08 bc 3d
       -0.14129622 -0.10460306 0.06691359 0.09181378
0000a0 cc d0 53 3e 8a 4c 10 be ac 2a 89 3d 65 d3 b8 3e
       0.20685118 -0.14091697 0.06697592 0.3609878
0000b0 a7 99 89 be d3 49 52 be ad f3 8f be cd 7d 45 be
       -0.2687504 -0.20535974 -0.28115597 -0.1928627
0000c0 02 02 56 3e 85 81 a0 3d 2b 35 c6 be 37 6f a9 bd
       0.20899203 0.07837204 -0.3871244 -0.08273166
0000d0 5d 98 a2 be 65 e6 bb bd 05 33 b0 3e 28 04 11 be
       -0.3175687 -0.09174804 0.34413925 -0.14161742
0000e0 04 10 5c bd 32 85 b2 3e 69 15 dc 3e e7 cb 41 be
       -0.05372621 0.34867245 0.42985085 -0.18925439
0000f0 3f d0 9e 3e 30 03 f4 3d b9 2f cf 3c b4 34 04 be
       0.31018254 0.119146705 0.02529131 -0.1291073
000100 79 f9 05 bd aa c8 8d 3c 78 0a 74 bd 56 74 07 be
       -0.03270862 0.017307598 -0.059580296 -0.13227972
000110 c3 a6 d8 bd cd 46 cf 3c 35 44 be 3e 43 a8 d0 be
       -0.10578682 0.025302315 0.37161413 -0.40753374
000120 c8 c8 4d 3e 79 ef 19 be 2a 28 f1 bd 1e 14 a1 3c
       0.20096123 -0.15032758 -0.11775239 0.019662913
000130 4e 3b 66 3e 8e 2e 92 be e6 db 0d 3e 41 c3 04 3d
       0.2248356 -0.28551143 0.13853416 0.03241277
000140 d0 0f 46 3e f9 77 2f 3e 37 b2 af be 5a aa 89 3e
       0.1934197 0.1713561 -0.34315655 0.2688778
000150 26 3a df 3d 54 e9 fd be b1 92 2c 3d b9 c4 e1 3a
       0.10899763 -0.49592078 0.042132083 0.0017224766
000160 43 ae 90 3e 92 9e 05 be b6 dd a2 3e 85 91 62 3d
       0.2825795 -0.13048771 0.31809777 0.05531456
000170 a2 fe 0c 3d 0f 71 9a be 69 47 b3 3d b3 c2 8c 3e
       0.034422524 -0.30164382 0.08753855 0.27492294
000180 a9 a7 8f 3e 3c 95 48 ba 48 07 2d 3e 4c 6f 64 be
       0.28057602 -0.0007651632 0.16897309 -0.22308081
000190 a2 8c 85 be 0d 9c 04 3e d0 35 1f bc 2a 6d 69 bc
       -0.26083857 0.12950154 -0.00971742 -0.014247218
0001a0 a3 a4 8e 3e 2b f7 9a 3d eb cb 8b be ab 62 cc bc
       0.27859983 0.07566675 -0.27304015 -0.024949392
0001b0 22 f4 2a be 43 f4 81 bd 30 45 ad bd 6e 44 df bd
       -0.16694692 -0.06345417 -0.08460462 -0.10901724
0001c0 46 e3 18 3f 9d 9c b1 3e 1f 04 30 be 02 7d 81 3e
       0.5972179 0.346898 -0.17189072 0.25290686
0001d0 ea 3e ba be 23 c8 9e 3e 21 8b 7b 3d 29 b5 ca bd
       -0.36376125 0.31012067 0.06141198 -0.09897835
0001e0 73 fd c8 be b2 23 12 be 22 b9 9e 3e 83 9e 4c be
       -0.39255866 -0.14271429 0.3100062 -0.19982342
0001f0 44 f0 55 3e bf 07 c9 3e bb da a8 3d f4 09 e9 3d
       0.20892435 0.39263722 0.082448445 0.113788515
000200 f1 75 52 be b5 ab 39 be 59 eb 8e 3d 76 66 6c 3d
       -0.20552804 -0.18131907 0.06978483 0.057714902
000210 1c dc f9 3c 19 91 4e be 76 6f e1 be 6d fd 27 3e
       0.030500464 -0.20172538 -0.4403035 0.16405268
000220 c6 76 d5 3e 26 83 b7 bd b7 2b 00 3e 05 6b 43 be
       0.4169218 -0.089605615 0.12516676 -0.19083793
000230 1c 77 f7 3e fb 13 c7 3e 22 61 dd 3d 6a 4f 10 3e
       0.4833306 0.3888243 0.10809542 0.14092794
000240 00 99 54 bd d2 fd 8f bd 1d 40 00 be 59 09 2e be
       -0.051903725 -0.07030834 -0.12524457 -0.16995753
000250 02 e5 bc 3e 0e 72 11 3e 5a 90 47 be ba c5 c9 3e
       0.3689347 0.14203665 -0.1948866 0.39408666
000260 0a 9a c5 bd 4b d5 e3 bd 88 ec 5a 3e 26 e3 6f bc
       -0.09648521 -0.11124667 0.21379292 -0.014641559
000270 15 8e 96 3e d0 07 2a be b4 de 1c 3e 50 2c cc be
       0.29405275 -0.16604543 0.1531933 -0.39877558
000280 0d 2a 8f 3e 7d c9 7e 3d 35 81 9a 3e f1 24 a8 3d
       0.2796177 0.062203873 0.30176702 0.08210171
000290 50 5c 14 be 2e 13 ff be 7c 46 40 3d 52 c3 f2 bd
       -0.1448834 -0.4981932 0.04694222 -0.11853661
0002a0 9a e9 c8 3e 35 4a 19 3d 15 14 db 3e 04 0e 89 be
       0.39240724 0.037424285 0.4278876 -0.26768506
0002b0 af c2 a0 3e f5 1c 82 3e f2 19 e5 3d a1 7e 9c bc
       0.31398532 0.25412717 0.11186589 -0.01910335
0002c0 e1 92 e0 3c d1 6b 92 be ec 2f fd bd d3 af 94 be
       0.027413787 -0.28597882 -0.12362656 -0.29040393
0002d0 fd 7e a1 bd 1e 77 82 be dc ed 53 3e 85 fa b3 3e
       -0.07885549 -0.25481504 0.20696205 0.3515207
0002e0 62 a9 de bd 3e 01 b8 be 73 7a 9c be bf 26 b3 3c
       -0.10872151 -0.35938448 -0.3056217 0.021869062
0002f0 1b 04 95 3e bb ec a4 bd 13 1f 89 3e 42 a6 09 be
       0.29104695 -0.08052965 0.2678152 -0.13442329
000300 a8 57 73 be 2f b3 94 be fb b5 78 3e 1b 5e 99 3d
       -0.23763907 -0.29042956 0.2428817 0.07488652
000310 35 10 48 be 9d 3d bf 3e bf ea c4 bd 34 3b ed bd
       -0.19537432 0.37351695 -0.09615087 -0.11583558
000320 a4 1b 8a 3c 84 ed 72 bc 55 13 27 be 08 61 0f 3e
       0.016858883 -0.014827136 -0.16315968 0.14001858
000330 a2 83 ac 3b ca 26 da 3d 1c a6 4c 3e 0d 8b 18 bd
       0.0052647153 0.1065193 0.1998524 -0.037241984
000340 80 af b2 bd d0 1e 6a 3e 56 d4 03 be 57 cf 58 3e
       -0.0872488 0.22863317 -0.12873968 0.21172844
000350 94 fd 9b be 54 49 27 3f 36 f7 b5 3d db da d8 be
       -0.30466902 0.65346265 0.08885042 -0.42354473
000360 5e e3 19 3f 0b 7f a2 be 34 15 51 be 19 a9 a4 3e
       0.6011256 -0.3173755 -0.20418245 0.3216026
000370 aa 99 c9 bd 4e f6 55 be fd c4 d3 3e c7 85 af 3c
       -0.09843762 -0.20894739 0.41361228 0.021426095
000380 07 84 1f 3e 95 41 bc 3d 76 f6 7c 3e b5 d1 53 3e
       0.15577708 0.09192196 0.24703392 0.20685466
000390 85 66 25 3d 89 4b e2 3e 19 a1 2d be 76 60 20 3d
       0.040380973 0.44198254 -0.16955985 0.039154492
0003a0 17 cb 18 bd a2 fa 6c 3d e4 95 7a 3d 6a a5 bd 3d
       -0.037303057 0.05785621 0.061178103 0.09260066
0003b0 36 c5 ab be 09 05 63 3e d0 bb e4 3e 53 75 15 be
       -0.33548898 0.2216989 0.4467454 -0.14595537
0003c0 96 e9 d1 bd a5 27 ef 3d 66 86 24 be 41 ed 40 be
       -0.10249631 0.116774835 -0.16066894 -0.18840505
0003d0 ed a7 11 be 9e f3 18 bf b5 d3 08 3e 92 c8 d9 bd
       -0.14224215 -0.5974673 0.1336201 -0.10633959
0003e0 30 fa 52 be be b3 35 3e 41 5f 0d 3d 10 a5 7a bd
       -0.20603251 0.17744347 0.03451467 -0.061192572
0003f0 25 b2 69 be 07 77 b7 bd 99 2b 15 3e a2 48 58 3e
       -0.22821863 -0.089582495 0.14567412 0.21121457

encoder.l2.bias f4 [32]
000000 8c 66 2d 3d d4 2e 2d be 3a 20 78 bd 08 5d d6 3d
       0.042334124 -0.16912395 -0.06057761 0.10466963
000010 23 0e a8 3d 28 f4 48 3c 61 d1 29 bd 06 09 1d 3e
       0.08205821 0.012265243 -0.041459445 0.15335473
000020 d0 72 79 3d 96 6d d3 3c ca 9a 9d bd cc b2 ae 3d
       0.06090051 0.02580909 -0.07695539 0.085301965
000030 85 57 2a be b9 e2 96 bd c0 14 fb bc 7e ce 0a 3d
       -0.16634949 -0.07367463 -0.030649543 0.033888333
000040 86 0a c3 3d a1 12 60 3a 0d ac 1c bc 15 c1 95 3d
       0.095234916 0.0008547698 -0.0095625045 0.07312218
000050 17 07 6f 3d 04 91 80 3d 65 90 59 bd cc 97 65 3d
       0.05835637 0.062776595 -0.05311622 0.056052968
000060 65 73 db 3c 39 86 3f bb f8 5a e4 3b 9e 3a 96 3c
       0.026788423 -0.002922429 0.006968852 0.018338498
000070 91 2b 9d 3d 92 f9 52 3d 1d 10 a4 bd 91 bd f0 bc
       0.07674325 0.05150754 -0.08010886 -0.029387267

lstm.weight_ih f4 [512, 288]
000000 cb 71 29 3e 66 85 42 3e 60 55 46 3e eb 08 bb bb
       0.16547315 0.189962 0.19368505 -0.00570785
000010 3c 20 7e 3d af d3 f7 3d e6 1d 1e 3e d5 62 e3 bd
       0.06204246 0.12100922 0.15441093 -0.11102835
000020 ea 5c 5c 3c 9c 87 9b 3d 79 c4 f3 3d 5e 6f 6b bc
       0.013449887 0.07594225 0.119027086 -0.014369814
000030 c4 2f f0 bd 19 59 00 3e 66 62 24 3e b3 62 81 be
       -0.117278606 0.12533988 0.16053161 -0.25270614
000040 f8 dc 03 be 05 04 03 be 05 48 a6 bc b6 3c fc bd
       -0.12877262 -0.12794502 -0.020298013 -0.12316267
000050 97 55 91 be e7 c3 94 3c 1d 16 9c 3e 28 5c a7 3d
       -0.28385612 0.01815982 0.3048562 0.08171874
000060 2b 62 45 3e d4 28 38 be 1a d1 41 3b d6 43 88 3b
       0.1927573 -0.17984325 0.0029574097 0.0041584773
000070 81 59 b2 bd 88 c9 85 3c e9 30 56 bc 64 46 36 3e
       -0.08708478 0.01633145 -0.0130731845 0.1780029
000080 6e 13 81 3d 5b 1e 50 3d f5 4c bb 3d d1 39 94 bd
       0.06302534 0.0508102 0.09145538 -0.0723759
000090 d1 d0 9e bc 6d 7c 3c 3d f4 4f 4a 3d ee 6b 12 3c
       -0.01938668 0.0460171 0.049392655 0.008936865
0000a0 52 cf 45 3d 16 ae 2f 3e 7d 0c de bc 3c 2f 31 3c
       0.04829342 0.17156252 -0.027105564 0.010814484
0000b0 dc a6 b8 3d b1 d0 bb 3d 54 1a 98 bc 04 db 1f 3c
       0.09016201 0.09170664 -0.018567242 0.009756807
0000c0 3b 2b 83 bd 01 ec 99 bd 74 ce 07 be 6b e9 30 3c
       -0.0640473 -0.07515717 -0.1326235 0.010797839
0000d0 84 6d ca 3a a8 8a 14 3d f0 90 ba 3d 07 e4 47 bc
       0.0015444015 0.036265045 0.09109676 -0.012200362
0000e0 09 d3 99 3d 5b c9 0d 3d 49 2a b9 bd 47 45 72 bd
       0.07510955 0.034615856 -0.090412684 -0.0591481
0000f0 dc 25 86 3d 47 fb 49 bd 60 90 e2 3c 37 62 a3 bd
       0.0655019 -0.049311902 0.027656734 -0.07977717
000100 f0 11 06 3e a8 a9 94 3d af cc 76 bd f1 14 0d be
       0.1309278 0.07258922 -0.060253795 -0.1377752
000110 ee df 99 3b df 69 6d bc c4 3d 04 bd 08 2d 08 3d
       0.004695884 -0.014490574 -0.032285467 0.03324607
000120 de 8f 9d 3c 5c 8b 93 bd 99 38 00 be 80 4f 4a 3d
       0.01923364 -0.07204315 -0.1252159 0.049392223
000130 02 59 cb 3d 79 c2 12 bd a1 8e 0f 3c b7 fe dc 3c
       0.09929086 -0.035829995 0.008762033 0.026976926
000140 ce 70 af 3d 7d 4f bc bc 4d 90 c3 bd 88 22 05 3d
       0.08566438 -0.022987122 -0.095490076 0.032503635
000150 09 f8 ef bd 3c 18 80 bd d0 49 aa bd 23 1e c8 bc
       -0.11717231 -0.06254622 -0.0831486 -0.024428433
000160 f6 a0 4c 3d b0 81 96 3d c7 2a 27 bd d8 ba 6a bd
       0.04995819 0.07348955 -0.04081228 -0.057307094
000170 d3 9c 2a 3d ad eb c2 3d 05 09 a3 bc db 3e 9f 3c
       0.041653465 0.09517608 -0.019901762 0.019439152
000180 45 b4 1b bd 62 23 f9 3c 9c 42 17 3d cf 5d 5b 3d
       -0.038013715 0.03041238 0.036928758 0.05355626
000190 f4 0d 76 bd bb 9d 83 3d 62 72 e4 bb 33 af 3d bc
       -0.0600719 0.06426569 -0.0069716433 -0.011577415
0001a0 94 85 54 be 93 4a 20 3c 02 db a7 3d 66 5b a9 bc
       -0.20754081 0.009783405 0.08196069 -0.020673465
0001b0 69 bb 1f bd d4 ce 03 be dd 23 4d bd 67 95 fe 3c
       -0.038997088 -0.12871867 -0.05008303 0.0310771
0001c0 33 33 b9 bd f9 65 d6 bc 14 7f 67 bd 5e a3 64 bc
       -0.090429686 -0.026171671 -0.056517676 -0.013954965
0001d0 f9 4f 62 3d 0c f3 5d bd e4 5c c9 3d e1 97 b5 bd
       0.05525205 -0.054186866 0.098321706 -0.08866859
0001e0 25 6d fc 3d 11 3e 07 be 19 70 87 3c c5 e5 29 bc
       0.12325505 -0.1320727 0.016532945 -0.010369723
0001f0 d4 f2 bd 3b 59 9e df 3c 77 5b 28 bd 06 24 28 bd
       0.0057967696 0.027297186 -0.041102853 -0.04104998
000200 08 9e 54 bd c3 45 ec 3d a9 d1 e2 bd 33 13 2e bd
       -0.051908523 0.115367435 -0.11075146 -0.04249878
000210 cd 5c ec 3d 78 64 3f bd bd 69 3c 3d 20 59 a8 3d
       0.11541138 -0.046726674 0.045999277 0.08220124
000220 23 9c 0e bd e8 63 cf bd 10 64 cd bd 28 1f d4 3b
       -0.034816872 -0.101264775 -0.10028851 0.0064734407
000230 81 0d 4c 3c 9e 15 38 3c ab 54 4f bd b1 89 55 bd
       0.012454391 0.011235623 -0.050617855 -0.052133266
000240 d5 69 23 bd dc 08 54 3d 2d 8e 04 bd cd a2 2d bc
       -0.03989585 0.05176626 -0.032362152 -0.010597897
000250 c3 87 e2 bd 38 1b 1a bd f5 69 fa 3b af 7c de bd
       -0.11061051 -0.037623614 0.0076420256 -0.10863625
000260 4b 12 ca 3d 6a bb db bd 0c 69 37 3d 04 29 ff 3d
       0.0986677 -0.10729106 0.044777915 0.12458995
000270 b5 86 24 3e e7 aa 19 3d 67 fd 35 3c 0c ee 78 3d
       0.16067012 0.0375165 0.011107779 0.060773894
000280 63 ad be 3c fc b0 c3 3c 2b 2b db bb c0 97 b3 bc
       0.023276037 0.023888104 -0.0066884956 -0.021922946
000290 65 f7 ba bd fe a9 dd bd 8b e9 dd 3c 40 dd 83 3c
       -0.09129218 -0.10823439 0.027088901 0.016096711
0002a0 63 83 a7 3b 10 3b 92 3d c3 c0 92 3d 7f 97 8d 3d
       0.005112098 0.071401715 0.07165673 0.06913661
0002b0 9d e6 a1 3c 87 58 dd bc 6b d7 3d 3c 7d 16 81 bd
       0.019763285 -0.027019752 0.011587004 -0.063031174
0002c0 a9 e5 bf 3c 88 e2 15 3d 39 75 03 bd f4 89 10 3d
       0.02342494 0.03659299 -0.032094214 0.035287812
0002d0 72 12 6e bd fd e9 72 3d 99 e0 d6 bd 94 77 d1 3d
       -0.05812306 0.05930518 -0.10492057 0.10227886
0002e0 76 19 a2 bc ba 4d 9a 3c ed 2b 24 3d 7a 3f 5e 3d
       -0.019787531 0.018835891 0.040080953 0.054259755
0002f0 ad 24 7e 3c 7e 3b 05 3d 86 74 03 3d f7 ab 87 3d
       0.015511674 0.03252744 0.032093547 0.066245966
000300 00 3e 88 bd 27 d1 9c bd 35 16 9d 3d 87 53 23 bd
       -0.066524506 -0.0765708 0.07670251 -0.03987458
000310 70 47 b7 bd 74 27 36 bc 02 92 c5 bd 9c 34 a0 3d
       -0.089491725 -0.011117805 -0.096469894 0.078225344
000320 f0 a8 09 bd 64 03 f3 bd 8a c2 d4 bc 5f ee e3 3d
       -0.033608377 -0.11865881 -0.02597167 0.1112945
000330 c4 0b 03 bc 91 4e 05 be 45 6c bc 3d b2 8e 13 bd
       -0.007998411 -0.13018252 0.09200338 -0.036024757
000340 0d e8 8d 3c 57 45 c1 bc ff 0e a6 3d 6b 5d f8 3d
       0.017322564 -0.023592634 0.08108329 0.12127193
000350 35 a1 84 3d 25 78 ef bc e8 65 28 3d e0 e0 35 3d
       0.0647606 -0.029232094 0.04111281 0.04440391
000360 7d 82 17 bd 68 83 3c 3d c4 14 27 3e 48 62 b4 3d
       -0.036989678 0.046023756 0.16316515 0.08807808
000370 65 b6 b8 3d e0 33 30 3c 16 62 01 be 6b f3 80 3c
       0.09019164 0.010754555 -0.12635073 0.01574107
000380 93 cb 82 bb 0d a5 35 bc bc 36 12 bd e4 b9 cc 3d
       -0.003991553 -0.011086714 -0.03569673 0.09996393
000390 ed 31 63 3d 51 c2 36 bd 90 a0 6f 3d 12 d7 b7 3d
       0.055467535 -0.04461891 0.058502734 0.08976568
0003a0 1f 51 ea bd 41 44 9c bc 03 e5 18 bd 51 d0 d3 3b
       -0.11441254 -0.019075515 -0.037327778 0.0064640422
0003b0 a6 0d 76 bd 36 2e 0e bd 48 9f 87 3d 16 52 36 3d
       -0.06007161 -0.03471204 0.06622177 0.044511877
0003c0 c1 a6 36 bd 7d ff 07 bd 84 b2 89 3c e0 2b 06 3c
       -0.044592623 -0.033202637 0.016808756 0.008189172
0003d0 bb d3 86 3d 85 33 02 3d 65 2c 1c bd 78 a8 3d bd
       0.06583353 0.031787414 -0.038128275 -0.046303242
0003e0 79 7c 33 3c 3c cc 0e 3d 6d 71 eb 3d 93 28 43 bc
       0.01095497 0.03486274 0.114962436 -0.011911529
0003f0 1b ee 55 bc f8 f1 eb bc f7 bd fa 3c 85 08 cf bc
       -0.013057257 -0.028801903 0.03060816 -0.025272617

lstm.weight_hh f4 [512, 128]
000000 a2 ad 5b be bf fb 5c 3e 3c c6 f3 bc 56 a8 94 3e
       -0.21452954 0.21580409 -0.029757611 0.2903468
000010 d6 d1 b0 bd e6 cb e3 3d 62 52 8e be 2a 87 8b bc
       -0.08633773 0.11122875 -0.27797228 -0.017032225
000020 51 b2 89 be 21 5c 8d be 33 4e 4b ba 08 b2 14 3e
       -0.26893857 -0.2760935 -0.0007755488 0.14521039
000030 06 49 0a 3e a4 0d 88 be 8c b1 0d be 15 94 c9 3c
       0.13504419 -0.26572907 -0.1383726 0.024606744
000040 4f c2 87 3c fc 56 40 be 6e c8 00 bd 87 ef 66 3e
       0.016572146 -0.18783182 -0.031441145 0.2255231
000050 cc 78 a7 3d 5a 53 89 bd b8 f2 dd 3d 79 31 65 3e
       0.08177337 -0.06705351 0.108373106 0.22382154
000060 7d f1 a1 bd 8a 30 e0 3d 75 a5 46 bd d6 f5 2c 3e
       -0.07907388 0.10946758 -0.048497636 0.16890654
000070 ff 68 c5 ba 25 27 31 bd 54 52 d4 be ed f5 bb 3d
       -0.0015061199 -0.04325022 -0.4146906 0.09177766
000080 88 75 8f 3d 13 1e c0 3e 00 f4 86 bd 0e d7 cc 3e
       0.07004839 0.37522945 -0.06589508 0.40007824
000090 86 86 5a 3d c1 92 0a 3d 76 4a c6 3c 58 28 5f bd
       0.053350948 0.03383136 0.024205428 -0.054481834
0000a0 42 50 78 3e 87 1a 97 bd 2e 62 36 3e 21 a6 93 bd
       0.24249366 -0.073781066 0.1781089 -0.07209421
0000b0 9c 45 7c 3e f2 fe 08 bd 2a 09 70 ba af db a3 3c
       0.24635929 -0.03344626 -0.0009156639 0.020002214
0000c0 95 63 d7 be 56 20 35 3e 1c 57 18 be 69 77 4a 3d
       -0.42068163 0.17688116 -0.1487698 0.049430285
0000d0 43 d7 48 3e 53 95 4f be 0c d3 84 3e 11 a1 47 3e
       0.19613366 -0.20271806 0.25942266 0.19495036
0000e0 64 f9 6f bc 17 cf 4e be 27 c6 d1 3d a1 4f 65 be
       -0.014646862 -0.20196186 0.10242873 -0.22393657
0000f0 83 cd ab 3e 7a a1 05 3e be 3f 25 be 22 a0 75 3e
       0.3355523 0.1304988 -0.16137597 0.23986867
000100 5a 9f b5 be 0b 65 93 3e 06 4c 20 be 20 4c a7 be
       -0.35473138 0.28788027 -0.15654 -0.32675266
000110 32 17 c1 3e 09 d9 bc be 6d 66 f9 bc e3 ce e9 bb
       0.3771301 -0.36884335 -0.030444348 -0.0071352585
000120 a8 d7 f2 3d 73 28 26 be 0a a2 f6 bd 82 9b 07 3e
       0.118575394 -0.16226368 -0.12042625 0.13242915
000130 ec 16 12 bf 2d db 01 be 5e 31 6c 3d d3 c4 14 be
       -0.57066226 -0.12681265 0.057664268 -0.14528207
000140 5b b3 60 bd 58 98 34 be 1c f6 a9 bd ba 4c dd 3d
       -0.054858547 -0.1763624 -0.08298895 0.1080565
000150 50 fd 61 be bb cc 29 3d 95 d1 95 bd 8c 86 a9 bd
       -0.22069287 0.04145501 -0.07315365 -0.08277616
000160 f2 db 42 be bc c4 56 be 3c ed 87 3d e6 55 32 bd
       -0.19029215 -0.20973486 0.06637046 -0.04353895
000170 b6 45 35 3d 39 29 86 3d a4 9f 21 3e 71 14 a7 3c
       0.044255935 0.06550831 0.15783554 0.02039549
000180 3a 3c 66 3e 08 3a 4a be 55 a4 05 3f 81 a7 02 3e
       0.22483912 -0.197487 0.52203876 0.1275921
000190 57 1d ee 3d ac d7 2b be 3a d2 b2 bd 7d d7 6b be
       0.1162669 -0.16781491 -0.08731504 -0.23031421
0001a0 5b a4 eb 3d 91 a5 b6 3e 4c 05 12 be f5 c8 22 be
       0.11505958 0.35673192 -0.14259833 -0.15896972
0001b0 dd 84 e7 3d 3e ea 12 3d f1 f7 18 3e dc 9e 13 3c
       0.113046385 0.035867922 0.14938332 0.009010043
0001c0 d7 83 90 3c 66 f2 0e be af d9 6f bc 80 31 5b 3e
       0.017640991 -0.13959655 -0.014639302 0.21405602
0001d0 7a fb b7 3d fa aa e7 bc 2e a1 e5 be 9e 90 a8 3d
       0.08983512 -0.02827977 -0.44849533 0.082307085
0001e0 3d 27 6d be f9 cc f5 bc f6 81 2b 3e 76 1c bc 3d
       -0.231595 -0.030004965 0.16748795 0.09185116
0001f0 79 ff 7e 3d 29 94 6e be 71 62 1e be 38 95 47 bb
       0.062255356 -0.23298706 -0.1546724 -0.0030453932
000200 9b 0d ca bd 45 00 81 bd 9d 07 87 3d f9 28 c4 bc
       -0.09865876 -0.062988795 0.06593249 -0.023945319
000210 f5 26 c2 bc e3 ed 89 3e e2 3d 34 be 50 d6 42 3d
       -0.023700217 0.26939306 -0.17601731 0.047567666
000220 45 77 7a 3e 9e 56 7f be 63 fd 0c 3e 9c 66 8f 3e
       0.2445956 -0.24935386 0.13768534 0.28007972
000230 fc 20 6b be 89 a2 05 be 3b aa 04 3f 99 b2 74 3e
       -0.22961801 -0.13050283 0.5182225 0.23896255
000240 92 a2 eb 3b 65 ee e7 3d 15 45 04 3e 82 2e 7b 3e
       0.0071910108 0.11324767 0.12916978 0.2452946
000250 28 7f a3 3d 33 4c 35 bd 69 fd a8 3d 2c 0c fd bc
       0.079832375 -0.044262122 0.08251459 -0.030889593
000260 4d 40 39 3d 63 05 19 be ba fa ef bc 4c 0e 01 be
       0.045227338 -0.14943461 -0.02929436 -0.1260311
000270 b1 59 36 3d 2f 35 1f be 95 78 e1 bd 30 da b1 bd
       0.04451913 -0.15547632 -0.11009327 -0.08684194
000280 e8 93 c0 3d 19 78 88 bd 84 65 3b 3e 1e 6f 65 3e
       0.09403211 -0.06663532 0.18300444 0.22405669
000290 c4 ec 87 bb c9 fd c5 bd 8d e4 9e 3e d0 94 9a 3d
       -0.0041480977 -0.09667546 0.31033745 0.07547915
0002a0 96 30 82 3e e0 7d 4b 3d 89 7e 02 be a2 6b fb bd
       0.25427693 0.04968059 -0.12743582 -0.12276389
0002b0 50 08 ef 3d d1 3c 4c 3e 4e a5 58 be 39 21 6c 3d
       0.11671507 0.19945075 -0.21156809 0.05764887
0002c0 b0 10 e7 39 47 e9 89 be 09 ac ff 3c 29 6f 8e bd
       0.00044072187 -0.2693579 0.031209962 -0.06954796
0002d0 d3 9e 9f be 98 13 69 bd 8d ab 04 3e f5 93 b2 be
       -0.3117586 -0.05690345 0.12956066 -0.34878507
0002e0 5e 86 00 3e d1 e2 c6 3d 6b 1b 93 3e 89 a6 ae 3d
       0.12551257 0.097112305 0.28731856 0.08527858
0002f0 15 06 52 3e 1e 71 8a 3a 63 79 bb 3e 48 5d 62 be
       0.20510133 0.0010562276 0.36616048 -0.22105896
000300 4f bf 70 bc aa 0d 88 3e b9 5b 76 3d 2a dc 45 3d
       -0.014694049 0.26572925 0.060146067 0.048305668
000310 ac dd 20 3e d9 15 45 3d 9d ba 54 3e 21 09 c1 3d
       0.15709561 0.04811654 0.20774312 0.09425569
000320 5b 74 ed bd 47 59 ae bc e6 ec 18 3e 78 5c 59 3d
       -0.11594459 -0.021282805 0.1493412 0.0530667
000330 91 c7 11 be 8b 8f 2a 38 84 70 5f 3b 0d be a4 bb
       -0.14236285 4.0664843e-05 0.0034094164 -0.0050275386
000340 46 4f 26 3d be 9b 51 be 81 46 20 be 6b 82 90 3c
       0.040602945 -0.20469567 -0.15651895 0.017640313
000350 34 6d a2 3d f5 66 55 3e 27 ce 1b 3e bc 4f ad bd
       0.07930985 0.20840056 0.1521536 -0.08462474
000360 d8 f4 61 be 76 7c 00 3d 40 17 5a 3d 05 91 04 be
       -0.22066057 0.031368695 0.05324483 -0.12945946
000370 ab ae 40 be 6b 0a 9c be 02 0a 37 3e a8 58 23 bd
       -0.1881663 -0.30476698 0.17874911 -0.03987947
000380 75 9d 12 be 28 47 cf 3b f0 ff 20 be 5a e9 77 be
       -0.14317878 0.006325621 -0.15722632 -0.2421011
000390 70 40 5d be 3a 36 4f be 2d ec 84 be da 7c d6 3c
       -0.21606612 -0.2023553 -0.25961438 0.02618258
0003a0 b5 4f cb 3d e3 92 6c bd 45 d0 2b 3e 33 d1 5d 3d
       0.09927312 -0.05775727 0.16778667 0.054154586
0003b0 6c 75 28 3e 98 b2 aa 3c db e5 23 3e 4e a7 8c bd
       0.16451043 0.020837113 0.16005652 -0.06867848
0003c0 de cc 82 be 7f a0 57 3d 0b 17 09 3d ad 2d c6 3d
       -0.25546926 0.052643295 0.03346924 0.09676681
0003d0 ad 27 51 3c 1f d8 4f 3e f0 ef 37 be a4 52 0d 3d
       0.012765807 0.20297287 -0.17962623 0.03450264
0003e0 35 aa 4f 3e e6 b1 9b bd 5c 8c 41 3d 15 54 da bd
       0.20279773 -0.07602291 0.047252998 -0.106605686
0003f0 d7 1f 7e bd 3b 47 06 3c ee c6 9b 3e 24 91 01 be
       -0.062042084 0.008195694 0.3042521 -0.12653023

lstm.bias_ih f4 [512]
000000 d3 fa 17 ba 98 61 2e 3e 8a 03 9e 3c 85 a5 e3 bc
       -0.00057975686 0.17029417 0.019288797 -0.027788887
000010 70 42 c6 bc ca 88 ee 3d 14 2b 1c 3e e3 20 25 3d
       -0.024201602 0.11647184 0.15250808 0.040314566
000020 61 c9 97 3d cb be 2e bb 9f cb 4b bd ca ba 90 bc
       0.07411457 -0.0026664014 -0.049754735 -0.017667193
000030 58 4a 18 3e 83 a7 46 3b f7 da d0 3d f7 43 0c bd
       0.1487211 0.0030312247 0.10198014 -0.034244504
000040 f0 0d 85 3d a5 4c 33 bd bb 51 89 bc 51 e8 20 bd
       0.06496799 -0.043774266 -0.016762605 -0.039284054
000050 89 bd 92 3d 3c 40 5a 3d 23 6f fc 3d e6 39 a7 bc
       0.07165057 0.053283915 0.12325885 -0.02041335
000060 1a 94 c9 3d 46 d1 0e 3e f7 85 ed 3c df 5f 99 3d
       0.09842701 0.13947019 0.028994543 0.07488989
000070 44 7c 99 bc 0d c3 a4 3d 95 ac fe 3c bd 47 aa 3d
       -0.018736012 0.080450155 0.031088153 0.08314464
000080 d5 c4 80 bc 4e 7e 26 3d 9d 78 83 3d 98 fd 2f 3d
       -0.015718857 0.040647797 0.064194895 0.042966455
000090 3f 2c dd 3d 2b 06 0c 3e 25 bc 8a 3c 37 4e e1 bb
       0.10799455 0.13674228 0.016935417 -0.006875779
0000a0 77 4a 86 3d f4 04 f5 bb a0 50 fe 3d 6e 1d 91 3d
       0.06557172 -0.007477397 0.12417722 0.070856914
0000b0 d5 cc 15 3e 56 33 19 3d 93 88 ae 3d 42 9a dc bb
       0.14628918 0.037402473 0.08522143 -0.006732256
0000c0 69 95 d2 3d 4d e6 bc 3d ff 07 5b bd a1 74 d5 3d
       0.10282404 0.09223614 -0.053474423 0.10422636
0000d0 db 33 ca 3d a4 47 43 3d 3f f7 b5 bc 63 54 55 3d
       0.09873172 0.047675744 -0.022212623 0.05208243
0000e0 c4 9b ee bb 71 15 a9 bd 99 d8 cc 3d 4a 7c a8 3d
       -0.0072817523 -0.08256043 0.1000225 0.08226831
0000f0 d1 d0 0d 3e 37 3d 55 bd 4e e9 0a bd a7 69 f8 bc
       0.13849188 -0.052060332 -0.033913903 -0.030323816
000100 6d 74 0c 3d af d3 91 3d 6a 02 c8 3a 2e 52 32 3e
       0.03429072 0.071204536 0.0015259509 0.17414162
000110 1a 25 9c bd ff 50 1a 3d fe f0 29 bd d1 a2 e7 3d
       -0.07624264 0.0376749 -0.041489594 0.11310352
000120 33 62 59 3d 81 bd eb 3d 00 f3 ae 3d f5 cd 15 bd
       0.053072166 0.115107544 0.08542442 -0.03657337
000130 06 1b 17 3d bc a4 82 3d 17 e0 62 3d be da 5f 3d
       0.036891006 0.06379077 0.05538949 0.05465197
000140 9f 7a a6 bd cf c4 90 bc d5 4d ae 3c e7 7c a2 3d
       -0.08128857 -0.01767197 0.021277348 0.079339795
000150 ec 3c 66 3d af 6e 1b 3c ed 5b c3 3d 5d fc 13 bd
       0.056210443 0.009486838 0.09539018 -0.036129344
000160 db 5e 00 3d 0c 48 be 3c b2 a1 21 bc c2 ba 2d 3d
       0.03134046 0.023227714 -0.009865211 0.042414434
000170 21 95 90 3d 49 2b e5 3d 30 b4 1d 3c fd 68 16 3e
       0.07059694 0.111898966 0.00962548 0.14688487
000180 22 2e 8a bd db 15 77 bd 0b d7 c6 bb d5 6a 3b bd
       -0.067470804 -0.060323577 -0.0060681156 -0.04575618
000190 76 22 91 3d 89 9d 03 3e 37 82 04 3e 40 83 b7 bc
       0.07086651 0.12853064 0.12940298 -0.022401452
0001a0 1a 60 77 3d f1 c9 21 3e 5c 54 f4 3d 0e 41 db 3d
       0.060394384 0.15799691 0.11930153 0.107057676
0001b0 9a 37 98 3d 75 3c 7d bd 0a 0a 53 3d 56 7b a0 3d
       0.0743248 -0.061825234 0.051523246 0.078360245
0001c0 ce c2 c3 3c ad 6e 31 bd 29 b4 32 bc ed af e1 3a
       0.023896601 -0.04331844 -0.010907211 0.0017218568
0001d0 d1 42 36 3d 56 3f 49 bd 6c 51 5d bc f6 97 1b 3e
       0.044497315 -0.049132667 -0.013508182 0.15194687
0001e0 6f 4e d0 bc 46 dc cf 3d b7 5b bc bc 13 ae 03 3e
       -0.025428025 0.10149436 -0.022992952 0.12859373
0001f0 92 5e c6 3c 69 38 69 bd 2c 89 34 3d 1c d8 36 3d
       0.024215017 -0.056938563 0.04407613 0.04463969
000200 08 12 b0 3b f1 52 f5 bc e3 fe 22 3d f0 69 cb bd
       0.0053732432 -0.029946776 0.03979386 -0.09932315
000210 99 ff 29 bd e0 26 d8 bd 29 01 93 bd bf 29 f7 3c
       -0.041503523 -0.1055429 -0.07177956 0.030171273
000220 fa 77 49 bc b1 5d 97 bd 6e 0d 42 bc 2f bf 39 bd
       -0.012296671 -0.07390917 -0.011844022 -0.045348343
000230 d4 53 18 be 07 5c 3b 3d 5f 91 b8 3d aa 13 f4 3c
       -0.14875728 0.04574206 0.09012102 0.029794533
000240 91 15 91 3b 1e 69 3b bd 08 87 c1 3d f4 b3 db bd
       0.0044276197 -0.045754544 0.09449583 -0.10727683
000250 ca 84 2a bc b4 96 5d bd 65 9c 5b 3b 55 80 19 be
       -0.010407636 -0.0540988 0.0033509966 -0.14990361
000260 51 08 50 3d de ad b7 bd d3 d5 7a 3c aa 01 75 3a
       0.05078918 -0.089687094 0.015309769 0.0009346256
000270 0e d4 b6 bb e7 62 af bc 0b a4 ee bc c3 ea dd 3b
       -0.005579478 -0.021409465 -0.029130956 0.0067723705
000280 bd 49 ba bd 3e 1e 8a 3d 91 e5 19 bd 64 9d 32 bd
       -0.09096096 0.067440495 -0.037572447 -0.04360713
000290 2d f4 04 3e c5 64 40 3c 5b f2 3c bc 50 40 b5 bd
       0.1298377 0.011742775 -0.011532391 -0.08850157
0002a0 29 f8 8d bd 2b 1b b4 bc 45 b4 e6 bd d5 3e 47 3b
       -0.069320984 -0.021985611 -0.112648524 0.003040244
0002b0 fe 1f fa bd e1 b7 1a 3d 46 d0 7a 3d c8 d3 57 3d
       -0.12213133 0.037773017 0.06123378 0.052692205
0002c0 2d 34 03 be 41 46 a2 3d 43 02 42 3d a4 17 20 be
       -0.12812872 0.07923556 0.04736544 -0.15634018
0002d0 9c 7e f2 bc 46 06 17 3d 46 08 1f bd dd 96 c3 3d
       -0.029601388 0.036871217 -0.03882625 0.09550259
0002e0 d2 8b 55 3d 71 31 c1 bd 3b dc c2 3d 36 36 1e bc
       0.052135296 -0.09433258 0.09514662 -0.00965648
0002f0 22 e2 f3 bb 93 62 9f 3c 0b a6 5c bc c3 0b e8 bd
       -0.0074427286 0.019456184 -0.013467322 -0.11330368
000300 96 f5 b8 bd 4d 45 fa 3c e3 98 cc bd 48 4f 6e bc
       -0.09031217 0.030550623 -0.09990098 -0.014545269
000310 a1 78 b0 bd 9f 5a 25 3d ff 26 c8 3d 65 4c 19 3c
       -0.08616758 0.040369626 0.09773063 0.009356593
000320 4d 69 59 3d a9 e2 3f bc 34 8a ef 3c 86 4f d3 bd
       0.05307894 -0.011711755 0.029240705 -0.10317902
000330 d4 f9 6f bd 9a 0e 5c bc b2 13 ff 3b f0 70 02 be
       -0.058587864 -0.013431216 0.0077843303 -0.12738395
000340 4f 59 93 3d 29 a0 9e 3d 46 25 c0 3d fb 4c 8d 3d
       0.07194769 0.07745392 0.09382109 0.068994485
000350 9d 4c 7b 3b dc ad dc bd 87 1e d0 bd 7f c7 9f bd
       0.0038345226 -0.107753485 -0.10162073 -0.07801723
000360 0f c7 29 be bc cb 5b bc a3 cf 80 3d ed bb a2 3d
       -0.16579841 -0.013415273 0.062896036 0.07946
000370 22 04 02 3d 56 8f b1 bd 83 6e 9a bc 2b 7f 51 bd
       0.031742223 -0.08669917 -0.018851524 -0.051146667
000380 e7 8b e9 3c a5 52 d6 bd b8 d2 63 bd f6 2e 19 3d
       0.028509093 -0.10464982 -0.05562088 0.0373983
000390 31 0c b3 bd a7 3d 19 be e0 17 ad bc d3 ac d5 3c
       -0.0874256 -0.14964925 -0.021129549 0.026083386
0003a0 5d 74 06 be c6 cb 82 bd ad d7 dd 3c 8c b0 29 be
       -0.13130327 -0.06386523 0.027080381 -0.16571254
0003b0 5f 02 c5 bc bf 46 13 bc f3 c0 ae 3d 54 ab b3 3c
       -0.024048982 -0.008989035 0.08532896 0.021932282
0003c0 c9 22 29 bd 2c 60 0a bd d2 6d f6 3b 07 fc ad 3c
       -0.04129294 -0.033783123 0.007520416 0.02123834
0003d0 c8 37 42 3d 1f 92 51 be ab 15 08 be 1e cc 04 3c
       0.04741648 -0.20465897 -0.13289516 0.008105306
0003e0 c0 be ca bd 18 57 1d bc bd 01 61 bd 76 ba a1 3c
       -0.09899664 -0.009603284 -0.0549333 0.019742232
0003f0 29 b0 50 bd 98 6b b5 bd 3d 7a 8d 3d c8 33 9e bd
       -0.05094925 -0.088584125 0.06908081 -0.0772472
