evaluation_results/models/list_npi_2020_2_24-17_22_6-409-False-False-1.0-True-0.3-False-False-True-False.pth (torch_old, 973641 bytes, 16 tensors)

Mprog.weight f4 [5, 256]
0	0xbf245d43	-0.64204806
1	0xc01c8cda	-2.446097
2	0xbf77a70a	-0.96739256
3	0xbf9662f9	-1.1748954
4	0xbfa4bb69	-1.2869693
5	0x3e9453aa	0.2897008
6	0x3f97e2d2	1.1866095
7	0x3f87c33b	1.0606455
8	0x3e86ee15	0.26353517
9	0x400c1509	2.188784
10	0x3ef83c23	0.4848338
11	0xbfa58984	-1.2932591
12	0xbf47eb9a	-0.78093874
13	0xc00f8cf0	-2.2429771
14	0x3faae73f	1.3351821
15	0xbd6b1df7	-0.057401624
16	0xbd4938f5	-0.049126584
17	0xbe07691f	-0.13223694
18	0xbf80a224	-1.0049481
19	0x3ffc6949	1.971963
20	0x3f0d4bbc	0.55193686
21	0x401151ca	2.270617
22	0xbeffe600	-0.49980164
23	0xbef47ed9	-0.47753027
24	0x3ea0f4ef	0.3143687
25	0x3f725b8f	0.9467096
26	0xbe9e63bf	-0.30935475
27	0x3c9f16fd	0.019420141
28	0xbe6c29aa	-0.23062769
29	0x401af102	2.42096
30	0xbe8b2f4b	-0.2718452
31	0xbf70f894	-0.941293
32	0xbfd05318	-1.6275358
33	0x3f08ec6f	0.5348577
34	0x3fd318d1	1.6491948
35	0x3fd1a40a	1.6378186
36	0xbea5096e	-0.32233757
37	0x3f1e416b	0.6181857
38	0xbe9778e1	-0.2958441
39	0xbc4f3d68	-0.012648918
40	0x3fc674f9	1.5504447
41	0xbeb84c79	-0.35995844
42	0xbeb3f944	-0.35151112
43	0xbf794e09	-0.973847
44	0x3fe225c8	1.766778
45	0x3f2c710f	0.67360014
46	0xbfacd952	-1.3503821
47	0x3f06aaac	0.52604175
48	0x3fd1ebde	1.6400106
49	0xbf2f122d	-0.6838711
50	0xbf7e3b62	-0.9930936
51	0xbef9969b	-0.48747715
52	0x3fd3c7d9	1.6545364
53	0xbf53dbf0	-0.82757473
54	0x3fac9b75	1.3484942
55	0xbe8f4491	-0.27982
56	0x40034641	2.051163
57	0xbee672f5	-0.4500958
58	0x3f26fc73	0.65228957
59	0xc0178063	-2.367211
60	0xbe9f4856	-0.31109875
61	0xbe52c342	-0.20582297
62	0x3f731e04	0.94967675
63	0xbf6d7b39	-0.9276615
64	0x3f039f62	0.51415074
65	0x3f40b57c	0.75276923
66	0xbfd98746	-1.6994407
67	0x3e821798	0.25408626
68	0x3fd7d09e	1.686054
69	0x3efbfdea	0.4921716
70	0x3da44c17	0.080223255
71	0xbdb6d276	-0.08926861
72	0xbf41ff80	-0.7578049
73	0x3f3b0857	0.730596
74	0x3f3edc62	0.7455503
75	0xbf8e08dd	-1.1096455
76	0x3f0181bd	0.5058859
77	0x3f25c5a0	0.64754677
78	0x3fa0968c	1.2545943
79	0xbea6dc60	-0.32590008
80	0x3f4436f5	0.7664636
81	0x3f9693b0	1.1763821
82	0xbe62c52c	-0.22145528
83	0x3f35f0ba	0.71070445
84	0xbf3c4e87	-0.73557323
85	0xbf8e7d1d	-1.1131932
86	0x3f8b3f0f	1.0878619
87	0x3e9d8d93	0.30772075
88	0x3e2bca4e	0.16776392
89	0x3f83eaf1	1.0306073
90	0xbf11c991	-0.5694819
91	0x3f6cf6ff	0.92564386
92	0xbf6da4c8	-0.9282956
93	0xbf1a14bd	-0.60187894
94	0x3e9adb0c	0.30245245
95	0xbf919638	-1.1373968
96	0xbe872059	-0.26391867
97	0xbfa7e240	-1.3115921
98	0xbeaf2db8	-0.34214568
99	0xbe5f4753	-0.21804552
100	0xc00e515b	-2.2237155
101	0xbd22a6b1	-0.03970975
102	0xbf7a0a98	-0.97672415
103	0x3f10afbb	0.56518143
104	0xbfb1d1e9	-1.3892184
105	0x3f594cf4	0.84883046
106	0xbfa37c18	-1.2772245
107	0x3eaebe43	0.34129533
108	0xbf03a327	-0.51420826
109	0xbf1152be	-0.5676688
110	0xbf37aa11	-0.71743876
111	0xbde300e0	-0.11084151
112	0x3ec171bf	0.37782094
113	0xbf86b3db	-1.0523638
114	0xbfb1f869	-1.3903934
115	0x3f05f511	0.52327067
116	0x3fc59836	1.5437076
117	0x3f473ec5	0.77830154
118	0x3fa278b1	1.2693082
119	0x3f5557b2	0.8333694
120	0x3eb7e1f2	0.3591457
121	0xbf2c71df	-0.67361253
122	0xbece2327	-0.40261194
123	0x3c9dd223	0.01926524
124	0xbf48a2e4	-0.7837355
125	0x3f072916	0.5279707
126	0x3fb17efd	1.3866879
127	0xbf9d0662	-1.2267573
128	0xbf9c4d5d	-1.2211109
129	0x3f1be16b	0.60890836
130	0x3f18f20b	0.5974433
131	0x3daaf511	0.08347524
132	0x3ec859c5	0.3913099
133	0x3eb1c792	0.34722573
134	0xbe157fc6	-0.14599523
135	0x3f34fb8a	0.7069632
136	0xbe760536	-0.24025425
137	0xbeafd316	-0.34340733
138	0xbf99e2d2	-1.2022345
139	0x3d42378f	0.047416266
140	0x3ebbfc4a	0.3671592
141	0xbee08975	-0.4385487
142	0x3f2b0dfb	0.6681821
143	0x3e11b3e0	0.14228773
144	0x3f6aa377	0.9165568
145	0x3e84b8db	0.25922284
146	0x3ea550b9	0.3228815
147	0x3f188003	0.5957033
148	0x3faf8381	1.3712007
149	0x3f245e40	0.64206314
150	0x3f3a71b1	0.7282973
151	0x3f961093	1.1723808
152	0xbe9098a8	-0.28241467
153	0xbf851053	-1.0395607
154	0x3efaa00b	0.48950228
155	0xbf3b0485	-0.7305377
156	0xbfbc08f5	-1.4690233
157	0xbc33c487	-0.010972149
158	0x3f3e434a	0.74321425
159	0xbfa5619d	-1.2920414
160	0x3fa98244	1.3242879
161	0xbd459cd1	-0.048245255
162	0xbe930c2e	-0.2872023
163	0x3fd0b823	1.6306194
164	0x3fbdfb9e	1.4842412
165	0xc01ec439	-2.4807265
166	0x3e37516b	0.17902152
167	0x3f0e34e3	0.5554945
168	0xbd6e080e	-0.05811315
169	0xbf803017	-1.0014676
170	0x4017f86b	2.3745372
171	0xbf46c3d0	-0.77642536
172	0x3e51c3f1	0.20484902
173	0xbf2fde87	-0.68698925
174	0xbebfad38	-0.37436843
175	0xbe779f2a	-0.2418181
176	0xbe5076d2	-0.20357826
177	0xbd9bdde8	-0.07610685
178	0xbf3ddd3b	-0.74165696
179	0xbf1876b5	-0.5955613
180	0xbf0a62ca	-0.5405699
181	0xbfb882c6	-1.4414909
182	0x3ee176e3	0.44036016
183	0xbefab7ce	-0.48968357
184	0xbf92dd98	-1.1473875
185	0xbfa128d3	-1.2590584
186	0x3f6fff05	0.93748504
187	0x3eb83e1a	0.3598488
188	0x3fd91651	1.6959935
189	0xbf5746b6	-0.8409227
190	0xbf43a089	-0.7641683
191	0x3f5c8ccb	0.86152333
192	0xbc3fe1f1	-0.0117115835
193	0xbfb65c75	-1.4246966
194	0xbe9a3e32	-0.30125576
195	0x3f715982	0.94277203
196	0xbf6fe9b4	-0.9371598
197	0x3e68886b	0.2270829
198	0x3efbef69	0.49206093
199	0x3fd45daa	1.6591084
200	0x3e1c80e6	0.15283546
201	0xbe036227	-0.12830411
202	0xbd2dff73	-0.042479943
203	0xbfc05b3d	-1.5027844
204	0x3fa73a66	1.3064697
205	0xbea7c64e	-0.32768482
206	0xbf88867e	-1.0666044
207	0x3f893ea7	1.0722245
208	0x3e82c24a	0.25538856
209	0x3f04bd61	0.5185147
210	0xbef12ef5	-0.47106138
211	0x3efdb20c	0.495499
212	0x3c0be45f	0.008538335
213	0xbe6487a6	-0.22317371
214	0xbe09fe60	-0.13475943
215	0xc02ab899	-2.667517
216	0xc030beca	-2.7616448
217	0xbc81771c	-0.015803866
218	0xbf87deda	-1.0614884
219	0xbf929341	-1.1451188
220	0xbd1f41f0	-0.038881242
221	0xbecce119	-0.40015486
222	0x3f36ccd3	0.71406287
223	0xbf0efe00	-0.55856323
224	0xbf80ae65	-1.0053221
225	0xbe7d7e1a	-0.24755135
226	0xbe0bf22f	-0.13666604
227	0xbd955bf8	-0.07292932
228	0xc00e8334	-2.226758
229	0xbf1e9e8f	-0.6196069
230	0xbf7ddf86	-0.99169195
231	0xbf105d7f	-0.56392664
232	0x3e5d1a7a	0.21592131
233	0xbec41842	-0.38299757
234	0xbfa0439b	-1.2520632
235	0xbe92a978	-0.2864492
236	0xbf621a38	-0.88321257
237	0x3f5dee54	0.86691785
238	0xbfee1708	-1.8600779
239	0x3f68b414	0.9089978
240	0x3ea611f8	0.32435584
241	0x3f096e97	0.5368437
242	0xbe801409	-0.25015286
243	0x3e312239	0.17298211
244	0xbf1d68e5	-0.6148818
245	0xbf3e18e0	-0.74256706
246	0xbcbc70b9	-0.02300297
247	0x403600a2	2.8437886
248	0xbde8b784	-0.11363128
249	0xbfdaa716	-1.708224
250	0x3ea85326	0.32875937
251	0xbf003fa1	-0.5009709
252	0xbf1a313c	-0.60231376
253	0xbf9f1fee	-1.2431619
254	0x3e75942a	0.23982301
255	0x3f48e666	0.7847656

encoder.l1.weight f4 [100, 64]
0	0xbd6304cb	-0.055424493
1	0x3e4e5304	0.20148855
2	0x3db11aee	0.086477146
3	0xbe00eab9	-0.1258954
4	0x3dfbf446	0.12302451
5	0xbdcf21f7	-0.101139
6	0x3d1d9127	0.038468506
7	0x3d24f572	0.040273137
8	0xbdc540bf	-0.0963149
9	0xbd215b3d	-0.039393652
10	0x3db060c3	0.08612206
11	0x3dd52f14	0.1040937
12	0x3e36310d	0.17792149
13	0x3c5c1747	0.013433284
14	0x3d67c979	0.056588624
15	0x3d98dbbc	0.07463786
16	0x3d3aa44c	0.045566842
17	0x3d245f0e	0.040129714
18	0x3db091dd	0.08621571
19	0xbe70c5be	-0.23512933
20	0xbe622e96	-0.22088084
21	0xbdd158b1	-0.10221995
22	0xbca48f1b	-0.02008777
23	0xbce5c926	-0.028050017
24	0x3ca6a2b0	0.020341247
25	0x3cdd768b	0.027034065
26	0x3dae32c4	0.085057765
27	0x3dfc2975	0.12312595
28	0x3dd5a3dc	0.10431644
29	0x3e2a63c3	0.16639619
30	0x3d4fe477	0.05075499
31	0xbdb23ba2	-0.0870278
32	0xbe05fee4	-0.13085514
33	0x3dd5e08b	0.10443219
34	0xbd52b169	-0.051438723
35	0x3e0ff083	0.14056592
36	0x3ca9255f	0.020647703
37	0xbd6a6627	-0.057226326
38	0x3d8fa763	0.07014348
39	0x3bdf6c33	0.0068183183
40	0x3d3571e9	0.044298086
41	0xbccf339f	-0.02529317
42	0xbd2cb56f	-0.042165216
43	0x3d8ed2e1	0.06973816
44	0xbb8bc538	-0.0042654537
45	0x3dd72d55	0.10506693
46	0x3dcb07ca	0.09913595
47	0x3d9491a8	0.07254344
48	0x3c632825	0.013864552
49	0xbb165f61	-0.0022945034
50	0xbcc632d8	-0.024194166
51	0xbcfaefa2	-0.030631844
52	0x39eb7143	0.0004490708
53	0xbde3a33e	-0.1111512
54	0x3d10067d	0.035162438
55	0x3d4401b1	0.047853176
56	0x3ea90d44	0.33017933
57	0x3d49d255	0.049272854
58	0x3e924444	0.28567708
59	0x3e90fdc5	0.2831861
60	0x3c1df2f8	0.009640448
61	0x3d89e1ef	0.067325465
62	0xbd013970	-0.031548917
63	0x3ca00ba3	0.019536799
64	0xbde4b757	-0.11167782
65	0xbe0be1df	-0.13660382
66	0xbd96b8a5	-0.07359437
67	0x3d87fe98	0.06640357
68	0xbd4d2300	-0.050082207
69	0x3d66979e	0.056296937
70	0x3db7c4b3	0.08973064
71	0x3d160a93	0.036631178
72	0x3e40375d	0.1877112
73	0x3e38088e	0.17972013
74	0xbd01c0eb	-0.03167812
75	0x3e22a6ea	0.15883985
76	0x3dd223fa	0.10260768
77	0x3dce4886	0.100724265
78	0x3dcd9bb6	0.10039465
79	0x3d593f60	0.053038955
80	0xba6eead4	-0.00091139716
81	0xbc986d1b	-0.018606713
82	0xbbfd75ad	-0.0077349753
83	0xbcf325b1	-0.029681059
84	0x3da25ad8	0.07927483
85	0x3e146d2e	0.14494774
86	0x3e3b4d16	0.18291125
87	0x3dbcf9b8	0.092273176
88	0x3dd520f4	0.10406676
89	0x3d7cc74d	0.061713506
90	0xbdda693a	-0.106646016
91	0x3b6181a3	0.0034409545
92	0xbe0fd390	-0.14045548
93	0xbe2c4152	-0.16821793
94	0x3d1a4f83	0.037673485
95	0xbc5a192c	-0.0133116655
96	0x3da7a1e6	0.081851766
97	0x3dbabe05	0.091182746
98	0xbd2494a9	-0.040180836
99	0xbdc3cc8a	-0.09560497
100	0x3d23775f	0.039908763
101	0xbe0b91e7	-0.13629876
102	0x3d5a28ae	0.05326145
103	0x3dba13df	0.09085821
104	0x3e29ec04	0.16593939
105	0xbc8ed38c	-0.017434858
106	0x3ca49028	0.02008827
107	0x3d9f07a5	0.0776513
108	0x3db5f1d5	0.088840164
109	0xbcbb5084	-0.022865541
110	0xbd713564	-0.058888808
111	0xbcf21389	-0.02955033
112	0x3b9d84ab	0.004807075
113	0x3d1e25ee	0.03861039
114	0x3dc54340	0.096319675
115	0xbda4dbbc	-0.080497235
116	0xbc1603a0	-0.009156138
117	0xbca18376	-0.019716006
118	0x3cdcb2ea	0.026940782
119	0x3dd89451	0.10575164
120	0xbdb82cc3	-0.089929126
121	0x3dd3b21a	0.103367046
122	0xbea4b07c	-0.32165897
123	0xbe270614	-0.16310912
124	0x3d932445	0.07184652
125	0x3d1a0bdf	0.037608977
126	0x3e4c18b1	0.19931294
127	0x3d7c65e4	0.061620608
128	0xbe8ceebc	-0.2752589
129	0x3e0890d7	0.13336502
130	0xbd96fc68	-0.073723614
131	0x3db77b46	0.089590594
132	0x3de39cfb	0.11113926
133	0x3d850b64	0.06496313
134	0x3b81ac50	0.003957309
135	0xbc196c3b	-0.009364183
136	0xbba46157	-0.0050164866
137	0xbda82061	-0.08209301
138	0xbede226a	-0.4338563
139	0x3d085e9c	0.03329335
140	0xbd34db2c	-0.04415433
141	0xbd19e9f7	-0.037576642
142	0x3cccf148	0.025017396
143	0xbcb6d857	-0.022319956
144	0x3dc588e8	0.096452534
145	0xbd483980	-0.04888296
146	0x3dbb0128	0.0913108
147	0x3e1c89f1	0.15286995
148	0xbd249e07	-0.04018977
149	0xbc6021fc	-0.0136799775
150	0xbe175927	-0.14780103
151	0xbd82d51c	-0.06388304
152	0x3a4d08d3	0.00078214443
153	0xbca9b50b	-0.02071621
154	0x3db295c1	0.087199695
155	0x3c86e3a8	0.016465977
156	0x3ccbf87e	0.024898764
157	0x3d9ea109	0.07745559
158	0x3e0285ca	0.12746349
159	0xbe24f6e6	-0.1610981
160	0x3d03f84a	0.03221921
161	0xbda18f24	-0.0788863
162	0x3d116e6a	0.03550569
163	0xbbb03d94	-0.0053784344
164	0x3d661b6c	0.056178495
165	0x3c89cffa	0.016822804
166	0xbc48f21f	-0.012264757
167	0x3cc7608b	0.024338027
168	0x3d834f2b	0.064115845
169	0x3dfbecd8	0.12301034
170	0x3e1c125e	0.15241382
171	0xbdbe4486	-0.092904136
172	0x3e241884	0.16024977
173	0x3d5dead7	0.05417904
174	0xbe162f35	-0.14666446
175	0x3e0a5585	0.13509186
176	0x3de3de2f	0.111263625
177	0xbe20270e	-0.15639898
178	0xbe233dc3	-0.15941529
179	0x3de7f3a9	0.11325771
180	0xbd290619	-0.04126558
181	0x3b355841	0.0027671012
182	0xbd98c3b1	-0.074592
183	0x3d4653d3	0.048419785
184	0x3e993393	0.2992216
185	0x3e220f87	0.15826236
186	0x3dbdda7a	0.09270187
187	0x3ed4ca0c	0.415604
188	0x3d03eed3	0.032210182
189	0x3ba11ab8	0.004916515
190	0x3bbea983	0.005818547
191	0xbd5a5970	-0.05330795
192	0x3da03194	0.07821956
193	0xbe8a5f93	-0.27026042
194	0xbe4be127	-0.19910108
195	0xbe189696	-0.14901194
196	0xbe177f72	-0.1479471
197	0xbd77e263	-0.060518634
198	0x3d31d654	0.04341729
199	0x3d700b10	0.0586043
200	0x3d4f176b	0.050559442
201	0x3d273aa6	0.040827416
202	0xbd741e0f	-0.05959898
203	0xbe2f82df	-0.17139767
204	0xbd996eec	-0.0749186
205	0x3e81d8a3	0.25360593
206	0x3d474fde	0.04866015
207	0x3e0fa1a8	0.1402651
208	0xbdabcd74	-0.083887964
209	0x3dc57434	0.096413046
210	0xbe189cbd	-0.14903541
211	0xbc352893	-0.011057037
212	0x3da0aaaf	0.07845055
213	0xbe2c7a94	-0.16843635
214	0xbe1dd498	-0.1541313
215	0xbd319f51	-0.043364827
216	0x3dd15f0b	0.10223206
217	0x3d986aef	0.07442271
218	0x3c1ffc4f	0.009764745
219	0x3d114b72	0.03547234
220	0x3c75832b	0.014984886
221	0x3df02880	0.11726475
222	0x3cc51a33	0.024060344
223	0x3cd317bd	0.025768155
224	0x3e0682ac	0.13135785
225	0x3dc29bf1	0.095024
226	0x3b7f63c9	0.0038969389
227	0xbb4a9a41	-0.0030914696
228	0xbc5e3bf9	-0.013564103
229	0xbce0e5f5	-0.027453402
230	0x3d75f455	0.060047466
231	0x3d247125	0.040146966
232	0xbd48e64a	-0.049047746
233	0xbe0c9a1f	-0.13730668
234	0xbde63915	-0.11241356
235	0x3ca2d262	0.019875709
236	0xbb9b0b55	-0.0047315755
237	0x3d6d6e37	0.057966437
238	0xbdbd87ab	-0.09254392
239	0x3ce341b9	0.0277413
240	0xbc707540	-0.014676392
241	0xbd26c979	-0.040719483
242	0xbc822350	-0.015885979
243	0x3bdc78cb	0.006728267
244	0xbe0ad012	-0.13555935
245	0x3df4a259	0.11945028
246	0x3e6ef5ec	0.23335999
247	0xbe2f3d1c	-0.17113155
248	0x3dc9739f	0.09836506
249	0xbd0a4dc0	-0.033765554
250	0xbe674b83	-0.22587399
251	0xbe4c975f	-0.19979618
252	0x3d2388f9	0.03992555
253	0x3bde08d9	0.006775957
254	0xbd94c217	-0.07263582
255	0xbc08bdf8	-0.008346073

encoder.l1.bias f4 [100]
0	0xbd7ebb50	-0.062190354
1	0x3e3c7faa	0.18408075
2	0x3ddb4b90	0.10707772
3	0x3be2af93	0.0069179027
4	0xbd0abd4f	-0.033871945
5	0x3d046633	0.032324027
6	0x3cdfe40f	0.027330426
7	0x3c3ce2a2	0.011528643
8	0xbd956367	-0.0729435
9	0xbc0a6568	-0.008447029
10	0xbd4c5df3	-0.049894284
11	0x3d9f66f8	0.077833116
12	0xbc9f4ba7	-0.019445254
13	0x3d565873	0.052330445
14	0x3ccd822c	0.025086485
15	0xba174ad1	-0.00057713414
16	0x3dc090ea	0.0940264
17	0x3e3b6150	0.1829884
18	0xbdb79c05	-0.08965305
19	0xbd8b9c55	-0.06816927
20	0x3db5bb6f	0.08873641
21	0x3de40166	0.11133079
22	0x3d7a356e	0.06108611
23	0xbcf4cf00	-0.029883862
24	0xbd0fd449	-0.03511456
25	0x3de33f14	0.110960156
26	0xbb1c8d4f	-0.0023887937
27	0x3c85a4e9	0.016313987
28	0x3d8aab7e	0.06770991
29	0xbd25ffc2	-0.040527113
30	0x3d4e5435	0.050373275
31	0x3d879c82	0.06621648
32	0xbd1928d3	-0.03739245
33	0xbce94a8b	-0.028477928
34	0xbb8af898	-0.0042410605
35	0x3d10628d	0.035250235
36	0x3d02158d	0.031758834
37	0xbd7b8a6f	-0.061411317
38	0x3d144506	0.03619864
39	0x3e0b66a1	0.13613369
40	0x3d8457f0	0.06462085
41	0x3d88da49	0.066822596
42	0xbd906df3	-0.07052221
43	0x3c177d53	0.009246188
44	0xbb380455	-0.0028078754
45	0xbc9b72e9	-0.018975692
46	0x3cc58153	0.024109518
47	0xbda127f3	-0.07868948
48	0xbd94d230	-0.072666526
49	0xbda439e1	-0.08018852
50	0xbde2e64e	-0.110790834
51	0xbdce705e	-0.10080026
52	0x3c1fe20a	0.009758482
53	0xbcf7d741	-0.030254008
54	0x3e098dd8	0.13433015
55	0xbc9ffce8	-0.019529775
56	0xbd90d5dc	-0.070720404
57	0x3d74e30a	0.059786834
58	0x3dafa4b4	0.085763365
59	0x3da39d99	0.07989044
60	0xbd8ccdc6	-0.06875186
61	0xbc155809	-0.0091152275
62	0xbd273996	-0.040826403
63	0xbd9af5ed	-0.07566438
64	0xbbae3036	-0.005315806
65	0x3dc4d45e	0.09610818
66	0x3dc1c7e8	0.09461957
67	0xbd8a343a	-0.06748243
68	0xbd6ce6c3	-0.05783726
69	0x3db3a164	0.08771017
70	0xbdabbcce	-0.08385621
71	0x3d27932d	0.040911842
72	0xbd818738	-0.06324619
73	0x3c7527f9	0.0149631435
74	0xbd8f2f24	-0.06991413
75	0x3db22a26	0.086994454
76	0x3de83ea1	0.113400705
77	0x3d9ce0ce	0.076600656
78	0xbd8f111b	-0.069856845
79	0x3e2b4a57	0.16727577
80	0x3d449830	0.0479967
81	0xbc78e13e	-0.015190421
82	0xbd34c3a3	-0.044131886
83	0x3c5ee86e	0.01360522
84	0xbcc8f500	-0.024530888
85	0x3de4cae8	0.11171514
86	0x3de8543c	0.113441914
87	0xbc9e564b	-0.019328257
88	0x3d9c4f86	0.076323554
89	0xbd2782ad	-0.040896107
90	0x3dca258a	0.09870441
91	0xbc37545f	-0.011189549
92	0xbd57afc7	-0.05265787
93	0x3d8afd90	0.067866445
94	0x3d6b8571	0.057500307
95	0xbd00ebee	-0.031475
96	0x3dc164f8	0.094430864
97	0x3d6fb3ff	0.058521267
98	0xbca84740	-0.020541787
99	0x3de48e8a	0.1116

encoder.l2.weight f4 [32, 100]
0	0x3cf9d8b3	0.030498838
1	0x3c9f80ec	0.019470654
2	0x3e8495e6	0.25895613
3	0xbe78a5f1	-0.24282052
4	0xbe114e7c	-0.14190096
5	0xbcca6cd1	-0.02471009
6	0xbe59614c	-0.21228522
7	0xbe5d3874	-0.21603566
8	0x3de39454	0.11112276
9	0x3d99bfda	0.07507296
10	0xbe3343d8	-0.17506349
11	0x3c84a6e0	0.016192853
12	0x3d5ab5e2	0.053396113
13	0x3e0b1ffe	0.13586423
14	0x3e80d5cf	0.25163123
15	0x3eb91720	0.36150455
16	0xbb365e3c	-0.0027827164
17	0xbcf6bebc	-0.030120246
18	0x3d69abf5	0.057048757
19	0xbe6f327c	-0.23359102
20	0xbe20c377	-0.15699564
21	0x3e8403fe	0.25784296
22	0xbca221b6	-0.019791465
23	0xbeac7ca1	-0.33688834
24	0xbea37d85	-0.319317
25	0x3c1753be	0.009236274
26	0xbdaae58b	-0.08344563
27	0xbe7ceeb9	-0.2470044
28	0xbc66c73b	-0.014085586
29	0xbea44923	-0.3208705
30	0x3b2a3995	0.0025974263
31	0xbcfd77c0	-0.03094089
32	0x3e0bcd53	0.13652544
33	0xbe544357	-0.20728813
34	0x3e10123f	0.1406946
35	0x3c6d49fc	0.014482971
36	0x3e7ea674	0.24868184
37	0x3d82cf31	0.06387175
38	0xbdbbbbeb	-0.09166702
39	0x3eb33aed	0.35005894
40	0xbe5d8c76	-0.21635613
41	0xbdd938e7	-0.106065564
42	0x3d60fe1d	0.05492984
43	0xbdd49804	-0.10380557
44	0xbe92c483	-0.28665552
45	0xbe0be7b7	-0.13662611
46	0xbe85dbed	-0.26144353
47	0xbe2263f8	-0.15858448
48	0xbe5aa494	-0.21351844
49	0xbe44b3d2	-0.19209221
50	0xbe267cd2	-0.16258553
51	0xbe287e5a	-0.1645445
52	0xbbc92a48	-0.0061390735
53	0xbe0cb877	-0.13742243
54	0x3d966167	0.07342797
55	0xbdb6c660	-0.08924556
56	0x3e1a282a	0.15054384
57	0x3d17006d	0.03686564
58	0xbebc90e0	-0.3682928
59	0xbdc0236f	-0.093817584
60	0x3d191e18	0.037382215
61	0x3dd58339	0.10425419
62	0xbe86416a	-0.26221782
63	0xbe02e8c3	-0.12784104
64	0xbe4b9e88	-0.19884694
65	0x3e487d52	0.19579056
66	0x3dd27e77	0.102780275
67	0x3e0f2c27	0.13981687
68	0x3a9e2e81	0.0012068303
69	0x3e730a6b	0.23734443
70	0xbdbb96f5	-0.09159652
71	0x3ceb8d59	0.028753923
72	0x3d1799af	0.0370118
73	0xbe50d581	-0.20393945
74	0xbe94f70c	-0.29094732
75	0x3e8a53be	0.27017015
76	0x3d77a5df	0.06046092
77	0xbebb021b	-0.36525044
78	0xbc00db81	-0.007864834
79	0x3e0df430	0.13862681
80	0x3e1d833c	0.15382093
81	0xbe60260a	-0.21889511
82	0x3e23344b	0.15937917
83	0xbc4d75db	-0.012540306
84	0xbe1f3801	-0.15548708
85	0xbc06ac9b	-0.008219863
86	0xbdb23fb1	-0.087035544
87	0xbe6b5573	-0.22981815
88	0xbe0e1f4a	-0.13879123
89	0x3e6f5995	0.23374017
90	0x3dd727dd	0.1050565
91	0xbe7fc172	-0.24976137
92	0xbe36c14e	-0.17847177
93	0x3e7b650c	0.24550265
94	0x3e8081dc	0.25099075
95	0xbe303c73	-0.1721056
96	0xbe2bf7a2	-0.16793683
97	0xbdc8060a	-0.09766777
98	0xbdf34349	-0.11878068
99	0x3f0614ba	0.52375376
100	0xbe34a438	-0.1764077
101	0x3e205f86	0.1566144
102	0xbeb8c829	-0.3609021
103	0x3e8a11bc	0.26966655
104	0xbc9b7e9b	-0.018981269
105	0xbd51c795	-0.051215727
106	0xbd43cc44	-0.047802225
107	0x3e4c7d0b	0.19969575
108	0xbe6a13f9	-0.22859181
109	0xbe5245c7	-0.2053443
110	0xbdcf49f3	-0.101215266
111	0xbe584f18	-0.21123922
112	0xbdb9f5eb	-0.09080108
113	0xbe05a13e	-0.1304979
114	0xbeefcd5d	-0.46836367
115	0xbe0cc6ea	-0.13747755
116	0xbe134f24	-0.14385659
117	0x3e3e29f1	0.18570687
118	0xbe1a469b	-0.15065996
119	0x3e46b247	0.19403945
120	0x3b11772e	0.002219628
121	0xbe06844e	-0.13136408
122	0x3de31119	0.110872455
123	0x3e056596	0.13027033
124	0x3e865d84	0.26243222
125	0xbab28b5a	-0.0013621852
126	0xbccd5d21	-0.025068821
127	0x3d119fdb	0.03555284
128	0xbc39c3b7	-0.011338166
129	0x3e8f4187	0.2797968
130	0x3d8e04f9	0.06934542
131	0x3e64a4eb	0.22328536
132	0xbd337f16	-0.04382237
133	0x3e2bb0e4	0.16766697
134	0xbe6607d3	-0.22463922
135	0x3d068155	0.032838184
136	0xbeabbad8	-0.33540988
137	0xbd84a8a4	-0.06477478
138	0x3e207e3f	0.15673159
139	0xbe501a8b	-0.20322625
140	0x3e6e425b	0.232675
141	0x3e3308b0	0.17483783
142	0x3d953ed0	0.07287371
143	0xbd709178	-0.05873248
144	0x3d527425	0.051380295
145	0x3df9473b	0.12171789
146	0x3e59d5e6	0.21273002
147	0xbdf7a33c	-0.12091681
148	0x3d248f80	0.040175915
149	0x3dd421bf	0.10357999
150	0xbd885409	-0.066566534
151	0x3d6c9243	0.057756674
152	0x3dc3c4bf	0.09559011
153	0x3d06ec9f	0.032940503
154	0xbd484d18	-0.048901647
155	0xbe9192b1	-0.2843223
156	0xbc07438c	-0.0082558505
157	0x3e600036	0.2187508
158	0x3e300141	0.17187978
159	0x3e16a3ff	0.14710997
160	0xbda89cfa	-0.08233066
161	0xbe63a58d	-0.22231121
162	0x3db7cd4a	0.08974703
163	0x3e2595e8	0.16170466
164	0x3bcb7d58	0.0062100105
165	0xbe6f2071	-0.23352219
166	0xbe5f0427	-0.21778928
167	0xbd9bf49a	-0.076150134
168	0xbe3ed3f5	-0.18635543
169	0xbe8ae052	-0.27124268
170	0xbdb3d632	-0.08781089
171	0x3e03f629	0.12886871
172	0x3df49462	0.11942364
173	0x3e4af94c	0.19821662
174	0x3ded3ecd	0.11584244
175	0xbe72ecac	-0.23723096
176	0x3e59e16d	0.212774
177	0x3ebad4ab	0.36490378
178	0xbe1d4e77	-0.15361963
179	0xbda1cec1	-0.07900763
180	0x3c60beb6	0.013717344
181	0x3e073831	0.13205029
182	0xbda327b0	-0.07966554
183	0xbd036972	-0.032082982
184	0x3d314a5f	0.043283816
185	0x3e49eb19	0.19718589
186	0x3e377c5f	0.17918538
187	0xbc914fc0	-0.017738223
188	0x3e85b66c	0.2611574
189	0xbe185283	-0.14875226
190	0xbd44498d	-0.047921706
191	0x3d8594e3	0.065225385
192	0x3e693815	0.227753
193	0xbe2daf54	-0.16961414
194	0xbe567ea6	-0.2094675
195	0xbe4c578c	-0.19955271
196	0x3e8a584c	0.2702049
197	0x3e3e2e1f	0.18572281
198	0x3e349846	0.17636213
199	0xbec0d2e0	-0.37660885
200	0x3dea1cd4	0.1143128
201	0xbe3158ab	-0.1731898
202	0x3cb79d6b	0.02241393
203	0x3e9b595c	0.30341613
204	0x3e2a2f9e	0.16619727
205	0x3e32fddb	0.1747965
206	0x3ed43ef5	0.41454282
207	0x3ee83b84	0.45357907
208	0x3d495d19	0.04916105
209	0x3cc2efd8	0.023796007
210	0x3edf4430	0.4360671
211	0xbc0cbb13	-0.008589524
212	0xbe135746	-0.14388761
213	0x3e6df2eb	0.23237197
214	0xbeb2b26e	-0.34901756
215	0xbe3a6b7e	-0.18205068
216	0xbe44b205	-0.19208534
217	0xbe2f770a	-0.17135254
218	0xbcf50af1	-0.029912444
219	0x3df25ffd	0.118347146
220	0x3d8b1eb4	0.067929655
221	0xbeb7a603	-0.35868844
222	0x3e54ffd0	0.2080071
223	0x3eb2fa1c	0.34956443
224	0x3c39c288	0.011337884
225	0xbd81876b	-0.06324657
226	0x3e0b1de9	0.13585629
227	0x3e24769c	0.16060871
228	0xbca3a706	-0.019977104
229	0xbda546c7	-0.0807014
230	0xbd3f65a4	-0.04672779
231	0xbc819d5b	-0.015822103
232	0x3ce6f450	0.02819267
233	0x3e85c5e3	0.26127538
234	0xbe1b33f9	-0.15156545
235	0x3e6da0e0	0.232059
236	0xbe353aaa	-0.1769816
237	0xbe14456b	-0.14479606
238	0x3c0c56ba	0.008565599
239	0xbe805e89	-0.25072125
240	0x3e826631	0.2546859
241	0x3ea40169	0.32032326
242	0xbe306433	-0.17225723
243	0x3c9621ce	0.018326666
244	0x3e12af9a	0.14324799
245	0x3d658c36	0.05604192
246	0x3e2a8d06	0.16655359
247	0x3e6f0029	0.23339905
248	0x3d03770f	0.032095965
249	0x3e2f71f9	0.17133321
250	0x3ec65145	0.3873388
251	0x3e27fad3	0.16404276
252	0x3e09e7da	0.1346735
253	0x3e91c69e	0.28471845
254	0xbe448535	-0.1919144
255	0x3e45c9e8	0.19315302

encoder.l2.bias f4 [32]
0	0xbdae0f30	-0.084989905
1	0x3da228d4	0.079179436
2	0x3ca83710	0.020534068
3	0xbdfb49b8	-0.1226992
4	0xb9b3538d	-0.0003420379
5	0x3c9e4b7e	0.019323107
6	0xbb1aa4d1	-0.0023596773
7	0x3d0a3eec	0.033751413
8	0xbccb6d75	-0.024832467
9	0x3ba5e02f	0.005062125
10	0x3b849ddb	0.004047138
11	0x3dd8fc14	0.10594955
12	0x3cad54b0	0.021158546
13	0x3d2e8f11	0.042616908
14	0x3d30cd3f	0.043164488
15	0x3df0849b	0.117440425
16	0xbe02b345	-0.12763698
17	0x3e25b99b	0.16184084
18	0xbc5e1c92	-0.013556616
19	0xbdbb755a	-0.091532424
20	0xbcfdceab	-0.030982336
21	0x3dbbe639	0.09174771
22	0x3cce5ea8	0.02519162
23	0x3d5e5e1f	0.05428898
24	0x3cc448d9	0.023960518
25	0x3dd87d58	0.105707824
26	0x3bd6bf81	0.0065535908
27	0x3be1096c	0.0068675783
28	0xbe16f4ae	-0.14741775
29	0x3d8d2d71	0.06893433
30	0x3b801f60	0.00390999
31	0x3dae1ebe	0.08501957

lstm.weight_ih f4 [512, 288]
0	0x3de976a0	0.11399579
1	0xbdfd7ac5	-0.12376932
2	0xbd8c900b	-0.068634115
3	0x3db8fb96	0.09032361
4	0xbb2104b4	-0.0024569454
5	0xbe805a7a	-0.25069028
6	0x3ea36f63	0.3192092
7	0x3e9396ba	0.28825933
8	0xbddebc1a	-0.10875721
9	0xbd3f0728	-0.046637684
10	0x3e727a54	0.23679477
11	0x3c330a9f	0.010927825
12	0xbd1db629	-0.0385038
13	0xbd8c6c66	-0.06856613
14	0x3e1afd87	0.15135776
15	0xbdabbcbf	-0.0838561
16	0xbd82b9e8	-0.06383115
17	0x3e2adf87	0.16686831
18	0x3e226b64	0.15861279
19	0x3e3ce82d	0.18447943
20	0x3bfcdb43	0.0077165677
21	0xbe979c93	-0.29611644
22	0xbdc7ac72	-0.09749688
23	0x3e0424b4	0.12904626
24	0xbdedaafc	-0.11604878
25	0x3d2de258	0.042452186
26	0x3dac9647	0.08427101
27	0x3e740f00	0.23833847
28	0xbdbc8af8	-0.09206194
29	0xbe115878	-0.14193904
30	0xbeb50c8f	-0.35361144
31	0x3e22a665	0.15883787
32	0xbca758e2	-0.020428125
33	0xbcddddab	-0.027083239
34	0xbdec35f9	-0.11533732
35	0xbd8fe11d	-0.07025359
36	0xbdaddb87	-0.08489137
37	0xbd0cb647	-0.03435352
38	0x3d0c720d	0.034288455
39	0xbd0b7edd	-0.034056533
40	0x3db07863	0.08616712
41	0xbdd65d33	-0.10466995
42	0xbdf656e6	-0.12028293
43	0xbe159800	-0.14608765
44	0xbdeb6f65	-0.11495856
45	0xbc374367	-0.011185504
46	0xbddef5f8	-0.108867586
47	0xbdde10e1	-0.10843063
48	0x3c73d58b	0.014882456
49	0x3dae8b4e	0.08522664
50	0x3c7b6816	0.01534464
51	0x3dd8775e	0.105696425
52	0xbdae06ef	-0.08497416
53	0x3d0ff72a	0.035147823
54	0x3c86b29e	0.016442593
55	0x3d874a7f	0.06606006
56	0x3d31621d	0.04330646
57	0x3b88ce4d	0.0041749836
58	0xbcf0ad50	-0.029379517
59	0xbcaea934	-0.021320917
60	0x3d7853fc	0.06062697
61	0xbaad6cec	-0.0013231314
62	0x3c8c9fbe	0.017166015
63	0x3db498b8	0.08818191
64	0xbd522413	-0.051303934
65	0x3d297ec9	0.041380677
66	0x3cd38b0d	0.02582314
67	0x3df44568	0.11927301
68	0xbdb2060a	-0.08692558
69	0xbd12b977	-0.035821404
70	0xbcb6c34d	-0.022309924
71	0xbdccb137	-0.099947385
72	0x3d98991e	0.0745108
73	0x3d83538a	0.06412418
74	0xbda8302d	-0.08212314
75	0xbd31d359	-0.043414447
76	0x3d168656	0.036749206
77	0x3d662e2b	0.056196373
78	0xbdb6f330	-0.08933103
79	0xbc00d547	-0.007863349
80	0x3df32ef9	0.11874194
81	0x3c06ca8f	0.008227005
82	0xbd297309	-0.04136947
83	0xbe073870	-0.13205123
84	0x3dc235a4	0.094828874
85	0x3d4040ec	0.046936914
86	0x3dcfdaf9	0.101491876
87	0xbd68f23b	-0.056871634
88	0x3e264c7c	0.16240114
89	0xbc60c168	-0.013717987
90	0x3dfc7838	0.123276174
91	0xbdacb7b0	-0.08433473
92	0xbdaf0b68	-0.085470974
93	0x3d69d5cf	0.05708867
94	0xbe0fd34a	-0.14045444
95	0x3dc14c50	0.094383836
96	0x3da44836	0.08021586
97	0x3d2a5242	0.041582353
98	0x3cf9f733	0.030513382
99	0xbabe830f	-0.0014534908
100	0x3d86a08e	0.06573592
101	0x3da59681	0.08085347
102	0x3cf41e39	0.029799568
103	0xbc25dde5	-0.010123705
104	0x3d963b86	0.07335572
105	0xbc92709e	-0.017875966
106	0xbd2a17d1	-0.04152662
107	0xbdd78ad0	-0.10524523
108	0x3d56e8b7	0.052468028
109	0xbca23f09	-0.019805448
110	0xbd430d8a	-0.047620334
111	0x3c748151	0.01492341
112	0x3d4b1c80	0.049587727
113	0xbb9a85d7	-0.004715662
114	0x3df55d42	0.11980678
115	0xbdc10dbd	-0.094264485
116	0x3c801ef1	0.015639754
117	0x3d4a60df	0.04940879
118	0xbd0c34c1	-0.034229998
119	0xbb94ad5c	-0.0045372676
120	0xbd7919b5	-0.06081553
121	0xbda07efb	-0.078367196
122	0x3c677b52	0.014128523
123	0xbdb0bef5	-0.08630172
124	0xbcc132c2	-0.023583774
125	0x3b83a403	0.0040173545
126	0xbd8c5a82	-0.068532005
127	0xbdb88270	-0.09009254
128	0xbdf1ad7c	-0.11800668
129	0x3d856b7f	0.06514644
130	0x3d27112b	0.040787857
131	0xbbac4f4e	-0.0052584773
132	0xbdb76662	-0.08955075
133	0x3cb90a0e	0.022587802
134	0xbca71909	-0.02039768
135	0x3d5b3abc	0.05352281
136	0x3cbf9292	0.02338532
137	0x3c913c52	0.017728958
138	0xbd618257	-0.055055942
139	0x3c01fb9b	0.007933523
140	0x3d0c9559	0.034322117
141	0xbd3a8fa1	-0.04554713
142	0xbdb1c7ff	-0.08680724
143	0x3c9779a4	0.01849062
144	0xbb695081	-0.0035600963
145	0xbd527984	-0.051385418
146	0xbd2183ac	-0.039432213
147	0xbd7ebe68	-0.062193304
148	0x3dc2c9b8	0.09511131
149	0x3d86cfa3	0.06582572
150	0x3d4f2b18	0.050578207
151	0xbe06d453	-0.13166933
152	0xbd9670f3	-0.07345762
153	0x3d9a05fa	0.07520671
154	0x3daaeae2	0.083455816
155	0xbd59d812	-0.053184576
156	0xbd09256c	-0.033482954
157	0x3e3df9e5	0.18552358
158	0x3d8c59a1	0.06853033
159	0xbd34929b	-0.044085126
160	0x3d61fdb5	0.055173595
161	0x3c9b0219	0.018921899
162	0xbdac672a	-0.084181145
163	0x3db5fd87	0.08886247
164	0x3d19cd63	0.037549388
165	0x3dc43491	0.09580339
166	0x3d3584bc	0.04431604
167	0xbdd860ea	-0.1056536
168	0xbc814c63	-0.015783494
169	0xbd37c81c	-0.044868574
170	0xbd4886c7	-0.04895666
171	0x3dadd212	0.08487333
172	0x3d89294d	0.066973306
173	0x3b1f7dd1	0.0024336467
174	0x3d2f9263	0.042864215
175	0xbc7f7919	-0.015592837
176	0xbda64dd9	-0.08120317
177	0xbbb78505	-0.005600574
178	0xbb45eecb	-0.0030202146
179	0x3ced1e50	0.028945118
180	0x3b360f1b	0.002778
181	0x3dba871b	0.091078006
182	0xbd81cd72	-0.06338014
183	0xbe007316	-0.12543902
184	0x3dbd3905	0.09239391
185	0x3d7008bd	0.058602083
186	0xbdb826c5	-0.0899177
187	0x3dd5b94a	0.10435732
188	0x3dcb90df	0.09939741
189	0xbd91698e	-0.07100211
190	0xbda0f71c	-0.078596324
191	0xbdc3f7a5	-0.09568719
192	0xbd94d3fb	-0.072669946
193	0x3d6059e9	0.054773245
194	0xbdc822a7	-0.097722344
195	0x3d89a978	0.06721777
196	0x3cd572c9	0.02605571
197	0xbd839250	-0.06424391
198	0x3d921e76	0.07134716
199	0xbc81d84f	-0.015850214
200	0x3d76fb5b	0.060298305
201	0xbdf89119	-0.1213705
202	0xbd6a59a0	-0.05721438
203	0xbd8f29be	-0.069903836
204	0x3ce09efc	0.02741956
205	0x3c2932dc	0.010327067
206	0x3d663d72	0.056210943
207	0xbd40a009	-0.04702762
208	0x3c9d37a1	0.019191565
209	0xbd255dab	-0.04037253
210	0x3d7d7eb1	0.0618884
211	0xbd9bfd6f	-0.07616698
212	0x3d92d9ab	0.07170423
213	0xbc909316	-0.017648261
214	0x3d2966df	0.04135787
215	0x3c5ee3da	0.013604129
216	0xbde06de7	-0.10958462
217	0x3dc6a7cb	0.09699973
218	0x3ba4395c	0.0050117206
219	0xbdabaf5c	-0.083830565
220	0x3c40a4e1	0.01175806
221	0x3db88ef9	0.09011645
222	0x3dfe90cd	0.12429962
223	0xbd8c0060	-0.06836009
224	0x3cfcb9b7	0.030850274
225	0xbd2ba04b	-0.041900914
226	0xbd7d3d0f	-0.06182581
227	0xbd825e64	-0.0636566
228	0xbde7bf3d	-0.11315773
229	0xbd567b16	-0.052363478
230	0xbc820641	-0.015872123
231	0x3d7d6366	0.06186237
232	0xbc18a8c7	-0.009317583
233	0x3df65a57	0.1202895
234	0xbdc527db	-0.096267425
235	0xbd241356	-0.040057503
236	0x3e0d3953	0.13791399
237	0xbd212b57	-0.039347973
238	0xbd73c0a3	-0.059509885
239	0x3d403bf4	0.046932176
240	0xbc8b7917	-0.017025514
241	0xbd9afb83	-0.07567503
242	0x3acd3114	0.0015654885
243	0xbc55b715	-0.013044138
244	0xbd9f90a0	-0.07791257
245	0xbcb90395	-0.022584716
246	0x3d425465	0.047443766
247	0x3d8400e9	0.06445486
248	0xbd969e8e	-0.07354461
249	0x3d9db477	0.077004366
250	0x3d0d9e35	0.034574706
251	0xbe0d462a	-0.13796297
252	0xbc9f2448	-0.01942648
253	0x3d1fff4c	0.03906183
254	0xbd62f629	-0.055410538
255	0xbdac8101	-0.08423043

lstm.weight_hh f4 [512, 128]
0	0xbc77e87e	-0.015131114
1	0xbdcaa576	-0.098948404
2	0x3e270593	0.1631072
3	0x3e210e96	0.1572822
4	0xbd193c19	-0.03741083
5	0x3d1cef66	0.038314246
6	0xbe51e09d	-0.2049584
7	0xbd8ee6a7	-0.06977587
8	0x3c08e803	0.008356097
9	0x3d031293	0.032000136
10	0xbd9df827	-0.07713347
11	0x3e210636	0.15725026
12	0x3e062437	0.13099752
13	0xbbeac149	-0.0071641547
14	0xbd26a246	-0.0406821
15	0xbe05106f	-0.1299455
16	0x3d258dd4	0.04041846
17	0xbec83ef1	-0.3911052
18	0x3dcfa169	0.101382084
19	0xbec21b60	-0.3791151
20	0x3d9de4a1	0.07709623
21	0xbc3fe5ab	-0.011712472
22	0x3c9a5f10	0.018844157
23	0xb886adae	-6.421968e-05
24	0xbdbf6325	-0.09345082
25	0x3c6223a2	0.013802441
26	0x3c555ed0	0.013023093
27	0xbd90ba29	-0.07066757
28	0xbe4738cd	-0.19455262
29	0xbe8337a0	-0.25628376
30	0x3e5fe02b	0.21862857
31	0x3db8e610	0.09028256
32	0x3e30e078	0.17273128
33	0xbca06b78	-0.019582495
34	0xbe4f0275	-0.20215781
35	0xbdbffa34	-0.09373894
36	0xbe26b896	-0.16281351
37	0xbe136acb	-0.14396207
38	0x3dd2a707	0.10285764
39	0x3dd4584a	0.10368402
40	0xbe0551ec	-0.13019532
41	0xbe320ea6	-0.173884
42	0x3e0dde74	0.1385439
43	0x3e2ff0a6	0.17181644
44	0xbe5cdf49	-0.21569552
45	0xbd8f14a1	-0.069863565
46	0xbe8380eb	-0.25684294
47	0x3ccebf31	0.025237652
48	0x3d8b52c2	0.06802894
49	0xbd4f3b85	-0.05059387
50	0x3e06f526	0.13179454
51	0x3e5fd284	0.21857649
52	0x3de8f688	0.11375147
53	0xbac28cd3	-0.0014842994
54	0xbe997d9e	-0.2997865
55	0x3cc6f986	0.024288904
56	0xbd1704c7	-0.03686979
57	0x3e4ef0b7	0.20209013
58	0x3e73d743	0.23812585
59	0x3d8a256e	0.067454204
60	0x3e128155	0.14307149
61	0xbe76d1be	-0.24103448
62	0xbe3753b5	-0.17903025
63	0x3cbccf6e	0.023048129
64	0x3d45a865	0.048256297
65	0x3e851f25	0.26000324
66	0xbcbc2c47	-0.022970332
67	0x3e93ebef	0.2889094
68	0x3d4466ec	0.047949716
69	0x3def5ff6	0.11688225
70	0x3d95e457	0.07318943
71	0x3dbc473c	0.091932744
72	0xbda97611	-0.082744725
73	0x3ea578b2	0.32318646
74	0xbe151143	-0.14557366
75	0x3e55f769	0.2089516
76	0x3d9caa69	0.07649691
77	0x3e21c04b	0.1579601
78	0xbe1b7bb1	-0.15183903
79	0xbd9d9b55	-0.07695643
80	0x3d92ce99	0.071683116
81	0x3bdc7c0a	0.006728654
82	0x3d1d2f6c	0.038375303
83	0xbd5a2750	-0.053260148
84	0xbc96d2e8	-0.018411115
85	0x3db31826	0.0874484
86	0xbd30c61c	-0.04315768
87	0xbd91357d	-0.0709028
88	0x3d958ce6	0.07302265
89	0x3e580e12	0.21099117
90	0xbe909cfd	-0.28244773
91	0xbe1da72f	-0.15395807
92	0xbe00da52	-0.12583283
93	0xbc3636ab	-0.011121432
94	0xbd40dd29	-0.047085915
95	0xbdce94f1	-0.10087002
96	0x3a907a79	0.0011022828
97	0x3e70aeca	0.23504177
98	0xbd682640	-0.056677103
99	0xbd8a8970	-0.067644954
100	0x3df3f1a9	0.119113274
101	0xbc387af6	-0.011259785
102	0xbd61f54f	-0.055165585
103	0x3d0f1d9d	0.03494035
104	0x3dc193f2	0.094520465
105	0xbe2a764d	-0.1664669
106	0xbdc57d07	-0.09642988
107	0xbdca3656	-0.09873645
108	0xbebf192b	-0.3732389
109	0xbdb4ec7a	-0.08834167
110	0xbe276c38	-0.16349876
111	0xbe282890	-0.16421723
112	0x3e2d1a4e	0.16904566
113	0xbe0ce5fe	-0.1375961
114	0xbd4b4d56	-0.0496343
115	0x3cf7e69d	0.030261332
116	0x3e20b88f	0.15695404
117	0xbc40dfa9	-0.011772075
118	0xbbbbc0c3	-0.005729766
119	0xbe77487d	-0.24148746
120	0x3d7d1bbf	0.06179404
121	0xbd523d98	-0.05132827
122	0xbe299be2	-0.16563371
123	0x3da211c0	0.07913542
124	0xbe0ce20e	-0.13758108
125	0xbdbcb91d	-0.09214995
126	0xbe97ad58	-0.29624438
127	0xbe435be1	-0.19078018
128	0x3bf7d164	0.007562803
129	0xbe40febf	-0.18847178
130	0xbe25c916	-0.1618999
131	0x3e1b71ac	0.15180081
132	0xbda16de1	-0.07882286
133	0xbd629618	-0.05531892
134	0x3c83150c	0.016001247
135	0xbc441d23	-0.011969837
136	0xbd0349f2	-0.03205294
137	0x3e489cb6	0.1959103
138	0xbdb34dbb	-0.0875506
139	0xbe65dba6	-0.2244707
140	0x3c362f37	0.011119655
141	0xbd9fad4f	-0.07796728
142	0xbdc631e3	-0.09677484
143	0x3e0df36f	0.13862394
144	0xbd97676b	-0.07392772
145	0x3da0afab	0.07846006
146	0xbc42a64a	-0.011880467
147	0xbda0f427	-0.07859068
148	0xbd38abc8	-0.0450857
149	0x3dda1808	0.10649115
150	0x3b42b547	0.00297101
151	0x3d71aed9	0.05900464
152	0x3e0422ab	0.1290385
153	0x3d80121a	0.062534526
154	0x3dc24e9e	0.09487651
155	0x3e0fc8cf	0.14041446
156	0xbd031261	-0.03199995
157	0x3dfebe8d	0.124386884
158	0xbd090841	-0.033455137
159	0x3d80c5bc	0.06287715
160	0x3cfb7bd3	0.030698692
161	0x3dad0f54	0.08450189
162	0x3d44ca12	0.04804427
163	0xbe36a16d	-0.17835017
164	0xbcb34412	-0.021883044
165	0x3e2088dd	0.15677209
166	0xbe1c55d7	-0.1526712
167	0x3e85b5ca	0.26115257
168	0x3d7489d3	0.059701752
169	0x3e540478	0.2070483
170	0x3dcdff57	0.10058468
171	0xbd4b57a4	-0.049644127
172	0xba5cf232	-0.0008428424
173	0xba438e9c	-0.000745991
174	0xbb12778e	-0.0022349092
175	0x3ce55fcb	0.02799978
176	0xbe859486	-0.26089877
177	0x3d37e119	0.044892404
178	0x3d40c98c	0.04706721
179	0x3d585290	0.052813113
180	0xbc461914	-0.01209094
181	0x3dc75af1	0.097341426
182	0xbd0515ed	-0.032491613
183	0x3e3038c6	0.17209157
184	0xbdf45ea3	-0.11932113
185	0xbc0b6551	-0.008508042
186	0xbda8b8eb	-0.08238395
187	0x3e0e48b1	0.13894917
188	0xbcf96661	-0.030444326
189	0x3d77e4b8	0.060520858
190	0x3e52b37d	0.20576282
191	0xbdf25e0a	-0.11834343
192	0x3d8a0f95	0.06741253
193	0xbd9e586c	-0.07731709
194	0xbd18e3ec	-0.03732674
195	0x3c85f9ab	0.016354403
196	0x3d992c92	0.07479204
197	0x3e136617	0.14394413
198	0xbd2ea23d	-0.04263519
199	0x3d2d63d9	0.04233155
200	0x3d0399e6	0.03212919
201	0xbdc971c0	-0.09836149
202	0x3da3140d	0.07962809
203	0x3e6be74e	0.23037454
204	0x3e554b6a	0.2082955
205	0xbd03fdaa	-0.032224335
206	0x3d97573c	0.073896855
207	0xbd2fcfb9	-0.04292271
208	0xbc2c1245	-0.010502403
209	0xbd9819e4	-0.07426813
210	0xbde861e9	-0.113468
211	0xbdc892cb	-0.097936235
212	0xbd20962a	-0.039205708
213	0xbe31298a	-0.17301002
214	0xbd055a4e	-0.032556824
215	0xbdcfe664	-0.101513654
216	0x3dd23d5d	0.1026561
217	0xbd987048	-0.07443291
218	0x3dd2ba71	0.10289467
219	0xbc960e01	-0.018317224
220	0xbdef5aa0	-0.11687207
221	0xbe30f53a	-0.17281047
222	0x3dd90a20	0.10597634
223	0xbdc9c961	-0.09852863
224	0xbe632ca0	-0.22184992
225	0x3df2cc40	0.11855364
226	0xbb5d1d29	-0.0033739305
227	0xbe5f5d64	-0.2181297
228	0xbce2f8c7	-0.027706517
229	0x3dac3f55	0.08410517
230	0xbe9e0d7a	-0.30869657
231	0xbc092458	-0.008370481
232	0x3d008cb6	0.031384192
233	0xbc1e9eda	-0.009681428
234	0xbe802409	-0.25027493
235	0xbd21354c	-0.03935747
236	0xbb9902bb	-0.004669515
237	0x3c758ab5	0.014986684
238	0xbe3e2f37	-0.18572699
239	0x3e839e5e	0.25706762
240	0x3c287eeb	0.010284166
241	0x3d966c68	0.073448956
242	0xbc3b074d	-0.011415315
243	0x3e0b0a34	0.13578111
244	0x3e6288d6	0.22122511
245	0xbe7aee4f	-0.2450497
246	0xbc6ee51e	-0.014580993
247	0xbe252044	-0.1612559
248	0x3de7855b	0.113047324
249	0x3ce1e304	0.02757407
250	0xbdcd5041	-0.10025073
251	0x3d7a5317	0.061114397
252	0x3e6c1a20	0.23056841
253	0xbdd31396	-0.1030647
254	0xbd0304e0	-0.03198707
255	0x3d04205d	0.032257427

lstm.bias_ih f4 [512]
0	0x3da7e025	0.08197049
1	0xba1712d8	-0.0005763001
2	0x3d8ecc1f	0.06972527
3	0x3de4ca1d	0.111713625
4	0x3e4292c0	0.19001293
5	0x3db9a479	0.09064574
6	0x3d9059aa	0.07048352
7	0x3d8a8634	0.067638785
8	0x3da1ef92	0.079070225
9	0x3cf25027	0.029579235
10	0xbccf0ee2	-0.025275651
11	0xbbd36a01	-0.0064518456
12	0x3df33540	0.11875391
13	0xbc15c5d0	-0.0091414
14	0x3dc50c04	0.096214324
15	0xbd3be9cb	-0.04587726
16	0x3d140b47	0.036143567
17	0x3e099c4c	0.13438529
18	0xbd3c05a7	-0.045903828
19	0xbd0aa54b	-0.033849042
20	0x3ba8811d	0.0051423446
21	0x3dbff66f	0.09373175
22	0x3e08b220	0.133492
23	0x3db9e0fb	0.09076115
24	0x39c235a9	0.00037042543
25	0x3e1bf699	0.15230788
26	0x3dd13032	0.10214271
27	0x3d42bdf1	0.047544423
28	0x3e109f9e	0.14123389
29	0xbcfd72f7	-0.030938609
30	0xbd59e926	-0.053200863
31	0x3d9f80c3	0.07788231
32	0x3c812d73	0.015768742
33	0x3d2ddd3e	0.04244732
34	0x3ce23ec4	0.02761782
35	0x3d9d891e	0.07692169
36	0x3dc15e60	0.09441829
37	0x3e05c370	0.13062835
38	0xbd8971b1	-0.06711138
39	0x3cc82534	0.024431802
40	0x3db5aed9	0.0887124
41	0xbd4b73d3	-0.049671005
42	0x3cfaa9a9	0.030598478
43	0x3db76e0a	0.08956535
44	0x3d06874c	0.032843873
45	0x3cea5b61	0.028608026
46	0xbc7aa098	-0.015297078
47	0x3da71419	0.0815813
48	0xbca24c39	-0.019811736
49	0x3d7ee6f2	0.062231965
50	0x3da36578	0.07978338
51	0x3c011f62	0.007881017
52	0xbb48485c	-0.0030560708
53	0x3caed904	0.021343715
54	0x3dbdd659	0.09269399
55	0xbc43b3e3	-0.011944744
56	0xbd1aba4b	-0.03777532
57	0x3e00b54a	0.12569156
58	0x3e08358a	0.13301674
59	0x3d7aac6b	0.061199587
60	0xba0bdd3e	-0.0005335397
61	0x3d3803c6	0.044925474
62	0x3e046961	0.12930824
63	0x3e07dd7b	0.13268082
64	0xbd3d0ade	-0.046152942
65	0x3d7c7ded	0.06164353
66	0x3d60c61c	0.05487643
67	0xbd11ef13	-0.03562839
68	0xbcb16157	-0.02165286
69	0xbca52463	-0.020158952
70	0x3d45bae6	0.048273943
71	0x3cba0291	0.022706302
72	0x3d4b040b	0.049564403
73	0xbc4c2fb2	-0.012462543
74	0x3e058b11	0.13041331
75	0x3db9b7a3	0.09068229
76	0x3e017ce9	0.12645306
77	0x3e3d152e	0.1846511
78	0x3d8fb604	0.070171386
79	0x3dd4c875	0.10389797
80	0x3da726ba	0.081616834
81	0x3dcd153b	0.10013815
82	0xbbd5b9b3	-0.006522381
83	0xbcce324a	-0.025170464
84	0x3e222680	0.15834999
85	0x3e28349c	0.16426319
86	0x3e023bda	0.12718144
87	0x3cd6d151	0.026222857
88	0xbdc9c6ab	-0.09852346
89	0x3c09b3a7	0.008404649
90	0xbd4775c8	-0.04869631
91	0x3d49257b	0.04910801
92	0x3d79f16c	0.061021253
93	0xbd5adfe4	-0.053436175
94	0x3dea70ba	0.11447282
95	0xbc3cbd65	-0.011519765
96	0x3d21959d	0.039449323
97	0x3da2b97d	0.07945535
98	0x3df195fc	0.117961854
99	0x3de3125a	0.11087485
100	0x3c4cd007	0.012500769
101	0x3d667a06	0.056268714
102	0x3d2214ca	0.039570607
103	0xbc59e619	-0.013299488
104	0x3dac237d	0.08405206
105	0x3dfcf86e	0.12352072
106	0x3cd227b5	0.0256537
107	0x3e1336c4	0.1437636
108	0x3df49e41	0.11944247
109	0xbb277cd8	-0.002555659
110	0xbbbfb2bf	-0.0058501656
111	0xbd6c00c2	-0.05761791
112	0xbd8ec538	-0.0697121
113	0x3e2a534e	0.1663334
114	0x3db2d022	0.087311044
115	0xbc2d9161	-0.010593743
116	0x3d0e65dd	0.034765113
117	0x3d622410	0.055210173
118	0x3bf4bac9	0.0074685556
119	0xbd18295b	-0.037148815
120	0xbd1cfa70	-0.038324773
121	0x3de82b08	0.113363326
122	0x3c20fa36	0.00982528
123	0x3d0e9904	0.034813896
124	0x3de8df96	0.11370771
125	0x3e29244c	0.16517752
126	0x3dbc93ad	0.092078544
127	0x3d62e32b	0.055392426
128	0xbd256089	-0.040375266
129	0x3da07f7a	0.07836814
130	0xbd803a77	-0.06261151
131	0xbd91af8a	-0.071135595
132	0x3d3cba36	0.046076022
133	0x3bd91eaa	0.00662597
134	0x3d4bbe77	0.04974219
135	0xbcbb475d	-0.022861177
136	0x3dc26d68	0.09493524
137	0xbd14a56c	-0.03629057
138	0xbce6289a	-0.028095532
139	0xbcb1e5fb	-0.021716109
140	0xbcb11bcd	-0.021619702
141	0xbd00a74c	-0.031409547
142	0x3bb27ea7	0.005447227
143	0x3db2ce88	0.08730799
144	0xbca36c0b	-0.01994898
145	0xbe11016d	-0.141607
146	0xbd00d05d	-0.03144871
147	0xbc9ded53	-0.019278204
148	0x3d029224	0.03187765
149	0x3d037b9b	0.0321003
150	0x3c245070	0.010028943
151	0xbd28d739	-0.041220877
152	0xbdd4355d	-0.10361741
153	0xbd0b64c2	-0.034031637
154	0x3d304384	0.043033138
155	0xbd122017	-0.035675135
156	0xbc0aa791	-0.0084628025
157	0xbc9d7985	-0.019222984
158	0xbcf42106	-0.029800903
159	0x3c060a80	0.008181214
160	0x3ce52abb	0.027974477
161	0x3d7715b9	0.06032345
162	0x3da6f6cc	0.081525415
163	0xbdb6092b	-0.088884674
164	0x3cbd8db4	0.023138858
165	0x3cf86588	0.030321851
166	0x3d8eb7ca	0.06968649
167	0x3d16d014	0.036819533
168	0x3db25a2f	0.087086074
169	0x3d234c79	0.039867852
170	0xbcd51a86	-0.026013624
171	0xbd1c437d	-0.0381503
172	0xbdad2202	-0.08453752
173	0xbda2c76a	-0.079481915
174	0xbdf1f45f	-0.11814188
175	0x3ccf0d46	0.025274884
176	0x3c8c2123	0.017105645
177	0xbdc97da3	-0.098384164
178	0x3ca427a7	0.020038439
179	0xbc3d5213	-0.011555213
180	0xbd696341	-0.05697942
181	0xbdd9b118	-0.10629481
182	0xbd2bc332	-0.0419342
183	0xbc4ac430	-0.012375876
184	0xbda1454d	-0.07874546
185	0xbcb865d9	-0.022509502
186	0xbe0dc511	-0.13844706
187	0xbd545f19	-0.051848505
188	0xbdba2421	-0.09088922
189	0x3d4604ed	0.04834454
190	0xbdb3e2cb	-0.08783492
191	0xbc949981	-0.018139603
192	0x3d78d433	0.060749244
193	0xbd81fa59	-0.06346578
194	0xbcfd1237	-0.030892475
195	0xbd27ecfd	-0.040997494
196	0xbb9708fc	-0.0046092253
197	0x3d711a74	0.05886312
198	0xbdda52d8	-0.106603324
199	0xbd69c3d3	-0.05707152
200	0x3daadd4f	0.083429925
201	0xbd8188f9	-0.063249536
202	0x3c6c6c7e	0.014430163
203	0xbcbe985f	-0.023266016
204	0x3d97151b	0.073770724
205	0xbdcb15aa	-0.099162415
206	0x3d52d29b	0.05147038
207	0xbdd0d026	-0.10195951
208	0x3ca3aaf3	0.019978976
209	0xbd93c9ca	-0.072162226
210	0x3c12327f	0.008923172
211	0xbd898b8c	-0.067160696
212	0x3d3352e7	0.043780234
213	0xbd87920c	-0.06619653
214	0xbca94bd7	-0.020666046
215	0xbd4af9c4	-0.0495546
216	0xbd0a689d	-0.033791173
217	0x3df3c6f0	0.11903179
218	0xbd5b5a1e	-0.05355274
219	0xbe130717	-0.14358173
220	0xbda06d9f	-0.078334086
221	0xbccc68f5	-0.024952391
222	0xbdbcbe75	-0.09216014
223	0xbdac64cc	-0.08417663
224	0xbe07babd	-0.13254829
225	0xbd94dc31	-0.07268561
226	0xbde79d3a	-0.113092855
227	0x3d05a395	0.032626707
228	0xbd32b533	-0.043629836
229	0xbdbd5c1c	-0.09246084
230	0xbd80c81a	-0.06288166
231	0xbd73fe37	-0.05956861
232	0xbd36b776	-0.044608556
233	0x3c64d4be	0.013966737
234	0xbd931f6d	-0.07183728
235	0xbd62f0f3	-0.05540557
236	0xbd95dc19	-0.07317371
237	0x3cb42c54	0.021993794
238	0x3ccc347d	0.024927372
239	0x3d7c083e	0.061531298
240	0x3d57d867	0.05269661
241	0xbda647ba	-0.081191495
242	0xbd644859	-0.05573306
243	0xbd8e57bb	-0.06950327
244	0x3df34c3e	0.118797764
245	0xbd393736	-0.04521867
246	0xbcabd4d0	-0.0209755
247	0xbdd81f0d	-0.105527975
248	0xbaf5f425	-0.0018764777
249	0xbd9d970d	-0.07694826
250	0x3d544244	0.05182101
251	0x3d62d11d	0.055375207
252	0xbbec2f83	-0.0072078123
253	0xbcd9ac5d	-0.026571447
254	0x3c468ba0	0.01211825
255	0xbdd14752	-0.102186814
