evaluation_results/models/list_npi_2020_2_24-17_22_3-1824-False-False-1.0-True-0.0-False-False-True-False.pth (torch_old, 973641 bytes, 16 tensors)

Mprog.weight f4 [5, 256]
000000 b1 4b 71 3f 76 0a ed 3f 8d 14 e5 be 31 01 d9 3f
       0.9425612 1.8518817 -0.44742242 1.6953489
000010 67 7b 97 3e 1e 5b 53 bf b0 a8 69 3f 93 39 a0 3e
       0.29586336 -0.8256091 0.9127302 0.31293926
000020 5b 2f 8a be 58 92 fb bd d1 09 44 bf f5 72 8b 3e
       -0.26989254 -0.12283772 -0.7657748 0.27236143
000030 46 f6 a0 3c af ac f3 3f 70 c0 b3 bf f2 65 c4 3e
       0.019648682 1.9037074 -1.4043102 0.38359028
000040 ae 36 d3 3f 9b d8 11 bd 19 97 9a bf b7 84 1f 3f
       1.6501062 -0.03560696 -1.2077361 0.6231188
000050 00 7b 22 40 c5 be 6d 3e 0b 45 c5 bf 2a e8 c8 3f
       2.5387573 0.23217304 -1.5411695 1.5695851
000060 90 96 85 3f 6e 66 7b be d1 9f 9f 3d 8e 1c 44 40
       1.0436573 -0.24550793 0.077941544 3.0642428
000070 d9 dc 9e bf b7 ae 1a 3f 9f 69 3d 3e 98 89 af bf
       -1.2411147 0.60422844 0.18497322 -1.3713865
000080 a5 9e 07 40 57 13 00 3e c7 9c 81 bf ba a7 04 40
       2.119058 0.12507378 -1.012597 2.0727372
000090 ce 19 8f 3e 5c 8d 2b 3f fa 50 43 3f 90 75 44 3e
       0.27949375 0.6701257 0.76295435 0.19185472
0000a0 ef fc 4c 40 e5 8b f2 bf 4f c3 2f 3f 90 fc 9d 3d
       3.2029378 -1.8948942 0.6865739 0.07714188
0000b0 0f 63 61 3f 6f 60 14 bf b0 be 36 be f2 1a 00 3d
       0.88041776 -0.57959646 -0.17846179 0.031275697
0000c0 05 d5 bc be 56 71 51 bd 1e e8 01 40 46 a8 44 be
       -0.3688127 -0.051133476 2.0297923 -0.19204816
0000d0 2b d7 12 3f b9 39 fe be cb bf 1e 3f ec 7a ad bd
       0.5735957 -0.49653414 0.620114 -0.08470711
0000e0 cd 03 8c 3e 75 cd d5 be 6f 8b bb bf 06 cb 9c be
       0.2734665 -0.41758314 -1.4651927 -0.30623645
0000f0 96 a0 cc 3d 7b 33 93 bf a4 68 e2 be a3 e1 2a bf
       0.09991567 -1.1500086 -0.4422046 -0.66750544
000100 a5 4a c8 3f 69 14 a0 bf cc 2a cc 3f 0c b1 0d bf
       1.564778 -1.2506229 1.595056 -0.5534828
000110 ff 27 e4 bf e8 b2 c3 bd 06 8a 4f 3f 3b f0 d0 3f
       -1.7824706 -0.09555608 0.8106998 1.6323313
000120 25 6f 87 bf dc 31 4f bf 20 62 2c c0 40 ee 3d bf
       -1.0580794 -0.80935454 -2.693489 -0.74191666
000130 fb 48 c0 bd a8 61 d2 be b3 6e fa be 39 9b 27 be
       -0.0938892 -0.4109013 -0.48912582 -0.16367806
000140 43 ac d3 3e 7f 75 c7 be b9 a2 91 3f 22 1b 8f 3f
       0.41342363 -0.3895683 1.1377784 1.1180155
000150 af 6e 49 bf a5 54 79 c0 71 e8 7e bf 5a 1d 51 3c
       -0.78684515 -3.8957913 -0.9957343 0.012763346
000160 26 97 0a be c2 81 53 bf 9f 66 7a 3f 67 d6 a8 bd
       -0.13534221 -0.8261987 0.9781284 -0.08244019
000170 42 71 82 3f 08 41 8d 3e fb 12 a2 3d 15 6f 0a 3f
       1.0190814 0.27588677 0.079137765 0.5407575
000180 d1 cb 7d bf 9f 2a 22 3f 77 d1 9f bf 9e 5e 5b 3f
       -0.99139124 0.63346285 -1.2485799 0.8569125
000190 1d 8a 55 bf db 93 8c 3f 1d 79 7c bd 9f 6c fc 3f
       -0.8341387 1.0982622 -0.06163894 1.9720649
0001a0 55 99 90 3f b3 ca 61 bf b7 2a df bf 17 d5 ae bf
       1.1296793 -0.8819992 -1.743491 -1.365878
0001b0 91 dd 9c bf 93 4f 31 bf 05 59 cb 3f 90 67 d1 3f
       -1.2255117 -0.69262046 1.5886542 1.635973
0001c0 da e5 5e 3e 4c 0d 9b bf 44 e7 51 bf ed 13 68 bf
       0.21767369 -1.2113433 -0.8199351 -0.90655404
0001d0 fc b0 1e 3f a9 0b 60 3e 58 4f 91 3f c0 1f 88 bf
       0.61988807 0.21879448 1.1352339 -1.0634689
0001e0 44 b0 2c bf 0f 3b a8 3e a3 59 4c 3f fe 6e dd 3e
       -0.6745646 0.32857558 0.79824275 0.43248743
0001f0 5f bc aa bf 73 cd 77 3d 8b 19 b0 3f 3d 0c 90 bf
       -1.3338736 0.060498666 1.3757795 -1.1253735
000200 b1 69 e4 bd 8c 03 04 bf 8f c8 f1 bf 88 91 14 3f
       -0.111529715 -0.5156791 -1.8889331 0.58034563
000210 89 67 96 bf 5e fa 40 bf 28 8a 81 3f bb 35 e6 bd
       -1.1750346 -0.7538203 1.0120287 -0.11240717
000220 e4 7f 41 3f 3d 36 45 bf 8b cd 6e 3d ef 7e 54 3f
       0.7558577 -0.77035886 0.05830149 0.83006185
000230 c0 b8 00 be c3 07 d2 be 24 ea c4 bf a6 34 a6 bf
       -0.12570477 -0.41021547 -1.5383954 -1.2984817
000240 95 39 ee 3e a1 c5 32 40 26 d7 66 3f 72 21 05 3f
       0.46528307 2.7933123 0.9017204 0.5200416
000250 07 ed 70 bf f8 ab 2c bd 3f 7c a1 bf ca 05 14 bd
       -0.94111675 -0.04215619 -1.2616042 -0.036138333
000260 08 63 a3 3e f6 73 04 c0 2d 9a af 3f 3b 4d 19 bf
       0.31911492 -2.0695777 1.3718926 -0.5988347
000270 fe fd 23 be c6 a8 13 be 5d e0 b7 be 89 51 f0 bf
       -0.16014859 -0.1441985 -0.35913363 -1.8774883
000280 d6 0d 89 3f a0 a8 45 be 0c 8b c3 3f 25 f8 a9 bf
       1.0707347 -0.19302607 1.5276809 -1.3278853
000290 f8 6c 39 3f d7 ed 6d bf 18 57 43 3f 5a b6 92 bf
       0.724319 -0.9294104 0.7630477 -1.1461899
0002a0 a1 9d 9c 3f 61 af 6b bd d2 fe cf be 91 89 6e 3f
       1.2235605 -0.0575403 -0.406241 0.9317866
0002b0 b8 eb d9 bf 69 2d 62 bf a7 fe 5e 3e f2 2b 0f bf
       -1.7025061 -0.8835054 0.2177683 -0.5592643
0002c0 cc 21 08 3f ad 55 72 be d0 3d 58 bf 9c b7 67 bf
       0.5317657 -0.23665495 -0.8446932 -0.9051454
0002d0 92 d6 e1 bd d1 32 97 bf 92 e3 3b bf 64 99 93 3f
       -0.11027254 -1.1812383 -0.7339412 1.1531186
0002e0 8e 2a 92 bf 25 8b cb bf e7 ae 2f 40 0d f9 b6 bd
       -1.1419237 -1.5901839 2.7450502 -0.089342214
0002f0 98 ed a3 3e bb b1 7f bf 77 3e 95 3f ab 6a 63 be
       0.32017207 -0.9988057 1.1659688 -0.2220866
000300 fb 01 72 bf 9d 7f a9 bf 16 b5 80 3e dd 54 0e bf
       -0.9453427 -1.324207 0.25138158 -0.5559824
000310 6e a7 60 bf 3c cb ba 3f ef f3 18 3f 6c 2d 99 be
       -0.8775548 1.4593272 0.59747213 -0.29917467
000320 0f 7b 56 be f4 79 4a 40 29 02 9a be f4 8b cc bf
       -0.2094538 3.1636934 -0.30079773 -1.598021
000330 af 48 d0 bc b9 2c 6d 3f b3 10 95 3f 5b 3b 7f 3f
       -0.025425283 0.92646366 1.1645721 0.99699944
000340 f1 7e 5e bf 02 dd e5 3f 86 6e 1f 3f 28 c8 3e bf
       -0.8691245 1.7958071 0.6227802 -0.74524164
000350 40 06 98 3f 2b 48 99 3f ac 12 85 bf 49 fa 3e 3f
       1.1876907 1.1975149 -1.0396323 0.74600655
000360 30 59 92 3f 2d c0 90 3c d3 d6 72 bf 9f 4f 87 bb
       1.1433468 0.017669762 -0.94859046 -0.0041293646
000370 7a 77 00 3e a5 06 1b bf 83 29 82 3e 0c e9 1f bf
       0.12545577 -0.60557014 0.25422296 -0.62464976
000380 b1 71 03 be 48 6c a3 bd b2 cf 8a bf e5 27 78 3f
       -0.12836339 -0.079796374 -1.0844634 0.96935874
000390 51 91 51 3f 18 ba 99 3d a9 50 d3 3e d8 1e 95 3f
       0.8186236 0.07506198 0.41272476 1.1650038
0003a0 22 17 9f be 30 9b ce be 6d bb 29 40 ed ab 8d be
       -0.31072336 -0.40352774 2.6520646 -0.2767023
0003b0 81 2b 32 3f 6a 43 ae 3f 32 64 46 3f 23 97 18 bf
       0.6959763 1.3614323 0.77496636 -0.59605616
0003c0 4b 93 fd 3c 8b 19 ea 3e 56 61 d4 bd 69 27 61 3f
       0.030954024 0.45722613 -0.10370128 0.8795076
0003d0 2e ab d3 3e d7 71 18 c0 27 26 3a 3f 4f f8 48 3f
       0.41341537 -2.3819482 0.72714466 0.7850389
0003e0 f1 a6 53 3e 08 99 21 bf 26 2a 4b bf 15 be 1b bf
       0.20669152 -0.6312413 -0.7936119 -0.6083692
0003f0 f7 e4 7e bf c8 f4 77 bf 7b f4 0c 40 b3 0d e2 be
       -0.9956812 -0.9685788 2.202422 -0.44151077

encoder.l1.weight f4 [100, 64]
000000 e9 a5 81 3d f5 7b 8f 3d 90 83 0d be a7 dd c1 bd
       0.06330473 0.07006065 -0.13819718 -0.09466105
000010 ba 02 88 3d 9b 9e f9 bd d1 7f 1e 3e d6 f6 05 3e
       0.06641145 -0.12188455 0.15478446 0.13082442
000020 5e 40 e7 bc 22 cd fa bd 5d 48 39 3e 25 5f 03 bd
       -0.028228935 -0.12246157 0.1809401 -0.03207316
000030 45 1b 98 3d c7 f6 1f bd 84 4e ba 3c e5 3a 1b 3e
       0.07427076 -0.039053705 0.022742517 0.15159185
000040 3b a5 f3 bd b1 39 2c be a2 dd 72 3d 74 5b 58 3d
       -0.118967496 -0.16818883 0.059293397 0.05282159
000050 37 94 7e 3d 94 38 38 be a3 7c aa 3d ba 4d c4 bc
       0.062153067 -0.17990333 0.08324554 -0.023962844
000060 25 a2 cc 3c 48 cc 84 bd 9d ba 14 bd c0 39 fb bd
       0.02497966 -0.06484276 -0.03631078 -0.12266874
000070 d4 42 02 be f5 c8 a1 3d d0 4a ab 3d 0b ef 08 3d
       -0.12720805 0.07899658 0.08363879 0.033431094
000080 71 86 97 3c 3c 5c 17 bd 76 d2 04 3d 5e e5 98 3e
       0.018496724 -0.036953196 0.032427274 0.29862493
000090 4b 12 1d 3e c5 ef 2f be d1 b9 9a 3c e1 0b fb 3d
       0.1533901 -0.17181309 0.018887432 0.12258125
0000a0 eb 09 d1 3d f5 57 e5 be 03 14 6e 3e 40 3b 47 3b
       0.1020697 -0.44793668 0.23249821 0.0030400306
0000b0 48 f7 70 be b2 ea b1 3d ac 1f 46 3e bc 74 c8 3c
       -0.2353183 0.08687343 0.1934802 0.024469726
0000c0 1d 6f ef 3d c8 d9 87 bd 3a 54 5f bd 7d 67 9f 3d
       0.11691115 -0.06633335 -0.054523684 0.07783411
0000d0 a9 25 c0 bc 67 eb a4 3b 33 a0 b8 bd b0 e2 94 be
       -0.023455458 0.005032945 -0.090149306 -0.290792
0000e0 6b d5 b0 3c bc 1f fb be e1 bb 77 3d 4e f4 06 3e
       0.02158614 -0.4904765 0.06048191 0.13179132
0000f0 79 39 63 be 1f 35 73 3e e8 db 3d bd 83 49 eb 3d
       -0.22189893 0.23750733 -0.046352297 0.114886306
000100 49 3c f7 3d c8 9c 94 3d c3 a3 49 3c a9 f4 35 bd
       0.12072045 0.07256466 0.01230711 -0.04442278
000110 67 88 06 bd 56 6b aa 3d 32 44 8b 3d 4e ef 1b be
       -0.032844927 0.08321254 0.068001166 -0.15228006
000120 cb 03 be 3d fd 73 bc bd 40 65 54 bd 3b 8e 25 3e
       0.09278067 -0.092018105 -0.051854372 0.16167538
000130 df 28 90 bc 16 f6 80 bc 01 33 60 3d 2f 28 91 bb
       -0.017597614 -0.015742343 0.05473614 -0.004429839
000140 5b 35 8e bd 19 fa c0 bd 9a 61 3d bc 59 ad 8e bd
       -0.069437705 -0.09422702 -0.011558915 -0.06966657
000150 0f 4b e6 3d f0 c4 10 3e 56 af 9f 3c c5 a5 d7 3b
       0.11244785 0.14137626 0.019492786 0.0065810406
000160 24 a9 b0 3c 37 4e 12 3b 00 c4 51 3d fd 1d 2d be
       0.021565028 0.0022324452 0.05121231 -0.16905971
000170 36 c5 de bd c9 e4 b6 bc 9c 43 a2 3d 17 14 04 3e
       -0.10877459 -0.02232589 0.07923052 0.12898289
000180 fa 74 3d be ba c2 97 3e df 3d 2f 3d 8a b7 9a 3e
       -0.18501654 0.29640752 0.042783614 0.30218154
000190 77 c2 1d 3e 43 d5 db 3d c6 40 11 3e fc 02 6d 3c
       0.15406214 0.10734036 0.14184865 0.014466044
0001a0 35 a4 e9 bc 12 63 88 3d 78 6d 04 3e d5 00 0f bd
       -0.028520683 0.06659521 0.12932384 -0.034912903
0001b0 e9 0c de 3d 7f cb 79 bc e4 14 56 3e 49 cd 2c 3a
       0.10842306 -0.015246271 0.20906407 0.0006591869
0001c0 96 68 0b 3e 23 93 eb bd f9 b8 04 be 20 86 4d 3e
       0.13614115 -0.115026735 -0.12961186 0.20070696
0001d0 d7 ae 41 3c 51 cc 29 3b f0 b4 31 3e e8 75 8a be
       0.01182147 0.0025909136 0.17354178 -0.2704308
0001e0 71 5e a4 3d 22 fe 1c bf c0 f2 99 3e 6f bf b0 3e
       0.08025826 -0.61325276 0.30068016 0.34521052
0001f0 cc 48 03 be 11 47 0e 3e 7a e9 11 bc 8d a9 87 bd
       -0.12820739 0.13894297 -0.008905763 -0.06624136
000200 68 6e 7a be 64 5d 47 be 78 9f 77 bc d6 86 08 3e
       -0.24456179 -0.1946922 -0.015113704 0.13332686
000210 0f 28 63 bd 1a 31 b3 3c 87 9d 08 3d a8 c5 8a bd
       -0.055458125 0.021874 0.033353355 -0.06775981
000220 42 96 ce 3d 86 2a 37 3c 33 3d d4 bd 8c 53 5c 3e
       0.10087253 0.011179572 -0.10363235 0.21516246
000230 8d c9 11 3e a4 85 55 3e ac db 32 be 56 43 93 bd
       0.14237042 0.20851761 -0.1746661 -0.07190578
000240 00 62 8d 3d f1 5f e2 bd 34 e8 b7 bd 61 df c2 be
       0.06903458 -0.110534556 -0.08979836 -0.3806105
000250 b4 74 d0 be af cd bf be 85 84 0a 3d 3a ce 23 3d
       -0.40714037 -0.37461612 0.033817787 0.039991595
000260 e6 f8 06 bc b0 00 c0 3d e7 21 9c 3d dd ed e7 3d
       -0.008238053 0.09375131 0.07623654 0.11324666
000270 29 37 71 3e c1 f6 79 3c c9 ef 1f bb f3 d8 b6 3d
       0.23556198 0.015256585 -0.0024404398 0.089280985
000280 c5 88 14 be 4c 5c 16 3d de 4c 8b 3e 49 f5 ff 3d
       -0.14505298 0.036709115 0.27207083 0.12497956
000290 1d 7f 1e 3e d4 96 a5 3d e4 b2 ac 3c 27 f7 bb 3d
       0.15478177 0.08085409 0.021081395 0.09178
0002a0 82 a8 bb 3c 01 da 91 3d ff 8a af 3e 28 42 60 3d
       0.0229075 0.07121659 0.34285733 0.05475059
0002b0 2e 1e f0 3c bc e2 4f 3e 7f a0 24 3e 78 6b 3c 3e
       0.029311266 0.20301336 0.1607685 0.18400371
0002c0 1f 6c c5 3d 2b 68 85 bc f1 bd 9b bd 14 7b d2 3e
       0.09639763 -0.016285023 -0.07604588 0.41109526
0002d0 84 df 05 3e 2b 73 db 3b 83 2e 19 be 75 96 90 be
       0.13073546 0.0066970787 -0.14959149 -0.2823979
0002e0 43 55 51 3e 3a 54 73 be 25 b4 ad 3d dc 04 1f bd
       0.20442681 -0.23762599 0.084816255 -0.038822994
0002f0 fd 6c 0a 3d 2d 2b 84 3d d1 ff a8 3d 45 89 40 3a
       0.033795346 0.064535476 0.08251918 0.00073446735
000300 a8 15 0c be df e7 90 bd 53 65 90 3d cf 7c 97 3d
       -0.13680136 -0.07075476 0.07050576 0.07396852
000310 7e 7a 96 3d 72 2f bf 3d 42 8f ea 3d 9a e2 2b 3e
       0.07347582 0.09335221 0.114531055 0.1678566
000320 92 86 b9 3d 4f b0 44 3e 23 db fb 3e a9 3b e7 3d
       0.090588704 0.19207881 0.49190626 0.11290676
000330 f3 36 8b 3d c4 f0 3c 3e a9 56 eb 3c 09 ff 41 bd
       0.0679759 0.1845122 0.028727846 -0.04736236
000340 3b b7 27 be 8f e7 80 bd 43 4c 25 3d ff 5b 0e be
       -0.1637849 -0.06294166 0.040355932 -0.13902281
000350 c3 77 80 3d 25 44 fa 3d 8f cc 50 3e 2b 2d a4 bc
       0.06272843 0.12220029 0.20390533 -0.020041069
000360 d3 fa f2 3c 3b ce 94 3d 1c 14 15 3e 15 4e 69 bc
       0.029660618 0.07265898 0.14558452 -0.014239808
000370 5e bf 28 bc a6 0d a7 3c 45 a1 d2 3b e2 db ee bc
       -0.010299532 0.02039225 0.006427916 -0.029157583
000380 44 98 a2 3c 65 0a 60 bd 79 0b 12 bd 07 16 a7 3d
       0.019847997 -0.054697413 -0.035655472 0.08158498
000390 7d 43 01 3e 5e 79 89 3a b4 a2 21 bd 02 d1 e5 3c
       0.12623401 0.0010488441 -0.039461806 0.028053764
0003a0 a0 17 c6 3d e8 9b 6e be 78 33 bd bd 2b 20 fb 3d
       0.09672475 -0.23301661 -0.092383325 0.12261995
0003b0 3e b3 7b bd ff fb 5e 3b 93 9c 9b bd 6d 58 0e 3e
       -0.061450236 0.0034024713 -0.075982235 0.1390092
0003c0 c3 b9 24 bd 2c 4f 44 3e 0f 75 a1 bd 2f e2 e8 3c
       -0.04021622 0.19170827 -0.07883655 0.028428165
0003d0 d9 87 01 3d e7 14 13 be 7f b0 1b be b7 60 0f 3d
       0.031623695 -0.14363442 -0.15204047 0.035004344
0003e0 c8 ef 5d 3e 7a 09 f8 bb 78 b1 76 be f4 d9 6c 3e
       0.216735 -0.007569489 -0.24091136 0.23130018
0003f0 69 49 e7 3d db ff 58 bd 8e 7e 2c 3d b2 65 23 bb
       0.11293299 -0.052978378 0.04211288 -0.0024932441

encoder.l1.bias f4 [100]
000000 78 57 bd 3b e4 b7 fc bd 4c a7 f8 3c 41 7c 01 3e
       0.0057782494 -0.12339762 0.03035321 0.12645055
000010 a2 a7 24 bd 3e 1f ea 3c ec c5 2b bd 95 b6 36 39
       -0.04019893 0.02857935 -0.0419368 0.0001742489
000020 f1 f4 5a bc e0 e0 55 bd 45 75 b7 3d 6f fa 96 3d
       -0.013364063 -0.05221641 0.08957914 0.07371985
000030 8e 75 c1 3d 6f 9c 81 bd 0e 9a c2 3c 0b eb 9d bc
       0.0944625 -0.063286655 0.0237551 -0.019277116
000040 3a a2 c0 3d 5d 2a da 3b f2 47 bd 3c 65 de 82 bd
       0.09405942 0.006657882 0.023105595 -0.06390075
000050 a8 eb d0 3d 7f dc 9a bd 48 8c 62 bd 94 e0 65 3d
       0.10201198 -0.075615875 -0.055309564 0.056122378
000060 76 b9 d7 3c 03 0f db 3d 33 56 72 bd e6 9c aa 3d
       0.026333552 0.10696223 -0.059164237 0.08330707
000070 ee a0 0d 3e aa c2 af 3d a6 be 03 3e d0 05 80 3d
       0.13830921 0.08582051 0.12865695 0.06251109
000080 4d 17 ec 3c 4f 2b 88 bd c2 77 92 3c 40 15 5b bb
       0.028819704 -0.066488855 0.01787937 -0.0033429414
000090 9f 8b 18 bd 38 3a cc 3d aa 30 b9 3c 7a fd d8 bb
       -0.037242528 0.09972042 0.022606213 -0.0066220136
0000a0 f6 e5 66 3d 40 13 ee 3c 7e 5b 23 3a c7 4e cd 3d
       0.05637165 0.029061913 0.000623159 0.10024791
0000b0 39 f1 fe bd 5a 0a 3d 3d 5d 9a 1b bd 38 85 48 3d
       -0.12448353 0.04615245 -0.03798901 0.048955172
0000c0 25 a7 bd 3d ab 2e f8 bc cd fa db 3d 98 6c a2 bc
       0.09260396 -0.03029569 0.10741196 -0.019827172
0000d0 21 65 da bc c1 90 db bc e9 07 a9 3d 68 61 a2 bd
       -0.02665955 -0.026802422 0.08253462 -0.07928735
0000e0 71 91 8e 3a f0 b6 64 3c 93 a6 ed 3d 3a 7c c6 3d
       0.0010877085 0.013959631 0.11604037 0.09691663
0000f0 20 b8 9c bd 9b d4 2c bd 45 92 93 3d a9 f4 b5 bd
       -0.076523066 -0.042194944 0.07205633 -0.08884556
000100 be c9 11 3d 95 3e 13 3d ca 0b 84 bb 80 e3 87 bd
       0.035592787 0.035948355 -0.0040297257 -0.06635189
000110 bb 66 0f 3e 22 ae 8f 3d f2 04 84 3d d0 6a 1b 3e
       0.14004032 0.07015635 0.06446256 0.15177464
000120 4d 08 7c 3d 1c 1a b4 3d ad 47 68 3c 3e 41 8b 3d
       0.061531354 0.087940425 0.014177245 0.06799553
000130 4c ef a5 bb 8b 70 b7 bd 65 ad d3 3d 97 0c bc 3d
       -0.005063927 -0.08957013 0.10335807 0.09182089
000140 6d 7c e9 bd 65 7e 19 bd c1 19 0a 3e f7 4f b4 bd
       -0.114006855 -0.037474055 0.13486387 -0.088043146
000150 be d9 99 bd 15 11 a7 3d 17 b1 22 bd 19 c7 24 3d
       -0.07512234 0.08157555 -0.039719667 0.040228937
000160 67 92 88 bd b8 5a 05 3e 5c cd 03 be cd 78 20 3d
       -0.06668549 0.13022888 -0.12871307 0.039177705
000170 3d 0b b2 3c 1e d4 a3 bc 0c e8 6c bc 32 2b f3 bd
       0.021733874 -0.019998606 -0.014459621 -0.11873473
000180 d0 27 4c bd e0 66 b3 bd dc 03 98 3d b3 ca 10 bc
       -0.049842656 -0.08759856 0.07422611 -0.00883739

encoder.l2.weight f4 [32, 100]
000000 7b 3c 82 bd 65 46 e2 bd 66 b9 db be 09 66 36 bd
       -0.06359192 -0.11048583 -0.42914885 -0.044530902
000010 01 46 01 3e 0e 5a fd bc 74 ec 5d be f8 d5 eb 3d
       0.1262436 -0.03092673 -0.21672231 0.11515421
000020 d6 68 38 bd e0 5b 41 be ab 43 a5 be d7 51 8d be
       -0.045021854 -0.18882704 -0.3227819 -0.276015
000030 51 7b 52 3e dd 52 46 3d a8 e7 d7 bb 23 b9 07 3d
       0.20554854 0.04841887 -0.006588895 0.033135545
000040 78 f5 d5 3d 8f e8 bf bc 75 cc 85 bd 39 b0 44 be
       0.1044721 -0.023426322 -0.06533138 -0.19207849
000050 23 56 27 3e b5 0d 7a be 29 2c 0d be c7 31 83 be
       0.16341452 -0.24419291 -0.13786377 -0.25623915
000060 dd e3 96 3d bf 55 b3 be 00 5e a8 3e e5 8d f8 3e
       0.0736768 -0.35026357 0.32884216 0.48545757
000070 03 48 22 3c 7f 53 03 3e fb a6 90 3e 46 c1 66 3d
       0.009904864 0.1282482 0.28252396 0.056336664
000080 7a f6 93 be e4 f1 5e 3d 87 26 a5 be b1 05 a2 be
       -0.28898984 0.054429904 -0.32255957 -0.31644967
000090 a3 eb 57 3e 7a fc 74 3d 56 0f b1 3d e4 7b 48 be
       0.21085982 0.059811093 0.08645503 -0.1957851
0000a0 0b 35 c6 be b8 49 10 3e 2e 85 f5 bc 54 e5 07 3e
       -0.38712344 0.14090621 -0.029970732 0.13271075
0000b0 cb 6b 87 be 17 59 93 3d 29 4d 0f 3c 22 40 77 3e
       -0.26449427 0.07194727 0.008746424 0.24145558
0000c0 32 5c 0a 3e f3 9e a5 3e c8 16 13 3c a9 91 87 be
       0.13511732 0.3234783 0.008977599 -0.26478317
0000d0 4f bf 8a 3c 75 df ca be d7 a2 c2 be 21 4c 59 be
       0.016936926 -0.3962361 -0.38014862 -0.21220447
0000e0 73 bc d0 3e 6c 8c 4f bd 26 4a af 3d e6 f0 cb bd
       0.40768775 -0.050671026 0.085590646 -0.09958057
0000f0 27 41 cb be bf 86 c1 3d 3c 49 a8 3e 08 2f 07 bf
       -0.39698145 0.09449529 0.32868373 -0.5280614
000100 2f 52 1f be 5f 65 85 be 8c a0 79 bd 24 6d d8 3c
       -0.15558694 -0.26053903 -0.060944125 0.02641923
000110 5e 1b cc 3b e3 76 93 3d e4 27 47 bd 83 ba 8d 3e
       0.0062288484 0.0720041 -0.048622027 0.2768136
000120 73 f0 25 be 99 d2 fa bb db e9 50 be 9c f1 01 be
       -0.16205005 -0.0076544997 -0.20401709 -0.12689823
000130 ac 3b 92 be 69 62 bf be 11 06 73 be fe 1f fa 3c
       -0.2856115 -0.37379768 -0.23732783 0.030532833
000140 ed 0d 22 be 96 b8 c2 bd 6c 9e 03 3e ca 98 89 be
       -0.15825625 -0.09507863 0.12853402 -0.2687438
000150 83 56 99 be 1d 98 2b 3d 30 01 0b bf 1a 01 74 3d
       -0.29948816 0.041893113 -0.54298687 0.059571363
000160 18 cf 1f be 58 03 e8 be 61 2a 86 be ae 63 8e 3e
       -0.15606344 -0.4531505 -0.26204208 0.27810425
000170 e9 0d 9c 3e 58 47 fd 3d fd 1b da be 33 d8 c7 be
       0.30479363 0.12367123 -0.42599478 -0.39032134
000180 08 6f 5c be b7 34 f3 be 5b 74 03 be ea c5 c5 be
       -0.2152673 -0.47501156 -0.12837355 -0.3862756
000190 a0 64 1f be dc 2e 50 be cd e3 06 bc dc 61 0d 3e
       -0.15565729 -0.20330375 -0.008233023 0.13806862
0001a0 92 59 3b bd 3f cf a8 bd c2 8f 94 3d 40 71 08 bd
       -0.045739718 -0.08242654 0.07253982 -0.03331113
0001b0 ac d1 76 3e 09 2c 19 bd c2 50 dc 3d 65 27 d3 3e
       0.24103421 -0.03739551 0.10757591 0.41240993
0001c0 96 1c a9 b8 16 ff 59 bd 44 ff 72 3e fa 2b af bd
       -8.0638725e-05 -0.053221785 0.23730189 -0.0855331
0001d0 8a 2a 0d 3e 18 2c 04 be 10 f7 bb bc cc 45 40 3e
       0.13785759 -0.12907445 -0.022944957 0.18776625
0001e0 ac db 3b be 73 10 b5 bb 66 2a 47 bc 51 39 bc 3d
       -0.18345517 -0.0055256425 -0.012156105 0.0919062
0001f0 07 15 34 3e 1c ec 9b 3e 4a 08 f5 be 67 fd 56 be
       0.17586146 0.30453575 -0.47857887 -0.20995103
000200 9e dc 87 3e d0 93 1f 3e ae 07 80 be 8f 9c 65 3e
       0.26535505 0.1558373 -0.2500586 0.22423004
000210 98 f8 cc 3b cb 27 47 be 89 02 af 3e c9 3f 1d 3e
       0.0062552206 -0.19448774 0.34181622 0.15356363
000220 5b 49 fb be 98 a5 e7 3b 33 cb 16 be 6b 5e f6 bd
       -0.49079403 0.007069301 -0.14725952 -0.120297275
000230 e5 04 68 3e 98 bd 5d 3e 10 3a a9 3e aa d2 98 bd
       0.22658117 0.21654356 0.3305211 -0.07462056
000240 a5 a9 a2 3d 3e 0d 78 bc 56 85 be 3e 6e fa 2d be
       0.079425134 -0.015139876 0.37211102 -0.16990063
000250 11 a0 89 bc 17 fa 75 be 70 5c 6c 3e b9 ae 37 be
       -0.016799958 -0.24021183 0.23082137 -0.17937745
000260 73 1b 28 3e fa 15 c6 3e fd cb f8 3d c6 cd ed 3c
       0.16416721 0.38688642 0.12148283 0.029028784
000270 fc 7b da be 6e bc 00 3e a8 52 06 3e f6 92 77 3e
       -0.42672718 0.1257188 0.13117468 0.24177155
000280 62 2e 3e 3e 02 b0 35 be 50 ff 04 be ae b7 4a 3e
       0.18572381 -0.17742923 -0.12988019 0.1979663
000290 a8 81 5b bd 87 d1 7d bd 18 15 8f bc 6b 17 37 3c
       -0.053590447 -0.0619674 -0.017466113 0.011175017
0002a0 88 8a c6 3e 2b 16 91 3d d3 ea e0 3e 40 e1 13 3e
       0.38777566 0.07084306 0.43929157 0.14441395
0002b0 62 2b 0f 3f f7 eb 79 bd 1c 5a c9 3e 07 41 7a 3e
       0.5592557 -0.06101605 0.3932656 0.24438868
0002c0 a8 a5 ae bc 87 3d 6d 3e a8 17 28 3e ed 1b 6c 3e
       -0.021319225 0.23168002 0.16415274 0.23057528
0002d0 cc d3 0e be c5 7e a6 3d 80 b9 90 bd cd 8f 0c be
       -0.13947982 0.08129648 -0.07066631 -0.1372673
0002e0 2f a9 68 3e cd 07 03 be 2a 91 0c 3e 59 cf ae be
       0.22720788 -0.12795945 0.1372725 -0.3414257
0002f0 ff 70 54 3e f0 26 29 3e b4 0b 9a 3d 7b c4 50 ba
       0.2074623 0.1651876 0.075217634 -0.0007963848
000300 63 eb 9e 3e 87 ad 3f be 3b 6c b5 3b 69 d1 e1 3d
       0.3103896 -0.18718539 0.0055365837 0.1102627
000310 e6 6d 18 3e e2 07 59 be c4 61 ab 3d 23 e9 c8 3e
       0.14885673 -0.21194413 0.08368257 0.3924037
000320 1b 20 70 3c da b1 01 3d 67 2c 80 3e 90 5c 24 3e
       0.014656092 0.031663753 0.25033876 0.16050935
000330 7e ef 33 bc 38 26 31 be 14 fd 81 3e 59 d2 23 3c
       -0.010982392 -0.17299736 0.25388396 0.009998881
000340 b1 64 91 3e 90 bc 7b be 9f b0 ee 3e cf 8c a1 3e
       0.28397134 -0.2458365 0.46619126 0.3155274
000350 db 7b 1f bd f4 b7 b1 bd bd c7 7b 3e 98 18 f5 bd
       -0.038936477 -0.086776644 0.24587913 -0.119675815
000360 1b ed 7e 3e 47 14 6f be b3 32 5b be 89 92 87 3e
       0.24895136 -0.23347579 -0.21406059 0.26478985
000370 2f 22 40 be 00 52 4f bd 9d c1 af be 0d 2f d3 3d
       -0.1876304 -0.05061531 -0.34327403 0.103117086
000380 78 15 dc bd b2 95 c5 3e ae 7b 36 be 44 04 32 be
       -0.10746282 0.3859077 -0.17820618 -0.1738444
000390 0f 9d 19 3e 67 4b 1f 3e b9 f6 24 be 24 79 56 3d
       0.1500132 0.15556107 -0.16109742 0.052361622
0003a0 0d 63 40 3d cc d0 32 bd e3 61 9a 3e 52 06 39 3e
       0.046969462 -0.043656155 0.30152807 0.18068817
0003b0 62 d4 10 bf cc b0 04 3e e8 a1 a1 bd 46 d8 72 3e
       -0.5657407 0.12958068 -0.07892209 0.23715314
0003c0 80 6a 98 3e e0 01 99 bd 09 ec 11 3f ed 00 83 be
       0.29768753 -0.07471061 0.57000786 -0.25586644
0003d0 1a 66 88 3e 2d 09 6b be d2 57 81 3e 63 75 6c be
       0.26640397 -0.22952719 0.25262314 -0.23091654
0003e0 42 a5 81 3e be 4d cb be 1c 18 7e 3e ea d8 53 bd
       0.25321394 -0.3970775 0.24813884 -0.051720537
0003f0 30 58 53 3e 3c 36 d3 3e 30 8a 01 3e bd 6d e3 3c
       0.2063911 0.41252315 0.1265037 0.027762288

encoder.l2.bias f4 [32]
000000 e9 1b d5 3d eb 9f 47 3d cd ba 0f 3d 78 dc 28 3d
       0.10405714 0.048736494 0.035090256 0.04122588
000010 f1 df db bd 87 3e a8 bd 48 ca 19 bd 19 a5 c5 3c
       -0.10736073 -0.08215051 -0.037546426 0.024126576
000020 1e e2 70 3d bb 97 40 3d 59 7f 80 bb ae 1e da bc
       0.058809392 0.0470197 -0.003921431 -0.026625957
000030 2e ce 9e bd ac 46 0c bc ea d0 65 bd a8 9c f7 3d
       -0.077541694 -0.008561771 -0.05610744 0.12090427
000040 ee a3 15 3d de aa b5 3d cf 89 f9 bb b8 86 3a bc
       0.03653329 0.08870481 -0.007615305 -0.0113846585
000050 b0 89 22 3a 4e 70 ea 3b 76 88 a9 3d 47 f1 d8 bc
       0.00062003266 0.007154501 0.08277981 -0.026482238
000060 f8 07 6e 3c db 5e 6b 3d a9 a5 b7 39 3f f5 2e 3e
       0.014528267 0.057463508 0.00035027906 0.17085741
000070 36 0f db bd d4 9d 0a 3e 1a ad 60 3d 1a 27 c3 3d
       -0.10696261 0.13536769 0.054852583 0.095289424

lstm.weight_ih f4 [512, 288]
000000 f8 73 2c be 87 4d 5c be b1 88 c5 bd 88 ee e4 bd
       -0.16841114 -0.2151395 -0.096452124 -0.11178309
000010 c0 e6 5f 3e 20 b6 50 be 3a c8 0f be 14 d1 54 bd
       0.21865368 -0.20381975 -0.14041224 -0.051957205
000020 58 3e 1b be cb cc ab bc 31 5f e7 bd e8 aa 1b 3e
       -0.15160501 -0.020971676 -0.11297453 0.15201914
000030 c7 7e 1a be 01 a6 3c be cb a9 9c 3d d9 c7 03 3e
       -0.15087424 -0.184227 0.07649573 0.12869205
000040 a4 5a 28 bd ef 65 5e 3d 1d 2e d3 3d b8 62 0a 3e
       -0.041102067 0.05429643 0.1031153 0.1351422
000050 31 64 b3 bd 1f c3 fa bd b6 5f 92 3d 0e 33 ba bd
       -0.08759344 -0.12244248 0.07147162 -0.09091769
000060 8a 8b 26 bd f5 21 43 3d 57 72 bc bd e8 63 f5 bd
       -0.04066042 0.047639806 -0.09201496 -0.11981946
000070 e6 fc f1 bd dd f0 c8 bd f6 34 2e be c1 3e 2d 3e
       -0.11815815 -0.09811566 -0.1701239 0.1691847
000080 46 96 12 bc e0 3d 0f be b6 ff 50 bc 4d 6b f4 3c
       -0.008946961 -0.13988447 -0.012756279 0.029836321
000090 b6 14 c6 bd c2 c1 ae 3d a1 e0 25 bd 12 2d 74 3d
       -0.09671919 0.0853305 -0.040497426 0.059613295
0000a0 5b f5 f4 3c d7 76 21 3e de b4 62 3d 6a 64 a4 bb
       0.02990215 0.1576799 0.05534827 -0.005016853
0000b0 c6 85 e7 bc 52 1d fa 3d ed f8 19 3e 5a 03 90 bd
       -0.02826203 0.12212624 0.15036364 -0.07031889
0000c0 6d b0 6c bc 2e bb cc 3d 6d a6 e3 3d fa 32 c7 bd
       -0.01444636 0.09996639 0.111157276 -0.0972652
0000d0 c5 c1 de bd 07 aa 23 be 51 4c 49 bd 51 07 f4 3b
       -0.10876802 -0.15982829 -0.049145047 0.0074471612
0000e0 95 bd 14 3c 06 42 4f 3d 03 55 94 3c 87 11 95 3c
       0.009078403 0.050600074 0.018106943 0.018196834
0000f0 51 1d a5 bd 06 1f b6 ba 62 00 f5 3c d8 73 28 bd
       -0.08062232 -0.0013894744 0.02990741 -0.041126102
000100 af 2d 1c be 54 0f 2e 3d 57 06 cd 3d ac a9 a0 3d
       -0.15251802 0.042495087 0.10010975 0.07844862
000110 25 1f 3e 3d 95 d1 81 3d e0 40 2e 3c 95 88 00 be
       0.04641642 0.06338803 0.010635585 -0.12552102
000120 71 c4 cf bd 80 05 b4 3b 15 e4 ca bd 0c 4e d5 3c
       -0.1014489 0.0054938197 -0.099067844 0.026038192
000130 bd f3 ee 3d 30 8d d5 3d d4 41 b6 bc 2e 5a 23 bd
       0.11667583 0.1042732 -0.022248186 -0.039880924
000140 1c 69 42 3d 85 04 0e bd c1 6e df bd 12 d9 7a 3d
       0.04746352 -0.03467228 -0.109097965 0.06124217
000150 a1 81 61 bd 5d 3d 72 3e 26 ab 28 3d 29 5b bf 3c
       -0.055055264 0.2365622 0.041178845 0.023358898
000160 dc 9c d8 bd 8b 07 3e 3d 63 e4 73 3d 5e 4c dd bb
       -0.105767936 0.046393912 0.05954398 -0.0067534884
000170 3f 08 06 3e 62 3c 4c bb 68 13 fc 3d 0d d5 01 bd
       0.13089083 -0.003116392 0.12308389 -0.03169732
000180 13 f5 9b bd 1d 8b 13 3e 78 18 6c 3c 7b 42 02 3c
       -0.076151036 0.14408536 0.014410131 0.0079504205
000190 87 21 4a bc ee 54 8c bc 43 d4 b4 bd 4e ca 83 bd
       -0.012337095 -0.017130341 -0.08829548 -0.06435071
0001a0 3f a5 e8 bc d5 93 a1 bd ca 2d 94 bd 6d 67 80 3d
       -0.028399108 -0.07889525 -0.07235296 0.06269727
0001b0 44 80 9e 3d 80 97 c1 3d 47 63 49 3e 56 8b 0f be
       0.077393085 0.094527245 0.19666778 -0.14017996
0001c0 19 49 ec bd 3b c5 c5 3d 66 93 4b bd a7 99 06 3c
       -0.1153738 0.09656759 -0.049701117 0.0082153445
0001d0 4e de 85 bc 30 2f 0e be cd 0d a9 bd fb 82 69 bd
       -0.016341355 -0.13885188 -0.082545854 -0.05700968
0001e0 7f bf 0f 3d a1 a0 d0 3d 1b 1b 80 bd 9c e5 7b 3d
       0.035094734 0.101868875 -0.0625517 0.06149827
0001f0 f7 73 30 bd c0 2a 1d be 82 76 15 bd 9f c9 01 be
       -0.043079343 -0.15348339 -0.03648997 -0.12674569
000200 71 cd 03 bd cc ac 5c bd cf 08 2f 3d d3 53 82 3b
       -0.032178346 -0.05387573 0.04273301 0.003977278
000210 bf e6 32 3e 07 0b ca bd 74 57 89 3c 0a 30 c5 3d
       0.17470835 -0.098653845 0.016765334 0.09628303
000220 1d 6f a4 3d e3 e1 7e 3c 53 51 b0 3c e0 80 ab 3d
       0.08029006 0.015556785 0.021523153 0.0837419
000230 bb f8 24 3d 8f 7d d4 bd df dc f1 3d cc a6 52 3d
       0.04027627 -0.10375511 0.11809706 0.0514286
000240 0d 4e 61 bd de ae 8f bd 42 74 82 bd ce 67 15 3d
       -0.055006076 -0.07015775 -0.06369831 0.03647595
000250 8a 5d 04 be 68 d7 d3 39 55 72 29 bc 82 e0 5f bc
       -0.12926307 0.00040405546 -0.0103422 -0.013664367
000260 ef a8 c0 3d 95 3f 5b 3d 07 46 8a bd 76 10 60 3d
       0.094072215 0.053527433 -0.06751638 0.0547032
000270 ec cd 41 3d 57 e8 84 3d 18 2b 7d bc 98 09 93 3d
       0.047315523 0.06489628 -0.015452169 0.07179564
000280 02 bb e4 3c 00 90 20 3d e2 a5 d5 3d 06 6c a4 3b
       0.027921204 0.03919983 0.1043203 0.00501776
000290 00 19 0c 3e d6 43 92 3d 1c 37 b9 bd ef 9e 83 3d
       0.13681412 0.07141845 -0.090437144 0.064267986
0002a0 18 e2 ac bd 57 42 36 3c 8f ec 64 bd 62 89 85 bc
       -0.084415615 0.011124215 -0.055889662 -0.01630086
0002b0 63 38 5c 3d ac 8d a3 3d 4b e0 04 be ca 88 1b 3e
       0.053764712 0.07986006 -0.12976186 0.151889
0002c0 d7 2a 46 bc 2a 00 61 bc a9 54 11 3e a1 c5 10 be
       -0.012095175 -0.013732949 0.14192452 -0.1413789
0002d0 0f 72 04 3d 04 91 97 bd a4 1e 32 3d 34 22 27 3c
       0.032335337 -0.074007064 0.043486252 0.010201026
0002e0 31 09 a1 bd 14 35 2e bd 89 d1 01 be 72 61 f1 3d
       -0.07863081 -0.042531088 -0.12677588 0.11786164
0002f0 a5 2d f6 bb 2d 34 78 3d 39 a7 04 3d c2 b8 d9 3c
       -0.0075127655 0.060596634 0.03238604 0.026577357
000300 b1 36 06 be f7 76 77 3d 51 93 e2 3c df 4e 83 ba
       -0.131068 0.060416188 0.027658137 -0.0010018012
000310 45 f8 83 bd 1c b5 0d 3e 5f 24 d4 bd 8f 61 0b bd
       -0.06443838 0.13838619 -0.103585 -0.034028586
000320 b8 b9 b8 bc 00 5b 70 bd b8 b0 dc 3c cd c1 e6 3c
       -0.022549495 -0.058680534 0.026939735 0.028168583
000330 1b 91 33 3c 29 40 a0 3d 61 6d 7d bd 50 4e ac 3d
       0.010959889 0.078247376 -0.06187189 0.084133744
000340 6b dd 52 3d ca b0 1e 3d fe 2d 90 3d 88 f6 2e 3d
       0.051480692 0.038742818 0.07040022 0.04271558
000350 fa 7f 48 3d 1c b7 b5 3d 2a c9 a3 bc f4 03 e5 3b
       0.048950173 0.08872816 -0.019993383 0.0069889966
000360 36 06 22 3d 69 e9 3a ba 17 2b 14 bc 9a ad c0 3d
       0.039556704 -0.0007130118 -0.009043477 0.09408112
000370 80 a1 0e 3d ce e7 f4 3d 6d 92 9e bd 68 ca 2e 3d
       0.034821987 0.11958276 -0.07742772 0.0426735
000380 48 f9 3b 3d c1 ee 35 3d 2a f2 4a bc a7 99 84 3d
       0.04589203 0.044417147 -0.012386838 0.06474619
000390 bf 6a 05 3e de 61 e5 bc cb 8d 99 3d 8c 4b 0a bd
       0.13029002 -0.028000768 0.07497748 -0.033763453
0003a0 15 de af 3d c7 28 b2 3d d3 2a 16 3e 98 1f 65 bd
       0.08587281 0.08699184 0.14664774 -0.055938333
0003b0 96 fe 34 3c 7a fc c4 bc a5 06 52 3d 4a 81 b0 bc
       0.011047026 -0.024046171 0.051275868 -0.021546025
0003c0 85 f9 ba bc 39 90 52 bd 1d 2d 9f bc e8 06 8e 3d
       -0.022824058 -0.051407073 -0.019430691 0.06934911
0003d0 4f 64 00 3d 0d 31 a8 bc a0 7a 78 bc 18 d7 32 3d
       0.03134566 -0.020531202 -0.015165955 0.04366216
0003e0 09 2b 1c bd 40 07 99 bb 55 31 ad 3d 7a a8 59 3c
       -0.03812698 -0.0046700537 0.08456675 0.013284797
0003f0 74 93 be 3b d9 27 a4 bc b0 8a c4 3d aa 1d 49 bd
       0.0058159176 -0.020038532 0.09596765 -0.049100555

lstm.weight_hh f4 [512, 128]
000000 3d bc 36 3e c1 b4 c8 3b a3 d7 3e 3e 8e 1d dc bd
       0.17845245 0.006125063 0.18636946 -0.107478246
000010 76 98 82 3d 36 c5 f1 3c ae 93 02 3d 14 5f cb bd
       0.06376736 0.029512983 0.03187912 -0.09930244
000020 10 07 1f 3d e8 a2 d3 bd 38 ff 13 bd df 21 9b 3d
       0.038825095 -0.10333806 -0.036132067 0.0757482
000030 aa e1 88 be bb de 61 3c 05 0e c1 3c a3 2a 07 be
       -0.26734668 0.013786013 0.023566255 -0.13199858
000040 e2 ee 24 3d ad 74 1b be db 93 1c bd c4 90 5d be
       0.04026688 -0.15181227 -0.038226943 -0.21637255
000050 93 bf cd bd 49 2a 97 bd fd 78 9e bd 28 5b 23 bd
       -0.100463055 -0.07381112 -0.077379204 -0.039881855
000060 d0 53 73 3e 38 cc 04 3e 38 ae 32 be 36 66 25 be
       0.2376244 0.12968528 -0.17449272 -0.16152272
000070 bf 2a a1 bc df f1 a5 bd 46 4b 28 be 4d 84 04 3e
       -0.019673703 -0.08102774 -0.16434965 0.12941094
000080 c7 ba 06 be c7 f8 89 bd fd 3b 53 3d 5d 9d e5 3d
       -0.13157187 -0.06736904 0.05157088 0.11211655
000090 c1 f8 a3 bd 7c 33 39 3e d1 10 95 be 7a c5 79 3e
       -0.080064304 0.18086046 -0.29114392 0.24391738
0000a0 e2 58 e0 bd 31 4d c8 bd f0 03 42 3d 42 7a e4 bb
       -0.10954453 -0.09780348 0.047367036 -0.006972582
0000b0 40 57 cd bc 05 9d c9 bc ca a3 3d 3e ae f2 1b 3e
       -0.025066018 -0.024611006 0.18519512 0.15229294
0000c0 1e e8 fc 3b d9 12 74 3d 46 08 54 3c ad 9c 20 3d
       0.0077181 0.059588287 0.012941426 0.039211918
0000d0 9c 77 79 3e d4 6e 5a be e1 c6 90 bd dd ef 02 bb
       0.24362034 -0.2133134 -0.07069183 -0.0019979395
0000e0 cb 10 89 3d a9 40 14 3d 93 7c 9b 3d 58 a3 8d be
       0.06692656 0.036194477 0.0759212 -0.27663684
0000f0 b1 a9 1f 3d 48 d2 07 3e 36 0a 6b 3c 1a 59 2a 3e
       0.03898019 0.1326381 0.014345696 0.16635552
000100 f8 45 28 be 16 6a c3 3c bb 58 d9 bd 4e 74 fb bc
       -0.16432941 0.023854297 -0.10612627 -0.030695107
000110 3b d8 57 3c 8c 0a b0 3d 02 c4 e0 3d b2 ae 86 3d
       0.013174112 0.08595762 0.109748855 0.06576289
000120 ab 72 0b be b5 a1 2d 3e 34 c3 6a 3d 39 cd 38 be
       -0.13617961 0.16956218 0.057315066 -0.18047036
000130 18 f1 8a 3e 79 ba 83 3c d9 f5 06 3e 26 2e b9 bd
       0.27137065 0.016080128 0.13179721 -0.09042005
000140 49 23 93 be cc 19 fc bd 5c e2 10 3d c2 83 03 3d
       -0.28737858 -0.12309608 0.035372123 0.032108076
000150 84 2d 8f bd 30 2d 79 bd 58 49 06 3d bf 7e 16 3e
       -0.06991103 -0.06083411 0.03278479 0.14696787
000160 0b 32 3d be 54 f9 fd bd 02 4d 3b be 5d 62 00 bd
       -0.18476121 -0.12401071 -0.18291095 -0.031343807
000170 46 0c 95 be 4c 0c 37 3e cc d2 56 3d f4 1a f0 3c
       -0.29110926 0.17875785 0.052447125 0.029309727
000180 26 01 bb bc ec 0b d9 bd 76 ec 42 3e 46 79 54 bd
       -0.022827696 -0.10597977 0.19035515 -0.051873468
000190 91 da 0c bc 94 86 81 be 44 f7 96 3d c8 67 6c be
       -0.008597032 -0.25297987 0.07371381 -0.23086464
0001a0 01 0b 95 3e 32 39 3f be f1 39 4b 3c 49 f1 50 3e
       0.29109958 -0.18674162 0.012403951 0.20404543
0001b0 56 6d 74 3d 1e 60 bc bd 4b d1 b9 bd 18 76 25 3e
       0.059674583 -0.091980204 -0.090731226 0.1615833
0001c0 68 7b 54 3d 9a 81 cb be bf d0 95 bd 20 a3 42 bc
       0.051875502 -0.39747316 -0.07315206 -0.011879712
0001d0 b4 19 74 bd da cf be 3d d5 4f db bc 1b a3 c0 bd
       -0.059594825 0.09316988 -0.026771465 -0.0940611
0001e0 9b e3 39 be 95 f4 51 bb d2 b1 e5 3c 2a fb ae be
       -0.18153231 -0.0032036651 0.028038893 -0.34175998
0001f0 78 5f 09 be 9e 5e 0f bd 75 1b 1f 3e 5f 3e eb bb
       -0.13415325 -0.035002343 0.15537818 -0.007179066
000200 81 60 e3 bd f1 bd 37 bd 56 c5 ec bd 79 54 4d 3e
       -0.11102391 -0.044858877 -0.11561076 0.20051755
000210 f1 71 1b 3e 27 73 83 be 66 83 8b bd 86 09 80 3e
       0.15180184 -0.25673792 -0.06812172 0.25007266
000220 cd e0 42 bd ca 72 00 3e fd dc 4f 39 ef 82 86 3d
       -0.047577668 0.12543789 0.00019823383 0.06567942
000230 7c 56 33 3d 51 f6 96 bc ca 2c b1 3d 05 cd 78 3e
       0.04378365 -0.018428 0.08651121 0.24296959
000240 9f ef 14 3b 3a 0a f8 3c df aa 6d bc a3 9c ce 3e
       0.0022725833 0.030278314 -0.014506071 0.4035388
000250 71 52 11 3e 64 25 20 be ef 7f cf bd 11 09 8a bd
       0.14191605 -0.15639263 -0.10131823 -0.067400105
000260 17 31 87 bd 5e 38 87 3e a1 96 12 bc 79 4d c6 3d
       -0.0660116 0.26410192 -0.008947046 0.096827455
000270 af 84 d6 bd ae 1c 5a 3e fb 40 c2 bd 02 6f ce bd
       -0.10474526 0.21300003 -0.0948505 -0.10079767
000280 42 a8 32 bd 4f 5e 08 3e d1 b1 da bc b6 2f 92 bd
       -0.043617494 0.13317226 -0.026696118 -0.071380064
000290 ab 16 3e 3d 6b c5 69 3e 69 69 29 3c 66 b0 a8 3d
       0.046408337 0.22829215 0.010340073 0.0823677
0002a0 bc 74 9b be 6a fb e4 3d ed c7 f6 3d 69 86 ee 3d
       -0.303625 0.11180766 0.120498516 0.116467305
0002b0 e6 f9 36 be 72 da 8f bd 8c f2 a6 3a 07 54 5f 3e
       -0.17868766 -0.07024087 0.001273708 0.21809398
0002c0 a5 fa 83 3d 63 d3 b7 bc 6f ec af 3c 37 6f 07 be
       0.06444291 -0.022439664 0.021475045 -0.13226019
0002d0 11 d2 80 bd 91 7e 64 3e b9 d0 63 3e 6a b9 34 3e
       -0.06290067 0.22313906 0.2224759 0.17648855
0002e0 9e 29 05 be 4e bf e2 3d 32 60 59 3d 44 57 79 3d
       -0.13004157 0.11071645 0.053070255 0.06087424
0002f0 77 52 20 be 27 69 80 3d 3f e5 43 3e f2 cd b7 bd
       -0.15656458 0.06270056 0.19130419 -0.08974828
000300 84 08 c1 3d 18 45 37 bd 4d a1 91 39 9f 23 5a 3d
       0.09425452 -0.044743627 0.00027776734 0.053256627
000310 b5 45 dc 3d 65 5f 6a be 15 20 0e be 4e 7f fb 3d
       0.10755483 -0.22887953 -0.13879426 0.12280141
000320 99 0b 09 be a0 aa b9 bd bc cc ea bd e2 6c 0a 3d
       -0.1338333 -0.09065747 -0.11464831 0.033795245
000330 31 b5 14 be 6d 8e d3 bd a6 06 7c 3e 97 a1 a8 3e
       -0.14522244 -0.103299 0.24611911 0.32935783
000340 a1 07 4f be 6a 48 04 3d 29 51 f4 bd 16 e7 11 be
       -0.20217754 0.032295622 -0.119295426 -0.14248309
000350 a4 8a 32 be b9 1b 13 be f4 7b e9 bb 4b d9 0a be
       -0.174357 -0.14366044 -0.007125372 -0.13559453
000360 21 18 4f 3c 8f 65 b7 bd 96 32 06 3d e4 f1 6e be
       0.01264003 -0.08954918 0.032763086 -0.23334461
000370 54 bb 25 3e 6c ec 79 3d 0b d9 9d bc 2a 88 4a 3d
       0.16184741 0.061016485 -0.019268533 0.049446262
000380 68 dd 0f 3d aa 21 2a be f4 19 0c 3e a2 4d 63 3e
       0.03512326 -0.16614404 0.13681775 0.22197583
000390 65 77 01 3c ec aa 24 3d 89 1f 26 3e 3b 87 2b bd
       0.007902001 0.040202066 0.16222967 -0.041877013
0003a0 a5 74 9d bd a6 87 1e 3e 22 1a e1 3d fa 12 71 3d
       -0.07688264 0.15481433 0.109913126 0.058855988
0003b0 8d a1 69 bb 5b 17 15 be 7c fc 4b bd f5 51 a6 bd
       -0.003564927 -0.1455969 -0.049801335 -0.08121101
0003c0 e9 04 f6 3d 23 14 3b 39 1d ad 14 3e 3a 03 a4 3e
       0.12012655 0.00017841211 0.14519162 0.32033712
0003d0 c3 05 16 be cd 5d 81 bd 3e f5 38 3e df 62 ba 3d
       -0.14650635 -0.06316719 0.18062302 0.091008894
0003e0 42 8c 70 be fc 21 74 3e 64 7a 6e 3d bf 16 d6 3d
       -0.23491004 0.23841089 0.05822219 0.10453557
0003f0 d3 49 0c 3c 33 e4 45 be c3 af bb bd b8 7b 47 3d
       0.008562523 -0.19325332 -0.09164383 0.04870197

lstm.bias_ih f4 [512]
000000 37 43 86 3d d8 b1 80 3d 3a f1 30 3e ff 2e e8 3b
       0.06555789 0.06283921 0.1727952 0.0070856805
000010 42 47 bc 3d 3e 05 52 3d 2e 81 83 3d d9 e9 84 3d
       0.09193279 0.05127453 0.064211234 0.064899154
000020 22 8a ef ba 78 a0 ce 3d fe 29 11 3e 8d 46 6d bd
       -0.001827542 0.10089201 0.14176175 -0.05792861
000030 45 28 47 bd 21 db e4 3c 32 e8 67 bb 9d 59 e1 3d
       -0.04862239 0.02793652 -0.0035386202 0.110034205
000040 2f dd bc 3d 0b 71 c8 3d 8f 3f 30 3d 8a 98 76 3d
       0.09221875 0.09787186 0.043029364 0.060204066
000050 58 a5 d1 bc 70 65 c4 3d b4 b0 93 3d ad 25 c4 3d
       -0.025591537 0.0958966 0.07211438 0.095774986
000060 a4 d2 e5 3d 4a 92 00 bd 4f ae 35 bd e5 35 d7 3d
       0.11221817 -0.031389512 -0.044355687 0.105083264
000070 90 77 f2 3d 4c e0 96 bd 5b b7 49 bc e5 0a 94 bc
       0.11839211 -0.07367 -0.012311782 -0.018071601
000080 8d 8b 1f 3d 10 aa 0f 3e f6 ef 5d 3c 1d 5c ef 3c
       0.038951445 0.14029717 0.013545981 0.029218728
000090 d9 c9 0a bc 01 24 be bc ef 1f f9 3d fb 6e 83 3c
       -0.008470976 -0.023210527 0.12164294 0.01604413
0000a0 a3 5e 4b bb 3a 26 c4 3d 5d 70 b4 3d 75 db 48 bd
       -0.003103175 0.09577604 0.08810494 -0.049037416
0000b0 82 34 c5 3d 65 85 3b 3c 46 ed 18 3e 50 03 15 3d
       0.09629156 0.011445378 0.14934263 0.036380112
0000c0 d8 eb af 3d 90 93 ca 3d 8e c3 cc 3d ea 12 09 3d
       0.085899055 0.098914266 0.099982366 0.033465303
0000d0 98 04 31 bd 6b ab 06 3d 57 99 11 3e 50 7c ae 3d
       -0.04321727 0.03287832 0.14218651 0.085198045
0000e0 90 d6 b6 3d e1 f1 1a 3e 97 06 ab 3d 52 d8 78 bd
       0.08927643 0.15131332 0.08350866 -0.060753174
0000f0 d6 01 23 3d f4 9f 86 3d 9c c4 13 3e 8d 65 28 3e
       0.039796673 0.065734774 0.1443047 0.16444989
000100 9d 48 eb 3d 48 0a 15 bc aa 4c aa 3c 80 bf 11 3e
       0.11488459 -0.0090966895 0.02078851 0.14233208
000110 99 a5 79 3c cd cc 9e 3d 51 3a a4 3d b1 4c 34 3b
       0.015237235 0.077539064 0.080189355 0.0027511532
000120 98 14 c5 bb 9f af 11 3e b2 ba 12 3e 1c ce 84 3c
       -0.006014418 0.1422715 0.14329031 0.016211562
000130 42 2c ae 3d 35 99 8f bd 27 46 41 bc 57 8d 51 3c
       0.08504535 -0.07011644 -0.011796511 0.012790046
000140 79 23 00 3d f1 94 88 bd 95 17 3b 3c 36 2c 0c bd
       0.03128383 -0.06669033 0.011419197 -0.03422185
000150 82 7f 2b bd e3 b7 3a bd d5 5a 79 3d 33 29 be bc
       -0.041869648 -0.045585524 0.06087764 -0.023213005
000160 32 59 11 bd d0 5e 0d 3d 54 71 3a 3c 30 ab d3 3d
       -0.035485454 0.03451425 0.011379559 0.10335386
000170 42 40 29 3d 72 79 5a 3d 2d 9c 0f 3c 9a 55 a8 3d
       0.041321047 0.053338476 0.008765263 0.08219452
000180 60 39 3b 3d 75 2f 9c 3d b4 fa e7 3d f2 60 3f bd
       0.045709014 0.07626239 0.11327115 -0.046723314
000190 c1 b4 02 bd 17 fa 58 bd 5b 4a 05 3e 0a 4d 0e 3e
       -0.03191066 -0.05297288 0.13016646 0.13896576
0001a0 5f 9f a5 3c c6 99 5d 3d e5 be 0a 3e 5d 7a 3c bc
       0.020217596 0.054101728 0.13549383 -0.011503783
0001b0 a6 cf 80 3d a3 fb 1e 3d 4e 43 05 3e f7 15 44 bd
       0.06289606 0.0388142 0.13013956 -0.04787251
0001c0 13 f1 8f 3c 23 7b 12 3d b0 ca fa 3d 96 fd b8 3d
       0.017571008 0.035761964 0.12245691 0.09032743
0001d0 dd 29 c3 ba e2 da 8e bc f5 83 e3 3c 8e 09 0a 3d
       -0.0014889796 -0.017438356 0.027772883 0.03370052
0001e0 87 f5 25 bd a7 0b c8 3d e2 b4 42 3c 0e 37 3f bd
       -0.040517356 0.097678475 0.011883946 -0.046683364
0001f0 3a f9 81 bc 92 81 f2 3d be 2c d8 3d d8 bb 1b bc
       -0.01586591 0.1184112 0.10555409 -0.009505235
000200 ab 4a f1 bb 14 7e e6 bd 61 48 51 bd 16 d7 84 bb
       -0.0073636374 -0.11254516 -0.051094417 -0.0040539606
000210 24 e5 37 bc c9 c4 4b bc 04 62 7f bd 24 f7 93 bd
       -0.011224065 -0.012437054 -0.062349334 -0.07224873
000220 30 b9 d0 bd e1 97 27 3d e4 ba 1e bd 8b 37 be bc
       -0.10191572 0.040916327 -0.03875245 -0.023219844
000230 d2 6b 8c 3c 42 7c cf 3b f2 d7 39 bd 65 59 28 bd
       0.017141256 0.0063319514 -0.045371957 -0.04110088
000240 60 84 53 bd df e9 85 bd b1 28 92 3c 13 7c eb bd
       -0.051639915 -0.06538748 0.017841669 -0.11498275
000250 a4 54 ba bd df 1d 34 bd 1c 61 94 3d 12 b4 4d 3c
       -0.09098175 -0.0439738 0.07245085 0.012555139
000260 05 1e 07 3b a1 28 92 3a fb 0b 7d bd 47 1e 27 3c
       0.0020617258 0.0011151024 -0.061779004 0.01020009
000270 21 4d 65 3c 0d 07 aa bd 21 0c d5 3c 11 4a 91 bd
       0.01399544 -0.08302126 0.02600676 -0.07094205
000280 1b 5f 27 3c 75 d5 ec 3c 54 d1 91 bd 27 f0 8a 3d
       0.010215546 0.028910378 -0.07120004 0.06784087
000290 8e 6a 33 3d 2f 97 37 bd ce 37 d3 bd 78 64 0c bd
       0.04380279 -0.044821914 -0.10313378 -0.034275502
0002a0 03 f1 b1 3d db ad ae bd 98 11 48 bd 0e b5 67 3d
       0.086885475 -0.08529254 -0.048844904 0.05656915
0002b0 b7 8d c0 bd 8c 25 f2 bd 2e 20 5b bb 22 ae 44 bd
       -0.0940203 -0.11823568 -0.0033435929 -0.04801763
0002c0 91 d7 98 bc ce 01 25 bd c1 c6 de 3c 42 9b fe bd
       -0.018657478 -0.040284924 0.027194383 -0.12431957
0002d0 c4 c0 b6 bc 0b 68 0a 3d bf 7b c1 bd 78 fc 03 3d
       -0.022308715 0.03379063 -0.09447431 0.032223195
0002e0 5b b3 35 bd 04 34 a6 bc d1 75 2b bd ea 04 54 3c
       -0.0443605 -0.020288475 -0.041860405 0.012940625
0002f0 a5 f9 f1 bd 4d 4d f2 bc 5f 23 90 bd a6 10 cf bc
       -0.11815194 -0.029577876 -0.070379965 -0.025276493
000300 e2 c5 1d bd 39 26 b8 3c 7c c9 93 3d 50 9b ab bd
       -0.038518794 0.022479163 0.072161645 -0.08379233
000310 52 44 b1 bd 67 bc 78 bd 43 63 eb 3c b6 25 6c bb
       -0.08655609 -0.06072655 0.028733855 -0.003603322
000320 74 41 82 bc 52 da e2 bd 9f 22 11 be 45 02 cd 3d
       -0.015900351 -0.110767975 -0.14173363 0.100101985
000330 4e 4f db 3d 3f d7 d2 bd 04 81 d8 bd 0f b8 b4 3d
       0.107084855 -0.10294961 -0.10571483 0.08824169
000340 90 96 48 3d 6b 7d 14 bd cc 0c 05 3d 35 93 5b bd
       0.048971713 -0.03625242 0.032482907 -0.053607184
000350 05 4a 1b bd 90 7e a4 bb 0a 6c c5 bd a6 79 82 3d
       -0.037912387 -0.0050199702 -0.096397474 0.06370859
000360 d5 82 02 bd c4 a9 c3 3c e7 18 12 3d 2a 31 d2 bc
       -0.031863052 0.023884661 0.03566828 -0.025658209
000370 79 7a 6e 3d aa 30 c0 3a cb a1 af 3d 87 93 84 bc
       0.058222268 0.001466294 0.085757814 -0.016183628
000380 aa 98 ac bd b3 e7 a9 3b 34 08 ef 3c 2d f7 8b bc
       -0.08427556 0.0051850914 0.029178716 -0.017085636
000390 b9 57 74 ba b2 72 08 3c d2 9b 08 3a c4 45 2e bc
       -0.0009320933 0.008328127 0.00052112073 -0.010636751
0003a0 81 ce 6b bd 93 1d 07 be 0a 32 f0 3c 83 36 ef bd
       -0.057569984 -0.13194875 0.029320735 -0.11680319
0003b0 d2 cd 4b bd b6 e7 be bb 04 8e 82 bd bc 8c b4 bd
       -0.049756832 -0.005825962 -0.063747436 -0.088159055
0003c0 bd 36 4e bd 6d 39 b8 bd 20 92 22 bd 43 f1 4b bd
       -0.05034517 -0.08995328 -0.039690137 -0.049790632
0003d0 43 30 4f bd 1a 5a be 3c 59 34 05 bd 32 cb 2b 3d
       -0.050583135 0.023236323 -0.032520626 0.04194183
0003e0 cc 39 68 bc d8 d2 56 bc 56 99 d9 3b 52 e8 11 bd
       -0.014173936 -0.0131117925 0.0066405935 -0.03562195
0003f0 96 2e 6d 3b 68 82 12 bd 25 ed 87 3d 95 90 92 3d
       0.0036191097 -0.035768896 0.066370286 0.07156483
