evaluation_results/models/list_npi_2020_3_3-20_59_58-3657-False-False-1.0-True-0.3-True-False-True-False.pth (torch_old, 972357 bytes, 16 tensors)

Mprog.weight f4 [4, 256]
000000 94 4e ac 3e c8 e1 67 3f d6 74 a0 bf 5c cb 44 3e
       0.336537 0.9057889 -1.2535655 0.192182
000010 ca 09 2c 3e f7 8b f6 bf 46 f5 9d be de 4b 6f 3e
       0.16800609 -1.9261464 -0.3085119 0.23368785
000020 9d 34 2a 40 39 d9 f3 3f cb 8e 09 bf 57 3b b1 bf
       2.6594613 1.9050666 -0.5373351 -1.3846234
000030 48 03 1e 40 61 92 23 be 5f 4d 5e bf 87 32 b7 3e
       2.4689503 -0.15973808 -0.8683681 0.35780737
000040 3f c7 49 bf 6c 02 bd bf 2f 33 b2 3e fb 20 e7 3f
       -0.7881965 -1.4766364 0.34804675 1.805694
000050 d8 5c d2 3d 99 95 ae 3f 11 6b 2a bf b4 52 81 3e
       0.10271615 1.3639404 -0.6656962 0.2525841
000060 20 9b 9c 3f 1c 72 76 3f d5 b2 51 be 85 19 90 be
       1.223484 0.9626787 -0.20478375 -0.2814447
000070 5d f1 71 bf 64 ee 65 bf 9f 2e 0e 3f 02 ca 68 3d
       -0.94508916 -0.8981688 0.5553989 0.056833275
000080 6a 4a 18 be 59 d4 f3 3f 91 a0 41 3e 81 1b 0a 40
       -0.14872137 1.9049178 0.18908907 2.1579287
000090 b2 2f cb be 1f da 2d 3f e2 fc ef bd 42 4d d9 be
       -0.39684826 0.6791095 -0.117181554 -0.42441756
0000a0 da 7b 63 bc fa 19 67 bf ad 15 96 3f 15 5e a0 3f
       -0.013884509 -0.9027401 1.1725365 1.2528712
0000b0 b4 6a cd bf ae bc 1e be 08 8b 43 3e 46 7d 22 c0
       -1.6048188 -0.15501663 0.19096005 -2.538896
0000c0 e4 17 4d 40 23 c9 bf be db 46 09 be 75 0a 17 c0
       3.2045832 -0.37458143 -0.13405935 -2.3600132
0000d0 3c fd 9d 3e d3 8e 38 bf 80 00 20 40 18 8d 9e be
       0.30857265 -0.7209293 2.5000305 -0.3096702
0000e0 bf 9b 21 3e b0 c1 80 3f 1e c6 f5 bd 98 a5 e7 3f
       0.15782069 1.0059109 -0.120006785 1.809741
0000f0 51 df 2a 3f ec ed 61 bc fd ed aa 3f bd c9 4a 3f
       0.66747004 -0.013789635 1.3353878 0.7921408
000100 47 7f 42 bf 3f 63 2f 3f e0 82 c3 3f ca 2e 0f be
       -0.7597546 0.6851081 1.5274315 -0.13982692
000110 a7 74 7a 3f 76 ea 51 40 85 91 a7 3f 8f 64 20 3e
       0.9783425 3.2799354 1.3091284 0.1566336
000120 ae 96 d6 3b 0a b9 94 3f 88 24 8a be c3 75 87 3f
       0.006548724 1.161897 -0.26980996 1.0582813
000130 c2 24 9a 3f 5f 08 af 3b 6c ac ed 3e 26 40 1e 3d
       1.2042468 0.005341574 0.4642061 0.038635395
000140 fa 68 58 3f 1f 6a 14 3e 3a 83 89 bf df 4e 2f 3c
       0.8453518 0.14493607 -1.0743172 0.010699957
000150 14 aa 0f 40 8b 0d 63 3f 5f 7c d0 be 9e 0a 8b 3f
       2.2447557 0.8869254 -0.40719888 1.0862615
000160 6e 96 03 bf 2a f3 e1 3e 33 f8 5a 3f bc 6c ef be
       -0.5140141 0.44130832 0.8553497 -0.46762645
000170 90 37 1f 3d 1e 67 bd 3f 5f 3e 8a 3f 2b 01 c5 bf
       0.038871348 1.4797094 1.0800284 -1.5390981
000180 ba d5 1b 3f 43 36 73 3e 50 4f fe 3f 12 4a 55 bf
       0.60872996 0.23751168 1.9867954 -0.8331615
000190 89 16 16 bf ad 4f ff 3e e4 ce df bf 17 4f b7 3e
       -0.58628136 0.49865475 -1.7485013 0.35802528
0001a0 a0 86 24 bf 66 8c 9c bf cf df 4f bf 2a 71 3a bf
       -0.6426792 -1.2230346 -0.8120088 -0.72828925
0001b0 0d fb dd bf c4 26 51 3f 77 bb d0 bf 6c e1 70 3f
       -1.734224 0.81699777 -1.630721 0.94093966
0001c0 a3 dd 81 be 57 34 7f 3f 4d 26 a5 bf 26 c4 03 3f
       -0.25364408 0.9968924 -1.2902313 0.51471174
0001d0 fe ab 23 3f ee 9c a5 bf bd 19 4b 3e b4 68 91 bf
       0.63934314 -1.2938516 0.19834037 -1.1360078
0001e0 95 29 ba 3e 3c f1 a8 3e 81 5f b5 3f 72 ac 33 bf
       0.3635985 0.32996547 1.416977 -0.70185006
0001f0 a2 33 d7 bf 79 d8 34 3e d5 59 15 bf 54 93 d2 bf
       -1.6812632 0.17660703 -0.583402 -1.6451211
000200 a1 65 a0 bf db 70 93 3f 87 3d b4 be 0f fe f1 bc
       -1.2531015 1.1518816 -0.35203192 -0.02954009
000210 11 da aa 3e ab 47 30 bf e9 0b fd be 7d 05 5e bf
       0.33369496 -0.68859357 -0.4942315 -0.86727124
000220 69 80 fa bd 25 f1 04 40 81 c1 e0 bf 41 d2 69 be
       -0.122315235 2.0772183 -1.7559053 -0.22834112
000230 aa 44 72 3f fb c9 3d be 44 f4 d3 3f 86 ab d2 3f
       0.94636023 -0.1853408 1.6558919 1.6458595
000240 ee 7b 62 bf b2 b6 9d 3f a0 30 98 bd 89 4a be bf
       -0.8847035 1.2321379 -0.074311495 -1.4866496
000250 d6 59 c9 3f 01 6b 16 bf 19 03 63 be 8b cd 6c bd
       1.5730541 -0.58757025 -0.2216915 -0.05781321
000260 2f 7b fb 3e d6 f2 05 bf ee f7 4b be 20 7c a8 bf
       0.4911742 -0.52323663 -0.19918796 -1.316288
000270 2b b9 87 be 62 32 6e bd 9c 19 19 bf fb 4e 1d 40
       -0.2650846 -0.058153518 -0.598047 2.4579456
000280 9b 90 21 c0 3b 62 1f c0 7a 5b 27 3f f7 96 79 3f
       -2.524451 -2.4903705 0.6537396 0.9749598
000290 1c 1a 4e 3f b7 56 98 bf 3e 3a 2d 3e 8c a4 1a c0
       0.8050859 -1.1901463 0.16916749 -2.4162931
0002a0 c7 30 dd bd 53 e9 8f 3f 71 9c bf bf e1 73 ae 3e
       -0.10800319 1.124308 -1.4969617 0.34072784
0002b0 d8 86 c6 3d 05 d5 9c 3d c8 f8 28 be 37 b2 60 3e
       0.09693688 0.07657818 -0.16501153 0.21942984
0002c0 52 85 c7 3e 4f 6e d8 3e 60 e2 bb bd 2f ff dc 3e
       0.38968903 0.4227166 -0.09174037 0.4316344
0002d0 29 1d ff be 8c 2d c9 bd 6c ed 85 3f e2 c1 dd bf
       -0.49826935 -0.098231405 1.046308 -1.7324793
0002e0 5c 17 6e 3e 87 6c 45 bf e0 13 ed 3e 28 15 8e 3f
       0.23251098 -0.77118725 0.46304226 1.1100206
0002f0 00 93 0f bf 9b 13 45 bd 82 ec aa 3e 6a 8e 9a bf
       -0.5608368 -0.0481144 0.33383566 -1.2074711
000300 66 16 3d bf 13 6b 40 be 72 f2 bf bd 84 1b 34 3f
       -0.738623 -0.18790846 -0.09372415 0.70354486
000310 88 77 62 bf 07 28 a9 3f 97 be 91 3e 9d 5f 79 3f
       -0.8846364 1.321534 0.2846572 0.9741152
000320 c3 34 b8 3f d8 6b 00 c0 2c 06 98 3c 0c 4c 7b bf
       1.4391102 -2.0065823 0.01855763 -0.98162913
000330 62 e2 96 bf 9e d0 d9 3e b2 86 83 bf 59 c0 a0 3f
       -1.1787837 0.42541975 -1.0275481 1.25587
000340 74 56 58 40 f0 b3 48 bf b7 c7 16 40 a7 39 d5 3e
       3.3802767 -0.7839956 2.3559396 0.41645548
000350 1a 41 6e be eb de 15 3f bf dd 43 3e 5e 2e c0 be
       -0.23267022 0.5854327 0.19127558 -0.37535375
000360 24 4d fe be cd ef 86 3f 1e 54 fc 3f 76 e4 00 3d
       -0.4966823 1.0541931 1.971317 0.031467877
000370 95 54 de be cb 39 f2 bf 5b 2e 59 be 6c 98 25 3f
       -0.43423906 -1.8923887 -0.2120909 0.646857
000380 3f d1 32 3f d1 83 be 3d b2 01 f5 3e 20 ab 3c bf
       0.69850534 0.09302486 0.47852856 -0.73698616
000390 1c 79 13 3e 16 57 7a 3f 07 01 d1 3f 1e 2f 3d 3f
       0.14401668 0.9778913 1.6328439 0.7390002
0003a0 02 48 9a be 08 7d d5 be e3 e8 99 bf 48 cd f9 be
       -0.30133063 -0.41696954 -1.2024196 -0.4878943
0003b0 76 71 ba bf 43 f9 9d bf c3 f7 80 3f 8f 6b 20 bf
       -1.4565876 -1.2341694 1.0075611 -0.6266412
0003c0 f4 c8 49 3f a4 ce 39 bf 5d 02 5b 3f 0b e4 45 3f
       0.78822255 -0.72580934 0.8555048 0.7730109
0003d0 87 f8 02 3f d6 05 9a be d4 4d d3 3e cd e8 c3 3e
       0.5116047 -0.30082577 0.41270316 0.3826355
0003e0 15 85 31 bf a6 2d 77 3f 8e 54 3b be c1 f8 89 bf
       -0.6934369 0.9655403 -0.18293974 -1.0779039
0003f0 10 26 c6 3e ff 29 88 3f 50 52 38 bf f2 53 89 bf
       0.38700914 1.0637816 -0.720006 -1.0728743

encoder.l1.weight f4 [100, 64]
000000 ff dc 36 3e 58 eb 3f 3e 78 28 5d 3c 41 29 36 3e
       0.17857741 0.1874212 0.013498418 0.17789175
000010 ca 1b 4a bd d3 fd 2b be ee e1 12 3d 63 f1 d5 3d
       -0.049342908 -0.16796045 0.035859995 0.104464315
000020 6f bd 8e 3d 0f 8b fa 3c ff 4f 64 be 33 43 e5 3d
       0.06969725 0.030583886 -0.22296141 0.11194458
000030 5b 44 1e 3e b2 3b 10 be 47 e7 fc 3d f5 21 11 3e
       0.15455763 -0.14085272 0.123488 0.1417311
000040 db 4c 90 3d 39 83 fc 3c 3b bb a9 3c 48 0d 59 3d
       0.07045909 0.03082429 0.020719161 0.05299118
000050 a8 05 9d 3d a4 01 c7 3d 33 50 44 be 9c 9a a0 3c
       0.076670945 0.0971711 -0.19171219 0.019604973
000060 bd e0 b7 bd 79 6f e0 bd 5b b6 6e 3c 84 20 35 3d
       -0.08978412 -0.10958762 0.014569844 0.044220462
000070 90 02 81 bd f7 66 66 3e 10 85 9b 3d 1d cc f4 bd
       -0.06299317 0.22500215 0.07593739 -0.11952994
000080 92 70 7c be 3d 23 70 3d 00 b4 7e be 40 e7 9d bd
       -0.24652317 0.058627356 -0.24873352 -0.07710123
000090 3d b4 0a 3e d1 34 d4 3c 3e 42 b4 3c 8c 9e 83 3e
       0.13545318 0.025904091 0.022004243 0.257069
0000a0 80 14 09 bd 08 74 de 3d 2e df 95 3d e3 1d 74 bb
       -0.033466816 0.10861975 0.07317959 -0.003724926
0000b0 4e 5f 2b be 19 cd 82 3d 72 9e 34 3e 26 9d 3d 3c
       -0.16735575 0.063867755 0.17638567 0.011573112
0000c0 9c 22 19 3d 10 a2 c6 bb ed a9 43 3e 60 d3 29 3e
       0.03738652 -0.0060618 0.1910779 0.1658454
0000d0 f8 55 96 3b 5a dd 2c bd 56 04 da 3d b4 0c 47 3e
       0.004587885 -0.042203285 0.10645358 0.1943844
0000e0 0e c5 b2 bd 47 8d 77 3e be 1e f4 3c 0e 16 92 bc
       -0.087289914 0.24174987 0.029799815 -0.017832782
0000f0 27 82 e7 bd e5 e9 94 bc bc 84 0b b8 0a c1 54 be
       -0.113041215 -0.018177936 -3.32638e-05 -0.20776764
000100 a4 ea c2 3c a9 bc 66 bd c6 57 b1 bd cd aa e4 3c
       0.023793526 -0.056332264 -0.086593196 0.027913475
000110 cd 76 bf 3b 01 47 96 3d 22 6c 96 bc 0c 64 27 bc
       0.0058430196 0.07337762 -0.018362109 -0.010216724
000120 6b 3d 2c bb 92 4a c3 bd 08 ef 4c 3e 65 64 9c 3d
       -0.0026281725 -0.095357075 0.20013058 0.07636336
000130 4b 01 1c 3e a5 5f c2 3d 3e 13 8b bd 07 8a f2 bd
       0.15234868 0.09490899 -0.067907795 -0.11842733
000140 9b da e4 3b d9 81 06 bd 06 8e 4f 3d 42 64 30 3d
       0.0069840676 -0.032838676 0.050672553 0.043064363
000150 32 df 5e be 94 31 0f 3d cf ce e5 bd 21 14 0e be
       -0.2176483 0.03495939 -0.11221086 -0.13874866
000160 c6 f1 59 3b 56 0e cb 3d ee 10 f5 3d 9f 8e 28 3d
       0.003325568 0.09914844 0.1196612 0.04115164
000170 40 fd 1e bd ce 91 3a 3d 3e dd d0 3d c6 f2 ef 3c
       -0.038815737 0.045549206 0.101984486 0.029290568
000180 84 f2 0c be 8a d8 5d be 8d 58 43 3d 9e ff 2b 3e
       -0.13764387 -0.21664634 0.04769187 0.16796729
000190 c5 cb 51 bd 49 06 7c 3d 52 4f 94 3b 19 f7 39 3e
       -0.05121972 0.06152943 0.0045260573 0.18160667
0001a0 44 8a df 3b eb 1b 83 3b 24 99 2d be e4 57 7d be
       0.0068219025 0.004001131 -0.1695295 -0.24740559
0001b0 e0 eb b6 3d ee 68 0d bd b3 ab 3c 3a 39 0d 30 3e
       0.08931708 -0.034523897 0.0007197216 0.17192544
0001c0 d2 99 8f 3d 10 22 48 3e a6 1c 71 3d 76 81 a9 3c
       0.07011761 0.19544244 0.058865212 0.020691615
0001d0 37 a3 30 be 9e 34 85 3c 20 10 80 bc 49 16 9f 3c
       -0.17249762 0.016260441 -0.015632689 0.019419806
0001e0 3b 05 e1 bc 0a 75 82 3e 30 bb 96 bc b7 9b e6 3e
       -0.027468314 0.2547992 -0.018399805 0.45040676
0001f0 11 76 5d be 28 47 43 3e 95 5a 3c 3d 6f 59 28 bd
       -0.2162707 0.19070113 0.045984823 -0.041100916
000200 1d 26 7b be f5 0f 76 3d 13 ca 11 be 37 2a d4 3d
       -0.24526258 0.06007381 -0.14237241 0.10359614
000210 3f aa 93 bd 2e 46 6d bc fb 99 17 bc c6 09 33 3e
       -0.07210206 -0.014482064 -0.00925302 0.17484197
000220 62 35 86 3e 83 cc 13 bd a4 9c 88 be 90 1c 60 3e
       0.26212603 -0.03608371 -0.26682007 0.21885896
000230 fd fa 8e 3d 17 ee 38 3e c5 db aa 3d 8b 5a 27 3e
       0.06981466 0.18059574 0.08342699 0.16343133
000240 8e f2 cd bc 61 b9 26 3e 16 29 d1 bd db 9e 0e bf
       -0.025140073 0.16281654 -0.10212915 -0.55711144
000250 53 2e 73 3e 9a 8b 07 3e ad d4 0e 3c 4c 0d 1d 3e
       0.2374814 0.13236848 0.008717698 0.15337104
000260 ea 1b 4e 3c 86 08 f6 3d 87 46 c8 3d 61 f8 00 bd
       0.012579897 0.120133445 0.09779077 -0.031486873
000270 35 61 e4 bd cb 64 fa bd 5a 3e 68 bc 43 62 10 be
       -0.11151353 -0.12226256 -0.014175022 -0.14099984
000280 bf a8 92 be 9a d3 35 be 6e be 52 3d b2 b3 0b 3d
       -0.28644368 -0.17756501 0.05145114 0.034106918
000290 5a b7 9d 3d 50 44 75 bc 77 0b b0 3d 76 86 8c bd
       0.07700987 -0.0149699 0.08595937 -0.06861584
0002a0 87 97 ed 3c d3 14 3a 3d 14 50 6f 3d 26 a7 99 bd
       0.029002918 0.045430016 0.058425978 -0.07502584
0002b0 5f 29 b1 3d 7b 14 05 be 96 f4 f2 bd b5 1b 9e 3d
       0.08650469 -0.12996094 -0.11863057 0.077201284
0002c0 f9 66 08 3e d2 0d 69 3d 9f f5 e2 bd 6c 4b 1c 3e
       0.13320531 0.056897946 -0.11082005 0.15263146
0002d0 d2 b4 d6 3d 44 ed af bc d2 a0 d8 bd e3 9a 78 3e
       0.104837075 -0.021475442 -0.10577549 0.24277835
0002e0 17 a7 5c be 28 3d 4a 3d 8a 3a bb bc b0 4c bd bd
       -0.21548115 0.04937473 -0.022855062 -0.092431426
0002f0 a9 f4 23 bd f2 23 2e 3c de 49 21 3d 55 ee 6e bd
       -0.040028248 0.010628687 0.039377086 -0.05833276
000300 cd 84 01 3e ac da 05 3e 08 0d 1c 3e 62 5e 67 3d
       0.12648316 0.13071698 0.15239346 0.056486495
000310 b0 dd 81 be 13 28 c6 bd 2f d8 50 3e 7f 15 b2 3d
       -0.25364447 -0.09675612 0.20394967 0.08695506
000320 7a 05 5b 3d 06 2f 44 be d7 48 ba be bf 51 3f be
       0.05347202 -0.19158563 -0.36383697 -0.18683527
000330 02 73 54 bd 72 fe 07 bb 8f cc f1 3d 35 64 f9 bd
       -0.051867492 -0.0020751026 0.118065946 -0.12177316
000340 99 c7 e4 be d8 39 bd 3d 5c 44 a1 3e 25 84 98 3e
       -0.4468353 0.092395484 0.31497467 0.29788318
000350 76 de 85 bc 7f 4e 60 3d da 55 68 3c b7 b3 f9 3c
       -0.01634143 0.05476236 0.014180625 0.030481203
000360 48 47 26 be f0 85 1b bd f0 85 03 3e 12 1b 82 3c
       -0.16238129 -0.03796953 0.12844062 0.015882049
000370 44 e0 38 3e 25 4f 92 3d fb 9b 24 bc e5 b3 e8 3d
       0.180543 0.07144002 -0.010046954 0.11362437
000380 49 d0 9d 3d 85 f3 f8 be 17 3e 7b 3e 3a 09 c1 3d
       0.07705743 -0.4862329 0.24535404 0.09425588
000390 a5 53 c0 3d 4b 24 b0 3d bf 7b c2 bd 5c 61 3d bd
       0.09390954 0.08600672 -0.09496259 -0.046235427
0003a0 05 ed 71 3d 50 28 50 bd 7a bd 85 3c a9 92 96 bd
       0.05906393 -0.050819695 0.016325701 -0.07352192
0003b0 2c fc a6 3c 64 f2 99 3d 44 61 1f bd ee b6 cf bd
       0.020383917 0.075169355 -0.03891112 -0.10142313
0003c0 b1 83 41 bc 4e 51 89 bd f3 b3 9a 3d 08 05 32 bd
       -0.011811183 -0.06704961 0.07553854 -0.04346183
0003d0 01 d4 24 be c0 59 8f 3d 95 1d ff bc a9 fd 23 3d
       -0.16096498 0.0699954 -0.031142035 0.04003683
0003e0 e1 e7 01 bd c5 59 5f 3e 25 2e 75 bd 7e 46 35 3e
       -0.031715278 0.21811588 -0.05985846 0.17702672
0003f0 b7 ed e1 bc 8f 34 cf bd fc 13 fd 3d df d2 af bc
       -0.027579172 -0.10117447 0.12357327 -0.021462856

encoder.l1.bias f4 [100]
000000 39 cb 76 bd e0 01 89 3c df b0 96 3d 00 25 c6 bb
       -0.060252402 0.016724527 0.07357954 -0.006046891
000010 19 f6 54 bd b2 1d cc 3d d5 a0 ae 3d be 0d ae 3d
       -0.05199251 0.099666014 0.0852677 0.08498715
000020 4b 11 d0 bd c3 2e b3 bd ea e3 bf bd 95 b7 02 bd
       -0.10159548 -0.087491535 -0.09369643 -0.03191336
000030 58 81 a2 3d 3e 82 b0 bd 4a b8 e2 3c 56 13 4e 3d
       0.079348266 -0.08618592 0.027675766 0.05031141
000040 55 3c 8b bd d2 2b aa bb e4 9c 94 3d b4 b6 bf bd
       -0.06798617 -0.005193212 0.07256487 -0.0936102
000050 e0 7b 7d 3d 2b 50 a9 bc 75 63 69 bc 09 e7 0f 3d
       0.061885715 -0.02066811 -0.014244904 0.03513244
000060 28 ab 9c 3d a3 1f 10 bd ce 2e 40 bd 1e 56 2b bd
       0.07649833 -0.03518642 -0.046919636 -0.041830175
000070 3b ce 50 bd 19 0c db 3d 13 71 b4 3c f0 c6 c7 3d
       -0.050977927 0.10695667 0.022026574 0.09754741
000080 63 14 b4 3d d3 34 3b 3c 4a af 0c 3c b0 8a 17 3e
       0.08792951 0.0114261685 0.008586714 0.14798999
000090 43 be 98 3d 25 60 97 3d 84 4d 93 3c b2 ca 92 bd
       0.074581645 0.07391385 0.017981298 -0.07167567
0000a0 64 1e 44 bd 64 50 eb 3d 7f 52 ee 3d c0 ac 4b 3d
       -0.047880545 0.11489943 0.11636829 0.049725294
0000b0 a3 47 9e 3d d9 7f b3 3d e1 09 87 bb a6 bd 69 bd
       0.07728507 0.087646194 -0.0041210507 -0.05706563
0000c0 da e8 0c bc a7 4a a0 3d be dc 1f 3c 5c ea 0f 39
       -0.008600438 0.07826739 0.009757219 0.00013724848
0000d0 f3 11 00 bc b4 79 88 3d 6b b3 64 bd c0 55 d0 3b
       -0.007816779 0.06663838 -0.05583517 0.0063578784
0000e0 05 6d 4a 3d 1c e8 20 3e 6a e1 09 3e b5 e6 3b bd
       0.049420375 0.15713543 0.13464895 -0.045874316
0000f0 42 a6 01 bd 5d 18 cf 3c 7a 78 9c 3d 8c f5 c0 bc
       -0.031652696 0.025280172 0.076401666 -0.023554586
000100 fa f4 5c bd d2 3f 94 bc 64 c5 1d bd 25 ee 43 bc
       -0.053944565 -0.018096838 -0.038518324 -0.011958634
000110 41 19 03 3d a0 ad be bd f0 8c 4d bd ba f4 12 3b
       0.032006506 -0.0931046 -0.050183237 0.00224237
000120 94 6a e9 3d 8d d0 8c bd c8 5a 3c 3d 8d 4e 7b 3d
       0.11397281 -0.068757154 0.045985013 0.06135421
000130 62 9e ff 3d a8 4f f1 3d 9b 6f 51 3c 39 0f 11 3d
       0.12481381 0.11782771 0.0127829565 0.035414908
000140 eb b3 f5 3d 24 65 e3 3d 37 9a c7 bc 67 da c3 3d
       0.11997207 0.111032754 -0.024365528 0.09563141
000150 fe 3c cc 3d 5f 73 79 bd 96 5b cd 3c d6 97 5b bd
       0.09972571 -0.060901042 0.025068086 -0.0536116
000160 b4 b5 c1 b9 e4 fe 48 bd 70 6e a5 bc 4c f9 00 bd
       -0.00036947208 -0.049071208 -0.020194262 -0.031487748
000170 31 4f 89 3d 8f 05 2a bc 55 d1 7f ba 38 0c d0 bc
       0.06704558 -0.010377302 -0.0009758671 -0.025396451
000180 7d 3a 24 bd 16 d6 d8 bc d5 46 2d bd 48 7b 85 bd
       -0.04009484 -0.026469272 -0.04230388 -0.06517655

encoder.l2.weight f4 [32, 100]
000000 54 ae 47 3e 1c a1 8b 3d 2a 10 76 be e1 a6 e5 3d
       0.19500095 0.068178385 -0.24029604 0.1121347
000010 42 f0 34 3e 93 38 13 bd 20 d9 9f bd 11 0c 45 be
       0.17669776 -0.035942625 -0.07805085 -0.19242884
000020 b8 e2 fd bd 7d 92 71 be a1 ae 44 3e 42 41 91 3e
       -0.12396759 -0.23591037 0.1920724 0.283701
000030 49 33 f5 be 43 0c 62 bd ff 0f 82 3e b8 4f 92 be
       -0.4789069 -0.055187475 0.2540283 -0.28576446
000040 8e 6c 99 bc 1e 99 ae be d3 77 af 3e aa aa b2 bd
       -0.01872852 -0.34101194 0.34271106 -0.08723958
000050 3c 49 e1 3d 21 97 f7 3d 12 9d ef 3d be 37 73 bc
       0.110002965 0.120893724 0.11699881 -0.014844833
000060 01 b9 6b be dc 7f 03 bd 5c 06 8a 3d f4 23 b1 be
       -0.23019792 -0.032104358 0.06739494 -0.34597743
000070 cb 73 11 be a5 1e 92 bd 14 01 be 3d c4 8a fa 3c
       -0.14204328 -0.07134751 0.092775494 0.030583747
000080 09 07 dc be 09 1c dc be b2 5a 41 be 05 f3 8a be
       -0.42974117 -0.4299014 -0.18882254 -0.27138534
000090 be 81 a1 bd 0d d7 10 3e 7f 24 be 3d 5f 7e d6 3d
       -0.078860745 0.14144535 0.09284305 0.10473322
0000a0 96 1d 99 3d 22 ab e2 be 28 33 81 be 91 b4 2f bc
       0.07476346 -0.4427119 -0.25234342 -0.010724203
0000b0 75 9e a4 3e cf 02 a3 3e 19 9d 4d be 0b 7d 82 3e
       0.32152143 0.3183808 -0.20079459 0.25486025
0000c0 19 ee c8 3e 76 ff 0b 3e 8d 16 b3 3d a8 b2 46 3e
       0.39244154 0.1367167 0.087445356 0.1940409
0000d0 1f 79 f6 3d 7d 5b 9a be 37 4d ec 3c ea 09 c7 be
       0.12034821 -0.30147925 0.028845413 -0.3887475
0000e0 87 54 06 bf 28 41 8b 3e d2 af 69 be d1 69 d1 bd
       -0.5247273 0.27198148 -0.22820976 -0.10225261
0000f0 40 3a c6 3d 53 46 16 ba 5d be 0d 3e 21 b6 8d be
       0.09679079 -0.0005732525 0.13842149 -0.27678016
000100 fc 06 8b 3e 6b 6c 2d be 6b e1 ba be 0b e4 cc bc
       0.27153766 -0.1693589 -0.36500105 -0.025011083
000110 95 d6 13 bf 98 37 c3 3d d8 de 51 3e 61 b2 8d 3d
       -0.577493 0.09532088 0.20495164 0.06918789
000120 d8 97 66 3e 96 f5 bc bd 79 79 0c be 04 53 b0 be
       0.22518861 -0.09226529 -0.13718213 -0.34438336
000130 e8 c9 13 bd 3a bc 66 bd 7a b6 96 3d 1a 23 b0 be
       -0.036081225 -0.05633185 0.073590234 -0.3440178
000140 69 06 e9 3e ab a1 ed 3c 72 e2 3f 3e ab a3 68 3d
       0.45512703 0.029007753 0.18738726 0.05679671
000150 e0 e0 bf be ae 53 c0 3d 64 f6 c9 be 7f 28 0a 3e
       -0.37476254 0.09390961 -0.39445794 0.1349201
000160 0a 4c df 3d f7 c5 48 be ac b6 f8 3d 07 fc 69 3d
       0.10903175 -0.19606768 0.12144217 0.057125118
000170 11 95 76 bc 54 2f 21 3e 37 db 59 bd 3e 42 08 3f
       -0.015050189 0.1574071 -0.053187575 0.5322608
000180 6e 3d f4 be bd a5 80 3e 7c 6f a6 be c6 35 a3 3e
       -0.47703117 0.25126448 -0.3250693 0.31876963
000190 bb 46 8e 3e 95 b3 a4 3d 6a a8 95 be 18 d8 60 3e
       0.27788338 0.08042065 -0.29230052 0.21957433
0001a0 d4 32 32 3e 70 ad 02 3d 85 5f 31 3e f0 7e 1d bf
       0.17402202 0.031903684 0.17321594 -0.61521816
0001b0 8c a1 87 3e d4 d6 b2 3d 50 8c e4 3e 72 4c f0 3d
       0.26490438 0.087323815 0.446383 0.11733331
0001c0 ed 01 01 be ba 81 8f be 52 72 40 3e 24 59 47 3e
       -0.12598391 -0.2802866 0.1879361 0.19467598
0001d0 80 cd 6c 3e dd ca b2 be 3f 03 27 be 5c 14 e1 be
       0.23125267 -0.34920397 -0.16309832 -0.43960845
0001e0 9a 43 39 3e 3f 38 6b 3e 34 4f 0d 3a f2 8c 13 3e
       0.18092194 0.22970675 0.00053905253 0.14409235
0001f0 90 e1 8a be 23 99 9c bc 34 e6 42 3c f5 6e dc be
       -0.27125216 -0.01911599 0.011895705 -0.43053403
000200 7f c3 77 3e e5 18 b9 bd f2 dd 9e 3e e6 b2 c8 be
       0.2419567 -0.090379514 0.31028706 -0.3919899
000210 cd 73 0c 3e 04 60 9a bd 9e 1c 9a 3d 33 bd 86 3d
       0.1371605 -0.07537845 0.075249895 0.06579056
000220 ed 2f 10 bf 23 79 8a 3e 93 02 33 bd e9 46 93 3c
       -0.5632313 0.27045545 -0.043703627 0.017978149
000230 11 81 ef bd 30 45 9e 3d a8 7d 58 3e 29 cb 17 be
       -0.11694539 0.0772804 0.21141684 -0.14823593
000240 01 12 27 3e 83 74 8a bd 34 2b d2 be 99 e3 04 be
       0.16315462 -0.06760504 -0.41048586 -0.12977447
000250 f9 67 26 3e 3a 0a 82 3d b7 ac 33 be 47 df 0a 3d
       0.162506 0.06349607 -0.17546354 0.03390434
000260 59 1d 36 3f 83 9b 88 bd 41 5b 49 3e 82 15 11 bf
       0.7113853 -0.066702865 0.19663717 -0.56673443
000270 a4 23 bf be c3 cc 1c 3e dc c3 92 3e 5a 22 f8 be
       -0.3733188 0.15312485 0.28665054 -0.48463708
000280 3e 4e 96 3e bf 73 4e 3d 39 7b e9 3d 4a cd 1e be
       0.2935657 0.050403353 0.11400456 -0.15507999
000290 09 76 1e 3e c0 14 9e bd fd 7f c8 bd da c6 c5 be
       0.15474714 -0.077188015 -0.09790037 -0.38628274
0002a0 ec d3 2c be 0d b5 49 be bb 64 97 3e 0c b6 b5 3d
       -0.16877717 -0.19697972 0.2956904 0.08872613
0002b0 3d 93 76 3e a8 3c b4 3e d7 42 42 3e 0d 07 91 be
       0.24079604 0.35202527 0.1897081 -0.28325692
0002c0 00 e9 0b 3c b2 0f 2d 3d 34 02 86 be 10 c4 f3 bd
       0.008539438 0.042251296 -0.26173556 -0.1190263
0002d0 a2 fa b9 bd 01 45 52 3e 20 f8 50 3e 18 85 9f 3d
       -0.090810075 0.20534135 0.20407152 0.077890575
0002e0 a3 4e 86 3c df e8 18 3e fc b8 4e be bf da 98 be
       0.016394919 0.14932583 -0.20187753 -0.2985439
0002f0 00 63 39 3e a1 f3 83 bc f0 40 be bd 6c c6 0e 3e
       0.18104172 -0.016107382 -0.092897296 0.1394288
000300 30 2a d0 be 0d 8f 16 3d 9d f6 04 be 38 6e a8 bc
       -0.40657187 0.036757518 -0.129847 -0.020560369
000310 ef c3 85 be bb a9 4a 3e 71 36 0d bf eb 6c b1 bd
       -0.26126048 0.1979131 -0.55161196 -0.086633526
000320 01 cd 97 be 6b dc 33 be c8 fc 18 3e f2 fd 09 be
       -0.29648593 -0.17564552 0.14940178 -0.13475779
000330 04 f7 ee bd c1 4e ab 3d be ca a9 3d c7 7a c1 3e
       -0.11668208 0.083646305 0.08290623 0.37788984
000340 b0 04 70 be e3 34 2e be 4a 86 3d be 9d 51 12 be
       -0.23439288 -0.17012362 -0.18508258 -0.14288945
000350 38 cd 16 be 16 99 8b 3e 88 1c b0 bd d1 b6 0e 3d
       -0.14726722 0.27265233 -0.08599192 0.034842316
000360 cc f1 3a be d2 21 d0 bd ae 89 31 be a2 45 15 3e
       -0.182563 -0.10162701 -0.17337677 0.14577344
000370 c9 ec 67 be 53 f5 2c bd d9 40 19 3c de 85 85 be
       -0.2264892 -0.042226147 0.00935384 -0.26078695
000380 a3 09 d3 3d 41 b1 06 3e e9 1b 05 3e 0a 5f ea 3e
       0.103045724 0.13153554 0.12998928 0.45775634
000390 89 5e a2 be 1c 60 86 3e ac 51 65 be 30 f5 a1 3e
       -0.3171275 0.262452 -0.22394437 0.31632376
0003a0 64 ea 9c bd 29 11 31 be 33 44 67 be a8 c5 cc bd
       -0.07661894 -0.17291702 -0.2258461 -0.099986374
0003b0 88 d5 cf 3e f6 44 87 be 70 9d 3b bd 1a a3 4c 3a
       0.405926 -0.264198 -0.04580444 0.00078062864
0003c0 e3 02 82 3d d3 ba 5a be 6d f9 8c 3c 8e 47 ad 3d
       0.06348207 -0.2136033 0.01720878 0.084609136
0003d0 d0 e2 73 3e 98 0f 26 be e0 0b 01 3f f6 28 71 bd
       0.23816991 -0.16216886 0.50408745 -0.058876954
0003e0 cd 6d f0 bd 89 42 a1 be 67 e6 79 3e c3 f8 80 bd
       -0.11739693 -0.31496075 0.24404298 -0.062974475
0003f0 a0 17 98 be b6 27 84 bd cd 8e 1b be 9e 98 9a 3e
       -0.29705524 -0.06452887 -0.15191193 0.30194563

encoder.l2.bias f4 [32]
000000 12 f7 33 bd a6 71 4f 3d a9 63 75 bc 93 8e a9 bd
       -0.043936796 0.050645493 -0.014977374 -0.08279147
000010 4d d5 11 3d 87 1d 99 bd a0 43 0c bd dc a7 6e 3d
       0.03560381 -0.07476335 -0.03424418 0.058265552
000020 2d d2 d3 3c 6a 57 6a 3d a0 3e c0 bd 81 71 3a bd
       0.025857056 0.05721227 -0.09386945 -0.045518402
000030 da 80 4d 3d 4b 00 c5 bd 6f 5d e0 3d 6b cc 89 b8
       0.05017171 -0.096191965 0.10955321 -6.570745e-05
000040 ca 99 bf 3d 27 33 09 3c 36 a9 a6 3d 42 86 74 3d
       0.09355505 0.008374012 0.08137743 0.05969835
000050 5c 24 8a 3d 08 ad 23 3d 0d 9b 2d 3d 8e d7 cb 3d
       0.06745216 0.039959937 0.042384196 0.09953223
000060 e8 63 c7 3c 9f ce 94 3b aa af 89 3c e2 ab 9f bd
       0.024339631 0.0045412327 0.016807396 -0.07796456
000070 64 a6 ac bd cb 5e cb bc d7 e3 0c bd b0 6e ed 3c
       -0.08430174 -0.024825474 -0.034396973 0.028983444

lstm.weight_ih f4 [512, 288]
000000 e8 da 00 bd 2f 0f c8 3c 08 fb 5f 3d 40 8e f1 3b
       -0.031458765 0.024421303 0.05468276 0.007371694
000010 c8 a5 24 3d 83 4d cc 3c 6d b3 91 bd 86 90 8b bc
       0.040197164 0.024939304 -0.07114301 -0.017036688
000020 9a f6 cd 3a 18 1e 38 3d 8a ad dc 3c 89 a7 5a 3e
       0.0015713752 0.044950575 0.026938219 0.21352972
000030 fb 5c 46 3d 3b b4 ce 3d 54 65 43 3e f2 25 15 bd
       0.048428517 0.1009297 0.19081622 -0.03641314
000040 52 99 77 bd 48 0c 69 bd 6b fc 50 3e 62 df f7 bd
       -0.060448952 -0.056896478 0.2040879 -0.12103154
000050 a9 c9 49 3e 18 b2 50 3e 95 ca 23 3e 10 43 0e 3e
       0.19705833 0.20380437 0.15995248 0.1389277
000060 88 e1 b6 bc 7e 49 7b 3d 5c aa b6 3c dc 5e e2 bd
       -0.022324339 0.061349384 0.02229803 -0.11053249
000070 30 6f c4 3d 01 89 f5 3d bd eb a8 bc 05 78 c0 bd
       0.0959152 0.11989022 -0.020620221 -0.09397892
000080 b6 dc f9 3d 01 65 03 3d f3 84 4d 3e 65 e4 d7 3d
       0.122003004 0.032078747 0.20070247 0.1054161
000090 7f 9c ff bb e0 f6 ee 3c ec e2 a1 3d 43 d7 71 bd
       -0.007800638 0.029170454 0.0790461 -0.05904318
0000a0 5a a3 fe bc c5 aa a8 bb cd b6 82 3d 42 c3 c8 bd
       -0.031083751 -0.0051473104 0.06382523 -0.098028675
0000b0 dc 40 89 3d 04 7a 1b be cf b8 ab bc 1e 17 c6 bb
       0.06701824 -0.15183264 -0.020962147 -0.0060452363
0000c0 89 08 df bc 2e ea 05 3e 05 be 46 bd 55 3c 34 3e
       -0.02722575 0.13077614 -0.04852106 0.1760114
0000d0 68 a5 b0 bd ba 97 8c bb 4e d5 2c 3c 2a 0b 08 3e
       -0.08625299 -0.004290548 0.010548903 0.13285509
0000e0 7c 98 b7 bd 89 d1 2b 3e b9 05 1d be 70 8a 28 bd
       -0.08964631 0.1677915 -0.15334214 -0.04114765
0000f0 e2 7f 5d bd 69 76 4d bc 15 02 91 3d e5 ed ae 3d
       -0.054077037 -0.012540438 0.07080475 0.085414685
000100 7d d4 9a bd 0b 74 89 bc ae 57 15 3e 03 e5 ff 3c
       -0.0756006 -0.016778966 0.14584228 0.031237131
000110 31 af f3 bd 95 76 86 bd 3f aa 0a 3c af 65 26 3d
       -0.118986495 -0.065655865 0.008463441 0.040624317
000120 c1 1c 98 bd 20 85 14 3e 4a 77 43 3d 5d c7 69 bd
       -0.07427359 0.14503908 0.047721185 -0.057074893
000130 e1 b0 ca 3c f3 d3 e4 bd 17 ef 89 3d e4 09 0a 3e
       0.024742546 -0.111732386 0.06735056 0.13480335
000140 19 ee 91 3d 43 c2 aa 3d 43 d8 8e 3d 6c 49 c0 bd
       0.07125492 0.08337834 0.069748424 -0.09389004
000150 3d 91 e5 3c e1 71 60 3c 50 15 3e 3d 3a a3 04 3d
       0.028023357 0.013699026 0.046407044 0.032382227
000160 71 b6 5c bd 6e 32 8b bc 36 52 96 3d c9 4f 6e 3d
       -0.053884927 -0.01699182 0.07339899 0.058181558
000170 0f df 93 3d 5b 93 dd bd bc 2e cd bc 08 ad f8 39
       0.072202794 -0.108191215 -0.025046699 0.00047431164
000180 31 42 49 3c e8 69 c3 3d f4 62 de 3d 4d 97 3e bd
       0.012283848 0.095416844 0.108587176 -0.04653101
000190 f6 31 b6 3c 6c 34 11 3d ab 7a a3 3c 3d 86 05 3e
       0.02224062 0.035450384 0.019955954 0.13039489
0001a0 8b 9d 46 bd 8e ae b8 bc 73 0b 5d 3d 0b 22 1c 3d
       -0.04849009 -0.022544172 0.053965997 0.038118403
0001b0 01 8b 3e 3d ce f6 6e bd fb 60 1b 3e a3 d9 12 3c
       0.046519283 -0.05834084 0.15173714 0.008963021
0001c0 8a e2 89 3c 7f 90 15 3e a1 c9 c6 bd 35 cb 6d bd
       0.016831655 0.14605902 -0.097064264 -0.05805512
0001d0 a0 5b 15 be d2 c8 25 bd 6c 7b 07 3d 3f 40 3a bb
       -0.14585733 -0.04047472 0.03307669 -0.0028419641
0001e0 4d 69 9d bd 27 ac 1e 3c 11 b7 1a be b5 8d 86 3c
       -0.076861 0.009684599 -0.15108897 0.016424993
0001f0 c5 bc ba 3b 2f 30 a4 bd 90 5f 27 39 8d 50 38 3d
       0.0056987726 -0.08017003 0.00015961961 0.044998694
000200 67 d7 7d 3d 70 52 89 bd 9b 26 02 bb 46 e3 c3 bc
       0.061973 -0.06705177 -0.0019859436 -0.023912083
000210 74 02 9e 3d 02 e6 f0 bd 5a b3 d9 bd 3f da 4d 3d
       0.07715312 -0.117626205 -0.10629912 0.050256964
000220 75 aa 58 bd fa 8f 42 bd 52 8c ff bd 05 26 03 be
       -0.052896935 -0.047500588 -0.12477936 -0.12807472
000230 53 08 35 bd 4a 7c 00 3d cf c5 a7 3d 06 5e 10 be
       -0.04419739 0.03136853 0.08192026 -0.14098367
000240 c3 24 77 3d e9 b5 c3 3d 5d ac 4d 3d 39 0a cc 3b
       0.060337793 0.09556181 0.050213207 0.0062268046
000250 db a5 84 3d e0 12 8a 3d 24 86 63 bd 97 86 39 3d
       0.06476947 0.06741881 -0.05554785 0.04529437
000260 18 8e fd 3c d5 cd c8 3c 80 b5 88 3d 79 93 d2 3c
       0.030951545 0.02451221 0.066752434 0.025705086
000270 ad 3b 1e bc 64 e1 9c bd e9 40 a5 bd 38 45 22 3b
       -0.0096577825 -0.07660177 -0.08069021 0.0024760496
000280 96 77 ab 3c d1 52 a6 bd 19 3f 00 be cb 8d 50 bd
       0.020931046 -0.08121265 -0.1252407 -0.050916474
000290 fc 16 d3 3b 39 46 d7 3b 5c 21 96 3c 4e c8 33 bb
       0.006441949 0.0065696505 0.018326454 -0.0027432623
0002a0 7e b9 a1 3d 26 3a 22 be 66 19 01 3e cc 53 8c bc
       0.07896708 -0.15842494 0.12607345 -0.017129801
0002b0 a1 2f c7 bc c5 7c a3 3d 85 92 21 be e2 d1 e9 3d
       -0.024314703 0.07982782 -0.15778549 0.11416985
0002c0 23 ca c0 bd 0c 49 7a 3d 54 0e 2f bd 0e 86 4a 3c
       -0.094135545 0.06110482 -0.042738274 0.012361063
0002d0 6e 6c d1 bc 72 6c 16 3d 72 39 bd bd 7b 07 70 3d
       -0.025564399 0.036724515 -0.092394724 0.058600884
0002e0 1d 66 4d 3d de d1 f1 3d 97 2d eb bd db 3b 49 3c
       0.05014621 0.11807607 -0.11483305 0.012282337
0002f0 fb 4f 11 3e dc 55 e9 bd e6 b7 15 3d d9 12 5c 3c
       0.14190666 -0.113933295 0.036552332 0.013432228
000300 ad 88 9e bd be da b0 3d 1f 31 37 3d a0 a9 bd 3d
       -0.077409126 0.08635472 0.04472458 0.09260869
000310 5e 65 48 3d c1 e4 87 bd 00 b2 09 bc 6f eb 02 be
       0.048924796 -0.06635428 -0.008404255 -0.12785123
000320 f2 9d 8c bd 60 6a 48 bd cc 95 8f bd 3f 20 be 3d
       -0.06866063 -0.048929572 -0.07010993 0.09283494
000330 ef 56 67 3d 7b 19 c8 3c 8a ee 22 3d d8 81 79 ba
       0.05647939 0.024426213 0.03977827 -0.00095179444
000340 29 84 cd bc 43 0d b3 bb 12 97 00 3d 01 b9 96 bd
       -0.025087433 -0.0054642274 0.031394072 -0.073595054
000350 86 df 32 3d 78 33 bb 3c ec 69 12 3e 50 b9 f7 3c
       0.0436702 0.02285169 0.14298218 0.030239731
000360 e9 83 a7 bd 0b f2 89 bd cd a4 e4 3d 2c de ae 3d
       -0.08179457 -0.06735619 0.11164246 0.0853847
000370 24 a6 a3 ba cd de 2e 3d 95 b1 7c 3c 3f 08 81 bd
       -0.0012485427 0.042692948 0.015423198 -0.06300401
000380 48 e2 1f be 39 68 2b 3d 5c 16 34 bd 8b 96 42 bd
       -0.15613663 0.04184744 -0.043966636 -0.04750685
000390 4f 2e b6 bd 9b da bb 3c 50 6f d3 3d e6 ea e9 bc
       -0.088955514 0.022931388 0.103239655 -0.028554391
0003a0 21 6a 68 3a de 37 76 3d 3f e5 c0 bd 68 c6 09 3c
       0.0008865912 0.060111873 -0.09418725 0.00840912
0003b0 56 f6 12 3b fe f3 0e bb b6 0f c4 3c cb 8a 05 3c
       0.002242466 -0.002181291 0.023933273 0.008150767
0003c0 26 e7 fe 3c dc bb ff 3c 0a 80 b5 3d 37 74 8e 3d
       0.03111608 0.031217508 0.08862312 0.0695576
0003d0 42 f2 a9 3c 03 22 b1 3c c8 2a 08 3e 64 6f 96 3c
       0.0207454 0.021622663 0.1329757 0.018363662
0003e0 87 8c 26 3d e7 f2 70 3c 25 95 83 3d 77 ab 74 3d
       0.04066136 0.01470635 0.064249314 0.059733834
0003f0 e9 26 db bd 5e a7 28 bd 98 39 d0 bc 7f 00 10 3c
       -0.10700781 -0.04117524 -0.025418088 0.008789181

lstm.weight_hh f4 [512, 128]
000000 e1 7b 69 bb 8d 23 08 3d 1b 5d 88 be 1a 9c 62 3a
       -0.0035626816 0.03323703 -0.26633534 0.0008644477
000010 a1 0d b2 3c b9 6d 4c be df 97 19 bc bf b3 1e 3d
       0.021735014 -0.19963731 -0.009374588 0.038745638
000020 4d 8c 97 be b4 f0 51 be e2 46 87 bd ea aa 50 3e
       -0.29599229 -0.20501977 -0.06605317 0.20377699
000030 83 75 2c 3e e2 56 89 be ac 32 cd 3d 06 b6 e0 3d
       0.16841702 -0.268241 0.100194305 0.10972218
000040 9a 89 ea be b4 67 90 bd 09 0c 3f 3e b8 46 30 bd
       -0.45808107 -0.0705103 0.18656935 -0.043036193
000050 0d 37 06 3e c6 53 a5 3d be a9 21 3f bd 38 06 be
       0.13106938 0.08072619 0.6314963 -0.13107581
000060 87 48 89 3e ed 42 39 bd 03 38 21 3c 66 12 65 3e
       0.26813146 -0.04522984 0.009840014 0.223703
000070 e4 04 0c 3e dd f0 cf bd 2a 74 35 bd 53 2c 7a be
       0.1367374 -0.10153363 -0.044300236 -0.24430971
000080 67 47 ac bd 18 bb 0b 3d 4b 24 d6 3d a1 61 62 bd
       -0.084120564 0.034113973 0.10456141 -0.055268887
000090 35 2a 49 3d ab 3a b5 bd 8e b3 2b be 50 87 08 3c
       0.049112517 -0.08849081 -0.16767713 0.008333042
0000a0 93 f7 4e be 58 d7 aa bd a9 09 09 be 89 73 ac bb
       -0.2021163 -0.08341855 -0.13382591 -0.0052627963
0000b0 da 00 51 bc 63 2d d0 3d f5 28 05 be 2b 16 b2 3e
       -0.012756551 0.10164907 -0.13003905 0.34782538
0000c0 da 74 c3 bd a1 2d ba 3e 67 e2 22 3e a4 10 48 3e
       -0.09543772 0.36362937 0.15906678 0.19537598
0000d0 05 b6 b4 bd a1 5b 0d 3e 4e bf a6 3c e4 32 1f be
       -0.0882378 0.13804485 0.020354893 -0.15546757
0000e0 07 cf 0b 3e a6 3a 80 bd 87 c0 91 3c 6c f6 fb 3d
       0.13653193 -0.06261186 0.017792 0.123028606
0000f0 4c fc 8b 3e 30 46 7c 3d 6a c7 94 bd 79 08 1e be
       0.27340925 0.061590374 -0.07264598 -0.1543292
000100 4e c1 a1 be 1a 17 fa 3d 87 3c 65 3e 1a 94 94 3e
       -0.31592792 0.122114375 0.2238637 0.29019243
000110 62 13 02 be ba e1 5f 3d d3 2d 78 3e c0 20 46 3e
       -0.12702706 0.05465863 0.2423623 0.1934843
000120 d4 c9 83 be 8b ad cb 3d f4 e0 2f 3e 4b 7c 27 3e
       -0.2573992 0.0994521 0.17175657 0.16356008
000130 fa 86 1a be 4e 97 f2 3d 7d 73 f9 be 9a e7 80 bd
       -0.15090552 0.11845265 -0.48720923 -0.062941745
000140 02 d0 97 bd c4 8c 21 3e 40 cc 2d be 3d 0d 4e 3d
       -0.07412721 0.15776354 -0.16972446 0.050305594
000150 f1 69 85 be 41 7f ac be ee cd c7 bd 1d f6 21 be
       -0.2605739 -0.33690837 -0.09756075 -0.15816541
000160 da ae 99 bd ea d1 fb bc c1 98 6e 3e 6d d2 d6 3d
       -0.075040534 -0.030739743 0.23300458 0.10489354
000170 e8 32 b3 be e4 1b bd be 48 f4 61 bd 2e dc 65 bd
       -0.34999776 -0.3693534 -0.055164605 -0.056118183
000180 20 13 e6 3d 09 6d 10 bd da 2a 63 bd e8 f3 12 be
       0.112341166 -0.035260234 -0.05546079 -0.14350855
000190 0b 32 ee bc ad a9 a5 bd c5 84 c1 3e 89 5d 84 3e
       -0.029076597 -0.08089004 0.37796608 0.25852612
0001a0 c6 af 41 be 14 73 5e bd 43 8d 1f 3d 23 4e 4a 3e
       -0.18914708 -0.054308966 0.038953077 0.1975637
0001b0 ec c8 9a bd f3 79 8d 3d f5 b4 c6 bd 22 04 b7 3d
       -0.07557854 0.069080256 -0.097024836 0.08936335
0001c0 fe 91 a8 3e 23 54 a8 3c 63 91 b0 be d9 8d 7a bd
       0.32923883 0.020547932 -0.3448592 -0.061170433
0001d0 30 bb 09 be c7 0f 19 3d 0f d6 df 3d 76 86 cd be
       -0.13450313 0.037368562 0.109295 -0.40141648
0001e0 ed 55 18 3e c9 a9 d1 bd 16 70 28 bd e0 18 70 3e
       0.14876528 -0.10237462 -0.04112252 0.23446989
0001f0 75 2c 76 bd 47 58 d5 bd 86 bd fc bc cc 29 b2 bd
       -0.06010099 -0.10417228 -0.03085209 -0.08699378
000200 a6 ba 18 3d 42 fc 3b 3e 28 0d 5f be 3a 4d a1 3d
       0.037287377 0.18357947 -0.21782362 0.07876058
000210 c7 8d 94 be 6e 86 04 be 90 4b 35 be e3 18 f6 bd
       -0.29014418 -0.12941906 -0.17704606 -0.120164655
000220 93 11 c1 bd bc d4 f7 3e 73 2b af be e1 6e d9 bd
       -0.0942718 0.4840449 -0.34212837 -0.106168516
000230 07 a6 6a be b8 eb 1a be a7 97 8b 3e 73 f0 12 bd
       -0.22914897 -0.15128982 0.2726414 -0.03587384
000240 9f 22 cd 3e 23 ba 7b 3e d5 be c9 be 27 ab 8e be
       0.40065476 0.24582724 -0.39403406 -0.27864954
000250 f5 4e 3d bd 23 d5 26 be 61 51 cf 3e 1a ec 51 3e
       -0.046217877 -0.16292243 0.40491775 0.20500222
000260 03 6a 86 bd 02 06 ab bd 55 17 97 3c 82 88 9a 3d
       -0.06563189 -0.08350755 0.018443743 0.07545568
000270 33 a4 ed bd aa 6c 8f 3e dc 8f 1e be 34 cc 4d 3e
       -0.11603584 0.28012592 -0.15484565 0.20097429
000280 f5 5a df 3d 82 8c 2c be b5 96 b9 bd 74 b0 e9 3b
       0.109060206 -0.16850474 -0.09061948 0.0071316306
000290 5a 30 41 be fc 9c 83 be 4f c6 1e 3e 3e d1 76 be
       -0.18866101 -0.25705707 0.15505336 -0.24103257
0002a0 c9 dc 54 3e 13 f1 de be ca 88 b7 3e 1d db f1 bc
       0.20787348 -0.435433 0.3584655 -0.029523427
0002b0 53 bf 1b be 33 f6 e4 be ef e8 2b 3e 07 58 2a 3c
       -0.15209703 -0.44719085 0.16788076 0.010396964
0002c0 72 f7 a6 bd 99 2d 34 3c a2 9d 86 be ed ec 95 be
       -0.08152665 0.010997199 -0.2629214 -0.29282323
0002d0 5f c0 b0 3e be e3 6a be 3c ad ee bd 7f 83 52 be
       0.34521767 -0.22938439 -0.116541356 -0.20557974
0002e0 fc b8 45 be af 7c d0 bc e4 e8 9b 3c 4c d5 3f 3e
       -0.19308847 -0.025450079 0.01903195 0.1873371
0002f0 e7 7c 13 be c5 67 d0 3d e7 2f d9 be 72 ed af 3d
       -0.14403115 0.101760425 -0.4241936 0.08590211
000300 24 8a 2e 3d 96 3a 79 bd 5e 19 98 3e 3b 56 a4 3e
       0.04261221 -0.060846888 0.29706854 0.3209704
000310 84 5e 89 3d f3 66 67 be 97 2f 0d 3c 83 fd 3f be
       0.067074805 -0.22597866 0.008617303 -0.18749051
000320 c5 c4 83 bd 9f d3 b3 bd 30 77 f4 bd 48 ee 43 be
       -0.06434015 -0.08780598 -0.11936796 -0.19133866
000330 2f 3a 24 be 3a 82 46 be 29 c7 a5 be 50 e4 c7 3d
       -0.1603782 -0.19385615 -0.3237851 0.09760344
000340 a8 71 d1 3e b1 14 6d 3d d9 1a 55 3c b6 a6 9f bc
       0.40907025 0.05788106 0.013006889 -0.019488674
000350 7c b3 78 3d f4 6d c9 bd 89 76 b6 3e be fc 85 3e
       0.060718045 -0.09835425 0.3563731 0.2616939
000360 13 9b 59 3d 39 bf 1b be d5 7f ec 3d ed 31 f1 bc
       0.053126406 -0.15209664 0.115478195 -0.029442752
000370 24 1d 78 3e a2 9b f7 bd c0 bd ec 3c ac 7d c3 3c
       0.24229866 -0.120902315 0.028899074 0.023863636
000380 a2 27 4a 3e 25 38 54 3e 93 b3 59 3e b2 f0 50 be
       0.19741681 0.20724542 0.21259908 -0.20404318
000390 0a eb 60 3e ef 49 8b 3c ac fc 42 3d 45 97 24 3e
       0.2196466 0.017003028 0.047604248 0.1607333
0003a0 78 96 2f bd 57 ea 3a 3e 8b 47 1d be af e9 ba bc
       -0.042868108 0.18253456 -0.15359323 -0.022816507
0003b0 de 6a 3f bd f3 20 d5 bb ec 25 92 be 09 06 af be
       -0.046732776 -0.006504172 -0.28544557 -0.34184292
0003c0 d7 22 20 bf 68 a3 10 3e fb 35 e2 bc 83 a0 6e 3d
       -0.6255316 0.14124835 -0.02761363 0.058258545
0003d0 2d be 45 3e 2a c8 c2 bd f1 2d 2f 3e a9 52 65 bd
       0.19310828 -0.095108345 0.17107369 -0.055987034
0003e0 2b f8 70 bd 31 39 83 3e a7 e8 c9 bd c0 b8 be bd
       -0.05883042 0.2562957 -0.09858828 -0.09312582
0003f0 62 03 9a 3e be d7 99 be a2 2d a9 3d 4d a7 f7 be
       0.30080706 -0.3004741 0.08260657 -0.48369828

lstm.bias_ih f4 [512]
000000 e2 73 d9 3c 30 e3 2f 3d 56 a8 39 bd 14 f9 88 3d
       0.026544515 0.042941272 -0.045326553 0.06688133
000010 7a d8 18 3e 12 8e 07 3e df e2 01 bb f5 ee d4 3c
       0.1492633 0.1323779 -0.0019819064 0.02599285
000020 6a 19 1c 3d 30 cc c8 3d f2 ea 5e 3b f2 4a c2 bd
       0.038110174 0.09804571 0.003401455 -0.09486951
000030 30 b4 2a 3e 62 d0 ef 3d 79 d6 91 3d 2c 97 65 3c
       0.16670299 0.11709668 0.071209855 0.014013093
000040 13 1c 98 bd 37 f8 ba 3d 44 bc 24 bd e1 8c 22 3d
       -0.0742723 0.091293745 -0.040218607 0.039685134
000050 4a 85 71 3b 2a 3a d4 bb b9 df 52 3c e1 fe ff 3d
       0.0036853128 -0.0064766603 0.012870722 0.12499786
000060 d6 ae ca 3c ca 0e bc 3d 59 db ab 3d f0 94 2f 3d
       0.024741571 0.09182508 0.083914466 0.042866647
000070 3e 59 a5 3d 25 f7 0b 3e 58 c5 cc 3d 69 da 16 bd
       0.08073662 0.13668497 0.09998578 -0.036829386
000080 9b d6 d0 3b 4f da 7f bd ec 2a 61 bc e2 e7 d9 3d
       0.006373239 -0.062464055 -0.0137431435 0.10639931
000090 fd a1 1b 3e e9 6b bf 3c e3 a9 0f 3d 27 bb 44 bd
       0.15198512 0.023366885 0.035074126 -0.048030045
0000a0 fb 27 95 bc 54 18 d0 bc 34 b9 c0 bc 70 d3 d4 3d
       -0.01820754 -0.025402226 -0.023525812 0.10391891
0000b0 7f 67 8e 3c 54 6c d1 3d 89 29 2d 3d f6 79 ef 3c
       0.017383335 0.1022574 0.04227594 0.02923296
0000c0 99 7c 16 3e a5 06 94 3d b8 c3 f1 3b 9b 25 99 bb
       0.14695968 0.0722783 0.007378068 -0.0046736724
0000d0 cb e2 e7 3d e6 89 0d 3e 04 b9 7e 3d 87 f3 0e bd
       0.11322554 0.13822135 0.062188163 -0.034900215
0000e0 a0 d6 f9 3d a3 cf 23 bd a0 0b 03 3e 15 8d fc bc
       0.121991396 -0.03999294 0.12797403 -0.030828992
0000f0 5d 3f a7 3d c2 97 ff 3d 71 49 79 3b 7d 26 d5 3d
       0.081663825 0.124801174 0.003803816 0.10407732
000100 4a e2 01 bd 4a aa fc 3d 83 7b a0 3b 1d 22 41 3e
       -0.031709947 0.123371676 0.0048975362 0.1886067
000110 dd fd 26 bd b4 38 d5 3d 51 3d 74 3d a2 d5 fc 3d
       -0.040769447 0.10411206 0.05962879 0.12345435
000120 1d bd 43 3d fb 24 93 3d 77 32 07 3e 0d 92 f2 3c
       0.047787774 0.07184788 0.13202845 0.029610658
000130 f1 ca b2 3d 33 0e 94 3b f3 a7 4a bd 05 97 aa 3d
       0.08730114 0.0045182942 -0.049476575 0.08329586
000140 85 76 7d bd fd c7 d9 3d c1 ae bb 3c 3c 7c 3b 3c
       -0.061880607 0.10633848 0.022910478 0.011443194
000150 f2 94 a6 3d 8e 60 a6 3b 4d 78 17 3e 1e 3e 16 3e
       0.08133878 0.005077428 0.14791985 0.14672133
000160 87 47 99 3d 89 ab fe 3d bb e6 83 3d 1a a2 fb 3d
       0.07484346 0.124350615 0.06440493 0.12286778
000170 a4 8b 02 bc 4d 2e e6 bb 52 fc 5e bd 63 23 36 3c
       -0.007967863 -0.0070245625 -0.05443985 0.011116835
000180 63 82 5b 3d 1c 6c d8 3d a3 91 fa 3c f1 6c 58 b8
       0.053591143 0.10567495 0.030587023 -5.1599873e-05
000190 35 b0 cd 3d 77 6a a8 3d 42 ac 5c 3c e5 76 3f bd
       0.100433744 0.082234316 0.013468804 -0.046744246
0001a0 25 14 5d 3d 1f 60 99 3c 2a 50 f4 3d 85 da 65 3a
       0.05397429 0.018722592 0.119293526 0.00087682187
0001b0 7e 1f 20 3d c7 55 a8 bc 49 c1 cc 3b 1a e8 0a 3e
       0.039092533 -0.020548714 0.0062486273 0.13565102
0001c0 9c d1 a3 3d e9 47 a0 3d f0 e6 36 3d f9 cd 65 3c
       0.07998964 0.07826216 0.044653833 0.0140261585
0001d0 5e 2b 2e bd 9c 7b 8c bd bf 70 97 3d 88 21 df 3c
       -0.042521827 -0.06859514 0.073945515 0.027237669
0001e0 f5 5c fd 3d 4a 3c 8a 3d 0c a2 9f 3b 01 b3 fa 3d
       0.12371246 0.067497805 0.0048716124 0.122411735
0001f0 cf 60 1e 3e db b9 14 bd 3e 30 a3 3d 33 24 e8 3d
       0.15466617 -0.036310058 0.07968186 0.113350295
000200 af c3 3f bd fb 95 80 3c 28 8a f1 bc 5f 3e 26 3c
       -0.046817478 0.015696516 -0.029484823 0.010146706
000210 a0 ea e9 bd a1 82 48 bc 22 25 29 3d b2 37 50 3d
       -0.11421704 -0.012238176 0.04129518 0.050834365
000220 54 c1 ed bd 7a 07 9b bd 52 26 ce bd fb 10 94 3c
       -0.1160914 -0.075697854 -0.10065903 0.018074503
000230 bd a2 a6 3d 7d 7b bd bd 76 c8 c0 bd 08 64 05 bd
       0.081365086 -0.09252069 -0.09413235 -0.0325661
000240 58 08 11 3d 84 d2 21 bd 2e 75 d5 3c 89 38 8f 3c
       0.035408348 -0.039507404 0.026056852 0.017483013
000250 ce 65 91 bd b8 09 92 3d b7 f6 b5 bd 7d 47 16 be
       -0.07099496 0.0713076 -0.08884948 -0.14675708
000260 93 52 a7 bd ae b9 8d 3d 76 d0 8a 3c 97 48 c9 bd
       -0.08170047 0.06920181 0.016945105 -0.098282985
000270 95 55 b5 bd 20 a6 68 bd a7 17 96 bd 61 12 75 bc
       -0.08854214 -0.056799054 -0.0732873 -0.014957995
000280 d8 92 0c be ac ba 74 3d 24 26 d9 bd 65 3c 4a bd
       -0.13727891 0.059748337 -0.10602978 -0.049374003
000290 b2 5e 67 3d 90 25 8f bb 0c e9 a3 bc 0e e9 b1 bd
       0.056486793 -0.0043684915 -0.020008586 -0.0868703
0002a0 d9 85 ed 3c 22 dd fc bd 80 ff 93 3d 18 13 f9 bb
       0.028994488 -0.12346865 0.07226467 -0.007601153
0002b0 ea 0d 06 bd 40 8d 22 bd 58 50 87 bc 50 af 4a bd
       -0.032728113 -0.039685488 -0.016517803 -0.049483597
0002c0 e7 24 13 bd ae 47 5c bc d2 df f8 bd c3 c0 7f bc
       -0.035923865 -0.013444824 -0.12152065 -0.015609923
0002d0 86 13 fb bd 98 26 35 3d bb 46 60 bd f2 80 ef bd
       -0.12259583 0.04422626 -0.054754954 -0.11694516
0002e0 6f 55 ef bd 76 2e bd 3d 84 4a f2 bb 5f 33 9e bd
       -0.11686217 0.09237377 -0.007394137 -0.07724642
0002f0 ef 5f 80 3c 54 d7 b6 3b 8b cf 95 bb a6 c9 d5 bb
       0.015670745 0.0055798683 -0.00457186 -0.0065242825
000300 22 01 a9 bd 9e cb b6 bc cb 16 09 bd a9 77 0c 3b
       -0.08252169 -0.02231389 -0.033469003 0.0021433628
000310 05 4d c3 bd 7c 92 b4 bd ed d2 f1 bd 65 51 c0 bd
       -0.09536175 -0.08817002 -0.11807809 -0.09390525
000320 da c1 bb 3d d2 85 6c bd 49 8d 9a bd 97 b2 33 bc
       0.091678336 -0.05774481 -0.07546479 -0.010967872
000330 db 1d 24 bd fb 0b b3 bd 18 0a c7 bd dc 27 37 bc
       -0.040067535 -0.087425195 -0.09718722 -0.011178937
000340 c5 bb 00 be 7e 21 10 3d 8a c1 3e 3c 1d 17 ca bc
       -0.12571628 0.03518819 0.011642823 -0.024669224
000350 d9 ea df bc 57 8c 95 bb 6b 68 e8 bc 38 09 5c bd
       -0.027333664 -0.004563849 -0.028370103 -0.05371973
000360 67 92 fc bc 94 ae d9 bd 76 0b 45 3c 2c 9f ab bd
       -0.030831529 -0.10629001 0.012026658 -0.08379969
000370 bc e4 bf bd dc 3b 19 be 3d fd 9f bd 2e c9 8d 3d
       -0.093697995 -0.14964241 -0.07811973 0.069231376
000380 35 90 e8 3c c0 3d ad bc 7e 7a 99 bd 16 5f d2 3d
       0.028389076 -0.021147609 -0.07494067 0.102720425
000390 3f b4 40 3d e7 0d c7 bd 61 86 c7 bd 4e 25 69 3d
       0.047046896 -0.097194485 -0.097424276 0.056920342
0003a0 0a 04 c0 bd 77 fc 59 bd b4 f4 27 bc ae f8 29 bc
       -0.093757704 -0.053219285 -0.010251213 -0.010374231
0003b0 fe e4 b6 bc 2d b1 9a bc 97 9b bf 3c 46 55 25 3d
       -0.022325989 -0.018883312 0.02338962 0.040364526
0003c0 83 09 71 3d e5 7f db bd 6d cf bf bd ae 36 12 bc
       0.05884696 -0.10717753 -0.09365735 -0.0089241695
0003d0 61 30 00 3e 2d 09 59 bd 9e f0 b8 3c 60 9c d3 bc
       0.12518455 -0.052987266 0.022575673 -0.025831401
0003e0 b5 7c 88 bd 9b f2 83 bd ca 40 82 bd 88 89 bb bb
       -0.06664411 -0.06442758 -0.06360014 -0.005723182
0003f0 55 23 7a 3c 5b 6e d4 3c 4f bb 97 3d 8d ef e4 3c
       0.015267213 0.025931528 0.07408773 0.027946258
