evaluation_results/models/list_npi_2020_3_3-11_4_50-4506-False-False-1.0-False-0.0-False-False-True-False.pth (torch_old, 965641 bytes, 16 tensors)

Mprog.weight f4 [5, 256]
000000 8d 96 26 3c e0 66 9d bf fc e2 21 bf d8 82 98 3e
       0.01016773 -1.229702 -0.63236976 0.29787326
000010 aa b4 6b 3e fc 4f 01 c0 20 11 70 3f ce e9 91 3d
       0.23018137 -2.0205069 0.9377613 0.07124673
000020 c7 38 b7 bf 38 c4 c0 bf df 9e 13 bf 33 fb ae 3f
       -1.4314202 -1.5059881 -0.57664293 1.367041
000030 3f eb 47 be ea 11 a6 3f b2 99 c8 be ce 60 d1 bf
       -0.19523333 1.2974217 -0.3917976 -1.6357667
000040 56 55 16 c0 66 8f d7 3e 80 19 b6 bf d4 d1 e0 bf
       -2.3489585 0.42101592 -1.4226532 -1.7564034
000050 1c 78 54 bf 9a 5c 7d 3e 1d a5 3c bf 4a fb cb 3e
       -0.8299577 0.24742356 -0.7368944 0.39840156
000060 da f9 93 3e 86 6c 05 3e d9 1a 06 40 80 98 95 3e
       0.2890156 0.1302968 2.0953887 0.2921791
000070 24 7f a2 be 81 db 97 3f 80 30 e7 be 18 35 92 3f
       -0.31737626 1.1863862 -0.4515419 1.1422453
000080 70 69 06 bf ee 39 8c 3e 21 53 c1 bf ec c6 c1 3e
       -0.52504635 0.27387947 -1.5103494 0.37847078
000090 b8 5b 65 bf 9b 5c b5 39 14 49 0b 3f fe 97 01 3e
       -0.89593077 0.00034592007 0.54408383 0.12655637
0000a0 a0 6d 07 3e 69 5a 18 be a0 af 62 3e 30 e8 90 3f
       0.13225412 -0.14878239 0.22137308 1.1320858
0000b0 91 72 68 bf 79 7f be 3f 3a 89 2a ba 24 e7 73 bf
       -0.90799814 1.4882652 -0.00065054337 -0.9527457
0000c0 28 8e 39 3f 39 4e 1b bf 34 7f a5 3e 03 13 82 3e
       0.7248254 -0.60666233 0.3232361 0.2540513
0000d0 30 4b a4 3f 0c bc 89 bf 37 05 a9 bf 7d 4d aa bf
       1.2835445 -1.0760512 -1.3204716 -1.3304898
0000e0 1b bc e6 bf 90 09 8e bf e5 bd a8 bf aa b2 e5 3f
       -1.8026155 -1.1096668 -1.3182951 1.7945149
0000f0 f8 e4 21 c0 23 05 b8 3d d2 2c ea be 04 2c 38 bf
       -2.5296001 0.08985355 -0.4573732 -0.7194216
000100 3a f2 9b be 84 89 0c 40 5b 93 a8 3e e7 e6 a8 bf
       -0.30458242 2.1958933 0.32924923 -1.3195466
000110 45 19 9c 3f a7 ca 31 bf 50 76 bb 3d 4c 1f c7 bf
       1.2195212 -0.6944985 0.09153426 -1.5556426
000120 9e 5e 0f bf 69 24 e0 3d de d0 81 bd c1 9c a9 3e
       -0.5600375 0.10944445 -0.063386664 0.33127406
000130 a4 8c d6 bb b3 9f 40 3f da 41 1c c0 5c 83 84 bf
       -0.0065475274 0.7524368 -2.4415193 -1.0352588
000140 f4 52 3f bf d5 32 6e 3f 09 c7 e0 3e e9 01 fd 3f
       -0.7473595 0.93046314 0.43901852 1.9766208
000150 75 7f e3 bf 19 dd 8e bf 9e 8b 6c bd 45 f1 92 bd
       -1.7773272 -1.1161224 -0.057750337 -0.07174925
000160 2d 5b 5f 3f 1c 38 de 3e dd 40 75 bf 9f 49 e8 be
       0.872485 0.43402183 -0.958021 -0.45368668
000170 80 e4 d0 3f 8e f1 3f bf cc 32 b2 3e d0 63 81 bd
       1.6319733 -0.7497796 0.3480438 -0.06317866
000180 a3 6b 19 40 32 79 3c bc 47 16 9c bf 43 ca a1 3f
       2.3971946 -0.011503505 -1.2194299 1.263985
000190 16 9c 90 3e b9 b7 c0 3f d6 f9 2f 3f 7d 91 30 bf
       0.28244084 1.5056068 0.68740594 -0.68972
0001a0 26 21 47 bf f3 77 29 bd e4 a9 69 3f 2f eb bc 3d
       -0.77784956 -0.041374158 0.9127486 0.09224545
0001b0 72 35 53 bd e4 e5 db 3d 2b 2b 14 3f ec 7a 5b 3f
       -0.05156464 0.107372075 0.5787837 0.8573444
0001c0 61 00 93 bf 2f 15 77 bf d9 0d 01 c0 7d 80 a5 3f
       -1.1484491 -0.965167 -2.0164702 1.2929837
0001d0 60 a2 df bf 0b a8 64 3f 91 ed 86 be fb 87 95 3e
       -1.7471428 0.89318913 -0.26353124 0.29205307
0001e0 ce 5e 4c 3f 36 5c 23 3f 11 e6 b6 bd 73 a0 2a 3e
       0.7983216 0.6381258 -0.089306004 0.16662769
0001f0 95 e1 13 bf e6 6f 0c c0 58 81 9b 3e c4 ca 70 3e
       -0.57766086 -2.1943297 0.3037212 0.23514849
000200 ac 35 6e 3f 61 43 a6 bf a9 3e 5f 3f 99 4a 65 3f
       0.93050647 -1.2989312 0.87204987 0.8956695
000210 c3 75 2b 3f 2a b7 02 3e 39 28 da 3e 77 0d aa bf
       0.66976565 0.12765184 0.42608812 -1.3285359
000220 a9 fa 28 bf f2 f7 3b be 93 35 18 bf c0 34 46 3f
       -0.6600748 -0.18356302 -0.5945675 0.7742424
000230 57 0a b8 bf 6b 7e 27 be 1a e9 06 bf cd 2f a7 bd
       -1.4378155 -0.16356818 -0.52699435 -0.08163414
000240 cd 90 93 bf 77 05 14 40 ca 51 7d be 6f be 54 be
       -1.1528565 2.3128335 -0.24738231 -0.2077577
000250 55 ff f0 3f 6e ae a6 3f fb 70 e0 be 65 0a 1b 3f
       1.8827921 1.3021982 -0.43836197 0.60562736
000260 a5 a6 bf 3f 3c 17 6f 3f 8a 2d 0c bf ca de d3 be
       1.4972731 0.9339483 -0.5475699 -0.41380912
000270 2c f4 b2 3e 54 55 90 3f 4d 1b 70 bf 22 42 b5 3f
       0.34951913 1.127604 -0.9379166 1.4160807
000280 82 ca b7 3e 24 a1 73 be 9e f7 ba bf 54 56 a0 3f
       0.3589669 -0.23791939 -1.4606817 1.2526345
000290 31 ca 8c bf 44 9d 39 3f a3 8c ab bf 53 e0 89 be
       -1.0999204 0.72505593 -1.3402294 -0.26928958
0002a0 bd 22 26 bf 79 e0 14 40 50 cf d7 be 27 94 4f 3f
       -0.64896756 2.3262007 -0.42150354 0.8108544
0002b0 e0 29 40 3f 30 1d 1a 3f 4c b5 ad be 37 6f 19 3f
       0.75063896 0.60200787 -0.3392738 0.59935325
0002c0 a8 64 9b 3e 0f 58 6e 3f b3 f6 30 3f 45 3c 2c 3e
       0.30350232 0.93103117 0.69126433 0.16819866
0002d0 19 7a dc 3f 4f ea 84 3f 44 5a 9e bf 6e 93 36 bf
       1.7224761 1.0384005 -1.2371297 -0.7131871
0002e0 e9 55 27 3f 55 f7 f0 3f e7 0b 4d be 5f 8e 81 be
       0.65365463 1.882548 -0.20024072 -0.25303933
0002f0 f0 5c 52 3f ea 65 b5 be 3e 92 f7 bf 4a 34 86 3f
       0.8217306 -0.35429317 -1.9341505 1.0484707
000300 36 70 b9 be 60 a9 bb bf a1 cc 20 3f 54 72 2b 3d
       -0.36218423 -1.4661064 0.6281224 0.04185708
000310 99 73 39 3f 8d ad c9 3f ac 6d 48 be d2 2d 9b bd
       0.72442013 1.5756088 -0.19573087 -0.07577099
000320 5f 41 ad 3f 5f e5 07 be e0 28 91 bf 6d 94 83 3c
       1.3535575 -0.13271092 -1.1340599 0.016061986
000330 84 9f a4 3d 5b 45 d2 3f b4 07 14 bf bd f6 cf be
       0.08038238 1.6427416 -0.57824254 -0.40617934
000340 12 13 21 3f 92 51 82 bf 78 5f 10 3f 5a cd f5 3e
       0.62919724 -1.0181143 0.56395674 0.48008233
000350 2f e6 e4 3f 2a ef d3 bf 67 8c 9f 3e 3d 70 09 bf
       1.7882746 -1.6557362 0.31161806 -0.5368689
000360 13 b8 f3 be 0f 1f 24 bf 67 ba 75 3e 9e 99 30 3f
       -0.47601375 -0.6410989 0.23996888 0.689844
000370 63 00 4d 3f cc 6a ff be 21 44 58 bf 38 67 93 bc
       0.80078715 -0.49886167 -0.84478956 -0.017993554
000380 92 ff 38 be dd a2 09 3d 29 bb e4 bf d8 8b b0 3e
       -0.18066242 0.033602584 -1.7869617 0.34481692
000390 ec 65 8c bf 91 79 cc 3e e0 59 4c 3f 74 a0 21 3d
       -1.0968604 0.39936498 0.7982464 0.03945966
0003a0 78 8e 1d bf 49 f4 81 bb 65 91 16 3f 17 d7 17 3c
       -0.61545515 -0.0039658886 0.58815604 0.00926759
0003b0 0a 58 29 be 11 ec 77 3f 04 0d 8f 3e 07 7a e2 3e
       -0.1653749 0.96844584 0.27939618 0.44233724
0003c0 72 a4 d0 3f 4b 45 0c bf a4 ea 4b be 85 31 fb 3e
       1.6300185 -0.5479323 -0.19913727 0.49061218
0003d0 ef 64 01 3f b2 d5 a2 bf 46 98 b1 be 12 07 20 3f
       0.5054464 -1.2721465 -0.34686488 0.6251079
0003e0 af 72 09 3f 8b 7f af bd 91 04 3b 3e cf 70 fa 3e
       0.5369062 -0.08569249 0.1826346 0.4891419
0003f0 b0 d4 c7 3f 3f cf 31 3f c1 53 ad be af 0a d4 3f
       1.5611782 0.6945686 -0.33852962 1.656576

encoder.l1.weight f4 [100, 44]
000000 31 01 4f bf 83 f3 b9 bc a3 d4 44 bc 59 96 1d bd
       -0.8086119 -0.022699123 -0.012013587 -0.03847346
000010 33 13 d1 3d bd b1 80 3d ae 42 97 bc 30 9d dc 3d
       0.1020874 0.06283901 -0.018464413 0.10772169
000020 1d 04 1b 3d 63 1d 38 3e 3b 2d a1 3e c4 34 bf 3e
       0.03784572 0.1797996 0.3147982 0.37344944
000030 56 fd 75 3e 53 a1 3d 3e 3b 73 a9 3c 48 7d 61 bd
       0.24022421 0.18518572 0.020684829 -0.055051118
000040 a7 34 27 bd f6 5c a0 bd c1 66 e1 bd 09 52 a1 be
       -0.040821698 -0.07830231 -0.11005927 -0.315079
000050 f6 66 07 bf 35 13 07 be d2 99 f4 bd a8 5f 0e bd
       -0.5289148 -0.1319092 -0.119434014 -0.034759194
000060 5b 85 c3 3c 9d 31 9f 3d 98 e8 29 be c1 cd 51 3e
       0.0238673 0.07773135 -0.16592634 0.20488645
000070 a3 86 3e 3e ba 12 5c 3e b0 03 95 3d 5f 1a 21 bc
       0.18606047 0.21491519 0.07276094 -0.0098329475
000080 7f b7 2d 3e 7a 57 a2 3d e7 c3 00 bd 11 38 f2 3d
       0.1696453 0.07926841 -0.031436827 0.118271
000090 ed 8a 4e be cd 53 d9 bd 9f 12 19 3e 2f e0 01 3e
       -0.20170183 -0.10611687 0.1494851 0.12683176
0000a0 d7 6c e1 bd c6 f0 3b 3e e2 81 46 3d 38 8c 47 3d
       -0.11007088 0.18353567 0.04846371 0.048717707
0000b0 84 d0 30 3e 58 00 ae bd 02 17 91 bc 95 90 74 bd
       0.17267042 -0.08496159 -0.017711166 -0.059708197
0000c0 9b a0 34 3c 92 05 94 3d f9 f9 49 3e aa 8e 57 3e
       0.011024619 0.07227625 0.19724263 0.21050516
0000d0 67 e5 26 bc 57 8c 50 3e d1 9a 6d 3c bd 6f cb 3c
       -0.01018653 0.20366035 0.014502243 0.024833554
0000e0 98 36 3c 3e e6 54 31 be 84 65 be bd 06 ff bc bd
       0.18380201 -0.17317542 -0.09296706 -0.09228329
0000f0 77 9d 2e bd 38 f7 0d 3d 65 5d 42 3e b2 63 08 be
       -0.04263064 0.034659594 0.1898094 -0.1331928
000100 20 a0 88 3e 95 01 95 3e cb 2a 92 3d da 6c e7 3d
       0.26684666 0.2910277 0.07137068 0.11300059
000110 be 5d e7 bd d5 d4 72 3d ea 9b 2c bd e9 a7 fd 3d
       -0.11297177 0.059285004 -0.04214088 0.12385542
000120 aa d6 da bd 9b 91 cc 3c 89 eb 9b 3d da 71 64 3e
       -0.10685475 0.024971774 0.07613284 0.22309056
000130 30 8d 89 3e 1b ac 84 3e d8 13 19 3d 05 d3 e4 3e
       0.2686553 0.25912556 0.03737244 0.44692245
000140 a1 68 84 3e 56 c5 73 3f aa c0 8b be 9b 76 8d be
       0.25861076 0.95222986 -0.2729543 -0.2762955
000150 4b 5d 3e 3e 5d 7c e6 bd 75 0f e0 3d 6b ce 14 bc
       0.18590276 -0.11254189 0.10940448 -0.009082417
000160 82 48 83 be 90 e6 e9 3d 50 7b 81 3d 7e 8d c9 bd
       -0.25641257 0.114209294 0.06322348 -0.098414406
000170 32 fa f3 bd 2c 94 f8 3c f9 6f 49 bc 7d 9b 75 be
       -0.11912955 0.030344091 -0.012294763 -0.23985095
000180 05 1b 3d 3d 8d c1 26 3d 19 c5 8a 3e 4b 60 00 3e
       0.046168346 0.04071193 0.271035 0.12536733
000190 6a 3d ed 3c f7 78 6f be 01 2c 7c bd bd ab 36 bd
       0.028959949 -0.23385988 -0.061565403 -0.044597376
0001a0 4e 4b 5f 3c 9e 5a 9b bd 80 2c bd 3d 46 29 b1 3d
       0.013628794 -0.07585643 0.09237003 0.086504504
0001b0 b4 e7 05 3e bc a9 1a 3e 17 19 df bc 68 eb aa bd
       0.13076669 0.15103811 -0.027233643 -0.083456814
0001c0 b1 72 c8 3c d2 7d 21 be da 68 e4 3c 02 2e 87 be
       0.024468752 -0.15770653 0.027882028 -0.2640229
0001d0 e8 6d 11 3e f9 0f 85 3d 8c 6a 27 3e 07 e1 0a 3e
       0.14202082 0.06497187 0.16349238 0.13562404
0001e0 c2 53 cd bd a2 63 03 3e 77 a7 25 3e 7d 4c 72 be
       -0.10025741 0.12830976 0.16177164 -0.2366199
0001f0 de 3e 0f bb 8c 57 19 bf c7 98 6f 3e 15 6a 5a be
       -0.002185754 -0.5989921 0.23398124 -0.2132953
000200 76 18 98 be e8 9b e1 bd d9 8a 98 bb f9 71 ab 3d
       -0.29706162 -0.11016065 -0.004655224 0.08371348
000210 54 d3 07 be 93 23 1a 3e 7e fb 80 3d 28 f7 0e 3c
       -0.13264209 0.15052633 0.06297968 0.008725919
000220 30 b6 fe 3d e0 7c 9b 3d 39 3e 03 3e ae 30 e9 3d
       0.12437093 0.075921774 0.12816705 0.11386238
000230 99 51 91 3c 79 b3 0b 3d 83 c3 a0 3e cd 9c f5 3d
       0.017739104 0.034106705 0.31399164 0.11992798
000240 34 fb ba be bc bd da 3d b1 04 b3 bd 8b cc fc 3c
       -0.36519778 0.1068072 -0.08741129 0.030859252
000250 48 4a ba 3d 66 35 b5 bd cc 30 e9 bd 38 6e 62 be
       0.09096199 -0.088480756 -0.113862604 -0.22112358
000260 e4 a2 39 bc 8c ec 3a 3e d7 7f 12 be b5 f9 6c bd
       -0.01133034 0.18254298 -0.1430658 -0.057855327
000270 a1 6e 86 3c 3a 11 61 be 19 27 1e 3e 87 8f 8d 3d
       0.016410174 -0.21979228 0.15444602 0.06912141
000280 c0 a5 b6 bd 5f f5 6f bd b3 33 47 3d 4b c8 89 3e
       -0.08918333 -0.058583613 0.04863329 0.26910624
000290 c4 4a e7 3d 59 41 38 3d 53 92 eb bd 1c d5 9d be
       0.11293557 0.044984195 -0.115025185 -0.30826652
0002a0 6f 97 85 3e 61 6b 4d be 3f c5 51 bc d1 4d 83 3e
       0.26092097 -0.20060493 -0.012803375 0.25645307
0002b0 6a 91 a6 bd 34 bd 91 bd ba b1 84 bd 6b 9c c5 3c
       -0.08133204 -0.07116166 -0.06479211 0.024122437
0002c0 db 50 26 3e 84 fa 27 bd 96 85 dd 3c 5e 2e 7a be
       0.16241781 -0.041010395 0.027041238 -0.2443175
0002d0 d0 1f 41 3e 4c 31 d3 bd 55 09 ca 3d be c2 1a bb
       0.18859792 -0.10312137 0.09865061 -0.002361461
0002e0 16 29 1f 3e b2 c5 9a 3e 09 79 c5 3d f6 69 c7 bc
       0.15543017 0.30228955 0.09642226 -0.024342518
0002f0 39 16 a4 bd de 5e 11 3e 3f 27 39 bd 81 5f a5 3d
       -0.08012051 0.14196345 -0.045203444 0.080748565
000300 48 a9 81 3d f0 7d 8e bd c3 6e d6 3c fc 5b 51 bc
       0.06331116 -0.069576144 0.026175862 -0.012778278
000310 c9 b4 61 bd 6f 63 c4 3d d5 84 ca 3b 8e e5 44 3e
       -0.05510405 0.09589278 0.0061803856 0.19228193
000320 c4 72 98 bc 66 8a 1f 3e bc 2c b1 3c 1f 90 9c 3c
       -0.018609412 0.15580139 0.021627776 0.019111691
000330 fa 09 21 3d 94 24 e8 bc 77 66 89 3d 7e b2 13 3e
       0.039316155 -0.028337754 0.06708997 0.14423558
000340 db 94 ed bd 7a 61 ec bb 40 cb a9 3c 19 37 f6 bd
       -0.116006576 -0.0072137685 0.0207268 -0.12022228
000350 a4 88 7e 3d eb d5 4e be f3 bf 08 3d 07 30 c9 be
       0.06214203 -0.2019879 0.033386182 -0.39294454
000360 1f 26 51 be b2 de 84 3b 7b 01 1f 3e 83 38 8f 3e
       -0.20424698 0.0040548677 0.15527909 0.27972803
000370 61 eb 97 be 08 4c 59 3d 24 11 e4 bc 6a ce a0 bd
       -0.29671767 0.053051025 -0.027840205 -0.0785187
000380 61 bd 0d 3e d8 2b 83 3d 17 10 74 bd 40 ca 33 3e
       0.13841774 0.06404847 -0.059585657 0.17557621
000390 e5 a3 71 3d ae 5a cd 3c af 3b 21 3f ae 8d 92 3e
       0.058994193 0.025067654 0.62981695 0.28623718
0003a0 8c 6c 91 3d c6 70 f6 3c ef 26 58 3e 38 01 41 3c
       0.07100782 0.030083071 0.21108602 0.011780076
0003b0 4b a4 40 3d 2f 0f a1 3d 7b bb a3 be 71 ec c2 bd
       0.047031682 0.07864224 -0.31978974 -0.09517754
0003c0 d3 a9 17 be f0 30 27 3e ce c1 73 3b bf 0a 3f 3c
       -0.14810877 0.16327262 0.0037194374 0.011660277
0003d0 c9 cc 9d 3d 8b c4 21 bd e0 51 99 3c a3 60 19 3e
       0.07705075 -0.03949408 0.018715799 0.1497827
0003e0 6f 33 1e bc ca cc 0f be 59 85 4c bc 9c 01 2f 3e
       -0.009655817 -0.14042965 -0.012482964 0.17090458
0003f0 f6 1e 76 3e 72 28 be 3c bc 92 87 bc f7 65 17 3d
       0.24035248 0.023212645 -0.01654946 0.036962476

encoder.l1.bias f4 [100]
000000 39 c5 08 bd ac dc 63 3d 64 fc 0c 3d 77 58 fc 3c
       -0.03339121 0.05563037 0.034420386 0.030803902
000010 7f 91 1d 3e 5a 16 9d 3c f1 39 b3 bd af 77 1a bd
       0.15387534 0.019175697 -0.08751286 -0.037711795
000020 6f 6a b2 3d 0f 9d bc bd 7f 6a 85 bd fb 4c 51 3d
       0.08711707 -0.09209644 -0.06514453 0.051098805
000030 a0 b0 7e bd 79 0e ed 3d c1 46 63 3d 35 85 f5 bc
       -0.06218016 0.11575026 0.055487398 -0.029970745
000040 50 c7 18 3e 8e 5f ac 3d cd 86 8f bd 65 0f 7b bd
       0.14919782 0.08416663 -0.07008133 -0.06129398
000050 68 d0 b8 3c 94 19 16 3e a1 8d 2b bd 3f ab db 3d
       0.022560313 0.14658195 -0.041883115 0.10726022
000060 6b 75 03 3e 87 70 d8 bd 22 36 04 3d 3e 22 7d bd
       0.1283776 -0.10568338 0.032278188 -0.061800234
000070 7b 98 ee 3d 6b ee be 3c 27 14 e1 3d 6b e2 96 3d
       0.11650177 0.023307046 0.10990172 0.073674046
000080 e2 d9 ce 3d 38 bf 08 3c 00 8c bf 3d 8e 51 8d 3d
       0.101001516 0.008346371 0.09352875 0.06900321
000090 2e 7a b2 bd cc 19 50 bc 1f 2a 9d 3b 0c 3f 15 3e
       -0.0871471 -0.012701463 0.004796281 0.14574832
0000a0 e4 0c 36 3d 50 b0 6a bb 14 67 0b 3e 7e 2e 9d bd
       0.044445887 -0.0035810657 0.1361354 -0.07674883
0000b0 46 3a b5 ba 3b 6c f8 bb 27 9d 7e 3d 9c 1f 87 3d
       -0.0013826571 -0.0075812615 0.06216159 0.06597826
0000c0 9c 8e 72 bd 97 e8 01 3d ff ac 99 3c ac d3 5d 3e
       -0.059218034 0.031715956 0.018759249 0.21662778
0000d0 47 4f dc 3c b9 be 81 bd 6f e5 b4 3d 2f 6a 84 3c
       0.026893271 -0.063352056 0.088328235 0.016163914
0000e0 f6 8e 08 3e d3 84 cd 3d 33 be fc bc df ef a1 bd
       0.13335785 0.100351 -0.030852413 -0.0790708
0000f0 57 00 22 3b a8 cc 3c bd be 54 07 bd 49 da 18 bd
       0.002471944 -0.046093613 -0.0330398 -0.037317548
000100 36 56 39 3c 77 32 66 bd 4e 19 19 3e b6 e8 3f 3e
       0.011312058 -0.05620047 0.14951059 0.18741116
000110 73 ee bd 3d 4c 30 b6 bd 38 c5 95 bd 75 e8 a4 3d
       0.09273996 -0.08895931 -0.07313007 0.0805215
000120 fc 28 78 3a a6 17 b3 3d 9c 18 c9 3d 1f 2f af bc
       0.00094665564 0.08744745 0.09819147 -0.021384774
000130 7d 0d 02 3d ef bd 29 3d 32 6c 31 bd 37 1d 5b bc
       0.031751145 0.0414409 -0.043316074 -0.013373665
000140 af 54 0a 3e 57 39 0e 3e 29 2b e3 bd 3a bf 31 3d
       0.13508867 0.13889061 -0.110922165 0.04339526
000150 dc a2 d0 3b db 00 b3 3c 22 36 b0 3c e2 bf 1d 3d
       0.0063670706 0.021850994 0.021510188 0.03851307
000160 35 43 d8 bd 95 88 c2 3d 19 51 21 3e 2f b3 80 3d
       -0.10559694 0.09498707 0.15753593 0.062841766
000170 d6 83 c3 3d 42 84 36 bc fb 65 8c 3d 31 a3 0a 3e
       0.0954663 -0.011139931 0.06855389 0.13538815
000180 b6 1d 2b 3e 10 1f c0 bc d1 42 81 bd c9 7b 9f bc
       0.16710553 -0.023452312 -0.06311572 -0.019468205

encoder.l2.weight f4 [32, 100]
000000 9b 45 97 3d b1 ff 05 be 8c cd 14 3e 95 32 23 be
       0.07386323 -0.1308582 0.14531535 -0.15937264
000010 5b 0b 80 3e 95 c0 21 be 30 ef aa 3e ca a2 8e 3e
       0.25008664 -0.1579612 0.3338561 0.27858573
000020 33 88 b7 3c a7 27 d3 bd 8b 3e 85 be 8d 0a 22 be
       0.022403812 -0.103102975 -0.2602428 -0.15824337
000030 54 e4 7e be 8e 01 15 3e 73 79 b5 3e 72 11 24 bc
       -0.24891788 0.14551374 0.3544422 -0.010013925
000040 27 8b 0b 3e 1e dd 55 3d 12 e9 2c be 28 ab 40 3c
       0.13627301 0.052212827 -0.16885784 0.011759557
000050 7a 1a 91 bc 74 3e 9a 3e fe b5 53 be 1a ed 1d be
       -0.01771282 0.30125773 -0.20674893 -0.15422478
000060 d9 aa a0 3d 2b 13 a7 be f7 59 13 be 79 27 38 be
       0.078450866 -0.32631811 -0.14389788 -0.17983808
000070 b5 7f 96 3d 0a 6a 41 3d 52 0f 63 3b 76 f6 b2 bd
       0.07348577 0.047220267 0.0034646583 -0.08738415
000080 f1 52 7c 3e d8 76 99 3e 08 51 a9 be c6 20 f7 bd
       0.24641015 0.29973483 -0.33069634 -0.12066798
000090 ad e5 a1 be 8b 07 52 3e 63 5e 1d bf b0 df 90 3e
       -0.3162054 0.2051069 -0.6147215 0.2829566
0000a0 85 02 5e 3c a4 07 d6 3c 73 ba 30 3e 8d 0a ee bd
       0.013550405 0.02612669 0.17258625 -0.11623106
0000b0 5d a2 be be bb 87 bd 3e 0e cc 3f 3d da e7 72 be
       -0.37233248 0.37017617 0.04682546 -0.23721257
0000c0 3a a5 32 be 0b bc 81 3e af ce 48 bd 9c 43 2b 3e
       -0.17445841 0.25338778 -0.049025234 0.1672501
0000d0 15 c4 a2 be e6 e8 83 be 1e 51 91 3d b8 cf 90 3e
       -0.31790224 -0.25763625 0.0709555 0.28283477
0000e0 39 bc c2 3e c2 3f 4f 3d c5 7d 28 bf 67 95 b6 3e
       0.38034227 0.050597914 -0.6581691 0.3566086
0000f0 e7 44 fe 3d 97 15 db 3c a2 07 90 be 0a 84 55 be
       0.12415486 0.026743693 -0.28130823 -0.2085115
000100 8a 0c 25 3e 16 08 d1 be ed 24 d7 3b 78 c0 88 be
       0.16118065 -0.40826482 0.006565681 -0.26709342
000110 b6 d3 81 3e 83 6a 33 3e 07 c9 a7 bd 94 e4 a2 be
       0.25356835 0.175211 -0.0819264 -0.31815016
000120 4b 24 5f be 6c 1b 23 3e 47 0b a0 3e 27 bf a1 3c
       -0.21791188 0.1592843 0.31258604 0.019744469
000130 bf 72 3c 3e 62 bc 91 bd 7d f6 b7 be 35 b7 90 3e
       0.18403147 -0.07116009 -0.35930243 0.28264776
000140 7c f1 d7 3d 01 58 e2 3d c1 4c ba bd fb 20 b8 be
       0.10544106 0.11051942 -0.09096671 -0.35962662
000150 15 08 1f be de 59 ea bd 99 e1 0d be d0 a8 04 bf
       -0.15530427 -0.11442922 -0.1385559 -0.5182009
000160 a5 5e 3c be 03 49 44 bd fe d9 ff bd 0d 3f da 3e
       -0.18395479 -0.047921192 -0.124927506 0.4262623
000170 5e a5 06 be 60 55 3e be 54 7b fd 3d 1f cd 56 be
       -0.1314902 -0.18587255 0.123770386 -0.20976685
000180 c1 97 8b be cf 43 f9 bd 9c aa c5 be 91 8d 4d be
       -0.27264217 -0.121711366 -0.38606727 -0.20073535
000190 3f d1 1a 3d 06 ed 1d 3d 60 bf 63 3e 06 bc f0 bd
       0.03779721 0.03855612 0.22240973 -0.117546126
0001a0 df c0 ab 3e 3b 8f 59 be 20 48 b5 3e 8e 08 a0 3e
       0.33545586 -0.21246044 0.3540659 0.31256527
0001b0 1a 62 70 be 38 af d3 3e 03 32 a6 be 9d 26 4c be
       -0.23474923 0.4134462 -0.3246003 -0.19936605
0001c0 42 58 8c be d6 01 74 3e cf b3 b6 3e 81 29 eb 3d
       -0.27411085 0.23828825 0.35684058 0.114825256
0001d0 b4 df 36 3c 3d bb 09 bc 7a ce 99 be 37 84 89 bc
       0.011161733 -0.0084064575 -0.30040342 -0.016786678
0001e0 75 e9 87 bd ca 7d 8a 3e ad a8 d3 be 1b ac 7d be
       -0.06636325 0.27049094 -0.41339627 -0.24772684
0001f0 9c de 22 3d 3b a4 b5 be 9d 0d f0 bd e7 59 f6 bd
       0.039763078 -0.3547686 -0.117213465 -0.12028866
000200 32 93 7f 3d 12 88 57 3e 9c 67 91 3b a9 66 44 3d
       0.062396236 0.21048 0.0044374 0.047949467
000210 40 7b 4f 3e 00 a8 7c 3d ed 06 31 bd 8f 8e 5c be
       0.2026186 0.061683655 -0.043219496 -0.21538757
000220 d6 35 d8 be 36 e1 18 be be db ab be b9 ab 56 3e
       -0.42228574 -0.14929661 -0.33566087 0.20963944
000230 3b 39 c2 ba a8 17 79 bd 1e 0a de 3d 14 e8 00 3e
       -0.0014818081 -0.060813576 0.108417735 0.12588531
000240 ff 98 ae be 22 65 d5 3d ca 1a 2c be bc bf 80 be
       -0.34101102 0.1041968 -0.16807094 -0.25146282
000250 7e 5b 43 be 45 6e 83 3e 45 82 89 bd 67 6e 8d 3d
       -0.1907787 0.25670066 -0.067143 0.06905823
000260 e5 c4 8c be 65 19 9d be 98 69 0f 3d 0c 19 c7 3e
       -0.2749397 -0.30683437 0.03501281 0.38886297
000270 0e a9 ac 3e 2f a8 ae 3c 4a ea 1b bf 1a e9 4f 3c
       0.33722728 0.02132043 -0.6090437 0.012689853
000280 e8 3f 21 bd 1f 44 36 be 13 93 87 be a7 e3 26 be
       -0.039367586 -0.17799424 -0.26479396 -0.1629778
000290 8d 1c 3b 3e 09 a6 17 bf e2 48 1e be 09 3f 22 be
       0.1827261 -0.59237725 -0.1545749 -0.15844359
0002a0 13 ab 59 3e 49 b1 61 3d 7f c4 96 be 7e b6 9f be
       0.21256666 0.055100713 -0.2944679 -0.31193918
0002b0 ea 08 4b be c1 51 75 3d 05 7a 39 3e d3 e2 e6 bd
       -0.19827619 0.05989242 0.18112953 -0.11273732
0002c0 80 f4 59 3d 44 39 3d be 97 da e4 be 3a 10 cc 3d
       0.05321169 -0.18478876 -0.4469802 0.099640325
0002d0 c1 c6 52 3e 96 70 b3 3d eb e5 c3 be 1c 86 a4 bd
       0.20583631 0.087617084 -0.3826135 -0.08033392
0002e0 ef 98 93 bd 11 89 89 bc a6 59 fd be 03 27 8c be
       -0.07206904 -0.016788991 -0.4948246 -0.27373514
0002f0 64 8f 6e bd 07 03 3f 3d b5 a6 4d 3d 42 51 ce 3e
       -0.058242217 0.046633746 0.050207812 0.4029637
000300 c6 ce 18 3e a6 e0 a2 bc e9 b1 97 bd 26 12 56 be
       0.14922628 -0.019882511 -0.074069805 -0.2090536
000310 d3 be 8a be c7 10 e4 bd 10 20 53 be 22 93 e5 be
       -0.27098712 -0.111360125 -0.206177 -0.44838816
000320 4a c8 c8 be 64 77 c1 bd 56 28 8b 3d c0 00 9a be
       -0.39215308 -0.094466 0.06794803 -0.30078697
000330 d8 55 bf 3c a2 90 ba be 77 32 cb bd 37 02 cb 3e
       0.023356363 -0.3643847 -0.09921735 0.39650127
000340 e8 1f 12 bf ad c2 3b 3e 36 19 bf bd 13 c8 bf be
       -0.57079935 0.18335982 -0.093309805 -0.37457332
000350 41 8b f9 be fa f8 af 3e ff f8 8d 3d f3 9c 0d 3e
       -0.48739055 0.34369642 0.06932258 0.13829403
000360 ad 78 d5 3e 9d 4b 61 bd 59 7d 37 be a5 e7 aa be
       0.4169363 -0.05500375 -0.1791891 -0.33379856
000370 22 b2 78 be 21 43 c1 3d 0a e8 09 be bb f1 81 3e
       -0.24286702 0.09436632 -0.13467422 0.25379738
000380 a4 c1 03 3d 12 fa ec be 19 46 e0 3d d6 28 c9 be
       0.032167092 -0.46284539 0.1095087 -0.39288968
000390 2a 0f b0 3d 90 bd 82 3e ab 5b 65 3e 09 9e db bd
       0.08596642 0.2553525 0.2239825 -0.10723502
0003a0 f9 7a c4 3e b6 ec 86 be e7 a8 12 3e d2 37 b4 be
       0.3837507 -0.2635247 0.14322244 -0.35198838
0003b0 70 49 49 bd 3a eb 59 be 18 d7 21 bd 06 c7 88 3d
       -0.0491423 -0.21281138 -0.03951177 0.06678586
0003c0 fc 8a 55 bc 44 ee a1 be ba 7a 4f 3e a6 f5 b9 3d
       -0.013033625 -0.31627095 0.2026166 0.09080057
0003d0 6a 62 5a 3e 7c 99 ce be 74 62 21 bf d4 76 4e 3e
       0.21326604 -0.40351474 -0.6304085 0.20162517
0003e0 36 0f cb be 4a 81 dc bd eb 41 32 bf 45 e6 bf be
       -0.39660043 -0.107668474 -0.6963183 -0.3748037
0003f0 f9 6c 63 3e 6a a9 97 3d 83 17 46 3e 4c 79 61 3e
       0.22209539 0.0740536 0.19344907 0.22018927

encoder.l2.bias f4 [32]
000000 4a 45 27 3e 2b 2a c2 3d dd f0 51 3c a5 d5 06 3b
       0.16335025 0.09480699 0.012813774 0.002057412
000010 f8 65 d0 3d 38 be 9f 3d ba 64 3a be f2 b8 d8 39
       0.10175699 0.07799953 -0.18202487 0.00041336525
000020 07 82 87 bc 8c ae a0 bc df 2a 8b bd 29 9b 0f bd
       -0.016541494 -0.01961448 -0.067952864 -0.03506008
000030 33 f1 3f 3d 88 8c bc bd 97 3a 58 bd d5 9d ac bd
       0.046860885 -0.09206492 -0.05279025 -0.084285416
000040 ec 28 97 3d ee 83 eb 3c cc 9e 88 bd 29 57 f2 3d
       0.07380852 0.028749432 -0.06670913 0.11833031
000050 06 f6 dc bc 87 02 37 3c 1a 5b fb 3b 70 2d fc bc
       -0.026972782 0.011170036 0.0076707723 -0.030783385
000060 b4 2e 30 bd c6 93 a7 3d e6 98 74 3c 63 d9 0a 3d
       -0.04301329 0.081824824 0.014929032 0.033898722
000070 c2 dd 24 bd c8 7a d7 3d 91 3f 45 bd be ec b6 3d
       -0.040250547 0.105214655 -0.048156325 0.08931874

lstm.weight_ih f4 [512, 288]
000000 fc e5 ff 3d 8a 41 6a be 42 ee 7e be a2 47 23 be
       0.12495038 -0.22876564 -0.24895576 -0.15945294
000010 52 69 a0 be 51 9b 8b bc 3a d9 8e 3e 5a 5b e9 bd
       -0.31330353 -0.017041834 0.27900106 -0.11394377
000020 0b 72 56 3e 1d 5b 3d be 22 c6 ce 3e 29 05 86 3e
       0.20941941 -0.18491788 0.40385538 0.26175812
000030 82 51 dc 3e 79 d3 9a be a8 54 a4 3d 7b d9 9c 3e
       0.43030936 -0.30239466 0.080239594 0.30634674
000040 a1 1e b6 be b4 43 ce 3d 7d 4b de 3e df 46 c2 be
       -0.35570243 0.10071507 0.43416968 -0.37944695
000050 48 80 ac be 53 e5 8a 3e b2 71 2e 3e c8 a1 68 3e
       -0.3369162 0.27128085 0.17035559 0.22717965
000060 30 41 23 3c 77 c6 65 3e 20 b8 82 bd 99 49 ca bd
       0.009964272 0.2243899 -0.06382775 -0.09877319
000070 3b 26 09 bf 9d 1f c7 be f8 c5 be 3e 84 ef 9c 3e
       -0.5357396 -0.38891307 0.37260413 0.30651486
000080 8a ac 29 3d ee de 8d bd dd db ae 3d 6d f0 c4 3b
       0.04142431 -0.06927286 0.08538029 0.0060101063
000090 80 0c 72 3d b0 37 05 be 85 c9 d6 bc 52 01 6b bc
       0.059093952 -0.13009524 -0.026219139 -0.0143435765
0000a0 f7 29 31 3d 3d 9a 78 bd 65 ca 33 bb f8 dc 53 3a
       0.04325291 -0.060693968 -0.002743387 0.0008081938
0000b0 44 ec bc 3d 01 1d c7 3c 22 d5 8b bd db 89 4b bc
       0.092247516 0.024305822 -0.06827761 -0.012423004
0000c0 5e 54 ca bd ac 1c be 3d d0 ed ca 3c 71 ca 80 bd
       -0.09879373 0.092828125 0.024771601 -0.06288613
0000d0 22 4c 94 bc 3d 56 57 3d 95 31 29 3d 1c ee 50 3c
       -0.01810271 0.052572478 0.04130705 0.012752082
0000e0 a9 6c a6 3b e5 37 9c bd cb 6e e6 3d 5e 6c 02 bd
       0.0050788713 -0.076278485 0.11251601 -0.03184163
0000f0 89 88 89 3d 9b 70 ce 3d 1a 62 0e be c8 0c 88 3d
       0.06715495 0.100800715 -0.1390461 0.06643063
000100 7b 34 c0 bd c6 91 99 3d d3 94 06 bd e5 92 2b 3d
       -0.0938501 0.07498507 -0.032856774 0.041888136
000110 ca 94 78 bc 16 c9 c9 bd b2 ec d7 3c c9 25 0c 3b
       -0.015172193 -0.09852807 0.026357982 0.0021384826
000120 38 a5 17 be 87 81 0d bd 71 53 36 3d 93 34 23 bd
       -0.1480912 -0.034547355 0.04451317 -0.03984506
000130 c9 38 cb bd 80 a8 95 3d 90 f8 ea 3c 1e a1 08 3d
       -0.0992294 0.073075294 0.028682977 0.03335678
000140 ce ef 94 3d fe 54 b5 3d 6f b4 89 3d 14 11 23 3e
       0.072723016 0.088541016 0.06723868 0.15924484
000150 2c 89 2e 3c ce b1 ab bd 16 06 d2 bd 57 ac 09 be
       0.0106528215 -0.08383523 -0.10255067 -0.13444649
000160 7a 04 1f be a2 96 3f 3c f2 a9 b3 bd 1f b0 61 3e
       -0.15529051 0.0116936285 -0.08772649 0.22039841
000170 28 f3 95 3d 20 b1 a6 bd 98 7a a2 3d 89 6c 24 bd
       0.07321769 -0.08139253 0.07933539 -0.04014257
000180 ad f7 c7 3d fd 66 ae 3c 6b 88 d2 3d 61 01 0e be
       0.09764037 0.021289343 0.10279926 -0.13867714
000190 9c 76 07 bd 19 a4 9c 3d 8c 36 ce 3d 60 be ac bd
       -0.0330721 0.07648487 0.10068998 -0.08434749
0001a0 23 3d ac bb ea d0 8e 3d 69 dc 47 bd 2d 8b fb 3d
       -0.0052563115 0.06973441 -0.048794184 0.12282405
0001b0 9a f4 ae bd 02 c6 e1 bc 49 0c 1b be bd 86 9b 3d
       -0.08542748 -0.027560238 -0.15141405 0.07594059
0001c0 3a 16 8d bb 18 64 bd 3d 59 10 a1 3d b1 fe d7 3d
       -0.004305628 0.09247607 0.07864446 0.105466254
0001d0 80 99 1c 3d bc 0b c2 bd 84 d4 c4 3d 4d 3d 2c 3d
       0.038232327 -0.094748944 0.09610847 0.04205065
0001e0 5d 5c e3 3c 69 2b f6 3d 62 1d cd bb 8a 55 93 3d
       0.027754003 0.120199986 -0.006259606 0.0719405
0001f0 52 da 19 3c 11 c6 9f bd 24 58 a8 36 38 25 25 3e
       0.0093904305 -0.0780145 5.017051e-06 0.16127479
000200 f6 b9 6b 3d e7 36 92 bc 0f 53 65 bd 72 0e 53 bd
       0.057550393 -0.017848445 -0.055987414 -0.051527448
000210 d5 22 cb bd e5 5c bf 3c 15 71 07 bd 8e a1 8f bd
       -0.09918753 0.023359725 -0.033066828 -0.07013236
000220 11 c0 b3 bc f2 d5 9f bb 1b b7 92 3d 57 ac 6c bd
       -0.02194217 -0.004877799 0.07163831 -0.057781544
000230 98 03 9b bc 52 6e 13 bd ef b6 de 3b 2b ea 4f 3d
       -0.018922612 -0.03599388 0.0067967097 0.05076043
000240 2d 7f bb bd d1 f6 7e bd 91 6f a5 3b 73 3c 94 3d
       -0.09155116 -0.0622471 0.0050487 0.07238092
000250 4f bd 05 bd ed 15 7e 3d 95 f0 c5 bc 25 70 37 3d
       -0.032651242 0.06203263 -0.02416257 0.044784684
000260 ee 51 4b 3d 56 11 1b ba c6 10 e1 3c 77 8f 87 3c
       0.04963868 -0.0005915364 0.027473819 0.016547902
000270 9e 59 b3 3d 17 02 0e bd d1 12 ae bd c9 b5 d7 bd
       0.087573275 -0.03466996 -0.08499683 -0.1053272
000280 c0 1d b9 3d 5f 06 46 bd 1a ff a7 3d 10 3e b4 bd
       0.090388775 -0.04834592 0.08202954 -0.088009
000290 49 c5 87 3d b8 b3 f1 3a 2f ee c3 3c 5f 4e 82 bd
       0.06629426 0.0018440401 0.023917286 -0.06362604
0002a0 d2 af ca 3d 09 1b 00 be bb 23 d1 bc 90 94 a6 3c
       0.09896816 -0.12510313 -0.025529733 0.020334512
0002b0 5b e3 ec bd dd bc 5b bb 3a 65 54 bd fe d5 df bd
       -0.11566802 -0.003352932 -0.05185435 -0.10929488
0002c0 ae 93 0f 3d 29 65 dc 3d 05 d8 48 3d de 8e a1 3c
       0.035052948 0.10761482 0.049034137 0.019721445
0002d0 e5 20 ea bc 04 7b 1a 3d c9 45 c2 3d c8 51 93 3d
       -0.028580138 0.037714973 0.09485967 0.07193333
0002e0 7f ba b0 3d 0a 1b 8d 3d 59 c9 4d 3c 5c cf f9 bc
       0.08629321 0.06889923 0.012560212 -0.030494384
0002f0 d8 e6 84 3c b2 69 66 3d 35 b4 07 be b8 28 2e 3e
       0.016223356 0.056253143 -0.13252337 0.1700772
000300 e4 79 22 3c ff f0 89 bb b7 ec 09 bc 1c 9d b0 3d
       0.009916756 -0.004209637 -0.008418254 0.08623716
000310 c8 f6 98 bd ea 5a 6e 3c 58 b6 10 be 33 4f e2 3d
       -0.07468945 0.014548043 -0.14132059 0.11050262
000320 08 42 23 be 18 34 f8 3d b8 f9 9a 3d 68 3c 1c 3c
       -0.15943158 0.12119311 0.07567161 0.009535886
000330 cd a5 c0 bc 3c 7e c1 bb ed ba a1 bd 69 a6 c1 3d
       -0.02351656 -0.005904941 -0.078969814 0.09455568
000340 8c c3 a1 3d d8 f8 b1 3d 3d ba 06 3e 35 ae 85 bc
       0.07898626 0.08690041 0.13156982 -0.01631842
000350 a8 bd b5 3d b7 b6 bd 3d 5c c8 11 3c 13 bf fc bd
       0.08874065 0.09263366 0.008897867 -0.12341132
000360 f5 ea 81 3c d2 89 ba 3d 30 96 c9 bd 43 f3 1e bd
       0.015859107 0.091083184 -0.09843099 -0.03880621
000370 c3 1b 8d bc 9b d7 fd bb a3 59 d3 bd a3 e9 e9 3c
       -0.017225152 -0.0077466494 -0.10319831 0.02855379
000380 7f e5 b4 bd 2f 6a 74 bd 94 7f 95 3d b4 e5 3d 3d
       -0.088328354 -0.059671577 0.07299724 0.04636164
000390 ab 60 15 3e 2f 52 36 3e f6 7d 6b be ec 86 96 bd
       0.14587657 0.17804788 -0.22997269 -0.07349953
0003a0 dd c7 e5 3d 0e 7c 88 3b 9d d4 27 3d b8 1e 10 3c
       0.112197615 0.004165179 0.04097425 0.008796386
0003b0 7e 40 0f bd e3 60 4c bb ec a5 3b bd 19 ff 6e bd
       -0.034973614 -0.0031185679 -0.045812532 -0.05834875
0003c0 3f d3 d9 3d 55 e9 ca bc fc 7d 03 3d 82 00 72 3c
       0.10635995 -0.024769465 0.03210257 0.014770629
0003d0 52 d0 d8 bc ed 1b 44 be e9 67 c4 3d b0 66 d8 3d
       -0.026466522 -0.19151278 0.09590132 0.10566461
0003e0 3e 27 c4 bd b6 1b 07 be ea 5f d8 3d 98 56 26 3d
       -0.09577797 -0.13194165 0.10565169 0.040609926
0003f0 5a 1c 29 3c d7 a9 1c bd 9a 69 58 bc 2b 5e a5 bd
       0.010321701 -0.03824791 -0.013208771 -0.08074602

lstm.weight_hh f4 [512, 128]
000000 74 ed 80 3d 60 f0 85 3c 61 23 eb 3d 78 76 54 be
       0.062952906 0.016349971 0.11481357 -0.20748317
000010 87 45 d7 3d 96 3d d4 be 98 58 d5 bc 19 a5 db bd
       0.10511308 -0.41453236 -0.026043221 -0.10724849
000020 12 b0 3c be 2f 76 90 3e 13 cd ca 3e 9a cf 28 3c
       -0.1842654 0.28215167 0.39609584 0.010303402
000030 4c 1d 91 be ae 93 bb bd cb bc 75 be f0 b8 81 3e
       -0.28342664 -0.09159027 -0.239978 0.2533641
000040 30 dd eb bd 0c 0d 09 3e 39 0b 97 3c f2 fd ca bb
       -0.115167975 0.13383883 0.018437969 -0.0061948234
000050 8a c3 53 be 8f ec 2d be 0b 54 81 bc 17 73 2c be
       -0.20680061 -0.16984771 -0.015787145 -0.16840778
000060 54 9c 17 bc ad 9c 7f 3e ec 94 89 be 65 18 56 bd
       -0.00925358 0.24962111 -0.2687143 -0.05226936
000070 9a 30 2b bd ac df da 3e 6c 5b dd bd e6 32 cb bd
       -0.041794397 0.42748773 -0.10808453 -0.099218175
000080 c4 bd 3a 3e a8 5a 12 bd 26 2b d6 bb 1f c6 07 3e
       0.18236452 -0.035730988 -0.0065359054 0.13259171
000090 16 60 20 3d 39 3c 7b 3e a9 6b 96 3e 0f 02 42 3e
       0.039154135 0.24534692 0.29379013 0.18946098
0000a0 82 06 4b 3e dc 38 48 be 11 4e 39 bd a0 92 91 bc
       0.19826701 -0.1955294 -0.045240466 -0.017770112
0000b0 b5 75 8a bc ae 8e 01 3e c7 f5 4f 3e 38 d7 0a 3e
       -0.01690183 0.12652084 0.203086 0.13558662
0000c0 e4 ca 45 3d 01 12 92 bd d3 20 95 3a 0d 73 b0 3e
       0.048289195 -0.0713234 0.001137758 0.34462777
0000d0 63 04 3a 3d a1 73 2d be 2c 25 a9 3d 33 6d e6 3c
       0.04541434 -0.1693864 0.08259043 0.028128242
0000e0 96 e0 20 3e eb 7a a0 3d 5e d3 2a be ae e8 8e be
       0.15710673 0.07835945 -0.16682193 -0.27911896
0000f0 83 bd 70 be 13 db a3 3d c6 e9 ee bd 1e 59 ad 3c
       -0.23509793 0.080007695 -0.116656825 0.021160658
000100 d4 69 17 3d d1 8c 0a bd 6e 74 8a bd 17 f3 00 3f
       0.03696616 -0.0338257 -0.067604885 0.50370926
000110 4f c4 a4 3e e6 8b 4c be 11 c2 81 be 06 b4 6d 3d
       0.32181022 -0.19975242 -0.25343373 0.05803301
000120 38 ed b1 be 5f 02 c7 be d4 9b ec be 1c 1a 93 3c
       -0.34751296 -0.38868997 -0.46212637 0.017956786
000130 f0 8a 0a 3f e7 4f 96 3d 47 05 3e be dc fb ba bc
       0.5411825 0.07339459 -0.185567 -0.022825174
000140 98 c5 04 be 85 18 0a be cc 19 44 be 6c fc 08 be
       -0.12966001 -0.13485916 -0.19150466 -0.13377541
000150 c0 2a 2a 3c 1b c2 8e 3e b1 35 e9 3d 49 fc 33 3e
       0.010386169 0.27882466 0.11387194 0.17576708
000160 12 ab df be ba 8e 25 be b1 82 8a 3e 23 56 b7 be
       -0.43685204 -0.16167727 0.27052835 -0.35807905
000170 ed a5 84 be 92 78 2d 3f 68 23 31 be 46 16 59 bc
       -0.2590784 0.677621 -0.17298663 -0.013249939
000180 ca 30 c0 3d 1d 86 79 3e a2 59 2a 3e 07 3f 3a 3e
       0.09384306 0.24367566 0.16635755 0.18188106
000190 7c b0 ff be e1 ad c9 3c e7 dd 3c be bc dc 63 bd
       -0.49939334 0.024619045 -0.18444024 -0.05563043
0001a0 e3 d3 a8 bd 04 73 db 3c a8 ad 0d 3e f2 17 56 bd
       -0.08243539 0.026788242 0.13835776 -0.05226893
0001b0 dc 95 c6 be 36 a2 35 3e 52 2a 77 3e 27 ac 0c be
       -0.3878621 0.1773766 0.24137238 -0.13737546
0001c0 7a 11 94 3b a4 48 8b be 4d b5 a4 bd 7b 58 32 3d
       0.004518685 -0.27203858 -0.08042393 0.043541413
0001d0 5f 6f 00 be 49 4f 83 3e 71 38 b6 3b 23 d2 ab be
       -0.12542485 0.25646427 0.0055609276 -0.3355876
0001e0 10 ae 20 3e 81 51 87 3d 46 06 2b 3d 23 1c 59 bd
       0.156914 0.066073425 0.04175403 -0.05300535
0001f0 c8 bf 00 3e ca cd 17 be 83 7a 8a bc 79 d8 8a bd
       0.12573159 -0.14824596 -0.016904121 -0.0677957
000200 52 b7 4d be dd fc c5 bd c1 9e 27 3e 27 e2 30 3c
       -0.20089462 -0.096673705 0.16369154 0.010796106
000210 a6 69 5c 3e 6b d0 ce be ee 77 e7 3d 7a 4c 2b 3c
       0.21524677 -0.40393385 0.11302172 0.010455245
000220 e0 35 38 bd fc 9f 98 3d f9 2b a2 be 13 0a e4 3e
       -0.044973254 0.074523896 -0.31674173 0.44538936
000230 74 cd 42 3d 4e af ac 3a 80 8e 1d 3e c0 a4 08 bf
       0.047559217 0.0013174803 0.1538639 -0.5337639
000240 da a4 48 bd 65 82 22 3e cc 92 e5 3b b1 34 b3 3d
       -0.04898534 0.15870054 0.007006025 0.087502845
000250 22 54 ce bd 7a 8e 05 3e fa 80 6f 3e b5 74 9d 3e
       -0.10074641 0.13042632 0.23389044 0.30753103
000260 5f 26 7b 3c dd 75 ff be 45 21 b7 3e 47 53 0b 3e
       0.015328973 -0.4989461 0.3576757 0.13605987
000270 92 4c 7b 3e 9f 51 35 3e 9a 15 46 3e 36 6d 4d be
       0.24540928 0.17706917 0.19344178 -0.20061192
000280 65 19 4f 3e b3 7f 2e bd f2 cb d4 3e d9 fe 6d be
       0.20224531 -0.042602252 0.41561848 -0.23241748
000290 2a 73 d4 bd ec 3b bd bd 0b 8f 57 3e 97 5e 25 3e
       -0.10373528 -0.09239945 0.2105066 0.16149364
0002a0 cd cd 87 bd 13 d3 17 be a8 fd 32 3e 90 2a 93 bb
       -0.0663105 -0.14826612 0.17479575 -0.004491158
0002b0 1e 6a 0e bd 19 d8 bb 3e a8 91 19 3d 3a ac 4e 3e
       -0.03476917 0.36688307 0.037492424 0.20182887
0002c0 6b a1 95 bd 68 aa 07 3e bd 8b 39 be b2 8e af be
       -0.07306179 0.13248599 -0.18119712 -0.34288555
0002d0 6b 14 ff 3b c0 75 e7 3e 3e c4 4c 3e 05 ba 0e be
       0.0077844164 0.45207024 0.19996735 -0.13938148
0002e0 31 3c 54 be 5e 78 a6 3e d9 73 03 bd 3d b0 fe bd
       -0.20726086 0.32513708 -0.032092903 -0.124359585
0002f0 1c 73 86 be f5 65 a6 3c 84 e9 8f 3d f5 73 59 be
       -0.26259696 0.020312289 0.070269614 -0.2123564
000300 55 f7 a8 3e 95 4f 1e be b5 34 0d 3e 8a f5 21 bd
       0.330012 -0.15460046 0.13789637 -0.039540805
000310 73 6e a3 3d 13 f9 ae be 57 6d 80 3e ba 45 d2 bd
       0.07980051 -0.34174404 0.2508342 -0.102672055
000320 f2 53 2e be 22 9b c2 3d 0a 58 de be 5e 9b 3b 3e
       -0.1702421 0.095022455 -0.43426543 0.18320987
000330 c6 35 e6 3e b7 35 4e 3d 6e 69 a1 bd a2 60 bc bd
       0.449629 0.050344195 -0.07881437 -0.09198119
000340 47 3a 52 be df 4d 8e 3d aa c0 ed be 1a 9b 98 be
       -0.20530044 0.069484465 -0.46436054 -0.29805833
000350 7a 45 80 3e 40 69 ce 3e 6f 2e 28 be 2d 0b b5 3e
       0.25053006 0.40314674 -0.16423963 0.3536009
000360 78 3d 83 be 54 f9 07 bf 4a f4 00 3c ff 08 96 3e
       -0.25632834 -0.5311482 0.007870743 0.29303738
000370 e1 d1 a5 bd d4 fd c4 3d 46 f7 5c 3e 26 27 a8 bc
       -0.08096672 0.096187264 0.21578702 -0.02052648
000380 26 9a dd be 21 94 88 3e 55 e1 34 bd 5b 0d 54 be
       -0.43281668 0.26675513 -0.044160206 -0.2070822
000390 ac b0 bc be 9a 15 43 3e 34 ab f7 3d f1 85 07 3e
       -0.3685354 0.19051209 0.12093201 0.13234688
0003a0 4c a0 f0 3e 55 72 75 be ab de 72 bd ad c2 9e be
       0.46997297 -0.23969395 -0.059294384 -0.310079
0003b0 3b 98 87 3e 43 e4 ff bd d9 1f 8b be ee f2 1f be
       0.2648333 -0.12494709 -0.27172735 -0.15620014
0003c0 ee 2f 5d bc 72 69 b4 3d 20 30 a2 3d 29 09 13 be
       -0.013500197 0.088091746 0.07919335 -0.14358963
0003d0 78 9b 21 3d e4 b8 b6 be 82 ab 44 3e a4 ff 75 bc
       0.039454907 -0.35687935 0.1920605 -0.015014563
0003e0 77 eb 90 be 46 44 33 3e 7b 25 d3 bd dd ec a3 be
       -0.28304645 0.17506513 -0.10309883 -0.3201665
0003f0 cf 3a 31 3e 7f 77 f9 bd ef 20 86 3e 6d b4 ca be
       0.1730759 -0.12180995 0.26197 -0.3959078

lstm.bias_ih f4 [512]
000000 b7 96 f0 bc 0c 89 23 3e ba 25 29 3d 00 3e 08 3d
       -0.029368741 0.15970248 0.041295744 0.033262253
000010 fc 08 fe 3d f0 56 ff 3d 59 b9 3f 3e bc 20 ac 3d
       0.124040574 0.12467754 0.18723048 0.08404681
000020 55 25 0d 3d 93 ec b7 3d ac b3 97 3d ef 20 0f 3e
       0.03445943 0.0898067 0.074073166 0.13977407
000030 86 c4 81 3c 63 0f 9a 3d 0c 92 07 3e 4c 84 0e bd
       0.01584078 0.07522466 0.13239306 -0.034794137
000040 14 ca 2a ba 8e 57 50 bb 6b 1a 07 3e 76 22 c4 bc
       -0.00065150973 -0.0031790468 0.13193671 -0.023942214
000050 43 2b ad bd 5d aa 8b 3d b1 0a bc 3d cf 28 21 3d
       -0.08455517 0.068196036 0.09181727 0.03934556
000060 d3 9b 89 bd 15 df a0 3d 94 3b f5 3d a7 70 b9 bd
       -0.06719174 0.078550495 0.11974254 -0.0905469
000070 40 29 da 3d 33 39 c4 3d e8 c4 8d 3d e1 3c 32 3e
       0.10652399 0.095812224 0.069223225 0.17406036
000080 a3 08 9a 3d 5e 76 b4 bd 4e 78 2f bc 36 27 f5 3d
       0.075211786 -0.08811639 -0.010709835 0.119703695
000090 f6 1a 6e bc ef 12 30 bd 0d 9a a9 bc d3 e6 e8 bb
       -0.014532795 -0.042986806 -0.02070334 -0.0071075945
0000a0 b6 78 e7 bc dd 17 1d 3d b0 b1 6b 3d f3 a7 04 bb
       -0.028255802 0.038352836 0.057542503 -0.0020241707
0000b0 bf 09 27 3e 70 f9 c7 3d 76 f9 0a 3e d3 05 c9 3d
       0.16312312 0.09764373 0.13571724 0.09815564
0000c0 85 18 7a bc d2 88 a7 3d 41 43 88 3d 3f b8 53 bb
       -0.015264635 0.08180393 0.06653453 -0.0032305864
0000d0 62 99 14 3e c9 2d dd 3b 05 e4 65 3d fa e6 e6 bc
       0.14511636 0.006749843 0.05612566 -0.02818631
0000e0 62 36 4a 3d b3 44 a2 3d be b4 e1 3c 77 34 42 3d
       0.04936827 0.079232596 0.027552005 0.047413316
0000f0 ff 4a 2c 3b c3 55 34 3e f5 ea c3 3d a8 19 51 3b
       0.0026289818 0.1761084 0.09566299 0.0031906161
000100 a1 09 46 3d dc ae 13 3e 3d ff 0f bd a8 ec 1e 3e
       0.048349027 0.14422172 -0.035155524 0.15519965
000110 17 a1 8b 3c 98 fa 82 bd 50 b2 8e 3d 15 ed 9d 3c
       0.017044587 -0.06395453 0.06967604 0.019278089
000120 eb 2a fb 3b 14 ef 1e 3d e4 15 0c 3d 1c 1c 3a 3c
       0.0076650283 0.03880222 0.034200564 0.011359241
000130 56 b1 b8 3d 44 c2 b1 bd 57 20 00 3e 01 d0 38 3d
       0.09018199 -0.08679631 0.12512337 0.045120243
000140 96 d0 c9 3c 8b 55 30 3e be 09 75 3d 0d 1c f1 3d
       0.024635594 0.17220132 0.059823744 0.117729284
000150 b6 a0 39 3d 63 ad ef bb 63 2b 39 3d 67 8a c2 bc
       0.04531928 -0.0073143705 0.045207392 -0.023747636
000160 4b 57 e1 bd ba 3e 21 3e 55 71 b1 3b 31 17 a5 bc
       -0.11002978 0.15746585 0.0054151216 -0.02015266
000170 69 f6 be 3d c8 e2 aa bb 64 34 d1 3d ed 41 8c 3d
       0.09324343 -0.0052150227 0.10215071 0.06848512
000180 0e 11 c6 bd fa 3c 14 3e 72 3c e5 3c e7 47 3f bc
       -0.09671222 0.14476386 0.027982924 -0.011674858
000190 50 86 03 3d 9a d8 d5 3d 0c 5b db 3d 97 e5 2e bd
       0.032110512 0.10441704 0.10710725 -0.042699423
0001a0 19 9b 9e 3d 20 47 a6 bc 90 03 e8 3c 60 2a 36 3c
       0.07744426 -0.020297587 0.028322011 0.011118501
0001b0 ad 39 e2 3d fa 37 b2 3c 00 49 aa bc b2 8e ad 3d
       0.11046157 0.021755207 -0.020786762 0.084744826
0001c0 9f 95 a5 3d 21 3b 12 3d 79 51 23 bd b9 58 42 3c
       0.080851786 0.03570092 -0.03987262 0.011861973
0001d0 c3 53 a3 3d 38 be fe 3d f8 1f f6 3d d9 59 8f bd
       0.07974961 0.12438625 0.12017816 -0.06999559
0001e0 e0 30 00 3e 53 52 ec 3d 1c c1 de bc 1e e1 a8 3d
       0.12518644 0.115391396 -0.027191691 0.08246063
0001f0 be e9 82 3d 2c 80 93 3d a2 a3 d0 3d 62 39 71 b9
       0.06392239 0.07202181 0.101874605 -0.00023004928
000200 95 8e f5 bd 88 bd f8 bd 70 8d 90 bd 65 19 f6 bd
       -0.11990086 -0.12145525 -0.07058227 -0.12016562
000210 67 93 bd 3c 2b 10 9b bd 8a 77 9e 3c ce 68 5c bc
       0.023141576 -0.07571443 0.01934411 -0.013452722
000220 b9 71 05 3d ce 37 1b be c6 f1 4b bd 59 70 f5 bc
       0.032579158 -0.15158007 -0.04979112 -0.029960798
000230 c0 d3 ef bc 56 dc 3b bd d1 45 e1 bd 06 bc e9 bd
       -0.029275775 -0.045864426 -0.109996445 -0.11412816
000240 2e 83 df bd 14 f6 09 bc 55 88 2a be 58 1b 38 bd
       -0.109136924 -0.008420486 -0.16653569 -0.044947952
000250 e4 3f 04 3d 83 4d 05 be c2 0f ea bd f0 c8 45 bd
       0.032287493 -0.1301785 -0.11428787 -0.048287332
000260 02 14 8c bd f5 e7 a6 bd 68 89 9d bd 2d 99 9b 3d
       -0.06839754 -0.08149711 -0.07692224 0.07597575
000270 23 29 e2 bd ca 73 c1 bc 42 a8 8f bd e5 e4 72 3c
       -0.110430025 -0.023614783 -0.070145145 0.0148250805
000280 d0 26 04 bd f3 95 96 bd d1 8a 27 be 0a 88 c3 bd
       -0.032263577 -0.07352819 -0.16361548 -0.09547432
000290 94 9a bc bc de 32 a9 bd 3a b2 e3 bc 96 71 9f 3d
       -0.023022927 -0.08261655 -0.027794946 0.07785337
0002a0 40 af 2a 3d 10 34 99 3c 13 2b a4 bd b4 c7 a0 3d
       0.041671038 0.018701583 -0.08016028 0.0785059
0002b0 7f 09 9d bd 28 8d 9a 3b 33 c0 7a bd a3 66 a5 bc
       -0.07667827 0.004716534 -0.06121845 -0.020190543
0002c0 ca 08 7b 3d c7 a3 76 3b 53 21 15 3d 4e 1f 3b 3d
       0.06128768 0.003763424 0.036408734 0.04568415
0002d0 85 c3 89 bc 41 d7 de bd 77 dc 9c bc d2 75 03 be
       -0.016816864 -0.108809 -0.019148095 -0.12837914
0002e0 40 f3 b1 3a 3f 31 c6 bc cc c5 70 bb ff 3c 12 be
       0.0013576522 -0.024193404 -0.003673899 -0.1428108
0002f0 b1 5f 8e bd b4 f1 14 bc af 76 22 bd 40 de c4 3c
       -0.069518454 -0.00909083 -0.039663967 0.024031758
000300 6c dc dc bc 7d c7 10 bc 44 50 97 3d 17 95 61 bd
       -0.026960574 -0.008836624 0.07388356 -0.055073824
000310 e7 33 87 bd c0 ce 68 bc 0a 15 aa 3d 64 ef f8 3c
       -0.066016965 -0.014209449 0.08304794 0.030387588
000320 89 4d 82 bd 4b 56 db bd be 7a 5b bd 7f 5f 35 3c
       -0.06362445 -0.107098185 -0.053583853 0.011070131
000330 dc 06 aa bd d8 f0 32 be 03 b8 3d bd 55 21 24 bd
       -0.083020896 -0.17474687 -0.046318065 -0.04007085
000340 50 cf 62 bd 22 c7 00 be 74 1f ab bd 01 50 11 bd
       -0.05537349 -0.12575963 -0.083556086 -0.03547669
000350 50 2d c1 ba dd 1e 09 be 2c f2 55 3d d0 74 63 3d
       -0.0014738236 -0.1339068 0.052232906 0.055531323
000360 d2 a3 1c 3c 38 8d 14 be bb f5 3a bd 5a 76 22 be
       0.009560542 -0.14506996 -0.045644503 -0.1586546
000370 44 dd 9c bd 10 24 65 3d b0 fd 52 3d 6d 1c 32 be
       -0.076593906 0.055942595 0.051511467 -0.17393656
000380 fe ed 9d bc 97 99 22 be cc 41 88 bd f5 06 9a bd
       -0.019278523 -0.15878902 -0.06653175 -0.07520858
000390 d7 c4 0a be 61 5b 22 be c1 c3 00 3d 25 72 80 bc
       -0.13551651 -0.15855171 0.031436685 -0.015679428
0003a0 34 33 b1 3c 8f 9e 21 3d 06 22 e4 3d 10 e4 d3 3c
       0.02163086 0.039457854 0.11139302 0.025865585
0003b0 52 15 9e bd 38 78 81 3c 6b df dc 3d c1 e1 17 3b
       -0.0771891 0.015804395 0.10784801 0.0023175331
0003c0 cd 63 c1 bd 5d ab 27 bd 56 2c 77 3d b1 80 4e bd
       -0.094428636 -0.04093491 0.060345016 -0.0504157
0003d0 09 cf f8 3c 4f 37 7c bc 3e cf 12 3d 94 41 e6 bd
       0.03037216 -0.015394046 0.035842173 -0.11242977
0003e0 43 fc 9f bc a7 51 f0 bd 1a 37 85 3d ee 98 ff 3c
       -0.019529467 -0.11734324 0.065046504 0.031200852
0003f0 c4 a3 2d 3d 77 30 94 bd d6 61 f1 bd 2a 48 88 bd
       0.042392507 -0.072358064 -0.11786239 -0.06654389
