evaluation_results/models/list_npi_2020_2_26-12_19_40-6912-False-False-1.0-False-0.0-False-True-True-False.pth (torch_old, 963073 bytes, 16 tensors)

Mprog.weight f4 [3, 256]
0.94861 -0.8478392 -0.19239414 -0.102668844 -0.5873622 1.3480457 -1.8201582 1.2410256
-1.3162905 -1.1815453 -0.6534444 -0.08812722 -0.38077876 0.13407737 0.8306725 0.2420053
0.75640464 -0.15800995 0.84936935 -0.105541445 0.3625484 -1.244108 0.27983522 -0.61847854
-1.2641728 1.6189964 0.08581655 1.6324894 0.59591734 0.60641295 0.32639217 0.77306503
1.0900307 0.9879085 0.99395955 0.44546723 0.6984043 0.3801056 -0.4058836 -0.251058
-1.1464274 1.8849465 0.7024212 -0.20569627 -1.497504 0.04873101 0.2377736 -1.3169839
0.11496913 -0.1824772 -0.06371107 -0.19584183 0.26065654 0.20104116 0.7208351 -0.418014
-1.3458885 -0.27076513 -0.43341652 0.2803052 1.0304968 0.11553037 0.62635636 0.07680226
-1.0726422 -1.2563447 -0.3908601 0.3843612 -0.78694457 -0.7179211 -1.3805056 -1.0585874
-1.2925246 -0.96903914 -0.3919418 0.7699308 0.89238816 0.113982305 -1.3849828 0.14277023
0.7180563 0.39966762 1.0945158 1.3748052 -0.4494762 0.9349597 -0.28934014 -0.32353276
-0.042163078 0.8211762 0.36323518 0.9089971 0.021779373 0.4919355 -0.27688742 -0.014835647
-1.3361212 0.24643642 -0.5793802 -0.22932409 -0.8476202 1.2128035 -0.47815776 2.236946
1.3559514 1.1349244 1.8253919 -0.5088357 -0.65345734 0.8943317 1.2913545 -0.10182533
0.6057329 -0.73148364 -0.7604037 -1.6577487 0.99399126 -1.116657 -0.94276583 -1.534987
0.99403495 -0.29364648 -1.189777 -0.22874108 1.687904 -0.7762127 0.32976392 0.26383442
1.1947156 2.3241477 -0.5243492 -0.82464087 -0.18064737 1.4976789 0.44594088 -1.1806878
1.1518214 1.4634861 0.80676275 -0.32573703 2.1563175 -0.28312236 -0.2376404 -0.25613278
-0.73095566 -0.55537736 -0.16876478 0.44616932 -0.64599144 0.9410285 -0.96147543 0.12747613
-0.9397807 0.04479003 0.9223725 -0.3136799 1.427237 0.43828455 0.07370074 0.492956
-0.7062611 -0.4256736 1.6412129 -0.1674529 0.54409266 -0.14923175 -0.45909667 -0.3702975
-1.5879802 0.6819587 0.24923423 0.52687955 -0.39581516 -0.12604381 0.6094251 0.016201995
-0.2866278 -0.039434582 -0.029153194 1.1782389 0.5412813 -0.82718486 -1.7290527 1.9505566
-1.3972859 1.3290033 0.3200299 -1.2142236 -0.55756867 1.8153744 -1.1776047 -0.8390598
0.94158024 1.2000672 -0.18435173 -1.6975374 0.035477787 0.30335194 1.2153049 -0.9073002
1.737579 -0.7449266 -1.0873903 -0.84717 -0.47954726 1.0612843 -0.09929214 -1.4687792
-0.007348632 0.6110244 1.1293185 -0.2158556 0.77666914 0.91708153 0.42153856 -1.3246865
0.45114675 0.26934075 1.5298101 -0.29308224 0.32874605 0.44034103 0.38943598 -0.062032256
0.31820694 0.8073309 -0.4730836 -0.92186534 -0.9891429 1.9068413 -0.375136 1.2635521
1.0598223 0.55766135 1.2482165 1.6792092 -0.3782826 0.37052307 -1.0856899 0.67838603
-0.098207936 -0.917034 -0.1886045 -0.147133 1.1697651 0.67926085 -0.31157762 -0.30542898
1.2793075 0.628042 0.12423834 -1.6246115 -0.97831124 -1.1501637 0.537977 0.011707238
00000000: 1bd8 723f fd0b 59bf f802 45be 0b44 d2bd
00000010: 5e5d 16bf c38c ac3f f2fa e8bf edd9 9e3f
00000020: 357c a8bf e03c 97bf 2248 27bf 0b7c b4bd
00000030: 6ff5 c2be 944b 093e f4a6 543f 3dd0 773e
00000040: bca3 413f 5ccd 21be 4570 593f 1d26 d8bd
00000050: f29f b93e ee3e 9fbf 9046 8f3e 9c54 1ebf
00000060: 6ad0 a1bf 463b cf3f 96c0 af3d 6af5 d03f
00000070: 0a8e 183f e13d 1b3f e01c a73e 97e7 453f
00000080: 2086 8b3f 92e7 7c3f 2274 7e3f 4814 e43e
00000090: a0ca 323f 349d c23e facf cfbe ad8a 80be
000000a0: 22be 92bf ed45 f13f e0d1 333f 0ba2 52be
000000b0: 36ae bfbf 2b9a 473d ec7a 733e ee92 a8bf
000000c0: ef74 eb3d 4edb 3abe f37a 82bd c38a 48be
000000d0: c674 853e bcdd 4d3e a688 383f ee05 d6be
000000e0: 1346 acbf baa1 8abe c5e8 ddbe 2a84 8f3e
000000f0: 52e7 833f 309b ec3d e458 203f 814a 9d3d
00000100: 574c 89bf e7cf a0bf d11e c8be feca c43e
00000110: 3375 49bf adc9 37bf 68b4 b0bf cb7f 87bf
00000120: 7271 a5bf f312 78bf 98ac c8be 2f1a 453f
00000130: 8d73 643f 8e6f e93d 1e47 b1bf 5c32 123e
00000140: 8ad2 373f 3ca1 cc3e 1819 8c3f 9ef9 af3f
00000150: bf21 e6be 8559 6f3f 6424 94be 16a6 a5be
00000160: 31b3 2cbd 9a38 523f f6f9 b93e 09b4 683f
00000170: a86a b23c f8de fb3e 30c4 8dbe 3711 73bc
00000180: 0506 abbf d459 7c3e 4352 14bf efd3 6abe
00000190: a3fd 58bf 253d 9b3f 18d1 f4be 202a 0f40
000001a0: d18f ad3f 3445 913f 71a6 e93f 0e43 02bf
000001b0: fb48 27bf ecf2 643f 1b4b a53f cc89 d0bd
000001c0: 5011 1b3f 8342 3bbf d1a9 42bf 1c31 d4bf
000001d0: 3676 7e3f 9eee 8ebf 1a59 71bf 747a c4bf
000001e0: 1379 7e3f d558 96be 9d4a 98bf 1a3b 6abe
000001f0: 3d0d d83f e0b5 46bf d1d6 a83e 4e15 873e
00000200: 71ec 983f d6be 1440 c03b 06bf aa1b 53bf
00000210: a0fb 38be f1b3 bf3f 5d52 e43e c720 97bf
00000220: e26e 933f 8353 bb3f 0188 4e3f 01c7 a6be
00000230: 1b01 0a40 6af5 90be 0158 73be d623 83be
00000240: e91f 3bbf 362d 0ebf add0 2cbe 4e70 e43e
00000250: b25f 25bf 3ee7 703f 4123 76bf 1a89 023e
00000260: 7895 70bf c075 373d 9b20 6c3f a79a a0be
00000270: b4af b63f d566 e03e 6af0 963d bb64 fc3e
00000280: 87cd 34bf e4f1 d9be 4413 d23f c678 2bbe
00000290: a849 0b3f 35d0 18be b80e ebbe a297 bdbe
000002a0: ef42 cbbf d894 2e3f 4237 7f3e 94e1 063f
000002b0: 49a8 cabe a111 01be 4903 1c3f 0cba 843c
000002c0: e1c0 92be 2886 21bd aed2 eebc 88d0 963f
000002d0: 6991 0a3f 63c2 53bf 9951 ddbf d7ab f93f
000002e0: 44da b2bf c81c aa3f f6da a33e ae6b 9bbf
000002f0: d2bc 0ebf 305e e83f c0bb 96bf a0cc 56bf
00000300: 670b 713f cd9b 993f b3c6 3cbe e848 d9bf
00000310: 2851 113d f250 9b3e 1c8f 9b3f d344 68bf
00000320: fd68 de3f 82b3 3ebf 9b2f 8bbf 22e0 58bf
00000330: 3887 f5be 2ad8 873f ad59 cbbd f500 bcbf
00000340: cbcc f0bb 186c 1c3f 828d 903f 4009 5dbe
00000350: cad3 463f dbc5 6a3f e7d3 d73e 548f a9bf
00000360: b5fc e63e 08e7 893e d1d0 c33f e00e 96be
00000370: 6751 a83e 6174 e13e 2764 c73e 8915 7ebd
00000380: 05ec a23e 3dad 4e3f 0338 f2be 5eff 6bbf
00000390: 7838 7dbf 6013 f43f d311 c0be 13bc a13f
000003a0: 42a8 873f e5c2 0e3f 8fc5 9f3f 54f0 d63f
000003b0: 42ae c1be 33b5 bd3e e3f7 8abf b5aa 2d3f
000003c0: 3e21 c9bd bdc2 6abf 8a21 41be 08aa 16be
000003d0: ddba 953f 0ae4 2d3f 1a87 9fbe 3061 9cbe
000003e0: 59c0 a33f 5cc7 203f ac70 fe3d 45f3 cfbf
000003f0: 9b72 7abf 9038 93bf dcb8 093f b7cf 3f3c

encoder.l1.weight f4 [100, 44]
-0.68471676 -0.3686406 0.25084874 0.18547036 0.29271224 0.10780458 0.012564669 -0.1198795
-0.25046372 -0.3566947 -0.21296757 -0.36262065 0.18693364 -0.3966156 -0.007720107 0.057115424
0.033551488 0.027961005 -0.0033712063 0.27683863 0.13003922 -0.3849205 -0.12746775 -0.26762277
-0.018112808 0.11960372 0.05827228 0.17985848 0.06642766 0.22953072 -0.18878065 -0.20774624
-0.3044289 0.15643322 -0.104547836 0.074203745 0.083406106 0.2583209 0.14140317 0.15406793
-0.006267275 -0.16479322 -0.075551115 -0.12139637 -0.22519358 -0.38857168 -0.0081668645 -0.091092825
0.023944203 -0.004863429 -0.022752933 0.16461614 0.27126992 0.1946085 -0.060104884 0.28260472
0.25815257 0.15861763 0.020784386 0.12693676 -0.30599844 -0.08659136 0.0603076 -0.21263576
-0.18979503 -0.046108764 0.05144343 0.14623299 0.13168614 -0.0017051507 0.015903352 0.022863215
-0.100756995 0.11827601 0.060530093 0.09165382 -0.06647593 -0.10812204 0.26927125 0.18915936
-0.007887438 0.292191 -0.05017247 -0.2582297 -0.061901674 -0.18213719 0.06577714 0.096415654
0.08855835 -0.079737075 0.22211225 0.08406888 0.14657322 -0.07124877 0.15593264 0.18342456
0.07913824 -0.45056608 -0.3813119 -0.006045402 -0.16297597 0.074414 0.22437689 0.20586382
0.13356596 -0.09982091 -0.044125807 0.16794984 -0.16964382 -0.14780188 -0.004872064 -0.17129949
0.14000385 0.03323749 0.13627149 0.24227436 0.30670252 -0.08973991 -0.1231177 0.28751245
-0.21009861 -0.049418308 -0.070894025 0.12788332 0.2077423 0.14770907 -0.22876722 0.1875422
0.08515458 -0.082512096 0.0964879 -0.015174757 -0.0378817 0.053548027 -0.10925958 -0.023778701
0.048578992 -0.05716255 0.11267814 0.09386277 0.0441474 0.32590112 -0.5484855 -0.036107693
0.1526084 0.14594181 0.035685822 -0.042783424 0.0055483277 0.051062915 0.072662674 0.13345218
0.14313743 0.072422974 0.05652429 0.025937503 0.06070945 0.054546505 -0.010146296 -0.08588226
0.1079572 0.19044673 0.23916362 0.20982069 -0.21632193 0.2696882 0.038432594 0.2884975
-0.5548158 0.2213213 -0.33222696 -0.35270572 0.026996052 -0.15839256 0.13628967 0.17472811
0.04159262 -0.018697454 0.18277165 0.16634952 0.11271034 -0.06356587 -0.17037214 0.03427604
-0.025746515 -0.1870483 -0.030040927 0.06389882 0.084474176 -0.148136 -0.052684374 0.070534304
0.07216262 -0.14680152 0.07292436 0.13259728 0.15866764 -0.118906684 0.15956724 0.106088765
-0.029399253 -0.024485834 -0.15704882 -0.47155726 0.120718785 -0.08015728 -0.25155997 -0.007872698
0.083338134 0.08112662 -0.09827116 -0.23983806 -0.060726732 -0.32811302 0.25201952 -0.10610066
-0.22101392 0.30528414 -0.020051846 0.15860923 -0.27262363 -0.18250243 -0.106062494 0.017458156
0.04292891 -0.08558121 0.102723464 0.25416785 -0.0047790003 0.06111021 0.21203303 0.1997122
-0.15058804 -0.0045613023 -0.12466591 0.08794953 -0.06120442 0.04015932 -0.029577432 -0.065218024
-0.09552673 0.03603386 0.05135051 0.0010677411 0.082915 -0.028006516 -0.16043521 0.1786023
-0.06660055 -0.0007406417 0.11305798 -0.22943002 -0.7137759 0.09762206 -0.13227473 0.1576955
00000000: 9949 2fbf 76be bcbe 3f6f 803e f1eb 3d3e
00000010: 61de 953e a6c8 dc3d 0bdc 4d3c 6283 f5bd
00000020: c83c 80be b0a0 b6be 2c14 5abe 6aa9 b9be
00000030: 886b 3f3e 3311 cbbe f4f8 fcbb ddf1 693d
00000040: 496d 093d 7a0e e53c 75ef 5cbb cbbd 8d3e
00000050: 0029 053e 4d14 c5be e886 02be da05 89be
00000060: 5061 94bc ccf2 f43d eaae 6e3d d22c 383e
00000070: 3a0b 883d 1a0a 6b3e b74f 41be 6ebb 54be
00000080: 1bde 9bbe 0830 203e 2d1d d6bd 22f8 973d
00000090: d2d0 aa3d a342 843e fecb 103e fcc3 1d3e
000000a0: b75d cdbb 8ebf 28be 8bba 9abd a99e f8bd
000000b0: 2599 66be def2 c6be 50ce 05bc e08e babd
000000c0: a226 c43c 665d 9fbb 5c64 babc 2291 283e
000000d0: e4e3 8a3e 7347 473e 8a30 76bd 91b1 903e
000000e0: 932c 843e a96c 223e 0444 aa3c b6fb 013e
000000f0: d4ab 9cbe d056 b1bd 1a05 773d 30bd 59be
00000100: a159 42be 8bdc 3cbd 59b6 523d 1abe 153e
00000110: bbd8 063e 5d7f dfba bf47 823c a34b bb3c
00000120: af59 cebd b13a f23d 67ee 773d ffb4 bb3d
00000130: 8824 88bd 176f ddbd ecdd 893e feb2 413e
00000140: 503a 01bc 0f9a 953e a681 4dbd af36 84be
00000150: 9c8c 7dbd 2c82 3abe 2ab6 863d 9275 c53d
00000160: 155e b53d 314d a3bd 6571 633e 4e2c ac3d
00000170: 4a17 163e e0ea 91bd ceac 1f3e a6d3 3b3e
00000180: 3b13 a23d 99b0 e6be 503b c3be 8218 c6bb
00000190: 2ce3 26be 5e66 983d 0ec3 653e f7cd 523e
000001a0: 84c5 083e e86e ccbd 43bd 34bd 0bfb 2b3e
000001b0: 1cb7 2dbe 6059 17be d6a5 9fbb 2269 2fbe
000001c0: 2b5d 0f3e 0924 083d c18a 0b3e c516 783e
000001d0: 1d08 9d3e 8fc9 b7bd 2225 fcbd d534 933e
000001e0: 1724 57be da6a 4abd e330 91bd d8f3 023e
000001f0: 66ba 543e 0c41 173e f441 6abe 100b 403e
00000200: 8665 ae3d 1afc a8bd 739b c53d 8b9f 78bc
00000210: d729 1bbd 2d55 5b3d 7dc3 dfbd 8dcb c2bc
00000220: c4fa 463d 4723 6abd ccc3 e63d 203b c03d
00000230: e7d3 343d 83dc a63e 8c69 0cbf a9e5 13bd
00000240: 6045 1c3e c571 153e 4c2b 123d ac3d 2fbd
00000250: bfce b53b 5927 513d 2bd0 943d b0a7 083e
00000260: 9e92 123e 7f52 943d 0486 673d e37a d43c
00000270: 79aa 783d 286c 5f3d a63c 26bc 0ae3 afbd
00000280: aa18 dd3d 7804 433e 4fe7 743e 3cdb 563e
00000290: 7f83 5dbe 9214 8a3e 7f6b 1d3d f2b5 933e
000002a0: 6908 0ebf 0da2 623e a719 aabe d895 b4be
000002b0: d326 dd3c a931 22be 858f 0b3e edeb 323e
000002c0: 065d 2a3d 672b 99bc 7e28 3b3e 8757 2a3e
000002d0: aed4 e63d d32e 82bd 0976 2ebe 0865 0c3d
000002e0: 5bea d2bc 9789 3fbe 6418 f6bc 62dd 823d
000002f0: cc00 ad3d f7b0 17be 92cb 57bd 4a74 903d
00000300: ffc9 933d 2353 16be 5e59 953d 95c7 073e
00000310: c579 223e 5985 f3bd 9865 233e 1145 d93d
00000320: b4d6 f0bc 8496 c8bc 68d1 20be f46f f1be
00000330: 693b f73d 8029 a4bd 78cc 80be 7dfc 00bc
00000340: 2fad aa3d b725 a63d 6442 c9bd 1c98 75be
00000350: 98bc 78bd 6efe a7be b408 813e 4e4b d9bd
00000360: 7951 62be 344e 9c3e c543 a4bc 756a 223e
00000370: 5395 8bbe ebe1 3abe 4b37 d9bd 6804 8f3c
00000380: 3ad6 2f3d 3445 afbd ae60 d23d 4a22 823e
00000390: 2999 9cbb b34e 7a3d 301f 593e 5b81 4c3e
000003a0: c033 1abe fa76 95bb d750 ffbd e21e b43d
000003b0: 7cb1 7abd 197e 243d 5f4c f2bc 0791 85bd
000003c0: 85a3 c3bd 3e98 133d ea54 523d 72f3 8b3a
000003d0: 57cf a93d ec6d e5bc 2149 24be 85e3 363e
000003e0: df65 88bd a027 42ba f18a e73d b4ef 6abe
000003f0: 04ba 36bf 13ee c73d 0773 07be ee7a 213e

encoder.l1.bias f4 [100]
0.01046093 0.045409072 0.12174353 0.15059301 0.07178074 0.09142588 -0.06983538 0.12648267
-0.08277532 -0.004085202 -0.06536721 0.01330766 -0.030107522 0.0567075 0.031345233 0.006374099
-0.06807719 0.06464541 0.037240036 -0.030998811 0.054756902 0.0068138433 0.04507769 0.13051586
-0.03473307 0.10123105 0.084858805 -0.010035687 0.02866147 -0.04901136 -0.047239903 0.026286282
0.13918653 0.050186507 -0.041995075 0.15639025 0.04852212 0.15965372 0.056218684 -0.08171973
-0.054025624 0.026883364 0.26507193 -0.0068918276 0.1473285 -0.040707745 0.07828333 0.028610766
-0.012258067 0.0531148 0.088522404 0.015297821 0.07676052 -0.1740705 0.10626138 -0.11051533
0.045990724 -0.038223922 0.19461714 0.09192089 0.09952176 -0.048287414 0.036521595 0.039408553
-0.02350897 0.17495894 0.09225752 0.110622846 -0.10988507 0.050069775 0.10257906 -0.050007194
0.011596869 -0.008112221 0.042400565 0.06064504 0.014642125 -0.008331558 0.13577555 -0.008787924
0.0045533413 0.11521028 -0.05389007 0.0449117 0.021826189 -0.024776299 -0.077311695 0.017960854
0.0331824 0.061010107 -0.050427187 -0.09597249 0.03902224 -0.03290795 0.055967953 0.060208045
-0.04888647 0.10464074 0.058894802 0.06253274
00000000: 5264 2b3c ddfe 393d ac54 f93d 0e35 1a3e
00000010: c801 933d 7e3d bb3d da05 8fbd ac84 013e
00000020: 1b86 a9bd 28dd 85bb 3edf 85bd 5f08 5a3c
00000030: 0da4 f6bc 2046 683d dc63 003d d1dd d03b
00000040: 0e6c 8bbd d064 843d 0289 183d 38f1 fdbc
00000050: c648 603d a946 df3b 62a3 383d f3a5 053e
00000060: 4344 0ebd 3a52 cf3d 74ca ad3d b96c 24bc
00000070: 76cb ea3c 23c0 48bd a17e 41bd 5456 d73c
00000080: ea86 0e3e 5e90 4d3d 0703 2cbd c424 203e
00000090: 21bf 463d 447c 233e 9045 663d ac5c a7bd
000000a0: f949 5dbd 803a dc3c 82b7 873e d7d4 e1bb
000000b0: 48dd 163e 2abd 26bd 0353 a03d 2061 ea3c
000000c0: 0fd6 48bc e88e 593d 3c4b b53d b6a3 7a3c
000000d0: 9f34 9d3d 8a3f 32be 919f d93d dd55 e2bd
000000e0: c560 3c3d b090 1cbd b749 473e 0541 bc3d
000000f0: 11d2 cb3d 06c9 45bd ab97 153d dd6a 213d
00000100: e295 c0bc 7028 333e 83f1 bc3d 3b8e e23d
00000110: 6c0b e1bd f715 4d3d f814 d23d 58d4 4cbd
00000120: cb00 3e3c 1fe9 04bc 37ac 2d3d ef66 783d
00000130: 86e5 6f3c 1681 08bc bf08 0b3e 3afb 0fbc
00000140: 3234 953b 5ef3 eb3d d6bb 5cbd 55f5 373d
00000150: d6cc b23c aaf7 cabc 9855 9ebd a422 933c
00000160: 45ea 073d bce5 793d bd8c 4ebd 3a8d c4bd
00000170: c9d5 1f3d 7dca 06bd a73e 653d b69c 763d
00000180: 2e3d 48bd e24d d63d ad3b 713d 2a11 803d

encoder.l2.weight f4 [32, 100]
0.25150183 -0.06385111 0.42653793 -0.035874255 -0.21959019 -0.071513504 0.5430057 0.118461534
-0.08622349 0.37812993 -0.31168422 -0.0021661466 -0.050134122 -0.031801052 0.286013 0.123247504
-0.5742441 0.2601079 0.2874701 -0.2622879 0.33469602 0.28305107 -0.12967242 0.6157538
-0.17944908 0.14489943 0.022624299 -0.61775595 0.20230481 -0.46638486 -0.15466776 0.07014711
-0.00676692 -0.26061478 0.20078506 0.058949083 0.34753996 0.18140139 0.33855465 0.26171112
0.8541627 0.25841466 0.24420679 0.022079952 0.47540498 -0.009854742 0.10287776 0.3704916
0.049439993 0.21205097 0.10782673 -0.3216531 0.06632837 -0.28911713 0.121365376 -0.20855318
-0.24900956 0.22434479 0.07368402 -0.25727576 0.09663172 -0.0037406122 0.026976183 -0.3624282
0.09237885 0.76673454 -0.13378358 0.10673457 -0.2605463 0.049403086 -0.036304038 0.050848506
0.32318628 0.112070195 0.44697708 -0.19341135 -0.4691696 0.44697288 -0.2647236 0.08169335
0.30782953 0.012968424 0.2405612 0.13151115 0.19521134 0.008424044 -0.29711792 0.07779994
0.10445734 -0.2836247 0.17733274 0.06724767 -0.38160077 -0.07083711 -0.28205174 0.09383151
-0.08648992 0.31022054 0.444576 0.27030933 0.20433801 0.21775521 0.085194424 0.24213561
-0.11765213 0.050970927 0.42785275 -0.18417488 -0.04729951 0.29749587 -0.2720746 0.1349165
0.14880382 0.18653585 0.28476712 -0.09944336 0.28345203 -0.14283395 -0.75199807 -0.20194682
0.22023924 -0.039190546 0.13107581 0.23834193 -0.24918574 -0.09358263 0.2925207 -0.027536955
0.50410575 -0.36622748 0.064446524 0.14969124 0.16672052 0.15218306 0.03535593 -0.030223653
0.50359255 0.07365976 0.7586619 -0.6248754 0.6033504 -0.09029383 0.17891136 -0.5260367
0.18751885 -0.1733085 0.28500912 -0.1829852 -0.04322006 -0.085543215 0.09858386 -0.5849292
-0.060971923 -0.035707243 -0.11955049 -0.2856388 0.28714243 -0.2155404 0.5563468 0.063901715
-0.32730713 0.36669946 -0.22552784 0.1789019 -0.2834852 0.29729742 -0.012380894 -0.1197273
-0.2822272 -0.31752017 0.36298385 -0.59661883 -0.11485568 0.22653693 0.7483955 0.027573572
0.06698212 0.09614566 -0.084773354 -0.21231088 0.58945954 0.053734027 0.28853527 -0.16497372
-0.25381574 -0.2711068 -0.2950562 -0.07966427 -0.17816395 0.10628959 -0.02362782 -0.0072330995
-0.23211147 -0.68089324 0.31735796 0.030711425 -0.32225716 0.3383072 0.450073 0.24451862
-0.2999543 0.31453544 -0.24795504 0.004865093 0.09070446 0.124850765 0.16548344 -0.05540376
-0.016092304 0.7693613 0.18240178 -0.21063548 -0.3789665 0.063039854 -0.435205 0.27676055
-0.07717882 -0.63104934 -0.04324047 0.33054394 0.5577857 0.26988432 -0.16082633 -0.19216923
0.13438669 -0.1576036 0.08918869 0.07592135 -0.24770902 -0.08540684 0.58805305 -0.30605653
0.32125685 -0.047630705 -0.123986855 -0.2867735 -0.20561597 -0.2746945 -0.11768504 0.17875655
-0.03963795 -0.12459295 0.03423493 0.16439681 -0.6949919 -0.5069362 0.161628 0.07578963
0.39394796 0.28262937 -0.18143548 0.067324474 0.034205973 0.23141092 -0.00965144 -0.028901454
00000000: d9c4 803e 5fc4 82bd 2e63 da3e e2f0 12bd
00000010: 40dc 60be ac75 92bd 6c02 0b3f f69b f23d
00000020: f195 b0bd 3f9a c13e 1395 9fbe e9f5 0dbb
00000030: 7059 4dbd d241 02bd 4c70 923e 3069 fc3d
00000040: a901 13bf dd2c 853e 482f 933e 9a4a 86be
00000050: 475d ab3e 12ec 903e d9c8 04be 0ba2 1d3f
00000060: 80c1 37be 8460 143e 9856 b93c 4125 1ebf
00000070: fe28 4f3e ffc9 eebe 3a61 1ebe 4aa9 8f3d
00000080: 0abd ddbb 4d6f 85be 999a 4d3e 9874 713d
00000090: c2f0 b13e 49c1 393e 0957 ad3e 00ff 853e
000000a0: 68aa 5a3f ed4e 843e 5811 7a3e 04e1 b43c
000000b0: 4868 f33e c975 21bc 93b1 d23d 13b1 bd3e
000000c0: 9781 4a3d e423 593e 43d4 dc3d b7af a4be
000000d0: 2bd7 873d 2907 94be 698e f83d f78e 55be
000000e0: 5dfc 7ebe a4ba 653e a6e7 963d a6b9 83be
000000f0: dae6 c53d 0f25 75bb 28fd dc3c 3090 b9be
00000100: 1f31 bd3d b748 443f 90fe 08be a797 da3d
00000110: 5366 85be e45a 4a3d 8bb3 14bd 8646 503d
00000120: ac78 a53e 0f85 e53d 2eda e43e a00d 46be
00000130: ff36 f0be a1d9 e43e da89 87be d84e a73d
00000140: d59b 9d3e 8379 543c ad55 763e dcaa 063e
00000150: 7be5 473e 0005 0a3c d71f 98be 9355 9f3d
00000160: bbed d53d 4237 91be b796 353e 25b9 893d
00000170: 2d61 c3be 0c13 91bd 1669 90be bc2a c03d
00000180: a121 b1bd 3ad5 9e3e 779f e33e fc65 8a3e
00000190: fc3d 513e 39fb 5e3e 6a7a ae3d 66f2 773e
000001a0: 9af3 f0bd e4c6 503d 840f db3e 5798 3cbe
000001b0: 22bd 41bd 6151 983e 5d4d 8bbe 8d27 0a3e
000001c0: 0760 183e 4103 3f3e ffcc 913e f6a8 cbbd
000001d0: a020 913e 1043 12be f282 40bf 26cb 4ebe
000001e0: 6586 613e 4486 20bd bd38 063e e80f 743e
000001f0: 8c2a 7fbe 40a8 bfbd 46c5 953e 2e95 e1bc
00000200: 130d 013f 2b82 bbbe 8afc 833d a948 193e
00000210: c9b8 2a3e e0d5 1b3e 61d1 103d 9897 f7bc
00000220: 71eb 003f eeda 963d ab37 423f d6f7 1fbf
00000230: 2c75 1a3f f9eb b8bd 8a34 373e 57aa 06bf
00000240: f104 403e c977 31be b7ec 913e 7960 3bbe
00000250: 8507 31bd 4831 afbd 56e6 c93d ecbd 15bf
00000260: b2bd 79bd c241 12bd e3d6 f4bd 403f 92be
00000270: 5504 933e 9fb6 5cbe be6c 0e3f e7de 823d
00000280: cd94 a7be 08c0 bb3e c5f0 66be 0f32 373e
00000290: f924 91be 5e37 983e 3cd9 4abc 9633 f5bd
000002a0: 1580 90be 0192 a2be 05d9 b93e 03bc 18bf
000002b0: 7439 ebbd 4cf9 673e d996 3f3f f9e1 e13c
000002c0: ec2d 893d 04e8 c43d a79d adbd 0668 59be
000002d0: d2e6 163f 3618 5c3d e5ba 933e dfee 28be
000002e0: 23f4 81be 83ce 8abe 9b11 97be 0527 a3bd
000002f0: 9c70 36be 5bae d93d 218f c1bc a303 edbb
00000300: a1ae 6dbe 054f 2ebf be7c a23e 8796 fb3c
00000310: e4fe a4be 9a36 ad3e f86f e63e 1763 7a3e
00000320: 9c93 99be ca0a a13e ede7 7dbe 5c6b 9f3b
00000330: 43c3 b93d c2b1 ff3d 7e74 293e 0eef 62bd
00000340: 02d4 83bc ddf4 443f 88c7 3a3e d4b0 57be
00000350: e607 c2be 0a1b 813d 31d3 debe 8fb3 8d3e
00000360: ee0f 9ebd 738c 21bf eb1c 31bd 0e3d a93e
00000370: 0bcb 0e3f 472e 8a3e a8af 24be 03c8 44be
00000380: aa9c 093e d762 21be 8fa8 b63d a77c 9b3d
00000390: 6fa7 7dbe c8e9 aebd a58a 163f 71b3 9cbe
000003a0: c77b a43e 6a18 43bd d2ec fdbd fad3 92be
000003b0: fe8c 52be c2a4 8cbe db04 f1bd f50b 373e
000003c0: 675b 22bd 972a ffbd ed39 0c3d a357 283e
000003d0: fdea 31bf 92c6 01bf cf81 253e 9837 9b3d
000003e0: 8cb3 c93e ccb4 903e 39ca 39be 6ae1 893d
000003f0: 901b 0c3d fcf6 6c3e 1321 1ebc bec2 ecbc

encoder.l2.bias f4 [32]
0.008689667 0.103077434 -0.0048877085 -0.19339196 -0.035781622 0.0042401757 0.0070005353 0.008157074
-0.068493836 0.05052156 -0.067435235 -0.05593188 -0.10431302 -0.12109524 -0.048628 -0.047815256
0.06684694 -0.0038897437 -0.12813324 0.1960451 -0.082049206 -0.06318596 -0.03985497 -0.005563879
0.07170667 0.09272071 -0.037953448 -0.098089315 0.05023304 -0.019658495 -0.09854385 0.069282316
00000000: 1b5f 0e3c 431a d33d 1229 a0bb 8b08 46be
00000010: c08f 12bd 2cf1 8a3b bf64 e53b 40a5 053c
00000020: 7f46 8cbd b2ef 4e3d 7c1b 8abd d418 65bd
00000030: 11a2 d5bd c800 f8bd 272e 47bd eed9 43bd
00000040: 0ce7 883d 12eb 7ebb 5c35 03be 0cc0 483e
00000050: 6a09 a8bd a467 81bd f73e 23bd 3351 b6bb
00000060: f2da 923d 5be4 bd3d 1375 1bbd 0de3 c8bd
00000070: 29c1 4d3d da0a a1bc 5cd1 c9bd e3e3 8d3d

lstm.weight_ih f4 [512, 288]
-0.29254723 -0.34270558 0.19350117 0.17291005 -0.097782105 -0.07419155 -0.33253995 0.3906533
0.31682044 -0.03741038 -0.111288704 -0.24526113 0.4397146 0.2796493 0.24751766 -0.1280039
-0.1632921 -0.25720635 0.010896442 -0.53038126 -0.22335753 -0.35195437 -0.20525704 0.10473209
-0.22905901 -0.3426974 0.20435064 0.32595095 -0.34393185 -0.36458513 0.6223075 0.54223776
0.12784751 -0.021259677 -0.17775548 -0.21923566 -0.043670453 -0.11775534 0.014683685 -0.046315685
-0.1927964 0.0591303 -0.11047648 0.1294095 -0.0005785333 0.09790212 0.11721753 -0.12845501
-0.049939614 0.120067835 0.12025574 -0.058297195 -0.026171202 -0.08354812 -0.014705717 0.028705768
-0.031452276 -0.064755626 -0.010703105 -0.0030653598 0.006632357 0.059269097 0.04510273 -0.056870032
0.011122524 0.18701454 -0.13638307 0.12364883 0.07412836 0.20175786 -0.12265419 -0.10074812
-0.18062584 -0.07490371 0.05033275 0.026790317 -0.115833275 0.23328435 -0.057931907 -0.0032570148
0.10549779 0.0059457305 0.051910385 0.011436361 0.18401882 -0.10934014 0.09921732 0.1214252
-0.06560686 0.026428683 0.0037890817 0.0630067 0.07124179 0.20361988 0.21086375 0.060654234
-0.06282047 -0.17982894 0.0016953432 0.003971542 0.0907404 -0.021001102 0.0315849 -0.011395624
-0.017436365 0.0112673445 0.037935473 -0.054988246 -0.013243213 0.109949894 -0.15098047 0.034999732
0.20004635 0.08284296 -0.047896795 0.088780366 -0.018757977 0.018721784 0.03136674 -0.0355865
-0.21664391 0.011376153 0.16225202 0.14984407 0.06859753 0.0029930498 0.01158218 -0.037501544
0.054677162 -0.0047678454 0.051233865 -0.07918781 -0.11210235 0.071866415 0.050875433 -0.0038772824
0.06734522 -0.009534291 -0.100940555 -0.028286785 -0.14921188 0.06316991 0.028322505 -0.035664156
0.044320162 0.068650894 0.0086885085 -0.04424644 0.20938662 0.066144526 -0.005145405 -0.08440361
0.018395439 0.042789962 0.09562907 0.07342778 -0.052114747 -0.019497177 0.041644447 0.014220783
0.053350355 0.008006039 -0.13891906 -0.06281277 -0.24910976 -0.15074833 -0.03218077 -0.10805175
0.049150877 0.017039903 -0.028057238 -0.05221828 -0.13522673 -0.15822451 0.037916213 -0.019539548
-0.054563366 0.073523656 0.027557142 0.14364445 0.014153783 -0.089935385 -0.07931948 0.07012747
-0.14482301 -0.055880573 -0.09667474 -0.013284211 0.07973857 0.0073503526 0.05300325 -0.1470866
-0.07081638 0.04729492 0.051444877 -0.15193251 0.03447352 -0.0576366 -0.0041009197 -0.057006788
-0.09221939 -0.089404084 0.014737285 0.058129847 -0.06566044 0.03249263 0.17851838 0.10529769
-0.17835277 0.040271588 0.12764464 0.03561597 -0.0058302903 -0.13040745 0.04959371 0.08300111
-0.09458731 -0.022491746 0.05444709 0.016775487 -0.11228954 -0.015402418 -0.004392221 -0.014240246
0.022653094 0.09461595 -0.08338947 -0.036685087 0.04844684 0.1278912 0.04488486 0.05877223
0.13571191 0.113975994 -0.0700635 -0.057684325 -0.046669938 -0.0465706 -0.098236166 0.017454147
0.06815957 -0.100978956 0.07566579 -0.16632628 0.08309545 -0.07003685 0.044145115 0.1185826
0.16456704 0.007100363 0.072973356 0.073478 0.124061726 0.07815605 -0.027410943 -0.0231007
00000000: c0c8 95be 1b77 afbe 2c25 463e 550f 313e
00000010: fc41 c8bd bdf1 97bd ad42 aabe b603 c83e
00000020: 4a36 a23e a03b 19bd 55eb e3bd bc25 7bbe
00000030: 4622 e13e 312e 8f3e 4575 7d3e 7413 03be
00000040: 0b36 27be 8db0 83be fe86 323c 11c7 07bf
00000050: d6b7 64be 5d33 b4be e72e 52be c77d d63d
00000060: 728e 6abe 0976 afbe 4b41 513e 0be3 a63e
00000070: d617 b0be e7aa babe 8b4f 1f3f 18d0 0a3f
00000080: 75ea 023e c628 aebc 8805 36be 507f 60be
00000090: cadf 32bd b629 f1bd d793 703c 84b5 3dbd
000000a0: 6b6c 45be 9d32 723d 7e41 e2bd ed83 043e
000000b0: b6a8 17ba e880 c83d bf0f f03d b689 03be
000000c0: 7b8d 4cbd 20e6 f53d a448 f63d 0ac9 6ebd
000000d0: fd64 d6bc 471b abbd 3ff0 70bc 5c28 eb3c
000000e0: 1ad4 00bd 999e 84bd 135c 2fbc 34e4 48bb
000000f0: 3e54 d93b 27c4 723d a4bd 383d 8df0 68bd
00000100: 3f3b 363c bd80 3f3e 01a8 0bbe 993b fd3d
00000110: 9cd0 973d 9d99 4e3e 1f32 fbbd 0855 cebd
00000120: fbf5 38be 1e67 99bd b729 4e3d 5e77 db3c
00000130: ff39 edbd 18e2 6e3e 024a 6dbd a473 55bb
00000140: 3a0f d83d 67d4 c23b fc9f 543d 935f 3b3c
00000150: 6e6f 3c3e b9ed dfbd 7332 cb3d c6ad f83d
00000160: e45c 86bd f780 d83c 3e52 783b a809 813d
00000170: 37e7 913d bb81 503e abec 573e 9370 783d
00000180: 05a8 80bd 1425 38be 4736 de3a b623 823b
00000190: 1ad6 b93d 810a acbc 2b5f 013d b6b4 3abc
000001a0: b5d6 8ebc ab9a 383c 3a62 1b3d 5b3b 61bd
000001b0: 10fa 58bc 692d e13d a09a 1abe e15b 0f3d
000001c0: f3d8 4c3e 92a9 a93d 6e2f 44bd 7bd2 b53d
000001d0: 54aa 99bc 6d5e 993c 697a 003d 26c3 11bd
000001e0: e7d7 5dbe 0b63 3a3c 6525 263e b970 193e
000001f0: dd7c 8c3d 0b27 443b 2fc3 3d3c 389b 19bd
00000200: 29f5 5f3d 963b 9cbb 9ada 513d 382d a2bd
00000210: eb95 e5bd b32e 933d c262 503d 011a 7ebb
00000220: 4aec 893d b735 1cbc ecb9 cebd b0b9 e7bc
00000230: 00cb 18be 3a5f 813d 9904 e83c 9414 12bd
00000240: 0f89 353d d798 8c3d 3f5a 0e3c c13b 35bd
00000250: 7269 563e c876 873d c99a a8bb cddb acbd
00000260: 08b2 963c 8744 2f3d 2dd9 c33d 4e61 963d
00000270: 4676 55bd 8bb8 9fbc 5e93 2a3d 49fe 683c
00000280: e785 5a3d c32b 033c cc40 0ebe fba3 80bd
00000290: a116 7fbe c55d 1abe fccf 03bd 3c4a ddbd
000002a0: 6e52 493d 4497 8b3c 4bd8 e5bc d6e2 55bd
000002b0: e078 0abe 9b05 22be 084e 1b3d 6711 a0bc
000002c0: d67d 5fbd 9293 963d 84bf e13c 8817 133e
000002d0: 45e5 673c 0b30 b8bd 4072 a2bd fe9e 8f3d
000002e0: 7c4c 14be 07e3 64bd 68fd c5bd 05a6 59bc
000002f0: fa4d a33d 3adb f03b f019 593d df9d 16be
00000300: 2e08 91bd 51b8 413d ddb7 523d 3294 1bbe
00000310: 1b34 0d3d 5b14 6cbd 0261 86bb f37f 69bd
00000320: 85dd bcbd 7d19 b7bd a774 713c 9019 6e3d
00000330: fb78 86bd fe16 053d 86cd 363e 51a6 d73d
00000340: 1ca2 36be d2f3 243d 47b5 023e 0de2 113d
00000350: 050c bfbb 8889 05be c622 4b3d 7cfc a93d
00000360: feb6 c1bd 9c40 b8bc e903 5f3d bf6c 893c
00000370: 0ff8 e5bd 6c5a 7cbc 9fec 8fbb ec4f 69bc
00000380: fb92 b93c 02c6 c13d 19c8 aabd 1a43 16bd
00000390: 3270 463d e9f5 023e 30d9 373d 26bb 703d
000003a0: 10f8 0a3e 3f6c e93d 747d 8fbd 6646 6cbd
000003b0: fa28 3fbd d0c0 3ebd 0b30 c9bd 00fc 8e3c
000003c0: 3f97 8b3d 0ece cebd aaf6 9a3d 7051 2abe
000003d0: f32d aa3d 7b6f 8fbd 82d1 343d 6fdb f23d
000003e0: 4384 283e 29aa e83b 0e73 953d a27b 963d
000003f0: 1314 fe3d 4710 a03d ea8c e0bc ae3d bdbc

lstm.weight_hh f4 [512, 128]
-0.19283243 -0.019228946 -0.08097792 0.049265902 0.33418787 0.15027721 0.109289065 -0.012651184
0.016036926 0.21439514 -0.15613744 -0.11998487 -0.021615312 -0.24123386 -0.24523322 0.07359961
-0.1176091 -0.018114822 -0.2020131 -0.16463372 -0.021417743 0.018349834 -0.19054435 -0.37386805
0.09288945 0.5763831 0.012356261 -0.30022532 0.04713276 -0.1157372 -0.28901467 -0.24618094
0.17528673 -0.12566021 0.25463212 -0.57649255 0.14594235 0.45770463 -0.35698557 -0.08441303
0.060738336 -0.64236045 0.2292896 0.20025027 0.121726446 -0.036597982 0.05099069 -0.054422185
-0.5371211 0.05759505 -0.1446653 -0.4448111 -0.013713184 -0.35946456 0.23185433 -0.1844902
-0.10606848 0.07640803 -0.3331601 0.5576612 0.12511225 -0.29084694 0.045047328 -0.16184816
0.1133199 0.099066384 -0.020610644 -0.14250143 -0.25667852 -0.21517004 0.16981228 -0.15385345
-0.51687855 -0.11409921 -0.1693228 0.0064715226 0.31606442 -0.300656 0.26266173 0.096233375
0.099670246 -0.2025334 -0.14039004 0.021722808 -0.1482142 0.19596903 0.31043243 0.016754933
0.10121665 0.3682635 -0.14862506 -0.11244203 0.39892542 0.1429442 -0.2814865 -0.5033495
0.2965076 0.119544685 -0.49352893 0.089085236 -0.25431514 -0.36834067 -0.24017996 -0.19210699
-0.1997177 -0.07231636 -0.15859985 0.111088246 -0.010083158 0.2042034 -0.076460026 0.097449124
-0.22059469 0.04059252 0.18912898 0.16203663 -0.03187253 0.08200561 0.077568635 0.19760847
0.16924566 -0.32400206 0.043194737 -0.10418243 -0.020527411 -0.06192452 0.29669288 -0.009997065
-0.20035954 0.21669093 -0.13783154 -0.29903424 0.03262866 -0.07795598 -0.14382382 -0.0419104
0.08176517 -0.29007924 0.007552433 -0.04269295 0.093903 -0.16513352 -0.17023195 0.17607757
-0.23567687 -0.13026044 -0.38077426 0.10115932 -0.22910382 0.34877244 0.08437572 0.23743843
0.36372203 0.17490973 -0.1071855 0.036485415 0.18544485 -0.3125415 -0.025744563 0.015432006
-0.14665014 0.15835805 0.35951123 -0.068904065 0.15500301 0.14972623 -0.13592401 -0.13996537
-0.16809186 -0.11447294 0.3982399 -0.12357511 0.21397394 -0.09944167 -0.060973886 -0.20976049
-0.001137245 0.21832222 -0.041793637 -0.04276515 0.08988777 0.19228804 0.16969539 -0.45489147
-0.29276246 0.10186626 -0.18132389 0.389758 0.3277925 -0.107167155 -0.0485934 -0.2221959
-0.07399676 0.2044059 -0.4444224 0.4384575 -0.28911465 0.30281022 -0.12019801 -0.26080203
-0.29362988 0.16380501 -0.2559551 -0.3449939 0.08994843 -0.27813625 -0.1714009 0.035419207
-0.1283148 -0.30529183 -0.09765866 0.21454988 -0.2890393 -0.3126688 0.18917465 0.22967312
0.13899541 0.33211374 -0.08606604 -0.03738182 -0.096233584 0.37014005 -0.3970265 -0.45562577
0.06996557 -0.12379382 -0.23733048 -0.16951688 0.098168015 -0.1196149 -0.14355849 0.118392244
-0.06330995 -0.1188297 -0.111856185 0.29540175 -0.021214092 0.21387233 -0.0969444 0.13903761
-0.12776268 0.047438428 -0.072344415 0.42403984 -0.02253626 -0.019631822 -0.42335725 0.3159213
0.12754405 -0.014810617 0.0026500428 0.30224365 -0.10701602 -0.06092912 0.03933416 0.31691122
00000000: dd75 45be 0686 9dbc c0d7 a5bd 0bcb 493d
00000010: ac1a ab3e 45e2 193e f2d2 df3d e946 4fbc
00000020: df5f 833c 668a 5b3e 7ee2 1fbe a1ba f5bd
00000030: 9812 b1bc 0206 77be 6b1e 7bbe 64bb 963d
00000040: 0add f0bd 8965 94bc 86dc 4ebe be95 28be
00000050: 4374 afbc 6452 963c 0f1e 43be a26b bfbe
00000060: d33c be3d d88d 133f ea71 4a3c 22b7 99be
00000070: 480e 413d a007 edbd bbf9 93be db16 7cbe
00000080: 5d7e 333e 12ad 00be 245f 823e 0495 13bf
00000090: e971 153e 4358 ea3e d0c6 b6be bde0 acbd
000000a0: c3c8 783d bc71 24bf e5ca 6a3e 680e 4d3e
000000b0: b74b f93d c4e7 15bd 9ddb 503d cce9 5ebd
000000c0: c580 09bf cae8 6b3d 2423 14be 48be e3be
000000d0: 43ad 60bc bd0b b8be 396b 6d3e 00eb 3cbe
000000e0: 6e3a d9bd d07b 9c3d f693 aabe e2c2 0e3f
000000f0: 6d1d 003e e4e9 94be 8c83 383d 86bb 25be
00000100: 4414 e83d 51e3 ca3d a7d7 a8bc e5eb 11be
00000110: 5e6b 83be 8955 5cbe 45e3 2d3e c28b 1dbe
00000120: 2752 04bf d9ac e9bd f562 2dbe 110f d43b
00000130: 32d3 a13e 95ef 99be 997b 863e 0116 c53d
00000140: ea1f cc3d ea64 4fbe 68c2 0fbe 08f4 b13c
00000150: 77c5 17be 1bac 483e 00f1 9e3e a441 893c
00000160: ad4a cf3d 098d bc3e 2b31 18be 0248 e6bd
00000170: f43f cc3e f75f 123e 001f 90be 83db 00bf
00000180: d8cf 973e d8d3 f43d d3af fcbe 5272 b63d
00000190: 9835 82be 2697 bcbe bcf1 75be b2b7 44be
000001a0: cc82 4cbe 9a1a 94bd 0068 22be 3c82 e33d
000001b0: d433 25bc b21a 513e 1397 9cbd 6893 c73d
000001c0: 93e3 61be 5844 263d 07ab 413e eeec 253e
000001d0: c58c 02bd 8ff2 a73d 4edc 9e3d e059 4a3e
000001e0: bc4e 2d3e 99e3 a5be f7ec 303d 995d d5bd
000001f0: 1a29 a8bc 91a4 7dbd 21e8 973e bbca 23bc
00000200: 0d2b 4dbe 3ae4 5d3e b623 0dbe 041b 99be
00000210: a1a5 053d 63a7 9fbd 8d46 13be 3daa 2bbd
00000220: 7f74 a73d 4485 94be 667a f73b cede 2ebd
00000230: 3750 c03d c318 29be 4951 2ebe ae4d 343e
00000240: 4755 71be fe62 05be d8f4 c2be 9e2c cf3d
00000250: 319a 6abe 4d92 b23e 2dcd ac3d 0f23 733e
00000260: c639 ba3e 891b 333e 1284 dbbd bb71 153d
00000270: 41e5 3d3e 7105 a0be 43e6 d2bc 86d6 7c3c
00000280: 742b 16be 9d28 223e db11 b83e 931d 8dbd
00000290: 1cb9 1e3e d551 193e aa2f 0bbe 1553 0fbe
000002a0: 4620 2cbe ca70 eabd 1ae6 cb3e f314 fdbd
000002b0: fc1b 5b3e 13a8 cbbd c1bf 79bd 74cb 56be
000002c0: 9c0f 95ba dc8f 5f3e ce2f 2bbd 832a 2fbd
000002d0: 1417 b83d 28e7 443e a1c4 2d3e 89e7 e8be
000002e0: f6e4 95be 429f d03d f8ac 39be 5c8e c73e
000002f0: 6bd4 a73e 747a dbbd df09 47bd 5287 63be
00000300: 9d8b 97bd c84f 513e 558b e3be 807d e03e
00000310: d606 94be f109 9b3e 602a f6bd d887 85be
00000320: a856 96be 80bc 273e 8c0c 83be 0aa3 b0be
00000330: e236 b83d e067 8ebe b883 2fbe bb13 113d
00000340: f464 03be 364f 9cbe 4301 c8bd f7b2 5b3e
00000350: f6fc 93be 2016 a0be 00b7 413e 6e2f 6b3e
00000360: d054 0e3e d00a aa3e 6443 b0bd ae1d 19bd
00000370: 1d16 c5bd ff82 bd3e 0f47 cbbe c847 e9be
00000380: 1c4a 8f3d 9d87 fdbd c306 73be d595 2dbe
00000390: 500c c93d a8f8 f4bd ff00 13be a277 f23d
000003a0: a6a8 81bd fc5c f3bd db14 e5bd e63e 973e
000003b0: 2dc9 adbc 5901 5b3e c98a c6bd e05f 0e3e
000003c0: 38d4 02be cc4e 423d 4f29 94bd c01b d93e
000003d0: f69d b8bc ead2 a0bc 48c2 d8be 70c0 a13e
000003e0: e89a 023e 3ba8 72bc 57ac 2d3b aebf 9a3e
000003f0: 372b dbbd d090 79bd db1c 213d 3042 a23e

lstm.bias_ih f4 [512]
0.04538896 0.05994818 -0.056927755 -0.05558357 0.07322021 -0.003303717 0.0019408998 -0.06583455
0.050458502 0.027828585 -0.024159715 0.030063171 -0.013725934 -0.0797885 -0.06714137 -0.022041533
0.08293497 -0.00043088655 -0.023566242 -0.034463346 -0.04542704 -0.11722997 0.041374374 0.11640546
0.036415942 0.012067586 0.03443347 0.14701252 0.03252492 -0.03298245 -0.0790302 -0.029667407
-0.046668682 -0.010044719 0.17729078 -0.06398178 0.09540825 0.120028615 0.0333188 0.0312867
0.07578066 0.1714405 -0.041805595 -0.03257998 0.035565585 0.011199641 0.09655517 -0.009582122
-0.08491822 0.05755172 0.077363804 0.021073772 0.11474985 -0.01210282 0.050280374 0.09338391
-0.01821257 -0.046586834 -0.06290812 0.00018909566 0.08639918 0.050555706 0.01678849 0.026418034
0.042878963 -0.012718072 0.11005027 0.09387671 -0.054797634 0.09439458 0.11973089 -0.04607608
0.034426205 0.032005694 -0.03923688 0.050670084 -0.07667114 -0.031596683 -0.031271752 0.040902942
-0.033837218 -0.06905622 0.10042737 0.0010726274 -0.019707488 -0.08668251 -0.004913377 0.040519267
-0.07345522 0.1982779 0.06887678 0.08896051 -0.0051348205 -0.0143457465 0.05131089 0.12130518
0.0028759497 0.10513733 -0.041191228 0.017927915 -0.075009644 -0.010278037 -0.046853423 0.063206546
0.07495596 0.04788499 0.021806227 0.059580658 0.06307917 0.03078778 -0.05926516 0.06414236
-0.045667924 0.039716735 0.080023184 0.05150163 0.058104854 -0.10844621 0.12238037 0.06297591
0.1277178 0.019032154 -0.061934788 -0.045424223 0.13198826 -0.0055897683 -0.017639805 0.05328992
0.0035084765 -0.09699073 -0.08535582 0.003116935 0.006593912 -0.041798934 -0.044469904 0.07292577
-0.07659506 -0.12662494 -0.05020863 -0.016071968 -0.17022303 -0.022730734 0.04549992 -0.025332041
-0.0801159 -0.09948519 -0.006146985 -0.013188139 0.05524145 -0.07224292 -0.103480026 0.0003510831
0.08516645 -0.108573176 0.033358507 0.0027030425 -0.07403708 0.003995851 -0.03846747 -0.17513992
0.031033393 0.03907317 -0.07567084 0.037013803 -0.17861578 0.048196975 -0.081524156 0.023906155
-0.026820134 0.03392419 -0.105594754 0.11391815 -0.031960916 -0.0019341673 -0.12896125 -0.11092629
0.049694818 -0.029714974 0.030426461 -0.08847584 0.058775797 -0.17777005 -0.12649317 0.0144718485
-0.085107476 0.01722153 0.051947337 -0.05701327 0.023921054 -0.07330994 -0.008867741 0.030717783
-0.09248377 0.020570768 -0.061736945 -0.0079620015 0.0874857 -0.15292247 -0.12762322 -0.22150366
-0.14126773 -0.10929977 -0.13952242 -0.1576957 -0.0983607 0.08034882 -0.110499546 -0.049336333
-0.0967982 0.020845238 -0.02164681 -0.14660314 0.06040023 -0.09315487 0.061896607 -0.008076393
-0.073573485 -0.016177576 0.01573175 0.07216636 -0.122522205 0.10577273 0.056026015 -0.03611173
-0.04591936 0.109035 -0.15980653 -0.14339158 -0.052423052 0.00862987 -0.110237494 -0.12810335
-0.10787973 0.023512423 -0.14602925 0.011340565 -0.020099832 -0.0147298705 0.07502934 -0.035262022
-0.043551456 -0.10296073 -0.16646247 -0.03202132 -0.04171079 -0.10565633 -0.09650704 -0.007852717
0.052934058 0.027996242 -0.08838639 -0.09366758 -0.041751735 0.045648146 -0.14296092 -0.041382436
00000000: c6e9 393d 398c 753d 142d 69bd 99ab 63bd
00000010: 7af4 953d 2c83 58bb ca65 fe3a 44d4 86bd
00000020: 93ad 4e3d c6f8 e33c 98ea c5bc 0a47 f63c
00000030: bde2 60bc 2768 a3bd 6a81 89bd 7290 b4bc
00000040: cfd9 a93d 9de8 e1b9 fe0d c1bc 7029 0dbd
00000050: b411 3abd 4416 f0bd 2d78 293d fc65 ee3d
00000060: e228 153d 20b7 453c 1c0a 0d3d 738a 163e
00000070: da38 053d 9b18 07bd 96da a1bd 1009 f3bc
00000080: a927 3fbd 9b92 24bc b78b 353e e108 83bd
00000090: 6765 c33d 90d1 f53d 4b79 083d 7c26 003d
000000a0: e432 9b3d 198e 2f3e 583c 2bbd 9672 05bd
000000b0: 38ad 113d b37e 373c b8be c53d 55fe 1cbc
000000c0: 9be9 adbd 5abb 6b3d ea70 9e3d e7a2 ac3c
000000d0: f801 eb3d e84a 46bc cbf2 4d3d 1040 bf3d
000000e0: 8732 95bc d6d1 3ebd f9d5 80bd fb47 4639
000000f0: 0ef2 b03d 8013 4f3d 0488 893c a26a d83c
00000100: daa1 2f3d 765f 50bc 0962 e13d 6f42 c03d
00000110: 7c73 60bd f251 c13d 7835 f53d 46ba 3cbd
00000120: 7e02 0d3d 6718 033d dab6 20bd 6f8b 4f3d
00000130: c205 9dbd 866b 01bd cf16 00bd d889 273d
00000140: e598 0abd 596d 8dbd ddac cd3d 6797 8c3a
00000150: 9971 a1bc 9a86 b1bd 6500 a1bb 88f7 253d
00000160: b16f 96bd 5d09 4b3e 450f 8d3d ee30 b63d
00000170: ff41 a8bb 6c0a 6bbc 5e2b 523d da6e f83d
00000180: 6e7a 3c3b 3e52 d73d 22b8 28bd 90dd 923c
00000190: a89e 99bd 3665 28bc 60e9 3fbd 6f72 813d
000001a0: 8382 993d 0d23 443d f9a2 b23c d90a 743d
000001b0: a72f 813d a836 fc3c 06c0 72bd 125d 833d
000001c0: 4a0e 3bbd 04ae 223d 32e3 a33d 60f3 523d
000001d0: 5bff 6d3d 0c19 debd 8fa2 fa3d 84f9 803d
000001e0: 74c8 023e 52e9 9b3c 55af 7dbd c00e 3abd
000001f0: ee27 073e 602a b7bb 5a81 90bc 8846 5a3d
00000200: 78ee 653b 13a3 c6bd 08cf aebd 7e45 4c3b
00000210: be11 d83b 5c35 2bbd 1326 36bd 1b5a 953d
00000220: dfdd 9cbd f8a9 01be 90a7 4dbd 5ca9 83bc
00000230: f24e 2ebe ce35 babc 205e 3a3d 2485 cfbc
00000240: ce13 a4bd e4be cbbd a66c c9bb 1013 58bc
00000250: dc44 623d 19f4 93bd 56ed d3bd 9311 b839
00000260: bf6b ae3d 9d5b debd eea2 083d 8725 313b
00000270: c1a0 97bd a1ef 823b 1190 1dbd e157 33be
00000280: be39 fe3c 300b 203d 50f9 9abd c99b 173d
00000290: 0ee7 36be 316a 453d 23f6 a6bd d7d6 c33c
000002a0: e6b5 dbbc 17f4 0a3d 1042 d8bd eb4d e93d
000002b0: 73e9 02bd e383 fdba 6b0e 04be 532d e3bd
000002c0: cb8c 4b3d d16c f3bc ea40 f93c d232 b5bd
000002d0: e4be 703d 5a09 36be 6d87 01be 551b 6d3c
000002e0: d44c aebd 2b14 8d3c bbc6 543d bf86 69bd
000002f0: 16f6 c33c 8623 96bd 004a 11bc dca3 fb3c
00000300: 2168 bdbd 0784 a83c e1df 7cbd 0e73 02bc
00000310: b42b b33d b597 1cbe a9af 02be dbd1 62be
00000320: 7da8 10be 8fd8 dfbd f7de 0ebe fb7a 21be
00000330: 5671 c9bd ec8d a43d 964d e2bd e514 4abd
00000340: 223e c6bd a2c3 aa3c a754 b1bc 221f 16be
00000350: 3b66 773d fbc7 bebd 4c87 7d3d d952 04bc
00000360: b2ad 96bd d686 84bc dfdf 803c f5cb 933d
00000370: ecec fabd 609f d83d 897b 653d e5e9 13bd
00000380: f015 3cbd be4d df3d 53a4 23be 3ed5 12be
00000390: 8eb9 56bd 4c64 0d3c 32c4 e1bd 862d 03be
000003a0: 0cf0 dcbd 209d c03c b188 15be c7cd 393c
000003b0: 67a8 a4bc 8e55 71bc fca8 993d e96e 10bd
000003c0: 0363 32bd 13dd d2bd 2375 2abe ca28 03bd
000003d0: efd8 2abd 5962 d8bd 7ca5 c5bd afa8 00bc
000003e0: 62d1 583d 6058 e53c ec03 b5bd cad4 bfbd
000003f0: de03 2bbd 8df9 3a3d 5964 12be a180 29bd

lstm.bias_hh f4 [512]
0.03672014 -0.042148385 -0.06150751 0.08195698 -0.019878436 0.117156714 -0.0047836397 -0.02619471
-0.09163278 0.1002665 -0.0020476629 0.055710915 0.05659308 0.108574145 0.084901996 0.14886855
0.10079954 0.0019555588 0.12129109 -0.07358812 -0.071953155 -0.072701186 0.0685546 -0.05450333
0.099728554 -0.053526167 0.0676205 0.15669136 0.08475062 0.080821544 0.028466064 0.0042327773
-0.03285418 0.09442081 0.07177633 -0.051022768 0.057580594 0.031907845 0.12947597 -0.018813077
0.073806584 0.19697519 -0.047840014 -0.10410085 0.1276863 0.13475168 -0.051771376 0.010184216
-0.015378547 0.13504167 0.121033736 0.025583735 0.009854092 0.073446676 0.007863619 0.13096456
0.042430688 -0.080655724 -0.023445554 -0.037038963 -0.01081921 -0.005080651 0.11169546 0.044741213
0.1784367 -0.053645197 0.15271862 -0.024973981 0.082739174 0.11805409 0.027429378 0.10021035
-0.024607599 -0.014740826 -0.0063269716 -0.023867356 -0.030907445 -0.032892298 0.07159405 0.09489899
0.014826845 -0.0020772188 0.10149335 0.08249361 0.02580178 0.06657331 0.09105204 0.010150878
-0.046370298 0.18128498 -0.017955735 0.009208806 -0.008451926 0.04100575 0.14118968 0.09680398
0.004036166 0.025700202 -0.061839774 0.016796 -0.06364599 0.10331744 0.021629343 0.033923123
0.03571736 0.10866251 0.044059172 0.059102304 -0.009176255 0.024261622 0.03510145 -0.005559097
0.042873256 0.0014416493 0.02791876 0.10705505 0.082294054 0.0066125304 -0.006980115 -0.051117174
0.07907146 -0.017454285 -0.09704288 -0.0108261155 0.0291183 0.046805326 0.030842233 0.091823936
-0.18144979 -0.0069386824 0.020022402 -0.034994375 -0.019083925 -0.09765817 -0.019743267 0.05019449
0.006985823 -0.14683582 0.02414609 -0.08675239 -0.13617958 -0.1594897 0.095231816 -0.059673496
-0.06059912 0.018186847 -0.13500443 0.0052192793 -0.055761922 -0.01282774 -0.036372203 0.018358666
0.09254984 0.043401625 -0.11105186 -0.12876992 0.03377638 -0.15433988 0.047398683 -0.15439697
-0.105788775 0.050752506 0.042573787 0.043086257 -0.07202486 -0.059645515 0.058461096 -0.0060220826
-0.1508469 -0.059068143 -0.004496816 0.043773673 0.0047130035 -0.12823798 -0.1308273 -0.043972567
0.0039139497 0.045243192 -0.1396978 0.029954912 -0.051474348 -0.06878429 -0.13411476 0.02081534
0.067451626 0.0042448775 0.05268715 0.0604186 0.08035801 -0.050561253 0.00040410642 0.11014402
-0.0005686589 0.013465606 -0.0148226535 -0.026715452 0.07366419 -0.030996501 0.0061236387 -0.107601896
0.016361875 -0.016773894 -0.09983605 0.0042381263 0.044578396 0.02083565 -0.17333521 -0.015473175
-0.13084805 -0.12929212 0.016867856 -0.18857202 -0.07493514 0.054648247 -0.006533369 -0.114300966
0.01022499 -0.07344537 -0.14584008 -0.0034011628 -0.022007693 -0.038895473 -0.02675968 -0.0942452
-0.14592263 0.049630087 -0.13520487 -0.13325717 -0.12173849 -0.028798137 -0.013953553 -0.045427583
-0.03421405 0.103921995 -0.09683289 -0.02172471 -0.01801387 -0.09513686 -0.09402411 0.024566911
-0.09347541 -0.17376463 -0.10343694 -0.1298703 0.036254615 -0.13031329 -0.10572906 0.046978
0.02488554 -0.09372268 -0.042846106 0.039914828 -0.10723415 0.066060305 0.003639239 -0.026972134
00000000: dc67 163d c9a3 2cbd 4cef 7bbd 10d9 a73d
00000010: 1ad8 a2bc dcef ef3d 14c0 9cbb 4a96 d6bc
00000020: f8a9 bbbd 8658 cd3d 1532 06bb 2131 643d
00000030: 25ce 673d 1f5c de3d 19e1 ad3d ff70 183e
00000040: fd6f ce3d d528 003b 7767 f83d 5eb5 96bd
00000050: 2d5c 93bd 5ce4 94bd 5b66 8c3d e23e 5fbd
00000060: 7c3e cc3d 413e 5bbd 9e7c 8a3d b373 203e
00000070: bc91 ad3d c485 a53d aa31 e93c 1cb3 8a3b
00000080: 1b92 06bd b35f c13d 78ff 923d 40fd 50bd
00000090: a1d9 6b3d cdb1 023d 5995 043e e21d 9abc
000000a0: e827 973d ddb3 493e e4f3 43bd d432 d5bd
000000b0: 33c0 023e 58fc 093e 390e 54bd b3db 263c
000000c0: 4df6 7bbc 5d48 0a3e 89e0 f73d fb94 d13c
000000d0: 0f73 213c 366b 963d 69d6 003c 931b 063e
000000e0: cdcb 2d3d d42e a5bd e410 c0bc 2bb6 17bd
000000f0: 0e43 31bc 977b a6bb 97c0 e43d 9042 373d
00000100: 1cb8 363e 11bb 5bbd 4562 1c3e 3c96 ccbc
00000110: 2873 a93d 58c6 f13d 93b3 e03c 153b cd3d
00000120: e095 c9bc 8183 71bc 7c52 cfbb 7985 c3bc
00000130: 9c31 fdbc 13ba 06bd e79f 923d 675a c23d
00000140: 4cec 723c f321 08bb bfdb cf3d 69f2 a83d
00000150: 415e d33c 9657 883d 7e79 ba3d de4f 263c
00000160: c8ee 3dbd c5a2 393e e817 93bc 88e0 163c
00000170: f279 0abc a5f5 273d 0794 103e 2a41 c63d
00000180: d041 843b 3b89 d23c b44b 7dbd c497 893c
00000190: d458 82bd 1898 d33d 0530 b13c f9f2 0a3d
000001a0: 5e4c 123d 738a de3d 6477 343d 4215 723d
000001b0: 0158 16bc 4fc0 c63c 8ac6 0f3d 1629 b6bb
000001c0: de9b 2f3d b9f5 bc3a e2b5 e43c ae3f db3d
000001d0: c989 a83d edad d83b 73b9 e4bb 3e60 51bd
000001e0: 38f0 a13d 4afc 8ebc 6bbe c6bd 0560 31bc
000001f0: 8089 ee3c f1b6 3f3d daa8 fc3c 300e bc3d
00000200: f9cd 39be e35d e3bb 0506 a43c 4356 0fbd
00000210: e455 9cbc 0201 c8bd a2bc a1bc bd98 4d3d
00000220: 55e9 e43b 215c 16be 05ce c53c 3dab b1bd
00000230: a972 0bbe 4551 23be e608 c33d 326c 74bd
00000240: c836 78bd 95fc 943c 9a3e 0abe 7d06 ab3b
00000250: 9d66 64bd 712b 52bc 05fb 14bd ea64 963c
00000260: c58a bd3d e7c5 313d 286f e3bd 43dc 03be
00000270: 1a59 0a3d 460b 1ebe 1f25 423d 3d1a 1ebe
00000280: c9a7 d8bd dce1 4f3d da61 2e3d 377b 303d
00000290: c581 93bd db4e 74bd e774 6f3d e454 c5bb
000002a0: 9c77 1abe 70f1 71bd 075a 93bb 064c 333d
000002b0: 8a6f 9a3b d150 03be 97f7 05be 941c 34bd
000002c0: 9740 803b ed50 393d f10c 0fbe 0164 f53c
000002d0: c4d6 52bd c7de 8cbd 6155 09be ef84 aa3c
000002e0: 1424 8a3d 9d18 8b3b 7bce 573d 7e79 773d
000002f0: be92 a43d 5119 4fbd 3fde d339 3093 e13d
00000300: 0e12 15ba d89e 5c3c b7da 72bc 5dda dabc
00000310: 40dd 963d 60ec fdbc cea8 c83b 625e dcbd
00000320: 5709 863c 6869 89bc d876 ccbd fbdf 8a3b
00000330: d697 363d 86af aa3c c97e 31be 3383 7dbc
00000340: 08fd 05be 2765 04be 752e 8a3c 0619 41be
00000350: 9877 99bd d7d6 5f3d df15 d6bb a016 eabd
00000360: b786 273c 876a 96bd 1a57 15be 0be6 5ebb
00000370: 7a49 b4bc dc50 1fbd 1e37 dbbc a103 c1bd
00000380: be6c 15be eb48 4b3d 2573 0abe 9174 08be
00000390: 0852 f9bd 12ea ebbc 719d 64bc 4612 3abd
000003a0: 0824 0cbd 0ed5 d43d 5250 c6bd 05f8 b1bc
000003b0: d391 93bc 1dd7 c2bd b68f c0bd 8c40 c93c
000003c0: 0970 bfbd 5bef 31be bfd6 d3bd b8fc 04be
000003d0: b87f 143d d970 05be 7a88 d8bd 016c 403d
000003e0: c3dc cb3c adf1 bfbd 667f 2fbd bb7d 233d
000003f0: 949d dbbd a04a 873d 4c80 6e3b aaf4 dcbc
