evaluation_results/models/list_npi_2020_3_3-11_4_39-409-False-False-1.0-True-0.3-False-False-True-False.pth (torch_old, 973641 bytes, 16 tensors)

Mprog.weight f4 [5, 256]
000000 dd 61 22 bf 12 74 1b c0 96 56 7a bf fb 92 95 bf
       -0.6343058 -2.4289594 -0.9778837 -1.168548
000010 10 e9 a2 bf af 7e 81 3e 56 2b 99 3f 09 59 84 3f
       -1.2727375 0.25291964 1.196635 1.0339671
000020 77 1a 6a 3e 8b f2 0c 40 53 c7 d4 3e fa 3a a2 bf
       0.22861658 2.2023036 0.41558322 -1.2674248
000030 6e 87 45 bf 80 51 0f c0 eb 67 a5 3f af b0 5b bd
       -0.77159774 -2.2393494 1.2922338 -0.053635295
000040 42 fc f7 bc 8b 31 be bd d9 4d 75 bf a0 8f f4 3f
       -0.030271653 -0.09286793 -0.9582191 1.9106331
000050 c2 c4 fe 3e 03 fa 0d 40 c2 ce e8 be 9d 5e dc be
       0.4975949 2.2183845 -0.45470244 -0.43040934
000060 d1 26 a5 3e 7a 19 6b 3f 64 cf 95 be 62 12 9c 3b
       0.32256177 0.9183575 -0.2925979 0.0047629336
000070 79 c1 69 be b7 c1 18 40 8c 6e 6a be 70 f2 75 bf
       -0.2282771 2.3868234 -0.22893733 -0.96073055
000080 bc d1 d2 bf be 0b 07 3f b8 ec c8 3f 94 f5 ce 3f
       -1.6470256 0.5275229 1.5697241 1.6168694
000090 5e 2b a0 be 78 f8 15 3f 8a fb 82 be d0 90 d6 3c
       -0.31283087 0.5858226 -0.25582534 0.026192099
0000a0 63 1c c5 3f 96 bb b9 be 81 b8 aa be c1 f4 6c bf
       1.5399288 -0.3627593 -0.3334389 -0.92560965
0000b0 e1 a6 d8 3f e6 af 20 3f 23 f6 b0 bf 78 1e 0e 3f
       1.6925927 0.627684 -1.3825115 0.5551524
0000c0 93 a2 d1 3f ac 4a 20 bf bc af 7e bf 5e aa e0 be
       1.6377739 -0.6261394 -0.994869 -0.4387998
0000d0 23 25 cd 3f 45 34 51 bf 2a a2 a3 3f 76 72 89 be
       1.6026958 -0.8172038 1.2783864 -0.2684514
0000e0 e6 7e 02 40 8d 08 f0 be 5c 86 1e 3f f4 e2 17 c0
       2.0389953 -0.46881524 0.61923766 -2.3732271
0000f0 14 c3 96 be 33 18 34 be 17 0d 5d 3f cd 03 70 bf
       -0.29445708 -0.17587356 0.863481 -0.937558
000100 d8 db f5 3e bf d6 29 3f 8b 21 d6 bf 84 05 87 3e
       0.4801929 0.663433 -1.6728987 0.26371396
000110 43 c6 d1 3f 35 38 0a 3f b6 68 e7 3c ea f2 3b bd
       1.638863 0.53992015 0.028248172 -0.045885958
000120 cc c1 37 bf 9a ce 36 3f 0d 39 3a 3f 85 2d 8b bf
       -0.71780086 0.71409 0.727433 -1.0873266
000130 a2 95 06 3f 8d 6b 10 3f 1b 87 9e 3f 6b 4a 9e be
       0.5257207 0.5641411 1.2384981 -0.3091615
000140 f7 22 4b 3f cc 24 94 3f 74 0e 63 be dd 17 32 3f
       0.7935023 1.157373 -0.22173482 0.6956766
000150 e0 7f 38 bf a4 b1 89 bf 53 20 8c 3f 8c 23 a7 3e
       -0.7207012 -1.0757337 1.0947365 0.32644308
000160 c0 19 d1 3d aa a8 75 3f 15 fa 0d bf 0d ea 6f 3f
       0.102099895 0.95960486 -0.5545972 0.9371651
000170 40 9b 68 bf 21 ca 0c bf 24 73 7a 3e 8f 7f 8c bf
       -0.9086189 -0.54995924 0.24457985 -1.0976428
000180 4f 9e 74 be ee 5c a9 bf f7 7f ab be 81 62 2f be
       -0.23888515 -1.3231485 -0.33496067 -0.1712742
000190 f3 95 0d c0 ce f0 9f bc 79 88 7b bf f0 7b 02 3f
       -2.2122772 -0.019524004 -0.98255116 0.50970364
0001a0 fe cf af bf f1 b3 53 3f 91 ba a2 bf ff c3 9c 3e
       -1.3735349 0.82696444 -1.2713186 0.30618283
0001b0 fa 82 ee be b9 cd 06 bf 4f 72 38 bf de 2c a6 bd
       -0.46584302 -0.5265766 -0.7204942 -0.081140265
0001c0 f1 c9 ad 3e 32 2f 85 bf 21 bc af bf a1 74 ec 3e
       0.33943132 -1.0405028 -1.3729287 0.4618273
0001d0 aa b7 c5 3f 12 bc 46 3f 31 1e a2 3f 1f fc 4c 3f
       1.5446675 0.7763072 1.2665464 0.80072206
0001e0 b9 f9 a0 3e a8 1c 20 bf d0 18 a6 be 26 62 f3 bc
       0.31440523 -0.62543726 -0.32440805 -0.029709887
0001f0 77 6e 3e bf 30 c7 10 3f ed 33 b0 3f 6f e0 9a bf
       -0.74387306 0.56553936 1.3765846 -1.2099742
000200 c0 34 96 bf fb 1c 0c 3f d7 bb 0d 3f bb 9f 26 3d
       -1.1734848 0.5473172 0.55364746 0.040679675
000210 ec e4 b6 3e 0c 29 9d 3e 0a a3 37 be 42 b2 22 3f
       0.3572153 0.3069538 -0.17933288 0.6355325
000220 f5 21 87 be 91 20 ad be e7 ff 9b bf b9 d9 78 3d
       -0.26393095 -0.3381391 -1.218747 0.06075451
000230 db 0d b0 3e 79 bf db be 19 28 27 3f 8f 64 0f 3e
       0.3438557 -0.4291952 0.6529556 0.14003204
000240 73 62 68 3f 46 d3 62 3e 4c 30 8e 3e fe 2e 16 3f
       0.9077522 0.22150907 0.27771223 0.58665454
000250 2a 7b aa 3f 1a 06 25 3f 58 ed 31 3f 61 34 8f 3f
       1.3318837 0.64462435 0.6950278 1.118786
000260 c5 f3 9d be 1e 93 7b bf 67 16 f2 3e a8 83 3f bf
       -0.30850044 -0.9827136 0.47282717 -0.74810266
000270 97 ac bc bf bb fd ce 3c f2 49 3b 3f 3a 3a a0 bf
       -1.474017 0.025267472 0.73159707 -1.2517769
000280 12 55 a6 3f 0a 8a 6c bd 2e 67 a0 be 02 da cc 3f
       1.2994711 -0.05774883 -0.3132872 1.6004031
000290 3f 65 b7 3f 3a ce 1a c0 fb 1c 10 3e 70 f3 ff 3e
       1.4327773 -2.418837 0.14073555 0.49990416
0002a0 15 fb b7 bd b7 d8 7a bf 1a a1 13 40 fd 58 3b bf
       -0.08983437 -0.9798693 2.3067079 -0.7318266
0002b0 d9 f4 19 3e 41 09 30 bf e0 73 93 be bf f9 69 be
       0.15034808 -0.6876412 -0.28799343 -0.22849177
0002c0 79 6e 35 be 17 b5 51 bd cc 43 44 bf 9b 6c 11 bf
       -0.17717923 -0.05119809 -0.7666595 -0.56806344
0002d0 48 cf fb be 4f 2e b2 bf 76 cb d1 3e 97 d8 ec be
       -0.4918158 -1.3920382 0.4097554 -0.46258995
0002e0 11 52 8e bf df 4a 9d bf 2a c6 68 3f b3 22 a9 3e
       -1.1118795 -1.2288474 0.90927374 0.33034286
0002f0 e7 19 dc 3f 75 19 54 bf 5a 63 3c bf 0e c6 50 3f
       1.7195405 -0.82851344 -0.735891 0.8155221
000300 76 d7 75 bd 89 d5 af bf 44 29 93 be 0c 39 6a 3f
       -0.060019933 -1.3737041 -0.2874242 0.91493297
000310 11 f2 6e bf c1 f9 4a 3e 63 36 d1 3e bc 58 cf 3f
       -0.93338114 0.19821836 0.40861806 1.6198955
000320 0c 00 22 3e 4e 18 f4 bd dc e3 e2 bc dc 1e be bf
       0.1582033 -0.11918698 -0.027696542 -1.4853168
000330 69 92 a3 3f d0 84 96 be f7 c8 83 bf d3 ba 84 3f
       1.2779056 -0.29398203 -1.0295705 1.0369514
000340 81 4a 82 3e db 1e fd 3e 25 58 fd be c0 5f ef 3e
       0.25447467 0.49437603 -0.4948131 0.4675274
000350 3d 8b 59 3c 3b f1 45 be 47 73 cd bd 99 41 2c c0
       0.013277826 -0.19330303 -0.10031753 -2.6915038
000360 93 30 30 c0 a5 69 ef 3b 87 e7 81 bf 26 f0 91 bf
       -2.7529647 0.007306295 -1.0148782 -1.1401412
000370 d1 1b 68 bd 65 44 cd be 74 8b 35 3f 76 b6 18 bf
       -0.056667153 -0.40091243 0.70915914 -0.59653413
000380 c4 d3 76 bf 32 34 84 be 5a 85 27 be 03 b1 65 bd
       -0.9641688 -0.25821072 -0.16359463 -0.056077015
000390 76 d7 0e c0 95 27 17 bf 34 e4 81 bf cb 46 08 bf
       -2.2319007 -0.5904477 -1.0147767 -0.5323302
0003a0 ca f7 77 3e 70 e5 ba be cd 84 9a bf 58 bd 80 be
       0.24215618 -0.36503172 -1.2071778 -0.25144458
0003b0 59 d6 64 bf 44 4d 52 3f b9 67 e9 bf 74 b5 5c 3f
       -0.8938957 0.8214915 -1.8234779 0.86214375
0003c0 7a d2 91 3e 78 ab 0a 3f 60 c8 7f be af a5 3a 3e
       0.28480893 0.5416789 -0.24978781 0.18227266
0003d0 35 72 14 bf 52 87 36 bf e9 70 b5 bc 96 1c 32 40
       -0.57986766 -0.7130023 -0.022148566 2.7829947
0003e0 c5 c9 03 be 87 e6 d4 bf c2 a8 a6 3e 97 a3 fe be
       -0.12869938 -1.6632851 0.32550627 -0.49734184
0003f0 4d 5e 15 bf cb f1 9d bf d3 8d 63 3e b2 9c 49 3f
       -0.58347017 -1.2339414 0.2222207 0.78754723

encoder.l1.weight f4 [100, 64]
000000 b1 45 c6 3c 20 d5 76 3e 67 3e 69 3d 36 b8 f0 bd
       0.024203153 0.24104738 0.056944277 -0.117538854
000010 39 f8 14 3e 88 8a 81 bc a9 67 94 3c c6 93 de bb
       0.14547814 -0.015813127 0.018115835 -0.0067925183
000020 f4 e7 06 be 66 6c 18 bd ee 5a 02 3e 7f e3 20 3e
       -0.1317442 -0.03721275 0.1273 0.15711783
000030 a6 ab 8f 3e 6f db a6 bd ca 2f 86 bd e5 90 92 3d
       0.28060645 -0.081473224 -0.06552084 0.07156543
000040 63 f3 6d 3d cb 64 ce 3c fb 02 a4 3d f1 9f 6d be
       0.05809344 0.025194546 0.08008381 -0.23205544
000050 65 b4 6e be ee 32 22 be a2 d7 71 3c 4a 6f 57 bd
       -0.23311003 -0.1583974 0.0147608835 -0.052596368
000060 44 17 2b 3d de 1d d0 ba ae 9c d3 3d 0e df 41 3e
       0.041770235 -0.0015878042 0.10332619 0.18932745
000070 1c fa 2a 3e 05 11 f1 3d b0 8d 51 3d 26 8e 39 be
       0.16696972 0.11770824 0.051160514 -0.18120632
000080 f1 d5 d7 bc 4a 42 2a 3e 68 bf ee bd fa 5c 2e 3d
       -0.026347132 0.1662685 -0.116576016 0.042569138
000090 68 cd 92 3d 31 67 61 3d 3a f8 01 3e 2d 5a a8 bd
       0.071680844 0.05503005 0.12692347 -0.08220325
0000a0 bd 88 49 3d f7 64 40 be 32 39 1e 3d 04 6d 53 3d
       0.04920267 -0.18788515 0.038628764 0.051617637
0000b0 d8 20 fd 3c b4 85 5a 3e a3 6d c5 3d 0b 34 cd 3d
       0.03089945 0.21340066 0.09640052 0.10019692
0000c0 af f9 c2 3c 35 75 cf bd 28 e6 b0 3c db fb 67 bc
       0.023800699 -0.10129777 0.021594122 -0.014159168
0000d0 05 dc 9c bd 76 0e e4 bd 4f c0 37 3d 54 8f a2 3c
       -0.07659153 -0.11135571 0.044861134 0.019843735
0000e0 35 52 91 3e 0e c1 4e 3d c5 ec 9f 3e 5d 51 80 3e
       0.2838303 0.05047708 0.31235328 0.25062075
0000f0 1b e4 91 3b 70 69 e6 3d 1d 66 c6 bc 1c f5 79 3c
       0.004452241 0.11250579 -0.024218613 0.015256193
000100 07 8a 1e be 7e 34 4b be 69 3e 9a bd 42 dd 24 3d
       -0.15482341 -0.19844243 -0.07531435 0.04025007
000110 5f da a4 bd d4 74 c3 3c 96 04 67 3e a0 45 f4 3d
       -0.080494635 0.023859419 0.22560343 0.119273424
000120 1d 8c f6 3d d6 f6 79 3e 32 2e 0f be 4c 7d 12 3e
       0.12038443 0.24410567 -0.13982466 0.1430561
000130 23 b7 83 3d af dd 01 3e 90 08 c3 3d c7 f5 9a 3d
       0.06431415 0.12682222 0.095231175 0.075664096
000140 07 0b 09 3d 13 e2 68 3c c1 bc 16 bd 4e 71 2a bd
       0.033457782 0.014214057 -0.036801104 -0.041611962
000150 fa b2 bc 3d 4e 0a 1b 3e 3a bb 32 3e 2d 74 98 3d
       0.092138246 0.1514065 0.17454234 0.07444034
000160 0d 94 bb 3d f4 c4 a6 3d 7d c5 55 bd 5e ff 5b bc
       0.09159098 0.081430346 -0.052190293 -0.0134275835
000170 de 53 1d be 79 c5 f7 bd c2 56 32 3d 7c 4d 6e bc
       -0.15364024 -0.12098212 0.04353977 -0.014544841
000180 d0 42 1b 3e f0 7a 19 3d 0c bd 47 bd 5b d2 50 bb
       0.15162206 0.037470758 -0.048764274 -0.0031863663
000190 e2 4f 88 3d fb 0f 2a be 7d 77 31 3d 31 04 84 3d
       0.066558614 -0.16607659 0.043326844 0.06446112
0001a0 de bb 26 3e 11 50 9d bd 37 de 31 3d a6 50 8d 3d
       0.16282603 -0.07681287 0.04342481 0.06900148
0001b0 7e a7 30 3e aa 40 68 bb c0 66 a7 bd a7 7e 39 ba
       0.17251393 -0.0035438933 -0.08173895 -0.00070760626
0001c0 ac 4c 99 3a 7b 96 1c 3d 6b 60 c5 3d 2a 9f 8d bd
       0.0011695824 0.038229447 0.09637531 -0.06915124
0001d0 2d d6 1c bc 56 0a 38 bd ca 5f 27 3c f7 88 0b 3d
       -0.009572548 -0.044931732 0.010215709 0.034066167
0001e0 86 e0 6a bd 97 8b 14 3d 2d 23 b0 be 59 a9 21 be
       -0.05734303 0.036265936 -0.34401837 -0.15787257
0001f0 4c 70 95 3d cf ff 54 3d 05 12 48 3e 38 77 9b 3d
       0.072968096 0.05200177 0.19538124 0.075910985
000200 14 43 53 be 84 bd 01 3e 50 fd a1 bc 2c 71 a8 3d
       -0.20631057 0.1266995 -0.01977411 0.08224711
000210 c6 0b a8 3d 1a 76 a1 3d ac 48 bd 3c 6b 1f ae ba
       0.082053706 0.07883854 0.023105942 -0.001328451
000220 5e 28 46 bd 24 95 9c bd af 76 ff be 21 fe 01 3e
       -0.04837834 -0.07645634 -0.49895236 0.12694599
000230 da 25 c2 bd 4a 05 dc bd c7 7b 66 3d 6a 63 e4 bc
       -0.09479876 -0.10743196 0.056270387 -0.027879436
000240 9e 49 a0 3d 2d d5 4f bd 78 84 d9 3d 55 2f 0c 3e
       0.07826541 -0.05074041 0.106209695 0.1368993
000250 51 65 86 bd 05 2d b4 bd fb 8f 3d be 55 a6 17 bb
       -0.06562293 -0.08797649 -0.18511955 -0.0023139913
000260 8b 43 25 3d 68 d0 b6 bc 10 4d bf 3d 9c ec f8 3c
       0.040347617 -0.022316173 0.093408704 0.030386262
000270 8a 8a 49 bc 8f e9 cc 3d 40 3f 03 3e d6 fd 3c be
       -0.012301097 0.10005485 0.12817097 -0.18456206
000280 e7 7e 83 3d 3e ae aa bd 82 23 f9 3d b5 9a 17 bd
       0.06420689 -0.08334015 0.12164976 -0.037012774
000290 f4 10 21 bd 22 8a 50 3e 94 10 bb 3c c7 42 9c 3c
       -0.03932281 0.20365193 0.022835054 0.01907481
0002a0 80 f6 8c 3d dd b1 d6 3d 93 85 82 3e 28 3a 7e bd
       0.06882954 0.104831435 0.25492534 -0.06206718
0002b0 38 ca 21 3e a2 1d 8c bd 98 a2 44 be 0b a9 f4 3d
       0.15799797 -0.068415895 -0.1920265 0.11946305
0002c0 e5 d8 83 3d 62 34 ed bd 47 b6 46 be 31 1a 11 3e
       0.06437854 -0.11582257 -0.19405471 0.14170147
0002d0 a7 ac 8d bd ec 41 80 3d d4 20 b8 bd 79 ca 90 3d
       -0.069176964 0.062625736 -0.089906365 0.070698686
0002e0 d6 30 91 3e e7 87 5f 3e ad 18 b9 3d cf 3c e8 3e
       0.2835757 0.21829186 0.0903791 0.45358893
0002f0 db d9 b7 3c e6 1c 36 bd 93 b3 52 3c 88 5c 9a bd
       0.022442749 -0.044461153 0.012860197 -0.0753718
000300 ab 64 d9 3d 73 f0 2f be ae cb 11 be b5 24 29 be
       0.10614904 -0.17181568 -0.14237854 -0.16517909
000310 e5 68 34 bd f5 6c c4 bd 8a 84 85 3d 8a 81 82 3d
       -0.044045348 -0.095910944 0.065194204 0.06372364
000320 dc 69 42 3d ec 27 8d bd 8d e3 17 bd 48 78 c0 bd
       0.047464237 -0.0689238 -0.037082244 -0.09397942
000330 a9 88 8e bd 3f 94 8d 3e 94 59 ae 3d e7 6a d8 3d
       -0.069596596 0.27652165 0.085131794 0.10567265
000340 5c ec c8 3c a1 4c 23 3e 63 59 f4 bd 84 6a 88 bd
       0.024526767 0.159472 -0.11931112 -0.06660941
000350 6e ff d2 3d 1d d4 8a bd 50 1d de bd b1 dc 88 bb
       0.103026256 -0.06778739 -0.10845435 -0.004176699
000360 43 58 d1 3d a7 d6 14 3d 71 1d 27 bd 25 c0 80 3d
       0.10221913 0.03633752 -0.040799562 0.06286649
000370 2e 94 1a 3e 6f af ea 3d 4f 74 38 3d ac ac 71 bc
       0.15095589 0.114592426 0.045032796 -0.014750641
000380 82 39 17 3e 77 8e ba 3d f0 44 6c bc ac a7 c3 3d
       0.14768031 0.09109204 -0.014420733 0.09553465
000390 35 98 28 3d c7 57 2b bd e7 fc 12 3e 62 37 db 3d
       0.04116078 -0.041831758 0.14354287 0.10703923
0003a0 06 bb 24 bd 44 2a bd bd ae 7a ae bd d2 96 62 3d
       -0.040217422 -0.09236577 -0.08519493 0.055319615
0003b0 2c 5c 6e 3c f5 72 05 3e 73 b8 f2 bd d7 2c d3 3d
       0.014548343 0.13032134 -0.11851587 0.10311287
0003c0 86 f6 2b bb 5d f9 cf bc 74 53 8b 3d a4 4d 1c 3d
       -0.0026239469 -0.02538746 0.06803027 0.03815998
0003d0 d2 65 24 be b9 63 38 3e 22 78 a9 3e 38 8c 4c be
       -0.16054466 0.18006791 0.33099467 -0.19975364
0003e0 ce aa db 3d c3 d4 92 bd b7 2e 2a be c7 be 79 be
       0.10725938 -0.07169487 -0.16619383 -0.24389182
0003f0 b1 30 ae 3d b9 2f 62 bb 87 02 30 bd 9d 3f 0e 3d
       0.08505381 -0.0034513308 -0.04297116 0.034728635

encoder.l1.bias f4 [100]
000000 86 1a 8c bd 8b d2 45 3e bf 43 d7 3d c2 9d 24 3d
       -0.068409964 0.19318597 0.105109684 0.040189512
000010 0d 86 cd bc 8c 45 87 3c 26 11 66 3d bd 81 c7 bb
       -0.025088334 0.016512655 0.056168698 -0.006088464
000020 a4 f3 e0 bd a2 c1 aa bc 63 32 aa bd 91 b7 77 3d
       -0.10983971 -0.020844284 -0.08310392 0.060477797
000030 63 01 c1 ba ac 5b 58 3c 7a bb ac 3c b0 75 6d bc
       -0.0014725145 0.01320545 0.02108549 -0.014493391
000040 c0 56 b8 3d 8a c8 50 3e 7f ad aa bd e2 45 5f bd
       0.09000921 0.20389 -0.08333873 -0.054510005
000050 52 ee b3 3d 41 ab f7 3d f2 6e 96 3d b1 dd 22 bd
       0.0878569 0.12093211 0.0734538 -0.039762203
000060 00 25 18 bd 16 f2 de 3d c9 d2 de bc 6f 9d 6a 3c
       -0.03714466 0.10886018 -0.02720012 0.014319762
000070 1d 51 99 3d 8f be 2e bd ee a0 93 3d aa a2 ac 3d
       0.07486174 -0.0426622 0.07208429 0.08429463
000080 0f cf a0 bc cc c2 0c bd 79 a2 c2 bc bf 92 83 3c
       -0.019629983 -0.03436546 -0.023759114 0.016061185
000090 8c d0 25 3d 2b 17 85 bd 32 ed f9 3c c2 97 03 3e
       0.04048209 -0.064985596 0.030508611 0.1285086
0000a0 d7 d2 99 3d 63 3f ad 3d 74 7b ca bd 94 33 c4 3b
       0.07510918 0.08459356 -0.09886828 0.005987594
0000b0 a1 0c 7b bc f4 1a 43 bd 13 af 1a 3c 01 55 9d bd
       -0.015322835 -0.047633126 0.009441155 -0.07682229
0000c0 cc 47 70 bd 30 c7 88 bd 1c 75 d4 bd 4e 29 b2 bd
       -0.05866222 -0.06678617 -0.10373899 -0.086992845
0000d0 39 e3 43 bc 34 7a 06 bc 97 d3 31 3e 75 e5 50 bd
       -0.01195603 -0.008207846 0.17365871 -0.051000077
0000e0 61 52 7a bd 24 38 b6 3d 19 2b 95 3d ac 22 57 3d
       -0.06111372 0.08897427 0.07283611 0.0525233
0000f0 dd 31 96 bd 46 16 0b 3d 76 13 6c bd 4a 60 a2 bd
       -0.073337294 0.03395679 -0.057635747 -0.07928522
000100 f6 3e ea 3b e8 ce 41 3d 3c 11 9e 3d ef b8 3e bd
       0.007148619 0.04731646 0.07718131 -0.046563085
000110 89 03 97 bd 06 88 b3 3d 80 d0 b0 bd de 15 ac 3d
       -0.07373721 0.08766179 -0.08633518 0.08402608
000120 dc cf 04 bd cb b5 8d 3c 91 27 77 bd 80 9b bb 3d
       -0.032424793 0.0172986 -0.060340468 0.09160519
000130 49 b5 cc 3d ca 5a 95 3d 28 bd 94 bd 97 dc 2b 3e
       0.09995515 0.07292707 -0.07262641 0.16783367
000140 64 9c c7 3d 05 17 59 bd c0 e2 ec bc 8e d4 e4 bc
       0.09746626 -0.05300047 -0.028916717 -0.027933385
000150 cc 09 78 bc 13 fd 27 3e c0 50 ad 3d 22 34 49 3c
       -0.0151390545 0.16405134 0.084626675 0.012280496
000160 43 7a bb 3d 0d b6 a8 bd fe 41 f5 3d e5 10 dd bc
       0.09154179 -0.082378484 0.11975478 -0.026985595
000170 64 2a a6 bd 74 b2 a3 3d 7b e6 62 3d a4 46 0a bd
       -0.08113554 0.079930216 0.055395585 -0.033758774
000180 5a 49 ae 3d 6e 21 a3 3d 1d 01 f0 3b 9f 0c d0 3d
       0.085100845 0.079653606 0.0073243515 0.10158657

encoder.l2.weight f4 [32, 100]
000000 bc 03 55 3d 10 f4 bc ba 25 0c 96 3e 23 21 a5 be
       0.052005515 -0.0014415998 0.2930614 -0.32251844
000010 7f 95 2e be c0 71 99 3d 01 23 3f be 51 e5 b8 be
       -0.17049216 0.07492399 -0.18665697 -0.36112455
000020 0c 70 37 3e fe b9 d8 3d 44 12 3a be de 34 7a 3d
       0.17913836 0.1058235 -0.1817103 0.061085574
000030 ac 93 63 3d 82 85 28 3e b9 18 55 3e ab 23 f2 3e
       0.055560753 0.16457179 0.20810212 0.47292838
000040 d3 78 e0 3d f9 6f 04 bd 87 18 12 3e c3 95 92 be
       0.109605454 -0.032333348 0.14267169 -0.28629884
000050 bf 05 3b be d4 fa 92 3e c0 f5 23 3d 72 84 9b be
       -0.1826391 0.28706992 0.040029287 -0.30374485
000060 f0 fb 87 be 7d 31 62 bc 88 5a ff bc 48 60 ae be
       -0.265594 -0.013805744 -0.031171098 -0.34057832
000070 7c 9a e3 bb 65 2c c3 be a8 7f e5 bd e7 3c d7 bd
       -0.006945906 -0.38119808 -0.11205989 -0.10509663
000080 04 cf 3c 3e 4d b5 46 be be 66 17 3e 35 a9 a0 3d
       0.18438345 -0.19405098 0.14785287 0.07844774
000090 49 89 ac 3e ec ec 8b 3d f6 7a 1b be 77 f7 e0 3e
       0.3369849 0.06832299 -0.15183625 0.439388
0000a0 8b 9f 22 be 4f b7 c7 bd c8 88 98 bc 93 89 1d be
       -0.15881173 -0.0975176 -0.01861991 -0.15384512
0000b0 f6 af c0 be 6f ab 6e be 1a 8d 8b be 6e b7 04 be
       -0.37634248 -0.23307584 -0.2725609 -0.12960598
0000c0 c1 3a 96 be 6d 7a 77 be cc 6b f8 bd 39 88 65 be
       -0.293417 -0.24167795 -0.121299356 -0.22415246
0000d0 28 81 54 3b 1b 22 75 bc a3 6d 8b 3d b1 88 8e bd
       0.0032425616 -0.014961745 0.06808021 -0.069596656
0000e0 29 fb 14 3e 99 28 6e bc 13 64 02 bf 2e a0 b8 bd
       0.14548935 -0.014536046 -0.5093395 -0.09014927
0000f0 49 b3 a8 bb a1 28 31 3e e5 e2 c4 be 96 64 2a be
       -0.0051483256 0.17300655 -0.38454357 -0.16639933
000100 f2 7d 9e be 83 99 38 3e c5 1f 0a 3e a6 54 16 3e
       -0.30955464 0.1802731 0.13488682 0.14680728
000110 cb 26 5c bd 73 24 87 3e 72 0c e7 bd 02 7e 99 3d
       -0.053747933 0.26394996 -0.11281671 0.07494737
000120 4b 86 8a 3d 1b d1 6c be a2 bf 07 be 16 99 98 3e
       0.067638956 -0.23126642 -0.13256696 0.29804295
000130 99 84 c9 3c 89 22 af be 07 f5 37 bd 86 c3 59 3e
       0.02459936 -0.34206036 -0.04491141 0.21265993
000140 bb 33 68 3e 29 5e 20 be 9d 59 08 3e cc f4 a9 bc
       0.22675984 -0.15660919 0.13315435 -0.020746611
000150 c0 1d 43 be 13 59 6f bd bd b1 03 be fb 11 82 be
       -0.19054317 -0.058434557 -0.1286077 -0.25404343
000160 51 52 37 be 0f 67 89 3e 1a 9b 02 3e 0c 36 30 be
       -0.17902495 0.2683644 0.12754479 -0.17208117
000170 87 7f 50 be 53 fa a3 3e e7 11 8c 3e fa ea 83 be
       -0.20361148 0.3202692 0.27357408 -0.2576521
000180 39 37 4b be 3e ed 02 be 9d fc b0 bd 99 06 14 3f
       -0.19845285 -0.12785813 -0.08641932 0.5782257
000190 8b de 59 be 14 54 02 3e 5b d2 b4 be cb 5a b7 3e
       -0.212763 0.12727386 -0.35316738 0.35811457
0001a0 9b ed 05 3d 99 4e 9a bc b3 59 b7 bd 29 da b0 3e
       0.0326973 -0.018836306 -0.08952656 0.34541443
0001b0 7f 7c 8f be 87 d8 74 be e9 93 1c be dc 6e a8 be
       -0.2802467 -0.23910724 -0.15290798 -0.3289708
0001c0 a5 2a 0d be b1 7f 17 be b0 8a 0e bf c7 ba 37 be
       -0.13785799 -0.14794804 -0.5568037 -0.17942344
0001d0 a9 f4 19 be eb 6e 11 3e 57 b8 3b be a9 01 44 3e
       -0.15034737 0.14202468 -0.18332039 0.19141258
0001e0 f1 a6 ef 3d 00 c3 43 be f9 a1 ad 3d 06 c4 f2 3d
       0.117017634 -0.19117355 0.084781595 0.11853795
0001f0 b7 01 b2 3e e1 80 98 3c 65 a4 57 bd 30 e2 ed 3d
       0.34766933 0.018616142 -0.052647013 0.116154075
000200 bd 66 2f bd f8 b6 92 3e 10 bd 13 3e c1 7e 43 3e
       -0.04282259 0.2865522 0.1442759 0.19091322
000210 46 e5 a4 bd 74 ed 28 3e 6e c7 7b be 2c 91 d4 3d
       -0.08051543 0.16496831 -0.24587795 0.10379252
000220 86 5c b3 be 47 43 a9 3b e7 0d 16 3e c0 a7 fe bd
       -0.35031527 0.005165491 0.14653741 -0.124343395
000230 85 36 93 3e 2e 73 2b 3e e1 0b 0d 3e 74 0c c5 bc
       0.28752533 0.16743156 0.13774063 -0.02405379
000240 f6 fa e1 bc 11 4f 08 3e 7c 36 73 3e b9 d5 3a be
       -0.027585488 0.13311411 0.23751253 -0.18245591
000250 0e 7e b0 3b 7d 42 d8 3d 78 3c e8 bb c6 5e f8 3d
       0.0053861206 0.10559557 -0.0070872866 0.121274516
000260 53 3c 37 3e df 3c 04 bd 8a 88 cb bc b6 18 8d be
       0.17894106 -0.032284614 -0.02484538 -0.27557915
000270 95 76 5d 3c e7 21 9b 3e 86 f6 48 3e 28 48 78 3e
       0.013517042 0.30299303 0.19625291 0.24246275
000280 3b 41 79 bd 08 86 65 be 63 01 b3 3d 1d c5 1d 3e
       -0.060853224 -0.2241441 0.08740499 0.15407224
000290 16 72 bd 3d 96 7a 7b be ec ce 73 be 6a c8 a5 bd
       0.09250276 -0.24558482 -0.23809403 -0.080948666
0002a0 4f 1c ec bd 30 18 7a be e2 40 a1 bd 2a 84 3b 3d
       -0.11528837 -0.2442329 -0.078737035 0.04578034
0002b0 42 04 cf 3d 00 2a 81 3e d6 2c ab 3d bf 70 40 be
       0.10108234 0.25227356 0.08358161 -0.18793009
0002c0 d1 af 19 3e 82 81 b9 3e 0b cf 0e be 88 22 e7 bd
       0.15008475 0.3623162 -0.13946168 -0.11285883
0002d0 fc 5c 8b 3d 2d cb 27 3e ae 3b bb bd ad b0 6d 39
       0.06804845 0.16386099 -0.09142242 0.00022667898
0002e0 1f 23 21 3d b1 9c 45 3e 47 63 4f 3e f9 ba 37 be
       0.039340135 0.19298054 0.20252715 -0.17942418
0002f0 43 2b 8c 3e 07 fe 5e bd ea fc 00 be 9b 5d 8d 3d
       0.27376756 -0.054441478 -0.12596479 0.069026195
000300 01 e9 35 3e c3 4a 3a be 78 ba 71 be 87 89 2d be
       0.17764665 -0.18192582 -0.23606288 -0.16946994
000310 bc d5 86 3e b2 42 65 3e f7 c2 d5 3d 51 0a a8 be
       0.2633494 0.22388723 0.10437577 -0.3282037
000320 0b f1 e6 3d 69 0c 3a be fa e3 bf 3c db 11 90 3e
       0.11276444 -0.18168797 0.023424137 0.28138623
000330 26 ac 22 3e 7c 86 5b 3e fe fe d9 3e 62 81 00 3f
       0.15885982 0.2143802 0.42577356 0.5019742
000340 6e 0b b4 3d bb 52 09 3d d4 bc d3 3e 0f 42 aa ba
       0.087912425 0.033526164 0.41355002 -0.0012989658
000350 97 ff 15 be af f7 59 3e cd ac c8 be b9 08 33 be
       -0.14648281 0.2128589 -0.39194337 -0.17483796
000360 11 6f 66 be c5 36 3a be 97 f1 44 bd e4 1d 09 3e
       -0.22503306 -0.18184955 -0.04808196 0.13390309
000370 65 8b 9d 3d 14 4b d0 be 92 b2 72 3e ae 98 ab 3e
       0.07692603 -0.4068228 0.23700932 0.33514923
000380 be d1 11 bd f9 66 98 bd 9d 28 88 3d 4e 20 67 3e
       -0.035600416 -0.074415155 0.06648371 0.22570917
000390 8d 15 e9 bb 3a e3 00 be d1 ab d3 bd 74 38 33 bd
       -0.0071131648 -0.1258668 -0.10335506 -0.04375501
0003a0 da 75 7a 3d 0c d0 9d 3e 19 a9 59 be c4 0c 7f 3e
       0.06114755 0.3082279 -0.21255912 0.24907213
0003b0 85 b3 31 be ce e9 c0 bd a6 02 61 bb f7 75 5d be
       -0.17353638 -0.09419595 -0.0034333854 -0.21627031
0003c0 d7 5c 96 3e 30 81 ea 3e a4 74 4c be 2b 6b de 3c
       0.29367706 0.45801687 -0.1996637 0.027150711
0003d0 8f 0b 2e 3e f3 e6 70 3d 3f 52 3d 3e 2e 7d 63 3e
       0.16996597 0.058814 0.18488406 0.22215721
0003e0 2c 33 c4 3d 52 58 68 3e 65 0e 07 3f ad 2b 67 3e
       0.09580073 0.22689942 0.5275634 0.22575255
0003f0 15 89 2c 3e 1c 70 a9 3e 3c 57 6c be 31 fd 22 3e
       0.16849168 0.33093345 -0.23080152 0.15916897

encoder.l2.bias f4 [32]
000000 59 e3 b4 bd 1d 66 7b 3d 0a cb ff ba c1 65 fd bd
       -0.088324256 0.06137668 -0.0019515466 -0.12372924
000010 17 b6 d4 bc 6d c3 84 3c 66 23 9d 39 e2 9f 5f 3d
       -0.025965733 0.016206468 0.00029971747 0.054595836
000020 e3 d2 56 bd 95 39 76 3b 41 96 22 bd e6 ba ed 3d
       -0.05244721 0.0037570943 -0.039694075 0.11607914
000030 59 8f 2a 3d 04 85 37 3d b9 27 b6 3c b6 c3 c9 3d
       0.041640613 0.044804588 0.022235738 0.09851782
000040 cb c4 06 be 58 4d 3e 3e cf f8 25 bc 99 66 d5 bd
       -0.13161008 0.18584192 -0.010130121 -0.104199596
000050 7d f1 58 bd d1 b6 02 3e 99 27 9e 3c 2e 6d 94 3d
       -0.052964676 0.12765051 0.019305991 0.07247387
000060 17 5d 9f bb f5 b0 e0 3d 6f 63 e8 bb cf c1 84 bc
       -0.004863392 0.10971252 -0.0070919315 -0.016205696
000070 87 ad 1b be 17 d2 cc 3d c1 bd af 3c 1d 51 ee 3d
       -0.15202914 0.10001009 0.021452786 0.11636565

lstm.weight_ih f4 [512, 288]
000000 90 be 1c 3e ac fb 09 be c7 ce 3a bd 74 37 a1 3d
       0.15307069 -0.13474911 -0.045607354 0.07871905
000010 f5 bf 1a bd f2 c1 92 be c5 76 a9 3e dc 2c 8b 3e
       -0.03778072 -0.28663594 0.33098426 0.27182662
000020 00 c7 85 bc 42 b0 a4 bd 28 7d 5e 3e 5d 3f 13 3d
       -0.016330242 -0.08041431 0.21727431 0.0359491
000030 16 cb cb bd e5 b4 d6 bd 34 ac 31 3e b1 36 bc bd
       -0.09950845 -0.10483722 0.17350847 -0.09190119
000040 8d a4 34 bd f8 66 28 3e 44 cc 15 3e 27 f6 2d 3e
       -0.04410224 0.1644553 0.14628702 0.16988431
000050 28 80 f6 bc 28 4e ca be 8a c2 e0 bd 44 74 f4 3d
       -0.030090407 -0.39512753 -0.109746054 0.119362384
000060 41 9d 23 bd de 9f 95 bd 8d 1f f5 3c 5a 21 83 3e
       -0.03994489 -0.07305883 0.029922271 0.25611383
000070 35 fb 08 be cd 53 da bd 95 0c b9 be 44 39 df 3d
       -0.13377078 -0.10660515 -0.36142412 0.108995944
000080 4f ea a1 bc b8 bf 02 bd 8b 6f fb bd 5b 21 a8 bd
       -0.019765047 -0.03192112 -0.122771345 -0.08209487
000090 3e d5 b0 bd 0d f7 cd bc b4 e1 84 3d f2 a2 0d bd
       -0.08634423 -0.025142217 0.06488362 -0.034579225
0000a0 a3 18 aa 3d 87 ae 93 bd ac 7e f6 bd 39 1a 18 be
       0.0830548 -0.07211023 -0.120358795 -0.14853753
0000b0 d7 05 eb bd 0a ec 26 bc df 11 c5 bd 88 4b d9 bd
       -0.11475723 -0.010188112 -0.09622549 -0.106101096
0000c0 29 9b 5c 3c 3e fa 9e 3d 86 0c c0 3b 1b b7 01 3e
       0.013464727 0.07762574 0.005860868 0.12667505
0000d0 d1 ac bf bd 56 b1 04 3d e5 7e b2 3c df 96 92 3d
       -0.09359134 0.032395683 0.021789024 0.071576826
0000e0 34 95 04 3d 10 2f 8d 3c d0 a6 02 bd 15 70 69 bc
       0.032368854 0.017234355 -0.031897366 -0.014247914
0000f0 8c bc 5e 3d 55 fc 1e 3d 42 9d af 3c 51 19 9e 3d
       0.05437903 0.03881486 0.021437291 0.077196725
000100 f8 d6 85 bd 55 47 4b 3d 13 17 19 3d 48 de fd 3d
       -0.06535143 0.049628574 0.03737552 0.123959124
000110 79 5d 91 bd f6 d7 37 bd 66 8f 72 bc 0a 65 ca bd
       -0.070979066 -0.04488369 -0.014804697 -0.09882553
000120 3e b5 b2 3d 7c 89 6a 3d ae 78 b3 bd 27 84 77 bd
       0.087259755 0.05726002 -0.08763252 -0.060428765
000130 89 bc c1 3d c8 6b 60 3d 74 53 0d be b4 c3 eb 3b
       0.09459788 0.05479029 -0.13801366 0.0071949605
000140 3b 7a 07 3e be 62 30 3c 21 4d 2d bd 24 a5 14 be
       0.13230221 0.0107657295 -0.042309884 -0.14516121
000150 91 d5 bf 3d 3f 15 3c 3d 73 c5 c0 3d 2b dc 6f bd
       0.093669064 0.0459187 0.094126604 -0.058559578
000160 d1 77 35 3e 69 79 61 bc 8e cc fc 3d 78 6d ca bd
       0.17721488 -0.013761857 0.12343703 -0.09884161
000170 44 28 96 bd 78 75 66 3d 9e 29 05 be db 37 ae 3d
       -0.07331899 0.05626437 -0.13004157 0.08506747
000180 ab 9a b5 3d c6 0f 24 3d bc 8e e1 3c fa 1b 81 3b
       0.08867391 0.040054105 0.027533881 0.0039401026
000190 73 3e 88 3d c8 e2 b5 3d 65 59 d1 3c 11 a8 16 bc
       0.06652536 0.08881146 0.025555322 -0.009195344
0001a0 03 3e a4 3d ca c4 2c bc f5 07 39 bd dc 2b c8 bd
       0.0801964 -0.010544965 -0.045173604 -0.097739905
0001b0 a8 6c 91 3d ff 3c e0 bc 63 dd 5f bd e7 bb 86 3c
       0.07100803 -0.027372835 -0.05465449 0.01644702
0001c0 4b 8b 67 3d 53 ff bc bb 44 ac f6 3d d2 fd a7 bd
       0.056529325 -0.0057677417 0.12044576 -0.08202709
0001d0 2d dd 91 3c 8e 58 53 3d ac 4f 07 3d 8e b4 80 bb
       0.01780566 0.051598124 0.033034965 -0.003927774
0001e0 c4 0a 88 bd b9 3c b2 bd 7d 98 2d 3b c0 fb 9c bd
       -0.066426784 -0.08702988 0.0026488595 -0.07665205
0001f0 0e 15 08 bd c6 ad f7 3b 39 5e 98 bd 48 80 c7 bd
       -0.033223204 0.007558557 -0.074398465 -0.097412646
000200 22 0f f2 bd f9 db 6e 3d 0b ea 39 3d 4a 4b db 3c
       -0.118192926 0.05831525 0.045389216 0.026769299
000210 1b 41 b2 bd 92 4f 2c 3d 94 5b 98 bc 16 c4 81 3d
       -0.08703824 0.04206807 -0.018598355 0.063362285
000220 33 1c cd 3c 44 df 99 3d 92 c7 89 bd eb 46 b0 3b
       0.02503786 0.07513288 -0.06727518 0.005379548
000230 39 16 04 3d d8 3b 46 bd 7e 64 ad bd be 65 cd 3c
       0.032247756 -0.048396915 -0.08466433 0.025072929
000240 eb 6e 55 bb 78 43 7d bd de c3 5d bd d3 3b 86 bd
       -0.0032567333 -0.06183192 -0.05414187 -0.06554379
000250 bc 65 ba 3d 01 80 7b 3d a4 eb 43 3d b8 f4 00 be
       0.091014355 0.06140137 0.047832146 -0.12593353
000260 4a 45 80 bd bb 92 80 3d ad a6 a6 3d 41 75 ac bd
       -0.06263216 0.062779866 0.0813726 -0.08420802
000270 99 27 0b bd 52 37 3c 3e 71 13 36 3d 3d de 66 bd
       -0.03397331 0.18380478 0.044452135 -0.056364287
000280 c7 e6 3d 3d b4 4b ab 3c 96 58 9b bd d9 47 b3 3d
       0.046362665 0.020910122 -0.07585256 0.08753938
000290 59 e4 3f 3d de 6a 9f 3d a5 59 56 3d 00 27 d7 bd
       0.04684863 0.07784055 0.052331585 -0.105054855
0002a0 38 b5 2a bc ba ef 1b bd 50 78 37 bd cb e3 a5 3d
       -0.0104191825 -0.038070418 -0.044792473 0.08100089
0002b0 e1 e0 cc 3c 1f ef 68 bc f8 e1 8f 3d c9 43 e1 bb
       0.025009574 -0.014217167 0.07025522 -0.0068745357
0002c0 20 d6 90 bd 4d d0 ed bc 0f 36 f7 bb 79 d8 0c 3d
       -0.07072091 -0.02902999 -0.007544286 0.034386132
0002d0 3c 14 b0 ba 00 b5 ca 3d f5 5f 28 bd 2f f1 ed bd
       -0.0013433765 0.09897804 -0.041107137 -0.11618268
0002e0 7a 49 ae 3d 2d b7 46 3d 52 df 9e bd b0 2a bf 3d
       0.08510108 0.048514534 -0.07757439 0.09334314
0002f0 d5 50 a7 3d a3 d3 9e bd cd 7c 95 bd 19 b4 b9 bd
       0.08169714 -0.0775521 -0.072991945 -0.09067554
000300 11 f8 44 bd aa f2 7a 3d b1 2e 1b be a5 d4 aa 3d
       -0.048088137 0.06126658 -0.1515453 0.0834134
000310 6d db 09 3d 91 dd 9a bd 51 36 a7 3d 0e 34 fb bc
       0.033656526 -0.07561792 0.08164657 -0.03066447
000320 74 af 80 3d 82 7a f9 bd c9 4b 7d bd 3e cf 94 bd
       0.06283465 -0.1218157 -0.061839852 -0.07266091
000330 19 67 ec 3c e3 fb 8b 3c a4 dc 72 3d 0a 76 22 bd
       0.028857755 0.017087882 0.05929245 -0.039663352
000340 27 e7 68 3c 72 dd 40 bd b9 27 76 3d 26 4c 1b bd
       0.014215267 -0.047086187 0.060096476 -0.037914418
000350 3f 1b 97 3d 15 d4 d8 bc 1f b0 48 3d 86 2d a4 3c
       0.07378244 -0.026468316 0.048996087 0.020041239
000360 de a0 d6 bd 4a cb af 3d 7a c0 53 3c dc 94 a4 bd
       -0.10479902 0.08583696 0.012924308 -0.08036205
000370 9c 6b 77 3d da 0a 94 3d 3c ed e9 3d 94 69 8c bd
       0.06040536 0.07228632 0.11422202 -0.06856075
000380 b8 66 b0 3c a6 07 38 bd 8d 1b a0 bd 71 dd 42 bd
       0.021533355 -0.04492917 -0.07817755 -0.047574464
000390 50 1a f7 bd 51 08 3a bd 17 31 0e bd 88 35 94 3d
       -0.120655656 -0.045418087 -0.034714784 0.07236773
0003a0 95 3c 2b bc 60 d0 e9 3d ff f0 ce bd 55 3b 2d bd
       -0.010451456 0.114166975 -0.1010456 -0.04229291
0003b0 9f f1 0c 3e da a8 4b bd c5 51 82 bd b6 c6 50 3d
       0.13764046 -0.049721576 -0.063632526 0.050970756
0003c0 49 b7 91 bc 44 1e a4 bd f6 b9 08 bc fe 00 5c bc
       -0.017787592 -0.08013585 -0.008345118 -0.013427971
0003d0 44 5b b3 bd 48 7c 53 3c 5e d4 61 3d ae dc 1b 3d
       -0.08757642 0.012908049 0.05513417 0.038052253
0003e0 35 41 a8 bd 7d 45 8c 3d b2 2b de 3c 02 a6 0a be
       -0.08215562 0.06849191 0.027120445 -0.1353989
0003f0 4d 64 86 bc 03 0c 30 3d 3d 7b 75 bd ac e3 bd bd
       -0.016405249 0.042980205 -0.059931982 -0.092719406

lstm.weight_hh f4 [512, 128]
000000 9e 2c a4 bc 77 c7 10 bd fc 52 25 3e cf e4 57 3e
       -0.020040806 -0.035346474 0.16144937 0.21083377
000010 38 bb 80 bd d7 f3 b3 3d 63 5a 3c be 96 d8 97 bd
       -0.06285709 0.08786743 -0.18393855 -0.07414357
000020 39 bd 99 bc 5a 3e a8 3d 08 0d b7 bc db cf 45 3e
       -0.018766986 0.082150176 -0.022345081 0.19317572
000030 fd 00 31 3e 05 c4 0e bc e4 22 b1 bd cd 48 91 bd
       0.17285533 -0.008713727 -0.08649233 -0.07093964
000040 26 f4 af 3d 54 e1 f1 be 64 25 0d 3d 45 dd 04 bf
       0.085914895 -0.47242224 0.034459487 -0.5190013
000050 5a 69 58 3d e5 a8 60 3c ec 14 68 3d 56 8b cd 3d
       0.052834846 0.013712143 0.056660578 0.10036342
000060 14 4f 04 be 0d 4b de 3c de 32 1a 3d a4 93 a4 bd
       -0.12920791 0.027135396 0.037646167 -0.08035973
000070 da a8 1c be b1 b6 96 be b8 0a 30 3e f1 c5 dc 3d
       -0.15298787 -0.29436257 0.17191589 0.10779942
000080 5c be 11 3e 7e 88 4a bd a9 59 fd bd ee ad 93 39
       0.14232773 -0.049446575 -0.12370617 0.00028167613
000090 49 f1 59 be 8f 5f 3c be 40 f1 69 3c 6d ec 0e 3e
       -0.21283449 -0.18395828 0.01427871 0.13957377
0000a0 9a 97 2e be 36 87 d8 bd bb f3 00 3e 86 c2 85 3e
       -0.17050019 -0.105726644 0.12592976 0.26124972
0000b0 7e fc 67 be 2d 07 30 3c 24 44 a6 be 7f 25 1b bd
       -0.22654912 0.010743898 -0.32473862 -0.037877556
0000c0 18 5a ae 3d 03 88 06 bd 1d dc 3d 3e 86 48 8e 3e
       0.08513278 -0.032844555 0.18540998 0.27789706
0000d0 ad 76 37 3e cc 2f 5e 3d d7 b6 98 be 22 03 ae bc
       0.17916365 0.0542448 -0.29826996 -0.021241728
0000e0 73 5d 6b bd 8f c4 58 3e 3a 20 96 3e 81 7b 31 3e
       -0.057462167 0.21168731 0.29321462 0.17332269
0000f0 64 24 4e 3e 45 e3 7a be ce 21 67 be e9 50 35 3d
       0.2013107 -0.24500759 -0.22571489 0.044266615
000100 59 aa fd 3d 64 fd 7d 3e eb 22 a5 bc 4e fa 9b 3e
       0.12386007 0.24803692 -0.020158252 0.30464405
000110 01 57 de 3d 4a 46 0f 3e 1e 37 f6 3c 62 45 68 3d
       0.108564384 0.13991657 0.030055579 0.056706794
000120 88 10 b2 bd 4f ae a2 3e a9 39 ce bd b5 3e 6e 3e
       -0.08694559 0.31773612 -0.100695916 0.23266108
000130 a2 11 d1 3d 81 25 5d 3e 32 46 60 be 90 cf fc bd
       0.10208441 0.21596338 -0.21901777 -0.12344277
000140 08 1a 78 3d 16 d4 07 bd 8d 30 dd 3d b8 5e 4a bd
       0.0605717 -0.033161245 0.10800276 -0.049406737
000150 3d 42 14 bd 1e cd 31 3d c6 4e 30 bc ff 5e 98 bd
       -0.036195982 0.043408506 -0.010760969 -0.07439994
000160 c2 f7 05 3e 83 aa 77 3e af b3 11 bf 29 50 4e be
       0.13082793 0.24186139 -0.569148 -0.20147766
000170 4c 79 18 be fb b9 9c bd c3 36 76 bd 9e bf 0c be
       -0.14890021 -0.076526605 -0.06011082 -0.13744971
000180 ef b5 59 bc c6 e1 57 3e cf 40 c1 bd 02 e7 b3 bd
       -0.013288005 0.2108222 -0.094361894 -0.087842956
000190 93 c5 f3 3d 01 08 bc 3c 10 21 ff bd 79 16 56 bd
       0.11902919 0.022953035 -0.12457478 -0.052267525
0001a0 4c f8 c7 3d de ab 97 be ec a1 99 bd 2e 01 fd bd
       0.09764156 -0.29623312 -0.07501587 -0.12353741
0001b0 76 d6 c9 be e7 47 b5 bd 84 30 35 be bd 82 4f be
       -0.39421433 -0.08851605 -0.17694288 -0.20264716
0001c0 7a 5c 03 3e 70 54 36 be b6 61 b3 bd 30 3b 6c 3c
       0.12828246 -0.17805648 -0.08758871 0.014418408
0001d0 a6 2f 18 3e 06 6e 45 bd 6d c3 c5 bc 4d bb 37 be
       0.14861926 -0.04820063 -0.024141038 -0.17942543
0001e0 fa 8c 0e 3e 63 4c 23 3c dd d7 5a be 64 61 e4 3d
       0.13920966 0.0099669425 -0.21371408 0.11151388
0001f0 09 d7 1e be 33 f0 ab bd 9b 2c c5 be ac c9 3f be
       -0.15511717 -0.08395424 -0.38510594 -0.18729275
000200 91 e5 db 3d 86 82 ca bd ec cf 25 be 0c 5f 9f 3d
       0.10737146 -0.098881766 -0.16192597 0.07781801
000210 37 5a 28 bd f1 30 c0 bd c1 72 aa 3d 14 9b bb 3d
       -0.04110166 -0.09384335 0.08322669 0.09160438
000220 1f ef 31 be 6a df 6f 3e 93 27 46 be 2a f8 0b be
       -0.17376374 0.2342507 -0.19351034 -0.13668886
000230 bd 07 f0 3c d0 e0 31 3e e7 9f 4e bd 68 49 5c 3e
       0.029300565 0.17370915 -0.050445464 0.21512377
000240 40 13 76 be aa 69 bf 3d 9e 1e 46 3b d0 10 bd bc
       -0.24030781 0.09346326 0.0030230652 -0.023079306
000250 d4 6e 89 bc bf b5 29 3e 83 6b 34 bd 9f fe e6 3c
       -0.01677648 0.16573237 -0.044047844 0.028197585
000260 33 fc 28 3e 98 72 16 3e 43 61 26 3e af 7a 46 3e
       0.16502456 0.14692152 0.1624804 0.19382738
000270 5b 46 ca b9 fe 49 ac 3e fe 7b f0 bd ed b2 6d 3a
       -0.0003858086 0.33650202 -0.117424 0.00090674945
000280 27 61 87 3d 46 a2 44 3e 26 66 9c 3d 22 81 8a bd
       0.06610327 0.19202527 0.07636671 -0.067629114
000290 e7 44 05 bd 21 bb 15 3e 2b f8 62 be 95 75 7e 3e
       -0.032536414 0.14622165 -0.22164981 0.24849541
0002a0 45 3c 18 3e 69 f2 c0 3e c8 64 1e 3e dc 05 95 bd
       0.14866741 0.37684944 0.15468132 -0.07276508
0002b0 e3 12 fe bd 21 6c ff bb 9b 0e 32 3b 0c 77 d0 3d
       -0.12405946 -0.0077948724 0.002716935 0.101789564
0002c0 cb f0 f7 be c4 c8 52 3d 3f b9 97 bd 94 c1 18 bb
       -0.48425898 0.051460996 -0.0740838 -0.002330874
0002d0 b4 d0 94 bd 2c 5d 8f 3e be 10 1e 3e 4a 3e 4f 3e
       -0.072663695 0.28000772 0.15436074 0.20238605
0002e0 40 3f 8c be b4 3f 9d bd f6 11 23 bc 22 fc 02 3e
       -0.27392006 -0.07678166 -0.009953013 0.12791494
0002f0 0d a3 86 3d 33 f2 ee bd 10 22 30 3e e8 20 1d 3d
       0.06574068 -0.116672896 0.17200494 0.03836146
000300 f2 20 30 3d 6b 1f a9 bd 57 8b fe 3d af b5 8d ba
       0.04300017 -0.082579456 0.12428921 -0.0010811592
000310 82 85 c7 3d 43 32 d5 3c 9d 69 81 bd b8 46 aa bc
       0.097422615 0.026024943 -0.06318972 -0.020785674
000320 ab af 78 bd 11 7f ca bd 90 e8 02 3e a0 af 61 3e
       -0.060714405 -0.09887517 0.12784028 0.22039652
000330 d8 cd e6 3d 5c ab 3d 3c 83 4b 16 ba fa 9b 2b bd
       0.1126973 0.0115765 -0.0005733298 -0.041896798
000340 d4 87 92 3d 6d e6 a2 bc 91 df 24 3d 95 bd 45 be
       0.071548134 -0.019885266 0.040252272 -0.19310601
000350 ab 6a f5 3c 2d 07 a9 bd 5e 99 a0 bd e7 9d a7 bd
       0.02995809 -0.08253322 -0.078417525 -0.08184414
000360 54 fe 02 3e 84 a9 c2 3c 0e ac 27 3e 69 b8 39 bb
       0.12792331 0.023762472 0.16374227 -0.0028338677
000370 f3 41 3d bc 4f 45 14 bd 0d 1c 65 3c 31 2b 52 bd
       -0.011551368 -0.03619891 0.013983739 -0.05131072
000380 da 69 2e be 07 c1 a0 3e bc 43 2c 3d 7c ef 5a be
       -0.17032567 0.31397268 0.042056784 -0.21380419
000390 44 0a aa 3d 81 91 96 3d 94 a8 80 be 25 0a 9c bd
       0.08302739 0.073519714 -0.25128615 -0.076191224
0003a0 6e 60 f5 3d 3d a7 ec 3d 2c 46 8c be eb ee ec bd
       0.11981283 0.11555336 -0.27397287 -0.115690075
0003b0 3d 25 0d 3e 2c 58 10 3e a3 1a 2f be 41 a5 58 3d
       0.13783737 0.14096135 -0.17100005 0.052891973
0003c0 fb a2 79 3d 45 ee 06 bd 91 29 2e 3c 4b d3 81 3e
       0.060946446 -0.032942075 0.010630027 0.25356516
0003d0 11 e8 54 3e 07 47 af be f5 10 4f bd 25 5d 59 be
       0.20791651 -0.34233877 -0.05055328 -0.21226938
0003e0 e0 6d 60 bc 44 45 3e 3d 52 69 c0 bd b5 5b 3c bd
       -0.013698071 0.046452776 -0.09395088 -0.045985896
0003f0 53 99 be 3e 41 7d 31 be af e4 49 3d dd 7c 2b 3e
       0.37226352 -0.17332937 0.049290355 0.1674685

lstm.bias_ih f4 [512]
000000 47 2f a6 3d 15 38 54 bd 05 09 9d 3d 72 e6 d6 3d
       0.08114486 -0.051811296 0.07667736 0.10493173
000010 f7 4a 20 3e dc a8 07 3e 4c 0c 26 3d aa ba 5e 3d
       0.15653597 0.13248008 0.04053907 0.054377235
000020 73 0f bb 3d c4 75 08 3c 9d 04 d1 3c c4 1d 1b bc
       0.09133806 0.008328859 0.025514895 -0.009467546
000030 5b 3e de 3d 74 99 97 3b 51 08 e2 3d 2d 3f 47 bd
       0.10851737 0.0046264473 0.110367425 -0.048644233
000040 d8 5d 10 3d d6 c6 24 3e f5 a1 88 bd dc 40 8f bd
       0.035245746 0.16091475 -0.06671516 -0.06994793
000050 ab 38 e8 39 a9 5e 92 3d 44 1d ea 3d 7a 40 d8 3d
       0.0004429271 0.07146961 0.11431363 0.10559173
000060 c5 30 b1 3c 04 84 4c 3e 8f bc 08 3e 7e a6 35 3d
       0.0216297 0.19972235 0.1335318 0.044348232
000070 5e 0f 02 3e 34 2f 8b 3b 3f 25 51 bd e9 8c 75 3d
       0.12701175 0.0042475704 -0.05106091 0.059948836
000080 62 6b 32 3d 0f b3 93 3d 0e b2 87 3d 30 83 fe 3d
       0.04355944 0.07211887 0.06625758 0.12427366
000090 e1 76 0c 3e 94 ad 0a 3e 79 f0 98 bd 25 1e 25 3d
       0.13717224 0.13542777 -0.074677415 0.04031195
0000a0 b2 72 f4 3d c2 18 bf bc 93 f0 67 3d 62 32 92 3d
       0.11935939 -0.023327235 0.056625914 0.07138516
0000b0 32 2e a2 3d 08 1f 13 3d f5 3c 06 3c a2 7c ab 3d
       0.07918967 0.035918266 0.008193244 0.08373381
0000c0 22 ac 5b bc 20 7b 75 3d 2f 79 ab 3d ab 8d 09 3c
       -0.013407739 0.059931874 0.08372723 0.008395593
0000d0 66 f9 cf 3c 61 05 76 bb 3d 1f a5 3d b8 13 fc bb
       0.025387477 -0.0037539827 0.08062599 -0.0076927803
0000e0 97 79 a7 3c b2 c1 da 3d 37 f5 13 3e 3e 5a 97 3d
       0.02044372 0.10681476 0.14449011 0.07390259
0000f0 72 a2 a9 3c f7 43 9d 3b a4 d0 b5 3d b1 cb 14 3e
       0.020707343 0.004799362 0.08877686 0.14530827
000100 c9 26 6b bd 41 21 c0 3c 3d 99 8e 3d e3 07 02 bd
       -0.057410035 0.023453357 0.06962822 -0.031745803
000110 00 e7 97 bc 28 8f 90 bc 4b e8 94 3d 3c d7 70 3d
       -0.018542767 -0.017646387 0.07270869 0.058799013
000120 48 01 72 3c 9e d4 08 3b 8c 09 02 3e ee 32 95 3d
       0.014770813 0.0020878683 0.12698954 0.07285105
000130 6e 4f f8 3d f1 b8 49 3e 70 2a 90 3d 9a 74 bd 3d
       0.12124525 0.19699456 0.07039344 0.092507556
000140 e3 4f 11 3e 03 b5 1e 3e 6a ab 32 bc 81 c8 6e bc
       0.1419063 0.15498738 -0.010905126 -0.014574171
000150 6f ad 0c 3e 8e 79 2a 3e 12 37 0c 3e 74 9d 84 3c
       0.13738035 0.16647932 0.13692883 0.01618836
000160 d1 71 3d bd e0 95 f6 bc 33 76 4c bd b8 4a 9f 3d
       -0.046251122 -0.030100763 -0.04991741 0.07777923
000170 7c 45 82 3c 6e ac 2e bd 45 a5 a1 3d 09 8e 47 3c
       0.015902273 -0.04264491 0.07892851 0.01217986
000180 8c 4f 6b 3d 1c 69 e4 3d ec ab 23 3e e5 8f f8 3d
       0.05744891 0.111528605 0.15983552 0.12136821
000190 dc f5 d5 3c 50 6c 09 3d 58 9c 22 3d 33 5e 18 bd
       0.026118211 0.03355056 0.039699882 -0.03719921
0001a0 b1 e3 ae 3d a1 a5 07 3e 05 44 aa 3c fe 30 da 3d
       0.085395224 0.13246776 0.020784387 0.10653876
0001b0 ab 3d 10 3e 3b cb 1a 3c 35 0d 43 3d 03 bc fd bc
       0.14086024 0.009447868 0.047620017 -0.03097344
0001c0 ca bf 9b bd 77 d1 4b 3e af 86 f3 3d b5 81 99 3d
       -0.0760494 0.19904123 0.11890923 0.07495443
0001d0 f2 8e a3 3d d3 cc d4 3d 0f c3 ef 3c 69 69 65 3a
       0.07986249 0.103906296 0.029267816 0.0008751364
0001e0 cb f7 80 bd 26 aa 1c 3e 1a 2b f7 3b 0b b0 f6 39
       -0.06297263 0.15299281 0.00754298 0.0004705194
0001f0 fe 4f 17 3e ab 99 3e 3e 80 c7 e7 3d 5c 3c 58 3d
       0.14776608 0.18613307 0.113173485 0.05279194
000200 97 95 91 bd fa 75 8a 3d 33 d1 57 bd 05 a8 c5 bd
       -0.0710861 0.067607835 -0.052689742 -0.09651188
000210 13 6e 06 3d 5a 8b 9c 3c 70 31 b6 3d c8 5f 0c bc
       0.03281982 0.019109417 0.08896148 -0.008567758
000220 5c 50 dd bb c3 c1 f5 bc 22 1f ae bb da 44 16 bd
       -0.0067539643 -0.02999962 -0.00531377 -0.036686756
000230 c4 7a 68 bb 2d 2a 44 bd b7 a0 17 bd 0e c4 a6 3d
       -0.0035473565 -0.047891784 -0.037018504 0.08142863
000240 98 e9 17 bd 13 15 ed bd 06 f7 0c 3d a6 3b ae bc
       -0.037088007 -0.11576285 0.034415267 -0.021268677
000250 58 d7 14 3d a0 4e 4a bd cf b9 86 bc 56 59 6c bd
       0.03633818 -0.04939139 -0.016446022 -0.057702385
000260 a7 0c b4 bd a6 c2 14 bd 27 01 9a 3c 35 7f be 3b
       -0.08791476 -0.036318444 0.018799378 0.005813504
000270 fa e3 2d 3c 17 77 89 bd 48 e4 89 bd a5 bb fd ba
       0.010613436 -0.06712168 -0.06732994 -0.0019358291
000280 a3 25 94 bc ae e8 9e 3d 42 c0 c3 3d 40 44 8b bd
       -0.018084353 0.07759224 0.09558155 -0.06800127
000290 14 71 1a bc 10 50 0c 3d 23 a9 f1 3c 67 c4 41 3c
       -0.009426374 0.03425604 0.029499596 0.011826611
0002a0 66 57 b1 3d 57 46 04 3d 65 b2 9c bd 2b 9b 11 bd
       0.08659248 0.032293644 -0.076512136 -0.03554837
0002b0 31 fe f6 bd b5 7d c3 bd 6f 6b ca bd a5 25 21 bc
       -0.12060202 -0.09545461 -0.098837726 -0.009835635
0002c0 df a4 13 3c c3 3c 31 be 7d 89 ed bc 74 ba c2 bc
       0.009011476 -0.17308335 -0.028996224 -0.023770548
0002d0 36 8d d8 bd d8 42 e3 bd 91 25 98 bc f1 47 57 bd
       -0.10573809 -0.11096734 -0.0185726 -0.052558843
0002e0 26 e7 87 bd e6 25 88 bc a0 a3 17 be a3 d3 c7 bc
       -0.06635885 -0.016619634 -0.14808512 -0.024392908
0002f0 82 c0 c5 bd 36 5b 8f 3d c9 de fd bd a8 c2 39 bd
       -0.096558586 0.06999819 -0.123960085 -0.045351654
000300 d8 e5 25 3d f6 a6 9a bd 3d 98 09 3c bf ff 8e bd
       0.0405024 -0.075513765 0.008398113 -0.069823734
000310 d5 0c 9a bc 15 6a c6 3d 5b 77 06 be a9 9c 98 bd
       -0.018804947 0.09688202 -0.13131468 -0.074517556
000320 7e e2 95 3d ee e6 b7 bd 78 9d 1c 3c 16 49 00 bc
       0.073185906 -0.08979593 0.009559028 -0.007829925
000330 88 2e 89 3d 4f e3 ab bd 86 b2 47 3d 2a bd d0 bd
       0.06698328 -0.08392965 0.048754238 -0.1019233
000340 34 00 c0 3b 53 e4 c8 bd 15 2a a9 3c ca b1 ae bd
       0.005859399 -0.098091744 0.02064995 -0.08530004
000350 86 bc b5 3c ce 65 b2 bd ba 7e 86 bc f6 55 93 bd
       0.022184622 -0.08710824 -0.01641785 -0.0719413
000360 05 c9 87 bb 56 0d be 3d b0 37 a8 bd 61 b8 05 be
       -0.0041438364 0.092798874 -0.082137465 -0.13058616
000370 5d b2 93 bd 0b 54 83 bd f1 d7 0d be a6 e7 d9 bd
       -0.072117545 -0.06412514 -0.13851906 -0.106398866
000380 fa 3a 17 be ba 66 94 bd 65 2c 14 be 7b 21 85 bc
       -0.14768592 -0.07246156 -0.1447006 -0.016251316
000390 14 2e 15 bd 52 9e a5 bd 67 85 c6 bd 81 16 07 be
       -0.036420897 -0.08086838 -0.09693413 -0.13192178
0003a0 db 1b cd bd 00 3b 3d ba 76 a8 d1 bd f6 81 77 bd
       -0.10015079 -0.00072185695 -0.102372095 -0.060426675
0003b0 94 7d c7 bd 98 b8 29 3c 29 62 08 3d 51 f0 6c 3d
       -0.09740749 0.010358952 0.033296738 0.05784637
0003c0 97 ed 86 3d fb 1e 02 be 15 1c 8c bd f3 33 f1 bd
       0.065882854 -0.1270713 -0.06841294 -0.11777487
0003d0 02 3c b9 3d 24 98 fe bc 14 a4 1e bd a9 05 00 be
       0.09044649 -0.031078406 -0.038730696 -0.12502159
0003e0 3b 74 56 bd 32 f2 ee bd a5 ec a2 3c 43 f5 82 3d
       -0.05235694 -0.11667289 0.019888232 0.06394436
0003f0 70 68 aa bc f1 42 47 bd b9 f3 35 bd df 5b 83 bd
       -0.020801753 -0.048647825 -0.044421885 -0.064140074
