evaluation_results/models/list_npi_2020_2_24-17_22_10-4506-False-False-1.0-False-0.0-False-False-True-False.pth (torch_old, 965641 bytes, 16 tensors)

Mprog.weight f4 [5, 256]
000000 c1 2e 8d 3c 85 1c 97 bf 46 7b 26 bf 7a 01 af 3e
       0.017234208 -1.1805578 -0.6503185 0.34180814
000010 e0 2f 4b 3e 96 39 03 c0 35 ff 6a 3f bd a6 a9 3d
       0.19842482 -2.0503898 0.91795665 0.08283756
000020 75 03 b7 bf 7b da bf bf 09 25 1c bf f5 ce b2 3f
       -1.429793 -1.498855 -0.6099401 1.3969408
000030 3e 53 23 be be 9f 9d 3f e4 0c d2 be f5 66 d2 bf
       -0.15949723 1.2314374 -0.4102546 -1.643767
000040 0c 9c 17 c0 3b 4d dc 3e 2d ce b7 bf 4e 11 e6 bf
       -2.3688993 0.43027672 -1.4359795 -1.7974031
000050 1c 6a 4c bf 9c eb 79 3e 2b b5 3e bf b1 9f ca 3e
       -0.7984941 0.24406284 -0.7449519 0.3957496
000060 3c b9 8d 3e 6b 45 1b 3e f9 76 06 40 fb a7 99 3e
       0.27680385 0.151632 2.1010115 0.3001097
000070 ad 2d bf be f5 5d 9e 3f 10 e0 d6 be da 86 98 3f
       -0.37339535 1.2372423 -0.4196782 1.1916153
000080 d6 09 0f bf 09 79 7a 3e 6e ec c1 bf 6c 4f 9a 3e
       -0.55874383 0.24460234 -1.5150278 0.3013872
000090 24 c1 69 bf ba 31 5e bd 6f 1f fa 3e 61 0b d5 3d
       -0.91310334 -0.05424664 0.48852107 0.10402561
0000a0 60 33 47 3e 18 6c 33 be 54 50 4b 3e 41 ee 8b 3f
       0.19453192 -0.17521703 0.19854861 1.0932084
0000b0 ab 8f 6b bf de a6 bc 3f 04 f2 e7 3c 27 5f 7c bf
       -0.92016095 1.4738424 0.028313644 -0.9858269
0000c0 a3 a9 3b 3f c6 15 1e bf a5 54 9e 3e 7a 2e 74 3e
       0.7330572 -0.61751974 0.30923954 0.23845854
0000d0 d1 94 9e 3f 97 e4 84 bf b5 05 a9 bf 7b a1 ad bf
       1.2389165 -1.038226 -1.3204867 -1.3564905
0000e0 f0 dd e0 bf 07 ac 8d bf ca 1d a9 bf 28 47 e8 3f
       -1.756773 -1.1068124 -1.3212216 1.8146715
0000f0 c2 db 21 c0 79 fd a2 3d f1 1c eb be 53 de 36 bf
       -2.529038 0.07958502 -0.45920518 -0.7143299
000100 2d a9 8d be bf cd 0a 40 f4 16 93 3e 98 c4 b0 bf
       -0.27668133 2.1688077 0.2872845 -1.3809996
000110 c7 e2 9d 3f f4 43 2e bf b3 95 70 3d c9 07 d0 bf
       1.2334832 -0.6807244 0.058736514 -1.6252376
000120 66 b8 0b bf e4 81 01 3e 2e 79 93 bd 27 00 90 3e
       -0.54578245 0.12647206 -0.072008476 0.28125116
000130 c7 cc 5b 3c 41 47 52 3f f4 e8 1d c0 6c d6 8b bf
       0.013415522 0.82139975 -2.4673433 -1.0924811
000140 34 be 45 bf ec 78 6f 3f b8 62 e5 3e af 6d ff 3f
       -0.7724335 0.9354389 0.4480188 1.9955348
000150 53 a8 dc bf 77 65 92 bf 38 56 a4 bd 85 5f 8a bd
       -1.7238868 -1.1437215 -0.080242574 -0.067565
000160 e8 e9 5d 3f f4 3a e7 3e 55 f0 7d bf 37 51 e5 be
       0.8668504 0.45162165 -0.9919484 -0.44788525
000170 ee 8c d0 3f 8a 2a 51 bf 9b 77 97 3e e3 39 2b bd
       1.6293008 -0.81705534 0.2958344 -0.041803252
000180 81 1d 19 40 cf 5a 20 3c 46 ab 9f bf 56 16 9b 3f
       2.3924258 0.009787275 -1.2474144 1.2116191
000190 19 82 95 3e ff 64 c2 3f e8 b6 3b 3f a8 f8 33 bf
       0.2920082 1.5187072 0.7332597 -0.70301294
0001a0 24 ff 4c bf da 43 99 bd a4 90 64 3f 44 73 a3 3d
       -0.80076814 -0.07483645 0.89283204 0.079809695
0001b0 32 e8 c3 bd d9 c5 2e 3e a0 d4 14 3f 79 be 61 3f
       -0.09565772 0.1706766 0.5813694 0.88181263
0001c0 d7 d5 91 bf 7b 06 84 bf 27 10 ff bf b3 02 a9 3f
       -1.1393384 -1.0314478 -1.9926804 1.3203949
0001d0 57 52 e5 bf f7 f1 52 3f f4 2d 96 be 51 95 92 3e
       -1.7915753 0.8240046 -0.29331934 0.28629544
0001e0 d1 29 44 3f 46 cf 2a 3f 55 7f ca bd 8e 35 36 3e
       0.76626307 0.66722524 -0.09887568 0.17793867
0001f0 0a 3c 12 bf d6 dc 0c c0 e7 b2 7d 3e 62 be 72 3e
       -0.5712286 -2.2009788 0.24775277 0.23705438
000200 58 10 6e 3f 49 85 a1 bf 59 69 65 3f e9 f1 60 3f
       0.9299369 -1.26188 0.8961387 0.87869126
000210 39 b6 34 3f 35 7b 08 3e 5b ff dc 3e a8 39 a5 bf
       0.7059055 0.1332825 0.4316357 -1.290822
000220 ef 92 28 bf be 95 71 be 07 ed 1e bf d5 5d 51 3f
       -0.658492 -0.23592278 -0.62080425 0.817838
000230 56 0b be bf 9a b6 0f be c7 4e fe be 38 ac 1c be
       -1.484721 -0.140345 -0.49669477 -0.15300071
000240 af 56 90 bf 9b 8b 12 40 c8 c1 7a be 46 60 72 be
       -1.1276454 2.2897708 -0.24487984 -0.23669538
000250 00 b8 f2 3f 4e a6 a9 3f 1c 02 d9 be 57 e2 1a 3f
       1.8962402 1.3253877 -0.42384422 0.6050162
000260 b9 fe bf 3f e7 69 75 3f 40 b0 14 bf b1 72 ca be
       1.499961 0.9586472 -0.58081436 -0.39540628
000270 ed 7b c7 3e 30 2a 96 3f 8c b8 73 bf be c5 ba 3f
       0.38961735 1.1731625 -0.9520347 1.4591596
000280 b4 a9 bd 3e 6c fe 87 be fb c3 bc bf cc 57 a1 3f
       0.37043536 -0.26561296 -1.4747308 1.2604918
000290 9a b0 8d bf 13 7e 33 3f bf 6a b2 bf 65 ba 9a be
       -1.106952 0.7011425 -1.3938826 -0.30220333
0002a0 2d 92 19 bf 07 ba 16 40 73 d7 d3 be 68 49 44 3f
       -0.5998867 2.3551042 -0.41375312 0.7667451
0002b0 f5 08 40 3f a3 38 12 3f 56 7a 9e be 30 16 1c 3f
       0.7501367 0.5711767 -0.3095271 0.60971355
0002c0 f7 f6 a4 3e a3 c3 80 3f 88 ca 27 3f 7b 58 57 3e
       0.3221967 1.0059704 0.65543413 0.21029846
0002d0 57 e5 dd 3f 63 2f 8a 3f 1e 04 a2 bf 2b 48 3d bf
       1.7335614 1.0795711 -1.2657506 -0.73938245
0002e0 31 1a 29 3f e1 25 f4 3f 74 54 63 be 9b a9 91 be
       0.6605559 1.907406 -0.22200185 -0.2844971
0002f0 f1 01 57 3f b2 0e bb be 52 44 ef bf 86 49 81 3f
       0.8398734 -0.3653465 -1.8692725 1.0100563
000300 b5 7c ba be 54 9d bd bf e5 c6 2b 3f d5 a5 68 3d
       -0.3642327 -1.4813638 0.67100364 0.056798775
000310 e8 e2 3a 3f aa a3 c6 3f 2a 9b 38 be 71 c3 f0 bd
       0.7300248 1.5518696 -0.1802794 -0.117560275
000320 cb 99 aa 3f 2c e9 e3 bd af c6 90 bf b6 c1 3b 3c
       1.3328184 -0.111284584 -1.1310633 0.0114597585
000330 eb 82 12 3e 78 6e d0 3f be 06 1b bf 5a 38 b9 be
       0.14307754 1.6283712 -0.6055716 -0.36175805
000340 d6 ef 28 3f 7b 3b 81 bf 6a 93 0d 3f db f7 c6 3e
       0.6599096 -1.0096277 0.5530306 0.38860974
000350 a0 b9 e4 3f 03 f1 d5 bf 33 49 9c 3e 90 8c 0d bf
       1.7869148 -1.6714176 0.30524597 -0.55292606
000360 d4 59 da be 9b d1 19 bf 56 04 8b 3e 2e 59 22 3f
       -0.42646658 -0.6008546 0.27151746 0.6341733
000370 e1 e9 43 3f 09 ec f3 be 72 92 5c bf 9b fd bb bc
       0.76528746 -0.47641018 -0.8616096 -0.022948077
000380 02 b3 11 be 88 94 b4 3d 8b 93 e4 bf 78 82 8e 3e
       -0.14228442 0.088173926 -1.7857527 0.27833915
000390 d8 61 8f bf 19 40 d9 3e d6 95 56 3f 2b 4d 41 3d
       -1.1201735 0.42431715 0.8382238 0.047192734
0003a0 02 fc 29 bf cc c1 c4 bb 76 13 22 3f 9d 5a f1 bc
       -0.6640016 -0.0060045477 0.63310945 -0.029462153
0003b0 b7 1c 18 be ad b0 6e 3f ab c5 a1 3e ea 90 da 3e
       -0.14854704 0.93238336 0.3159612 0.42688686
0003c0 d9 3d d2 3f aa 25 17 bf 9a 94 67 be 12 cf 01 3f
       1.6425124 -0.59041846 -0.22615281 0.5070659
0003d0 6e af 0e 3f ac 9d a2 bf 76 47 b6 be 16 ae 16 3f
       0.55736434 -1.2704368 -0.35601395 0.58859384
0003e0 47 a4 08 3f 14 d5 89 bd ee e4 1f 3e 5f c0 fc 3e
       0.5337567 -0.067300946 0.15614673 0.49365517
0003f0 91 82 c8 3f a4 a0 3d 3f 37 8c af be e7 53 d5 3f
       1.5664846 0.74073243 -0.34286663 1.666623

encoder.l1.weight f4 [100, 44]
000000 58 f3 03 bf 03 03 33 bd b8 e2 a7 bc 58 29 0e bd
       -0.5154319 -0.043704044 -0.02049385 -0.034707397
000010 b2 17 b3 3d f8 86 09 bd 7f 2a 50 3d 8f cb 9a 3d
       0.08744754 -0.03357598 0.050821777 0.07558357
000020 66 4f ea 3d 6a bd 02 3e a3 a7 e0 3e cf 89 ae 3e
       0.11440925 0.12767568 0.43877897 0.34089515
000030 f8 d0 80 3e ea 0c 2b 3e 95 7d 8a bc 13 9c 3c bd
       0.2515943 0.16704145 -0.016905585 -0.04604728
000040 1d cc 5e bb bd dc ab bd 4a 36 07 be 8a fa c3 be
       -0.0033996173 -0.08391712 -0.13204303 -0.38277084
000050 44 3d 03 bf 00 46 4c be 38 a6 05 be bb 34 a7 bd
       -0.5126536 -0.19948578 -0.13051689 -0.081643544
000060 48 e8 27 3d c5 b1 55 3d 5e 3e 2e bd fd c5 1f 3e
       0.040993005 0.052171487 -0.042539947 0.1560287
000070 84 de 4a 3e af e1 31 3e 68 50 84 3d 66 e9 4f be
       0.19811445 0.17371248 0.06460649 -0.20303878
000080 46 83 86 bd 75 03 38 3c 66 54 17 bd e8 29 d8 3d
       -0.06568007 0.011231293 -0.036945723 0.10554868
000090 87 4a 4f be 3b 85 d4 bd 87 db 09 3e ac 68 3e 3d
       -0.20243274 -0.10376974 0.1346265 0.04648654
0000a0 b9 60 8b bd 4e 3c 3d 3e 78 2f 43 3d 2b 9c 4a 3d
       -0.06805558 0.18480036 0.04765269 0.04946534
0000b0 34 98 b6 3d 70 80 ba bd 18 b2 0e bd b4 65 1c 3e
       0.08915749 -0.09106529 -0.034837812 0.15273172
0000c0 3d 09 0a 3e 4e d9 ef 3d 6b 6e b8 3d b9 30 27 3e
       0.13480087 0.117113695 0.090054356 0.1632718
0000d0 ee e7 80 bd dc e0 e5 3d d6 c2 73 bd 2c 9a 8b bc
       -0.06294237 0.11224529 -0.059511982 -0.017041288
0000e0 46 8c 3e 3e 28 8a fc bd 4a 17 e8 bd 14 79 73 3d
       0.18608198 -0.12331039 -0.11332567 0.05944164
0000f0 a1 c7 f6 bd cf 45 12 3e dc 5b a5 3d 03 99 89 3c
       -0.12049795 0.14284442 0.080741614 0.016796594
000100 cc 82 70 3e 8e 03 87 3e ec 87 19 3d 3b b5 3c 3e
       0.23487395 0.263699 0.03748314 0.18428509
000110 9d 3d 27 3d 3e 2f a8 3d 50 d3 0b 3d b8 c5 a5 3c
       0.040830243 0.08212136 0.03413707 0.020235881
000120 05 fe 65 be 44 b4 3d bd 83 50 78 3b 28 2b 44 3e
       -0.22460182 -0.046314493 0.0037889786 0.19157088
000130 b5 1d 66 3e 0b 0f 6d 3e b5 94 07 bd f1 0d 85 3e
       0.2247227 0.2315027 -0.033100802 0.259872
000140 cc 87 6f 3e 40 ce 42 3f dd 5a 70 be ae b1 56 be
       0.23391646 0.7609596 -0.23472162 -0.20966217
000150 68 cf 06 3e e5 21 47 be 63 d5 cc 3d 0d 2e 2f 3a
       0.13165057 -0.19446523 0.10001638 0.00066825823
000160 65 3a 38 be 29 86 c7 3c 66 71 6e bd b4 67 68 3c
       -0.17991026 0.024355965 -0.058213614 0.014184881
000170 54 22 b0 bd 32 ef ac 3d 8f 29 59 bd 9e 39 7b bd
       -0.086002976 0.084440604 -0.05301815 -0.061334245
000180 64 20 83 ba 72 af e7 3c ee cf a1 3e c2 1d ff 3d
       -0.001000416 0.028281901 0.3160395 0.12456848
000190 9a f9 f2 bc d3 7e 4d be 8e 1d 19 3d b1 7e 4a bd
       -0.029660035 -0.20067911 0.0373817 -0.04943723
0001a0 96 46 63 3c 98 bd 62 3c a6 4b 6b 3c 3f f6 3a 3d
       0.0138718095 0.013839148 0.014361298 0.045644995
0001b0 cb 41 15 3e 11 7f f5 3d 2d a9 cd bc ed 47 88 bd
       0.1457588 0.119871266 -0.025105083 -0.06654344
0001c0 51 5d 24 bd a8 9b d2 bd 74 a2 82 3d 7e 67 d9 bd
       -0.040128056 -0.10283595 0.06378642 -0.10615443
0001d0 e1 d7 ac 3d 13 8f 84 3d 18 32 f8 3d 4a f8 30 3e
       0.08439613 0.06472602 0.121189296 0.17282215
0001e0 53 95 5e bd a2 7b 08 3d 6d a8 23 3e 9a 53 82 be
       -0.054341625 0.03332103 0.15982218 -0.25454408
0001f0 fa ea 22 3d 93 54 e1 be 51 1b 2d 3e 7a 3e 13 be
       0.039774872 -0.44009838 0.16904952 -0.14379302
000200 f5 cd 73 be 88 b9 ac 3d 89 a6 97 bc 4d e6 cd 3d
       -0.23809035 0.08433825 -0.018512027 0.10053692
000210 0a f6 46 bc 6e 82 0d 3e 6e 07 12 3c 00 03 0d 3d
       -0.012143621 0.13819286 0.008912904 0.03442669
000220 31 89 8d 3d 8f e1 af bd eb ab ea 3d 01 ab a1 3d
       0.06910933 -0.08587944 0.11458572 0.078939445
000230 2b 90 59 bd 8e 4c 20 3e 36 dd 7b 3e 50 f3 cd 3d
       -0.053116005 0.15654203 0.24596104 0.10056174
000240 82 9d 8a be be 16 66 3c 9b 19 51 bd fe 1d 11 bc
       -0.27073294 0.014043508 -0.05104981 -0.008857248
000250 f3 83 52 3d 0c 7d 16 be b6 e2 3b bd 71 03 58 be
       0.051395368 -0.14696139 -0.045870505 -0.21095063
000260 70 ae d2 bd b3 a2 fc 3d 35 22 49 be fb c2 ba bb
       -0.102871776 0.1233572 -0.19641955 -0.005699513
000270 0b ec 00 3c 9b a0 b3 bd 66 85 05 3e 42 5b 95 3d
       0.007868777 -0.087708674 0.13039169 0.07292797
000280 04 0b 8b bc 93 a5 00 3e c7 d5 9c 3d 47 4f 9e 3e
       -0.016973026 0.12563162 0.07657962 0.3091986
000290 43 e7 7e 3d 13 6f 1b 3d 6e a4 0f be cd 8e 75 bd
       0.062232267 0.037947726 -0.14027569 -0.05995064
0002a0 43 07 30 3e 2b d0 ca bd 18 f2 8b 3a a4 d9 54 3e
       0.1719027 -0.09902986 0.0010677008 0.20786148
0002b0 0d 7d 2b bd db ff 0c be 55 13 89 bd c2 a6 26 3c
       -0.041867305 -0.13769476 -0.066931404 0.010171594
0002c0 68 c3 80 3d d5 03 61 bd 36 67 81 bc 73 d8 3c be
       0.06287271 -0.054935295 -0.015796285 -0.18441944
0002d0 4d de 13 3d 7d b4 d3 bd 74 b8 9a 3c 17 18 01 3e
       0.036100674 -0.1033716 0.018886782 0.12606846
0002e0 f4 2d 0c 3e f2 84 a5 3e 66 8c 26 3c ff be 23 3d
       0.13689405 0.32327992 0.0101653095 0.03997707
0002f0 d2 8e a0 bd 74 1b 7b 3d 5d 27 f9 bd 6f 0b bc 3d
       -0.07839741 0.06130548 -0.12165711 0.09181868
000300 2e e0 b2 ba f8 09 8d 3b 74 ee 4b bd c4 56 2b bd
       -0.0013647133 0.004304167 -0.049787953 -0.041830793
000310 f7 6d e7 bd 70 7b 5b 3b 81 30 c5 bd 8d 9f 3f 3e
       -0.11300271 0.0033490323 -0.09628392 0.18713208
000320 4c 78 62 ba af 8c 34 3e 70 98 1d 3d 23 e5 93 3d
       -0.00086391415 0.17631792 0.038475454 0.07221439
000330 d6 58 30 bc 5e ab 37 bd c1 97 20 3d 5a f3 0a 3e
       -0.010763368 -0.044841163 0.039207224 0.13569394
000340 d5 14 db bd 02 dc 1e bd 7f 6e 27 bd 09 37 10 be
       -0.10697333 -0.038784035 -0.04087686 -0.14083494
000350 11 86 d2 bc a5 17 25 be f6 f4 74 3c 76 13 c4 be
       -0.025698693 -0.16122301 0.014950981 -0.38296098
000360 61 6c 83 be 7d 68 12 3c 90 1b c4 3d cb 20 4b 3e
       -0.25668624 0.008936045 0.0957557 0.19836728
000370 bb 49 32 be a8 8a 76 bb 83 ab 7b bd 4e e2 32 bd
       -0.17410938 -0.0037619267 -0.061442863 -0.043672852
000380 cf bf b5 3d 0d a2 43 3d f3 28 91 bc 53 9f 13 3e
       0.08874475 0.047761966 -0.017719721 0.14416246
000390 84 2e b8 3d 29 27 84 3d 5b 5b 14 3f a1 80 94 3e
       0.08993247 0.06452782 0.579519 0.29004386
0003a0 03 d1 2a 3d e5 99 1c bd 78 ac 27 3e 1f 25 85 bd
       0.041703235 -0.038232703 0.16374385 -0.06501221
0003b0 ae da f9 3d 65 a6 ec 3d 14 96 af be 8f 71 2c be
       0.12199913 0.11555175 -0.34294188 -0.16840194
0003c0 f0 e2 4f be ac b3 e7 3d 34 df 82 3d d4 e8 f1 3a
       -0.20301414 0.113135666 0.06390229 0.0018456229
0003d0 47 76 e9 3d 5f d8 81 3b e9 7a 69 bd 80 17 f3 3d
       0.11399513 0.003962561 -0.057001982 0.11869717
0003e0 40 09 9e bc 63 08 e9 bd 2a 8a 9f bc cf ea 5e 3e
       -0.01929152 -0.11378553 -0.019475061 0.2176926
0003f0 1f 4d 23 3e 39 88 b1 3c b3 52 89 bd 2d 1c be 3d
       0.15947388 0.021671401 -0.06705227 0.09282718

encoder.l1.bias f4 [100]
000000 58 53 06 bd de c6 54 3d 46 21 68 3d d7 b4 ba 3c
       -0.032794327 0.051947467 0.056672357 0.02279131
000010 a4 6c a9 3d b8 7c c9 3b 43 a1 97 bd 90 fb 04 bd
       0.08272675 0.006148901 -0.07403805 -0.03246647
000020 b1 e5 b8 3d f3 8a 01 be e7 46 8a bd 78 13 9f 3d
       0.09028185 -0.12650661 -0.06751805 0.07767385
000030 1b da 71 bd 63 25 b9 3d a8 f5 d1 3c 75 e6 59 bd
       -0.059045892 0.09040334 0.025629833 -0.053198297
000040 2a 24 d0 3d f0 6c cf 3d 11 68 32 bd 1d ab 97 bd
       0.10163148 0.101282 -0.043556277 -0.07405684
000050 61 04 98 3b d8 29 01 3e 0d e9 eb bc 42 4d c7 3d
       0.004639194 0.12613618 -0.02879765 0.09731533
000060 bc 77 d8 3d 9f 18 fa bd df 32 20 3d b8 31 7b bd
       0.105697125 -0.12211727 0.039111014 -0.061326712
000070 cd 61 da 3d 88 64 1a 3d 6f ca cf 3d 5c 0b a8 3d
       0.10663185 0.03769353 0.10146033 0.08205292
000080 19 bc a9 3d 58 22 3b bd 09 ea 95 3d 09 a9 56 3d
       0.0828783 -0.04568705 0.07320029 0.0524073
000090 4a 39 c4 bd af 18 f4 bb a4 32 d3 bb a9 88 09 3e
       -0.095812395 -0.0074492316 -0.006445246 0.13431038
0000a0 c2 9d b0 3d 60 d9 6d 3c 02 38 cb 3d b3 84 46 bd
       0.0862384 0.014517158 0.09922792 -0.048466396
0000b0 e4 8d 5d 3a d1 31 ef bc 1b c2 ae 3d 73 d4 81 3d
       0.00084516243 -0.029198559 0.085331164 0.063393496
0000c0 5b 43 09 bd 99 49 c5 bc 28 de 8c 3c 89 c9 01 3e
       -0.0335115 -0.024082946 0.017195776 0.12674536
0000d0 6f 79 43 3a 3b ee 70 bd 98 7e 95 3d 69 3b ff 3c
       0.00074567547 -0.058820944 0.072995365 0.031156259
0000e0 59 3d c3 3d b6 ce e7 3d af c0 81 bd 5d 54 bc bd
       0.095331855 0.11318724 -0.063355796 -0.091957785
0000f0 f7 cd 81 3b fa e3 96 bc 97 ee 56 bc 82 f3 fc bc
       0.0039613205 -0.018419255 -0.013118408 -0.030877832
000100 1e 7b 85 3a a8 7f 7d bd 7e 91 14 3e 5a 7c 25 3e
       0.0010183787 -0.06188932 0.14508626 0.16160718
000110 d6 7c bf 3d 06 db 8c bd 74 2a 7a bd 26 32 a4 3d
       0.093499824 -0.06877713 -0.061075643 0.080173776
000120 08 39 9a bc a3 bf b6 3d 88 fe ab 3d 6a d8 62 bc
       -0.018826023 0.089232706 0.08398157 -0.013845542
000130 11 c4 62 3d 85 08 30 3d 9b 91 1d bc 79 2f ac bc
       0.055362765 0.042976875 -0.009617235 -0.02101873
000140 0f 7d 48 3d 73 09 a1 3d 0e 51 92 bd cd 1e 3f b8
       0.04894739 0.078631304 -0.07144366 -4.5566634e-05
000150 e7 95 92 3a 4e eb c7 bb f7 c9 5a bc c9 25 ca 3d
       0.001118359 -0.0061010486 -0.013353816 0.09870488
000160 b0 e1 90 bd b6 20 55 3d 04 a9 2b 3e 65 72 7b 3d
       -0.070742965 0.05203315 0.16763693 0.061388392
000170 d7 63 bf 3d 7a 9c 82 bb e5 c5 1f 3d dc 26 0c 3e
       0.09345215 -0.0039859386 0.039007086 0.13686699
000180 62 b9 0f 3e b3 f7 da bb 28 e4 96 bd ed f4 36 bc
       0.14035562 -0.00668236 -0.07367736 -0.011166793

encoder.l2.weight f4 [32, 100]
000000 91 7a 4e 3d 49 8d 2f be 81 1b 93 3d 60 21 51 be
       0.050409857 -0.1714374 0.0718298 -0.20422888
000010 8e f8 5b 3e 7f 02 25 be c6 89 d5 3d 1f 73 65 3e
       0.21481535 -0.16114233 0.10426669 0.22407196
000020 98 42 65 3d 49 a6 7c 3d 33 c7 1d be 68 6d 7c be
       0.055971712 0.06168202 -0.1540802 -0.2465111
000030 45 ea 53 be 8f 91 bb 3d 02 be 98 3e e0 a7 05 bd
       -0.20694835 0.091586225 0.29832464 -0.0326308
000040 bf ce 46 3e 7d c6 57 bd 7e 94 4a be a4 20 e0 bd
       0.19414805 -0.052679528 -0.19783208 -0.10943726
000050 86 0f cc 3c 44 33 1b 3e 71 b7 4f be 29 56 4f be
       0.024909746 0.15156275 -0.20284821 -0.20247711
000060 de 97 06 bc e9 e2 b8 be d3 39 15 be b3 03 16 be
       -0.008214919 -0.3611062 -0.1457284 -0.14649849
000070 50 cc f6 3c c1 80 c3 3c 6e a7 ea bb 44 67 bd bd
       0.03012672 0.023865106 -0.0071610725 -0.09248212
000080 d4 d2 47 3e 89 57 54 3e 66 c1 ac be 8a e6 46 bd
       0.19514018 0.20736517 -0.337413 -0.048559703
000090 b7 05 4f be be 14 2b 3e f8 83 b4 be f5 69 6d 3e
       -0.20217024 0.16707131 -0.35256934 0.2318495
0000a0 bc e3 6b 3d 6d 9b c2 bd 9b b6 b1 3d 25 8d 54 bd
       0.05759023 -0.09502301 0.08677407 -0.05189242
0000b0 11 69 7f be 6d 20 81 3e a8 39 7d 3d 0d db 93 be
       -0.24942423 0.2522005 0.061822563 -0.2887806
0000c0 e4 6c 6d bd ab 76 50 3e 50 83 16 3e c0 1a d0 3d
       -0.057965174 0.20357768 0.14698529 0.10161352
0000d0 51 27 a3 be 16 d9 81 be 13 bd 72 3c bf af 0b 3e
       -0.31865934 -0.25360936 0.014815587 0.1364126
0000e0 bb 13 b7 3e be 4f b0 3d 02 93 d8 be d5 84 95 3e
       0.3575724 0.086089596 -0.42299658 0.29202905
0000f0 5c 8b 17 bd 83 c7 2a be 3b 9a b4 be 4c 35 89 be
       -0.036998138 -0.1667767 -0.35273919 -0.26798475
000100 4a 1f 9b 3d 20 48 ea be d2 87 fc bd e7 38 83 be
       0.07574327 -0.45758152 -0.12330593 -0.2562935
000110 f3 e4 1d 3e 2e 90 af 3c ea 93 6c 3c 80 ac 87 be
       0.15419368 0.021431055 0.014439562 -0.26498795
000120 90 a3 77 be 5c 41 9c 3d 1e a2 78 3e 53 2e 7f 3d
       -0.24183488 0.07629654 0.24280593 0.062300038
000130 c3 af 1e 3e da c9 ea bd fe 88 a9 be 62 00 77 3e
       0.15496735 -0.114642814 -0.3311233 0.2412124
000140 2a 79 b1 3d f9 96 d0 3d 2d c0 86 be 6d 6c 71 be
       0.08665688 0.10185046 -0.26318493 -0.23576517
000150 ff ed 3e bd 0e c4 c4 bd ec 34 78 be 52 0d 8e be
       -0.04661369 -0.09607707 -0.24238938 -0.27744538
000160 59 d4 62 be 72 90 b8 bd bb 21 37 be 4d 9e 85 3e
       -0.22151317 -0.09011926 -0.17883961 0.26097336
000170 d2 3e 5c be 8b b6 00 be 88 8f 0f 3e 5a 82 85 bd
       -0.21508339 -0.12569635 0.14019597 -0.06519003
000180 1a 8d 1b be d2 60 4a be 42 08 98 be 42 7a 88 be
       -0.15190545 -0.19763497 -0.296938 -0.26655775
000190 e4 c1 90 3d 76 5f b8 3c c1 18 2e 3e 71 a3 2e be
       0.07068232 0.022506457 0.1700163 -0.17054535
0001a0 74 8d a9 3e 02 06 05 be 2d c3 88 3e 36 a0 9e 3e
       0.33115733 -0.12990573 0.26711407 0.30981606
0001b0 2f 8d ff bd fa 2f be 3e 52 be 0f be fc 86 42 be
       -0.124781005 0.37145978 -0.14037445 -0.18996805
0001c0 1a 0c 1d be f9 91 35 3e c2 cb a4 3e b6 71 67 3d
       -0.15336648 0.17731465 0.32186705 0.056504928
0001d0 0b 52 bf 3d ab 67 30 bd b8 29 80 be fb 2b f8 bd
       0.0934182 -0.043067615 -0.2503183 -0.121177636
0001e0 1c 0b 5f 3c bb f6 4b 3e ce 7c bd be 50 81 75 be
       0.0136134885 0.19918339 -0.3700928 -0.2397511
0001f0 f9 46 8a bc 4d 73 ae be 2b c6 f4 bd 76 20 8b bd
       -0.016879546 -0.34072343 -0.1195186 -0.06793301
000200 49 90 dc ba c0 49 fe 3d 24 d3 3f bd 29 b4 8c bd
       -0.0016827668 0.124164104 -0.04683222 -0.068703
000210 fc ba 38 3e a6 23 70 3d 58 dd 09 bd 41 db e9 bd
       0.18040079 0.058627747 -0.033658355 -0.114187725
000220 a6 16 55 be 95 e6 e9 bd 85 4a 8f be aa a9 2b 3e
       -0.20809421 -0.11420933 -0.2798654 0.1676394
000230 9e fe 1b bd de 88 97 bd 24 a2 54 3d 62 01 12 3e
       -0.03808462 -0.07399152 0.05191244 0.1425834
000240 69 79 80 be d5 f1 9e 3d 0b c2 ce bd b4 49 97 be
       -0.2509263 0.077609695 -0.100956045 -0.2954842
000250 af 50 22 be ee 5e 6c 3e 3e 5d 9f 3d d2 dd 52 3c
       -0.15851091 0.23083088 0.077814564 0.012870269
000260 0d 73 8d be b8 52 b4 be 7d 01 97 3c be d0 3c 3e
       -0.2762684 -0.3521936 0.018433327 0.18439004
000270 3e cc 9b 3e f1 6f f7 ba 3c 6a 91 be 24 7a cd 3c
       0.30429262 -0.0018877966 -0.28401363 0.025082655
000280 a9 22 80 bd 9e 8d 85 be a2 98 8a be 41 f9 e9 bd
       -0.06256611 -0.26084608 -0.27069575 -0.114244945
000290 f6 a0 10 3e 91 c5 d5 be ae 2f 2c be f0 73 3c be
       0.14123902 -0.41752294 -0.16815063 -0.18403602
0002a0 ce 28 bd 3d ec ee 1b 3d d3 35 64 be 35 db 81 be
       0.092362985 0.03806965 -0.22286157 -0.25362554
0002b0 97 7f 81 be f5 00 99 3d dc d9 8b 3d 0f 82 a0 bd
       -0.25292656 0.07470886 0.06828663 -0.07837307
0002c0 25 b3 7d 3d 86 7a 61 be c6 71 b6 be 8a 19 50 3e
       0.061938424 -0.22019395 -0.35633677 0.20322242
0002d0 7c 53 24 3e 9d b8 78 3d ac da bf be ad 72 1b bd
       0.16047472 0.060722936 -0.3747152 -0.03795116
0002e0 31 09 08 3d 1b e3 a1 bd 60 45 f1 be b0 2e fc bd
       0.03321189 -0.07904645 -0.4712324 -0.123135924
0002f0 99 a4 0d bc 6f 86 c9 3a 39 cd 3f bc 9e 27 8b 3e
       -0.0086452 0.0015375147 -0.011706644 0.27178663
000300 dc b4 0e 3d 7d 6e 1d bd b9 9b de 3b 46 58 2a be
       0.03484045 -0.038435448 0.006793466 -0.16635236
000310 8a 36 62 be a6 75 e5 bd 10 9b 04 be b5 6a e6 be
       -0.22091118 -0.1120408 -0.12949777 -0.45003286
000320 e1 78 e2 be 36 82 ca bd df 34 bb 3b c3 5b a3 be
       -0.44232848 -0.09888117 0.00571309 -0.31905946
000330 bc 6e 00 bd 26 22 f6 be 2c 12 f9 bd 2f 47 82 3e
       -0.031355605 -0.48072928 -0.12161669 0.25444934
000340 08 db fd be 0a c4 fd 3d ed f9 99 be e4 27 a8 be
       -0.4958117 0.12390907 -0.3007349 -0.32842934
000350 62 bc f8 be c4 d0 96 3e 1e 36 02 3d 43 06 f6 3d
       -0.48581225 0.2945615 0.03178989 0.12012913
000360 e2 f9 b3 3e ed 82 d6 bd ed 4f 4e be 66 18 a8 be
       0.35151583 -0.10474191 -0.20147677 -0.32831115
000370 8f ee 8c be a6 fc 8f 3d e2 15 10 be a3 5b 61 3e
       -0.27525756 0.07030611 -0.14070848 0.22007613
000380 6a c8 90 bc b7 da d0 be 77 0e fd 3d 59 be c7 be
       -0.01767369 -0.40791866 0.123562746 -0.3901241
000390 24 42 ab 3d a2 fe 9c 3e 9a 68 3f 3e 21 73 1a be
       0.08362225 0.3066302 0.18692246 -0.1508298
0003a0 48 6d a6 3e c3 ac 41 be 6a f1 47 3d 53 8a f2 be
       0.3250525 -0.1891356 0.048814215 -0.47371158
0003b0 28 db ad bd 8a 49 7e be 06 f5 7a bd c4 2f 5e 3d
       -0.08489066 -0.2483274 -0.06126883 0.05424477
0003c0 10 9d b2 bd ec f7 8a be 98 46 33 3e 42 ca 40 3c
       -0.087213635 -0.27142274 0.17507398 0.011766972
0003d0 9d da 22 3e 69 fd cc be b5 10 19 bf cf 47 0c 3e
       0.15903707 -0.40037087 -0.5979112 0.13699268
0003e0 5f ed d9 be 35 9f 02 be 93 db 03 bf 5a 1b 83 be
       -0.42563912 -0.12756045 -0.5150692 -0.25606805
0003f0 c6 47 25 3e e8 c9 e4 3c ce 9c fa 3d 41 30 71 3e
       0.1614066 0.027928308 0.12236939 0.23553564

encoder.l2.bias f4 [32]
000000 99 9f e6 3d e6 10 6d 3d 00 20 d5 bc e0 d8 a5 3a
       0.112609096 0.057877444 -0.026016235 0.0012653135
000010 36 28 b7 3d 14 57 bc 3d 37 2e 27 be 6f 97 e8 3c
       0.089432165 0.09196296 -0.16326223 0.028392522
000020 fc bf 15 bc 97 1b 5b bd ed 1f 72 bd 35 7d b3 bc
       -0.009140011 -0.05349311 -0.059112478 -0.02191029
000030 34 4d 52 3d 8c cd 19 bd 8b 1a 03 bd 95 96 89 bd
       0.051343158 -0.03754954 -0.032007735 -0.06718174
000040 ab 91 22 3d dd 34 e2 3c b2 a9 fe bc 45 61 90 3d
       0.0396897 0.027613098 -0.031086776 0.07049803
000050 dc e3 58 bd 75 ae 06 3d 1b 26 12 3d 57 81 55 bd
       -0.05295168 0.03288122 0.03568087 -0.0521253
000060 0b 94 18 bd 13 f8 7d 3d 53 37 e3 bb 1a cf 25 3d
       -0.03725056 0.06200416 -0.0069340854 0.04048071
000070 58 3e 4f 3c 2c eb 7e 3d 2f bc 85 bc 9b 8e b0 3d
       0.012649141 0.062235996 -0.016325084 0.0862095

lstm.weight_ih f4 [512, 288]
000000 e2 69 da bd 00 06 cf be 9e 1a ef bd 61 50 9e bd
       -0.10664727 -0.40434265 -0.11674999 -0.07730175
000010 6c f3 a0 be 23 2e 4d bd 8d c7 83 3e 2e 13 4b be
       -0.31435716 -0.050092828 0.25738183 -0.19831535
000020 e8 98 ac 3e bb 41 55 be 3c 00 91 3e f6 fb 35 3e
       0.33710408 -0.20825855 0.2832049 0.17771897
000030 2f 96 be 3e d2 f8 59 be 90 89 a9 3b 0c 37 68 3e
       0.37223956 -0.21286324 0.0051738694 0.22677249
000040 76 ab ab be 3e 16 b7 3d b9 f5 fa 3e 3f e0 a1 be
       -0.33529252 0.08939789 0.49015597 -0.316164
000050 9c 71 48 be 2d e9 c1 3e 56 96 ef 3d 54 2b 73 3e
       -0.19574589 0.37873212 0.11698596 0.23746997
000060 0b e6 cd bc e2 c0 3a 3e 19 f2 cc 3c f5 a4 2b be
       -0.025134107 0.18237641 0.025017785 -0.16762145
000070 a9 7e 9c be d9 c6 86 be f3 47 ab 3e 58 e9 9b 3e
       -0.30565384 -0.26323584 0.3345333 0.30451465
000080 fe 4a f6 3c 62 5a 60 bd d3 8e 59 3d cc a2 b6 3c
       0.030065056 -0.054773696 0.053114723 0.022294424
000090 cc b6 a7 3d c0 b5 12 be fa a9 71 bc a5 89 85 bb
       0.081891626 -0.14327145 -0.014749998 -0.0040752464
0000a0 ca 78 a6 3c 2a 88 15 bd 1e 73 50 3d 0f 93 44 3c
       0.020321269 -0.03650681 0.050891034 0.011997952
0000b0 de ad 82 3d 48 29 0e bb 76 12 e7 bc d4 51 2d 3c
       0.06380819 -0.0021692086 -0.028207045 0.010578591
0000c0 67 83 df bd 72 ee ec 3d 80 7f 62 3d 66 cd d0 bc
       -0.10913735 0.11568917 0.055297375 -0.025488567
0000d0 51 4c 22 bd 6d a6 27 3d 71 7c 5d 3d b0 c5 4f bc
       -0.039623562 0.0409302 0.054073755 -0.01268141
0000e0 58 1f 14 bd 3a b7 ca bd eb d8 0d 3e 42 58 39 bc
       -0.036162704 -0.09898229 0.13852279 -0.011312546
0000f0 52 f7 8b 3d b4 87 f5 3d 44 a2 95 bd 8c 78 d8 3c
       0.06834282 0.11988774 -0.0730634 0.026424669
000100 a1 ce 80 bd 31 52 90 3d 75 f7 9b bd c6 3a fa 3c
       -0.06289411 0.07046927 -0.07615558 0.030545603
000110 44 6c 41 3d 8b ed 7b bd 41 b9 48 3d a0 b4 35 3d
       0.04722239 -0.061505836 0.049004797 0.04436171
000120 1e 57 89 bd 68 90 bb bc b7 82 96 bb 3c 15 e9 bc
       -0.067060694 -0.022896007 -0.004593219 -0.028452508
000130 a6 9c 9d bd 7a a9 f9 3c 05 46 58 bc f7 37 39 3c
       -0.07695894 0.03047632 -0.013200288 0.011304847
000140 9b ca f8 3c 4e 5b 69 3d 83 53 d7 3b e4 4a 00 3e
       0.030370047 0.05697184 0.0065712347 0.12528569
000150 c3 0e 1a bd 88 0c ce bd ec 6b e2 bd 97 01 c7 bd
       -0.037611734 -0.10060984 -0.11055741 -0.097171
000160 ef fe 1f be 82 a6 ca bc cf 3d 7a bd 99 7c 24 3e
       -0.15624593 -0.0247376 -0.0610941 0.16063155
000170 14 18 54 3d b2 c6 b5 bc af 93 3b 3d 4c 8d 82 bd
       0.051780775 -0.022189472 0.04579514 -0.063746065
000180 01 83 9a 3d 73 dc e0 3c 14 25 df 3d 18 c1 cf bd
       0.07544518 0.027448868 0.10895744 -0.101442516
000190 7d b0 81 bc 22 ba 36 3d fc 2d d4 3d 90 fb 45 bd
       -0.015831226 0.044611104 0.10360333 -0.04833561
0001a0 79 28 8c bc 7a c8 7d 3d 42 56 8f bd 48 2c b5 3d
       -0.017109143 0.061958767 -0.06998874 0.088463366
0001b0 a5 5c d4 bd 0f e3 64 bd 42 5a a6 bd 06 b9 c0 3d
       -0.10369233 -0.055880602 -0.08122684 0.094102904
0001c0 57 a5 1d bd c2 88 d9 3d d2 82 62 3c d1 5d f3 3d
       -0.03848776 0.106217876 0.013825135 0.118831284
0001d0 87 bb 5e 3d 85 e0 92 bd 7e 33 e8 3d d7 07 e2 3b
       0.05437806 -0.0717173 0.11337946 0.0068979072
0001e0 d4 36 ff bb 45 9f 01 3e b1 4b 23 bc 1c 40 28 3d
       -0.0077885184 0.12658413 -0.009966777 0.041076764
0001f0 30 7d 69 bc 64 ea a5 bc 50 d4 61 3c a5 46 d7 3d
       -0.014251038 -0.020253368 0.013783529 0.10511521
000200 ee 47 76 3c df e3 ec bb 39 3b 09 bd 7c c0 f9 bc
       0.015031798 -0.007229313 -0.033503745 -0.030487292
000210 a9 dc d0 bd b0 f6 4e 3d 5d 13 2e bd 0d 29 bb bd
       -0.101983376 0.05052823 -0.042498935 -0.09138689
000220 2f 0e 73 bd 24 35 b5 3c 1c bb 9f 3d a4 1c ba bc
       -0.0593397 0.022120066 0.0779936 -0.022718735
000230 37 9f 05 bd 1f 2b 61 bd 89 86 a5 bc 60 ad 44 3d
       -0.032622542 -0.054972764 -0.020205753 0.048016906
000240 bf 18 79 bd 89 a3 1a bd 8b 8f 80 bc 6b 3b f2 3c
       -0.060814615 -0.037753616 -0.015693447 0.029569348
000250 d4 26 2e bd 44 af 8f 3c 86 74 80 bd 4b 63 79 3d
       -0.042517498 0.017539628 -0.06272225 0.06088571
000260 08 a9 7d 3d 17 f3 23 bd 0d bd f5 3c 9c 4f 45 3d
       0.06192878 -0.04002675 0.029997373 0.048171625
000270 d9 a7 ca 3d 17 21 de bc 16 95 56 bd 7b d5 6b bd
       0.09895296 -0.027115388 -0.052388273 -0.057576638
000280 9b ba c7 3d 2b 78 21 bc 6b b6 27 3d ba bb 3b bd
       0.09752389 -0.00985531 0.04094545 -0.045833327
000290 e9 f0 9f 3d 3e b4 af 3b 3c 72 78 bc ef 98 8d bd
       0.07809622 0.0053620627 -0.015163954 -0.069139354
0002a0 e2 99 9f 3d 98 78 b0 bd 5b c6 6f bd 8e 9d 84 3d
       0.07793023 -0.086167514 -0.058538776 0.06475364
0002b0 c8 5e ee bd 63 f1 12 bd a9 2d 99 bd 47 15 8e bd
       -0.11639172 -0.035874736 -0.07479412 -0.06937652
0002c0 53 5a 2a 3d 74 48 f4 3d 9d 35 8d 3c 93 5d 49 3d
       0.041590046 0.11927882 0.017237479 0.049161505
0002d0 f1 cb 6c bd 9c 4e 39 3d 3a 89 8f 3d 94 23 6e 3d
       -0.05781168 0.045240983 0.07008596 0.0581394
0002e0 f7 69 b6 3d 8e c8 81 3d 17 21 71 bc b7 f2 b7 bb
       0.0890693 0.06337081 -0.014717362 -0.0056136507
0002f0 1f 87 81 bc ef fb 62 3d 9c 75 e9 bd b8 0b f5 3d
       -0.015811501 0.055416044 -0.11399385 0.11965126
000300 c6 d4 17 bd 88 af 29 bd 5a ea 3e 3c 7d 1e 5b 3d
       -0.03706815 -0.041427165 0.011652553 0.053495873
000310 7e 75 e6 bc a4 06 31 3d f3 0a d1 bd e7 02 df 3c
       -0.028132197 0.043219224 -0.102071665 0.027223064
000320 0a 80 02 be 89 d0 bc 3d e6 71 69 3d cf 67 9d bc
       -0.12744156 0.092194624 0.056993388 -0.019214539
000330 6d ab 9d bb 39 ec 6d 3d a7 67 d9 bd 08 91 70 3d
       -0.0048116953 0.058086608 -0.10615473 0.058732063
000340 86 a8 41 3d 88 df d4 3d 9e 5d de 3d 16 44 1b ba
       0.047279857 0.10394198 0.108577 -0.00059229264
000350 22 cc d3 3d ed 2e 91 3d 25 68 2e 3d 1d ed ae bd
       0.103416696 0.070890285 0.04257979 -0.085413195
000360 62 0a a7 bc 45 17 eb 3d 10 b1 2f bd 54 e8 87 3a
       -0.020390693 0.11479048 -0.04289347 0.0010368922
000370 3f aa 22 bd 03 4e 99 3c 46 86 d5 bd af 8f 27 3d
       -0.03971314 0.018713957 -0.10426001 0.04090851
000380 57 8b 5b bd 79 29 12 bd fb 93 ef 3c 75 71 a3 3d
       -0.05359968 -0.035684083 0.029245367 0.079806246
000390 3f aa 86 3d 0c 9e fe 3d 6b 50 bf bd 9f 5b 20 bd
       0.065754406 0.12432489 -0.093415104 -0.039149877
0003a0 6a 0e bd 3d ad 16 20 3d ca fb f4 3c 90 06 bc bc
       0.09231265 0.039084125 0.029905219 -0.022952348
0003b0 99 be 43 bc 47 5e 61 bd 95 cd d3 bc 9e 79 a4 bd
       -0.0119472975 -0.05502155 -0.025854865 -0.08031009
0003c0 16 8f 7a 3d 83 2a d4 bc a6 c9 7c 3d ef 7f eb bc
       0.061171614 -0.025899177 0.061715744 -0.028747527
0003d0 a6 d9 50 bd 6c 3e 2b be 21 64 dd 3d 44 33 b2 3d
       -0.050988816 -0.16723031 0.10810114 0.087011844
0003e0 14 db 62 bd 18 ec f4 bd 3d 2f 80 3d d9 53 9a 3a
       -0.05538471 -0.11959094 0.0625901 0.0011774256
0003f0 eb 9b 02 3d 40 f7 14 bd 16 05 3a bd 24 95 fe bc
       0.031886976 -0.03636861 -0.045415007 -0.031076975

lstm.weight_hh f4 [512, 128]
000000 01 de a7 ba f6 fd 1a bc fc 53 8d bc f1 c1 6d bd
       -0.0012807251 -0.009459963 -0.017251961 -0.058046285
000010 be e9 1e 3e a0 1c aa be 0b 41 7f bc 5d 6c 8b be
       0.15518853 -0.33224964 -0.015579472 -0.27231112
000020 e2 02 44 be 3f a0 f7 3d 17 0d 07 3e 61 a3 89 bd
       -0.19141725 0.120911114 0.13188587 -0.06720615
000030 f8 af 40 be 61 82 ec bd 1d 1b 7d bd 27 6e bd 3d
       -0.18817127 -0.11548305 -0.061793435 0.092495255
000040 a4 72 5f bd d6 34 04 be 70 d9 3c 3e 5a 47 c9 3d
       -0.05455269 -0.1291078 0.18442321 0.09828062
000050 4f b1 72 be 42 01 ac bb 2d de 88 be 34 22 7c bd
       -0.2370045 -0.0052491734 -0.26732007 -0.061556056
000060 4a 5b 55 3d b5 b0 85 bd ca 1e 50 be 4b 28 7c 3c
       0.052089013 -0.06527845 -0.20324245 0.015390466
000070 6c 7f d3 3d 0f f0 a5 3e 74 a4 5a be 18 c8 e4 3b
       0.10327038 0.32409713 -0.21351796 0.006981861
000080 3c 1c 09 3e 09 38 39 3c 1e 1d 0d bd 48 31 0b 3e
       0.13389677 0.011304864 -0.034451596 0.13593018
000090 63 37 d6 3c f9 2e 10 3d 1b 17 f7 3d 0b 09 c6 3d
       0.026149457 0.035201047 0.12064954 0.096696936
0000a0 90 d6 05 3e 54 a8 16 be 2d 66 52 3d d6 e0 b1 3d
       0.1307013 -0.1471265 0.051366974 0.08685462
0000b0 9f 03 81 bc 55 41 f7 bd 0f ac 16 3e fe 18 ed bd
       -0.015748797 -0.12073008 0.14714073 -0.115770325
0000c0 f0 78 88 bc 51 de 45 bb dc d5 d0 3d 49 2b 16 3e
       -0.01665923 -0.0030192325 0.101970404 0.1466495
0000d0 1e 11 49 3d 5b f1 30 be a0 2c 67 3d fe ca ba 3d
       0.04908859 -0.1727957 0.056439042 0.09120749
0000e0 33 45 f2 3d b3 17 a0 3d dc b5 f0 3c a6 e8 0e be
       0.11829605 0.0781702 0.029383592 -0.13955936
0000f0 3e b8 0f be 3b b2 af 3d bd 63 10 be 9e 54 39 be
       -0.14035127 0.08578917 -0.14100547 -0.18098685
000100 38 5c 8f bc 54 c7 c9 bc 5f 9a 4d bd 0e 1f 0c 3f
       -0.017500028 -0.02463118 -0.050196048 0.54734886
000110 77 bb 65 3e 41 99 e9 bd 4f e5 ed bd bc 60 3f bd
       0.22434793 -0.11406184 -0.11616003 -0.046723112
000120 e3 28 41 be 0f 4c 86 be 1a 8e 84 be 93 35 38 3e
       -0.18863253 -0.26229903 -0.25889665 0.17989187
000130 53 ca ba 3e 2a 21 87 3d 1f 2c 76 be 6e 02 cf bc
       0.36482486 0.065981224 -0.24040268 -0.025269713
000140 a5 41 a0 bd 5c 89 d4 3d ba fe 92 bc 0c 6d 25 3d
       -0.07825021 0.10377762 -0.017943729 0.0403872
000150 89 6d 2d 3e 22 11 ee 3d 0a 3f eb 3d 6a 8b 49 3e
       0.16936316 0.116243616 0.11486633 0.19682088
000160 13 98 27 be 11 6d 52 bc 8b f0 17 3d 95 3d 8a be
       -0.16366605 -0.012843386 0.037094634 -0.27000108
000170 ff d9 8e be f0 29 f1 3e 9c b2 04 bd e7 b2 17 bd
       -0.27900693 0.47102308 -0.032396898 -0.03703585
000180 b3 73 0b 3e f9 3f 45 3e 9e d8 c6 3e 9b da 74 bb
       0.13618354 0.19262685 0.3883714 -0.0037361744
000190 05 f4 ab be 2c c4 f0 bd f1 28 1c be c4 70 18 bd
       -0.3358461 -0.11756167 -0.15249993 -0.037216917
0001a0 59 d0 0a 3e c7 3f c3 bc 3e 9f 11 3e fb b8 c4 3c
       0.13556041 -0.023834122 0.14220902 0.024013987
0001b0 38 a0 be be 9b ac 5d 3d 75 7d e1 3d aa 98 58 be
       -0.37231612 0.054119688 0.11010257 -0.21151987
0001c0 8d c4 d6 3c 88 51 fc bd 88 b3 7c bd 9e 18 2c 3d
       0.02621677 -0.12320238 -0.06169465 0.042015664
0001d0 70 29 4d be 21 a7 32 3e a1 80 00 ba 71 e7 06 be
       -0.20035338 0.17446567 -0.00049019797 -0.13174225
0001e0 32 42 e9 3d 56 86 e6 3d 76 22 25 bd 74 f1 09 3e
       0.11389579 0.11256091 -0.040316068 0.13471013
0001f0 22 4f 81 bc 9c 34 88 bd 65 20 fb 3c 6a 3e 96 3d
       -0.015784804 -0.066506594 0.030655095 0.07336123
000200 3f d1 9f bd f5 5e 3f bd 69 ee 24 3e 00 f9 71 3d
       -0.078035824 -0.046721417 0.16106571 0.059075356
000210 7b a6 d6 3d 93 a4 53 be 19 6e 5b 3c 20 b9 6a 3c
       0.104809724 -0.20668249 0.013392949 0.014326364
000220 64 74 62 bd bd 9c 86 3b 03 98 1d be 22 5e 8a 3e
       -0.05528678 0.00410804 -0.15390019 0.27024943
000230 ad c4 03 bd 40 da f4 bd 3c 73 7c 3c cc 6f 17 be
       -0.032169987 -0.119556904 0.015408333 -0.14788741
000240 10 8f 9c bc e9 90 57 3e a7 bf 9f 3d 17 a5 d5 3d
       -0.019111186 0.21051373 0.07800227 0.10431879
000250 f0 65 0d bd a0 da 03 3e ca c4 b6 bb 90 08 89 3e
       -0.034521043 0.12876368 -0.0055776583 0.26764345
000260 45 a8 d3 3d a0 ee 48 be b9 84 3a 3e 7a ee c6 bc
       0.10334829 -0.19622278 0.18214692 -0.024283636
000270 c7 90 33 3e ba 17 c9 3d 76 25 3e 3e b4 06 09 be
       0.17535697 0.098189786 0.18568978 -0.13381463
000280 e4 a8 1a 3c 5a a8 07 3d 46 10 88 3d 6d 38 d1 bd
       0.009439681 0.033119537 0.06643729 -0.102158405
000290 91 bc 56 be c1 64 2e be 8a d6 97 3d 36 c5 27 3e
       -0.2097037 -0.17030622 0.07413967 0.16383824
0002a0 2c fc eb bd 14 a1 d8 bc 52 72 2c 3e 39 fb 95 3c
       -0.11522707 -0.026443996 0.16840485 0.018308269
0002b0 dd 2c 1c 3d 01 25 0c 3e 92 59 bc 3c 5f fa 2b 3d
       0.038128722 0.13685991 0.02299193 0.04198682
0002c0 2a 36 6f bc 0c ac 00 3e 2f da 31 be f7 3d 21 be
       -0.014600316 0.1256563 -0.17368387 -0.15746294
0002d0 bd 7e 55 3d 6c 75 58 3e 81 9d 0d 3e d0 f2 ea bc
       0.05212282 0.21138543 0.13829614 -0.028680235
0002e0 18 c1 d7 bd d4 18 1f 3e 23 5a 1f bc 12 51 33 be
       -0.105348766 0.15536815 -0.00972608 -0.17511395
0002f0 43 1c 2b bc 26 17 5f 3c ff 65 ed 3d ad f4 7e be
       -0.01044375 0.013616359 0.1159172 -0.24898024
000300 aa 6f 1d bd ce 6c 35 be 70 47 39 3e 10 05 06 be
       -0.03843657 -0.17717287 0.18093657 -0.13087869
000310 fc 8a d1 3c 5d d0 72 be 80 35 e2 3d 4a 8b 95 bd
       0.025578968 -0.23712297 0.110453606 -0.07301958
000320 0f e7 20 bd c2 c6 75 3d df e3 7e be 48 52 00 3e
       -0.039282855 0.060004003 -0.24891613 0.12531388
000330 27 98 55 3e da ea 04 3e 5e 37 05 bc b3 b4 d0 bd
       0.20858823 0.12980214 -0.008130876 -0.10190716
000340 72 64 21 be 95 14 ef 3c 8d 99 8f be 5d 85 aa bd
       -0.15760973 0.029184619 -0.28046837 -0.08326218
000350 51 8a 61 3e 15 0c 42 3e a1 52 79 bd 3b 42 28 3e
       0.2202542 0.18949921 -0.060869817 0.16431515
000360 f4 01 d8 bd 41 f7 c5 be a3 43 05 3c 2a 35 1c 3d
       -0.105472475 -0.38665202 0.008133802 0.03813664
000370 54 6e e3 bd d4 b4 bd 3d 4c 73 01 3e f2 74 b3 3d
       -0.11105028 0.09263006 0.12641639 0.0876254
000380 ce bb 91 be 69 8a 00 3d 46 2c 20 3e c5 57 9f bd
       -0.28463596 0.031382 0.15641889 -0.077804126
000390 cf da 55 be fe 48 a9 3d 6d 95 de 3d a3 b6 8b 3e
       -0.2088425 0.08265875 0.108683445 0.27287778
0003a0 83 f9 a3 3e 4e b2 72 be dc bb 1a bd a0 5f 15 be
       0.320263 -0.2370083 -0.037776813 -0.1458726
0003b0 39 5f 00 bd 1f cf 89 3d 1d bb 7c be 58 18 0d be
       -0.03134081 0.06728958 -0.24680753 -0.13778818
0003c0 51 15 da 3c 88 47 c6 3d ee 13 53 3c 16 5f 80 bc
       0.026621493 0.09681612 0.01288317 -0.01567034
0003d0 d4 4d 5a 3e f6 01 ac be a2 0a 80 3e 75 75 dd bb
       0.21318752 -0.33595246 0.25008112 -0.0067583867
0003e0 85 6c 71 be 3a 5f 45 3e 1f e1 69 bc 72 1d 12 be
       -0.23576553 0.19274607 -0.014274864 -0.14269045
0003f0 c7 c1 07 3d ad 0e ac bd e0 79 db 3d 13 f7 5c be
       0.033143785 -0.08401237 0.10716605 -0.21578626

lstm.bias_ih f4 [512]
000000 13 43 6c bc b9 0f 1d 3e af 26 f2 3b 53 ef 5a bd
       -0.014420289 0.15338029 0.0073898653 -0.053450894
000010 5a 03 dc 3d 65 eb 6b 3d db 91 15 3e 08 d7 ce 3d
       0.10742827 0.057597537 0.1460642 0.10099608
000020 9c 7a 43 3c bf 1d 90 3c a9 18 a0 3d 9f d9 08 3e
       0.011931088 0.017592309 0.078172036 0.13364266
000030 24 8f 1a bd 52 52 d8 3d 25 00 ea 3d 8d 4d c1 bc
       -0.037734166 0.10562576 0.11425809 -0.02359655
000040 f9 30 16 bc cd 16 9d bb 48 c2 d7 3d 81 c7 a0 bd
       -0.009166949 -0.004793978 0.10535103 -0.07850552
000050 85 96 e4 bd 08 3a 57 3d df cc ab 3d ab 0e e7 3c
       -0.11161522 0.052545577 0.083886854 0.028205236
000060 64 62 7e bd 89 f9 bb 3c 8b 19 be 3d fc eb 9e bd
       -0.06210555 0.022946136 0.09282216 -0.07759854
000070 82 73 f7 3d 9c 18 01 3e d2 70 49 3d a2 2e 08 3e
       0.12082578 0.12607044 0.04917986 0.13299039
000080 24 ce 55 3d 6c 7d bf bd 37 7b 55 bd 47 ed dc 3d
       0.052198544 -0.09350094 -0.05211946 0.107874446
000090 99 88 8c bc 44 fc dd bc b5 d1 8d 3b 7d 26 ea 3a
       -0.017154979 -0.027097829 0.0043279775 0.0017864254
0000a0 b0 e1 0c bd 73 f0 44 3d f0 1c 17 3d fc af 0c bd
       -0.03439492 0.048080873 0.03689283 -0.03434752
0000b0 b7 f6 0c 3e fb cd ec 3d 78 2f da 3d d4 9a ac 3d
       0.13765989 0.11562725 0.10653585 0.084279686
0000c0 b7 25 61 bd ec 2b 8e 3d e8 ac 86 3d 48 98 36 bd
       -0.05496761 0.06941971 0.06575948 -0.04457882
0000d0 87 53 ce 3d 16 1d f7 bc 65 25 35 3c d6 5e d8 bc
       0.10074525 -0.030165236 0.011056279 -0.026412409
0000e0 be 9b 42 3d 65 75 69 3d 56 2f a6 3b ba 43 00 3d
       0.04751181 0.05699672 0.005071561 0.03131459
0000f0 35 53 87 bc 6f f5 1e 3e 5e c0 88 3d 91 ae 17 bb
       -0.016519168 0.15523313 0.06677316 -0.0023144821
000100 4d c1 dc 3d 57 a4 15 3e c4 a9 0d bd c1 2d 04 3e
       0.10779057 0.14613472 -0.03458573 0.12908079
000110 8f 8b 13 3c e4 45 a1 bd fb b8 42 3d 68 e0 3e bd
       0.009005441 -0.07874659 0.047539692 -0.04660073
000120 d9 8f b8 3c d1 bf 38 3c ad 5f 25 3d 9d e9 e8 bb
       0.02252953 0.011276201 0.040374447 -0.007107927
000130 0d 3d ad 3d 2e 01 65 bd b9 82 a3 3d 53 31 d7 3d
       0.0845891 -0.05590933 0.07983918 0.10507455
000140 f4 c3 14 3c cf 07 22 3e 26 96 3c 3d dd 86 c6 3d
       0.009079922 0.15823291 0.04604163 0.09693692
000150 cf e1 23 3d 62 2a 46 3d 23 8f 63 3d 6c 73 e1 bc
       0.04001027 0.048380263 0.055556428 -0.027520858
000160 b1 38 f9 bd eb 7a 35 3e 54 de 15 bc a2 ab 98 bd
       -0.12169016 0.1772267 -0.009147245 -0.07454611
000170 15 b4 80 3d eb 43 a9 ba 44 85 e9 3d a8 fa 96 3d
       0.06284348 -0.0012913918 0.114023715 0.07372028
000180 11 d0 8f bd c7 be 32 3e 59 be 99 3d 3f 9a 9d bc
       -0.070221074 0.17455588 0.07507009 -0.01923859
000190 6b 22 05 3d 77 8d ab 3d 55 b6 1a 3e 4b d1 c8 bc
       0.032503527 0.08376592 0.15108617 -0.024513861
0001a0 e4 26 c0 3d bd c7 9b 3c 10 db aa bc 36 00 32 3d
       0.09382418 0.019016141 -0.02085641 0.043457232
0001b0 fc b9 9d 3d 6c f3 3b 3d 69 04 f0 bc ab e2 84 3d
       0.07701489 0.045886442 -0.029298978 0.06488546
0001c0 0e e5 f2 3d d5 b2 97 3c 01 86 86 bd 03 af 8b bc
       0.11860095 0.018517891 -0.06568528 -0.017051226
0001d0 3f f2 cc 3d c7 cd d8 3d 69 2b db 3d bb 79 a6 bd
       0.10007142 0.10586124 0.10701639 -0.08128687
0001e0 66 36 e6 3d 71 32 f2 3d 28 28 7d bc ed 82 c8 3d
       0.112408444 0.11826027 -0.0154514685 0.09790597
0001f0 60 15 e5 3c cb ed 9e 3d d4 50 d0 3d 2b 8d 08 bd
       0.027964294 0.07760199 0.10171667 -0.033337753
000200 b7 9e ab bd bd 85 8b bd 12 4c 55 bd 17 7b a5 bd
       -0.08379882 -0.06812618 -0.0520745 -0.08080118
000210 aa 7f 58 3d 7c 94 54 bd f0 f1 73 3d cb 67 d2 ba
       0.052856125 -0.05189942 0.0595569 -0.0016052661
000220 88 f3 15 3d 62 96 f8 bd 74 4e 98 bd a6 6b 0d bd
       0.036609203 -0.12138058 -0.07436839 -0.03452649
000230 7c c2 77 bc e8 68 3f bd 14 56 96 bd a9 ce 00 be
       -0.015122052 -0.046730906 -0.07340637 -0.12578835
000240 f0 9a 59 bd c5 0d b3 bb 12 98 d5 bd b7 cb 83 bc
       -0.053126276 -0.005464288 -0.10429396 -0.01608835
000250 b5 43 11 3d c8 af c7 bd 6b 5e fa bd ee 9b c2 bc
       0.03546496 -0.097503245 -0.1222504 -0.023755994
000260 1b cc 5a bc 75 b1 b4 bd 08 22 10 3a 2b 15 30 3d
       -0.013354327 -0.0882291 0.0005498235 0.042988937
000270 3a 69 c7 bd 03 38 3c bc a4 ff 1b 3c a7 0f 2a 3d
       -0.09736867 -0.011487964 0.009521399 0.041518833
000280 12 8a ed bc 41 bc 30 bd aa 1d 28 be 8a 33 a6 bd
       -0.028996501 -0.043148283 -0.16417566 -0.08115299
000290 0c 07 79 3c 15 1b 81 bd f3 92 bf ba 49 51 5a 3d
       0.015199434 -0.063039936 -0.0014615938 0.053300176
0002a0 bd b3 39 3d 86 de b4 3d 1c 8e d0 bc da aa c7 3d
       0.045337427 0.088315055 -0.025458388 0.09749384
0002b0 8c ac e3 bc 38 fb 23 3d 07 da 80 bd d8 81 b9 3c
       -0.027792238 0.040034503 -0.062915854 0.022644922
0002c0 b2 5e 6e 3d 71 7f 17 bc fc dd 4f 3d 15 fb 11 3e
       0.058195777 -0.009246693 0.05074881 0.14255936
0002d0 a5 1a fb 3c 47 7f 9a bd 6d 9a 2f 3d a4 a8 15 be
       0.030652354 -0.075438075 0.04287188 -0.14615113
0002e0 c4 96 fe 3c 24 e6 6a bd fa ed 84 ba f3 da fe bd
       0.03107775 -0.057348385 -0.0010141723 -0.12444105
0002f0 32 28 63 bd ed fe 4a 3c 78 34 43 bd 84 ba 95 3d
       -0.055458255 0.012389881 -0.04765746 0.07310966
000300 f4 25 9b bc 4a 3a 0b 3c 83 1a 0b 3d 3a 10 97 bc
       -0.018938996 0.008497784 0.03396083 -0.018440355
000310 52 1f b1 bd 1a 8b bf bc ac a8 4d 3d 48 47 d2 3d
       -0.08648552 -0.023381758 0.050209686 0.10267502
000320 57 bd 8a bd 1c df 91 bd ec 7f 93 bd 9f 38 4e 3d
       -0.06774395 -0.07122633 -0.072021335 0.050346967
000330 3f 44 5f bd c4 2b e2 bd 54 10 f5 bc aa 59 df bc
       -0.054508444 -0.11043504 -0.029915012 -0.027264435
000340 56 0a 5e 3a 7c ee e7 bd be f6 33 bc 42 28 1c 3a
       0.0008470168 -0.11324784 -0.010984121 0.00059569266
000350 3d 35 bc 3b b9 a6 0d be 0c a6 83 3d 6d d5 c0 3d
       0.005743651 -0.13833131 0.06428155 0.09415708
000360 c9 1b 5a 3d 6b 9b f4 bd 9d ce 28 bd 0c be 15 be
       0.053249154 -0.11943706 -0.041212667 -0.14623278
000370 31 87 24 bd 4f 51 c6 3d 32 c0 33 bc 0c 1a 10 be
       -0.04016799 0.09683477 -0.010971116 -0.14072436
000380 45 36 74 bd 2f 14 13 be 2f ad 81 bd c7 f6 e0 bc
       -0.059622068 -0.14363168 -0.0633186 -0.027461423
000390 f0 85 09 be e0 a7 f3 bd bf 1e 46 3b 44 a2 85 3d
       -0.1343 -0.11897254 0.0030230728 0.0652509
0003a0 ac 70 92 3c b6 58 02 3d 55 97 bc 3d 38 4d 97 3d
       0.017875992 0.031822883 0.09208552 0.07387775
0003b0 c1 82 4f bd fd c5 84 3c 1b ad 8a 3d 33 67 8b bd
       -0.050661806 0.01620769 0.067712985 -0.06806793
0003c0 b3 0b 8a bd 90 d4 e0 3a 3a e2 68 3d fa b9 18 3d
       -0.06740513 0.0017153192 0.05685637 0.037286736
0003d0 96 b4 3e 3d a8 40 0c bb 08 0b ae 3c c3 c6 75 bd
       0.04655894 -0.0021400843 0.021245494 -0.060004007
0003e0 61 d4 50 bc 5a 3d 92 bd bb 0d 39 3d 13 6a 92 3d
       -0.012745948 -0.07140608 0.04517911 0.07149138
0003f0 54 ab 9a 3d 92 64 99 bd 84 ba b5 bd ff 09 4c bd
       0.075522095 -0.074898854 -0.08873466 -0.04981422
