evaluation_results/models/list_npi_2020_2_24-17_22_21-4012-False-False-1.0-False-0.3-False-False-True-False.pth (torch_old, 965641 bytes, 16 tensors)

Mprog.weight f4 [5, 256]
00000000: 0557 4b3e 723e 4240 46b2 5d3f 1997 74be
00000010: 1729 adbf ec60 483f 2cf5 ca3f cfe2 cb3f
00000020: a11b 7d3e 9d1d 3e3f ec4d 903e c2e6 a1bb
00000030: 1cb6 f93e 64bc 9b3f 8706 30be fc41 40bf
00000040: ec51 5c3e f64a 923f 4bad 1abf c564 41bf
00000050: ec6b c63f 13ea 7c3f a4f0 0640 cb91 d1bd
00000060: 91a6 663f 59ab 6e3f 418e 063f d7f0 9f3f
00000070: fb47 523e aa45 983e 918b 5abe c40f a13f
00000080: 62f3 15bf 6533 9a3f 4047 8f3f 21db 203e
00000090: 99e9 1ebe b4f9 7dbc 0355 933f b81c 963f
000000a0: 4c3e edba 9012 f1bf 8712 a03e a979 d33e
000000b0: b467 bc3f 9d9c 443f f6e6 3abf e107 903e
000000c0: e299 30be af27 bdbe 9791 07be 2b41 a23f
000000d0: 76e7 aabf c275 5cbf 647c afbf 9b3e b23d
000000e0: 540a ee3f 4a56 f23d 797e a5bf 7f5d 9ebf
000000f0: e73f 35bf 1080 ed3d 99a1 873e 514c 51bf
00000100: a8bb b73f 92f1 e1be 2505 263f fb71 c33f
00000110: c422 d33e 6eeb 3c3e fbe0 c83e 2ce5 13c0
00000120: b4b8 993e 95bc 4ebf 8abf 493f 15af 28bf
00000130: 3d0c a0be a0af 253f 697b 93be be2a 85bf
00000140: eceb d53e 6c63 2dc0 9ebc 2fbf ac3e c93f
00000150: fce9 b4bf 357f 3dbf c157 72bf 17ec 6c3f
00000160: ba1d cabf 6937 323f bbfb c83e b75b 40bf
00000170: de2e 44be b7ca f23e 662e a2be 1eeb b13f
00000180: af4e 0f3f dd64 143f 0164 bbbf 7521 a0bf
00000190: b4d7 933f ac58 f3bd 9e79 2d3f 35c8 f6be
000001a0: 9269 3dbe baee eabe 6cd3 86bf ea56 ad3f
000001b0: bf51 e43f d80e 563b 6dd4 60bf 8d54 953f
000001c0: bb9c ab3e d7d2 c3bf 66a4 96bf 96c1 a6be
000001d0: deba 8fbf c6a5 0dbf f621 9cbe 5e80 0abc
000001e0: f432 ca3e c553 e13e 8211 3f3f 57a1 4cbf
000001f0: 4246 0dbf cbd4 0dc0 46e2 c0bf ed32 4a3f
00000200: 5d0f 623d 922b 32be bb59 17bf 4544 d0be
00000210: 8a18 f03f f066 d43f 8ae1 50bf a2f4 a23e
00000220: f41a 803e 2069 ca3f 8ad1 c2bd 77e5 8b3e
00000230: b197 8f3b 90bf 0e3f 8dab fbbe 2797 bd3f
00000240: 157f e5bd 0b54 13bf 6c03 343f 8712 61bf
00000250: a61a 8abf 1066 67bf 236c babf 006d 42bd
00000260: 71b2 1e3e 0a5b abbf c510 4d3f 8709 69bf
00000270: adb2 a8bc 012e 27c0 e147 c33f 12e4 32be
00000280: 57b0 a5bf 5d6e ef3f cc86 17bf 233a edbe
00000290: 4bb6 2cbf 625e 3bbf 3cfd 803e 3c1d eb3e
000002a0: 3808 12bf 79e5 0a40 548e 373e dadd e8bf
000002b0: 5983 1d3f a340 6b3f 1b4e 7abf 4a23 87be
000002c0: 2b7c 40bf 90c0 5fbe 0246 903f db49 bfbf
000002d0: fd5a 093f c6e0 15c0 f8dc ca3e e797 08bf
000002e0: df33 5ebf a3b4 84bf b398 73bf 1e9d 6abf
000002f0: 9fca 8b3e d6f7 ab3e c47d a03e 0ecf 7cbe
00000300: 68b0 b2bf f852 b6bf 0c9b b33f 0eac 9b3f
00000310: 5e92 12bf 7929 a63f aec0 73bf 997d d23f
00000320: 5a54 ee3d eec6 f53e 49d3 c83e d418 3ebf
00000330: 6410 8f3f eea8 d63f a0d3 02be a009 4b3f
00000340: 8241 0cbf 3f60 aebf d65f 973f 387c e13f
00000350: c658 d0bf dcce 41bf 2f86 f0bf 8109 b1bf
00000360: 3d47 9fbe 0c5c 8b3f bc02 6ebf 3b33 b5be
00000370: 8447 b1be d4da 7ebf f8d1 a43f 3e4b 0d3e
00000380: 7b00 513e 7ec5 953e 4c85 923e 2b55 e0bd
00000390: 9ef9 21bf 3460 ac3e 6994 f9be 1a4a a5be
000003a0: b429 42bf ff3d bb3f acc1 78be 2762 18c0
000003b0: f3c3 a9be 397d 803f f98a 39be b621 973e
000003c0: 9787 d63f 93fe 8a3f a334 72bf be10 be3e
000003d0: 74b5 aa3f db65 b23f 8572 81bc 1c66 01bf
000003e0: ac99 9ebe ac9e a4bf 80d2 a33e d8ce 85be
000003f0: ea72 a3be 414e 933f 9ca9 f4bd 3474 a4bf
0.19857414 3.0350614 0.8660015 -0.23885764 -1.3528165 0.7827289 1.585607 1.5928591
0.24717571 0.74263936 0.2818445 -0.0049408386 0.4877175 1.2166867 -0.1718999 -0.75100684
0.21515626 1.1429126 -0.60420674 -0.7554439 1.5501685 0.9879467 2.1084375 -0.10232886
0.9009791 0.93230206 0.5256081 1.2495373 0.20535271 0.2974065 -0.21342303 1.2582936
-0.585745 1.2046934 1.1193619 0.15708591 -0.15518798 -0.015501428 1.1510319 1.1727514
-0.0018100231 -1.883379 0.31264135 0.41303757 1.4719148 0.7680147 -0.7300867 0.2813101
-0.17246202 -0.3694434 -0.13239132 1.2676138 -1.3351886 -0.86117184 -1.3709836 0.08703347
1.8596902 0.118328646 -1.2929221 -1.2372283 -0.7080063 0.115966916 0.26490477 -0.81757075
1.4354143 -0.44129616 0.648516 1.5269159 0.41237462 0.18449184 0.39234146 -2.3108625
0.3002373 -0.80756503 0.7880789 -0.65892154 -0.31259337 0.6472111 -0.28805092 -1.0403669
0.41781557 -2.7091932 -0.6864718 1.5722251 -1.4133906 -0.7402223 -0.9466515 0.92547745
-1.5790322 0.696158 0.39254555 -0.75139946 -0.19158503 0.47420284 -0.31676024 1.3899877
0.55979437 0.57966405 -1.4639894 -1.251021 1.1550202 -0.11882147 0.677637 -0.4819962
-0.18497303 -0.4588526 -1.0533271 1.3542149 1.7837447 0.0032662656 -0.87824136 1.1666428
0.33518013 -1.5298718 -1.176892 -0.3256957 -1.1228902 -0.55331075 -0.3049466 -0.008453457
0.39492 0.44009224 0.7463609 -0.79933685 -0.5518533 -2.2161129 -1.5069053 0.78983957
0.055190433 -0.17399433 -0.5912129 -0.40677086 1.8757489 1.6593914 -0.81594145 0.31827265
0.25020564 1.5813332 -0.09512623 0.27323505 0.0043820967 0.5576105 -0.4915432 1.4811753
-0.112058796 -0.57550114 0.7031772 -0.87918895 -1.0789382 -0.9039011 -1.4564251 -0.04746723
0.15497757 -1.3387158 0.80103713 -0.9103016 -0.020593012 -2.6121829 1.5256311 -0.17469814
-1.294444 1.8705555 -0.5919006 -0.46333417 -0.67465657 -0.7319089 0.25193202 0.45920742
-0.5704379 2.170256 0.17925388 -1.8192704 0.61528546 0.918955 -0.9777543 -0.2639411
-0.75189465 -0.218508 1.1271365 -1.4944414 0.5365446 -2.341844 0.3962171 -0.53356785
-0.867979 -1.0367626 -0.95154876 -0.9164599 0.27303025 0.3358752 0.31345952 -0.2468836
-1.3960085 -1.424407 1.4031692 1.2161882 -0.5725459 1.2981406 -0.9521588 1.6444579
0.116371825 0.48003334 0.39223698 -0.74256635 1.1176877 1.6770303 -0.12776041 0.7931156
-0.54787457 -1.3623122 1.1826122 1.7616034 -1.6277092 -0.7570627 -1.879095 -1.3831025
-0.31109038 1.0887465 -0.9297292 -0.35390648 -0.34624875 -0.99552655 1.2876577 0.13798234
0.2041034 0.29252237 0.28617322 -0.109537445 -0.6327151 0.33667147 -0.4874604 -0.32283098
-0.75844884 1.4628295 -0.2429263 -2.3809907 -0.3315731 1.0038215 -0.1811942 0.29517907
1.6760129 1.085894 -0.9461157 0.37122148 1.3336625 1.3937334 -0.015801677 -0.5054643
-0.30976617 -1.2860923 0.31996536 -0.26134372 -0.3192361 1.1508256 -0.11946413 -1.2847962

encoder.l1.weight f4 [100, 44]
00000000: 2688 873e f3d5 263e d4d9 373e b278 c73d
00000010: 70ca ea3d 4abe a33d 5641 f8b9 734e 9bbd
00000020: 79cd 6cbd eb2d cbbd 42fe 663d a039 743d
00000030: 2d3d 75bd 7338 2f3d 810f 0ebc 1c9a 0c3e
00000040: 98a8 a73d 372f a33d 1565 f13c c657 bb3d
00000050: 0c39 bfbd db3a 04be cc5c b5bd 907e f6bc
00000060: 510a 82bc 0675 08bd 4f5c 83bd de6c 3c3e
00000070: 9be4 8b3d 3c6a 4f3e 63d4 e7bc 53d4 84bd
00000080: e3a9 4d3d 7ca8 bc3c 6f21 6b3c 7206 843d
00000090: aa6f 58bd 265d 713e cf3c c73d e910 263e
000000a0: dc7e a13d 74f1 523d 98cb 8b3d 532a 983a
000000b0: 7770 42bd 2eb2 2b3c 477d 63bb efab fe3c
000000c0: a5ce 813d 8e72 8dbd e2c4 a43d 2a41 1ebd
000000d0: 5e32 e23c d710 1abc a7ac 8d3e 3efd 563e
000000e0: 5535 c13d 2ab9 073e 4132 2f3c ebe7 a83d
000000f0: efba bebd 8449 86be 6d6a cbbd 54a4 33be
00000100: 34fd 24be acac c9bd ee0f 3abd 3cc3 063d
00000110: 9716 c33d 6319 ab3d fca4 703e 1590 863d
00000120: 2f30 783d 4444 ab3e 49a6 bf3d c8e6 0c3e
00000130: 4629 23be db09 4b3d a515 073e 4bd4 05bd
00000140: 5525 533e 5ea7 a33e e6fd de3d dde5 393e
00000150: 6d2c 45bd 6651 293e 1475 25bc 054e 87bc
00000160: a724 17be dbb6 42bd ee80 91bc 07a4 0d3e
00000170: 2faa e33d 8ee1 50bd e663 1b3e 0a86 77be
00000180: 195e ea3d 02ad 493e 01e5 a03c ed92 c93d
00000190: 8ceb 0d3e 7a79 363e eea4 76be 752c 08bc
000001a0: 9ed0 23be 44ad 83bd 8100 663e b7f7 45be
000001b0: d851 6bbc 80ba 393d bc8b 9c3d 6d7b 37bd
000001c0: 1c1c 82bd 786f c13d e747 7fbc 524d b6bd
000001d0: 4c45 223d 2334 873e 6f3f 083d c207 11be
000001e0: 82ee 3f3d 09f1 a5bd 1a27 a0bd b617 5c3d
000001f0: 8299 4fbe 8c4e f9bd 0f78 16bc b2b6 72bc
00000200: a1ad e1bd e45b e73c f474 0a3d 0cba 213e
00000210: 6e2a b8be 66c8 46bd e51f 1abd 3467 9dbe
00000220: 73a5 1e3d 6a80 0abd 2c15 3e3e d7d6 f63d
00000230: cfe1 8c3e 9125 0e3d 09d2 2a3e 1d32 5b3e
00000240: 6a6a cdbc 9ea4 0c3e f75e 853e d5a0 83bd
00000250: 8747 fa3d 4424 6cbe 7c7b abbd 2f4b 53be
00000260: 715d 23bd b0d8 4d3d 61b6 5abe 121e 13be
00000270: d898 353d d09d 56bd 598f 563b 0ade da3a
00000280: 277a 9d3d e66e af3d 2ee2 333d ef8e d0bd
00000290: 018f 0e3d 6f84 97bd 6c63 cc3c e1f6 183e
000002a0: 09ec 5c3d 7373 433e 5dc1 ae3c caef b6bc
000002b0: 6e75 8f3d acc4 22bc adde 8bbd dc85 9abd
000002c0: 2eab 873d ee8a 1ebd 1b69 6d3d 9143 9c3d
000002d0: c623 ec3d 3858 db3b 9135 033d 9907 0dbd
000002e0: 63c1 893d c9a4 81bd 7c9b 8bbe d8f8 42be
000002f0: 808f a5bd 9adf 03ba 5ef2 cc3d 63b2 953d
00000300: e79e 073e c339 0d3e 0c7c 663e eb33 213e
00000310: beb3 48bd 5f0b d1bc 2954 bc3d 933e 023e
00000320: 1757 a93c b3dc f43b b8ef c6bc 43a2 223d
00000330: 3309 cd3b c063 e9bd 915f bb3d 999f 5e3e
00000340: 6cf3 5ebb 5b55 863c b440 613e 9d66 f23c
00000350: 2e7c b53d 7253 853b b3ff 323e 2e6b 52be
00000360: 3940 d43d 74ef b63c e96e 2fbd fd9d ea3d
00000370: 2d52 623d 2289 1cbf 5413 a4bb 7f9a a33d
00000380: 3b61 e43d bbe4 013d 5ea1 2a3d cd4c 7f3c
00000390: ff7e 15bd 5901 053c f495 dc3d 06bc 08be
000003a0: 29d6 be3d 4ee1 653c 97d1 65ba e80f c73d
000003b0: 8f2c a9bb 9565 963d d382 0e3d 94b2 81bc
000003c0: 92a3 243e 0833 b8be 4cdb 2ebd f520 a63d
000003d0: 14b7 97bd bebc 2cbd 1d3d d03d 741e 513d
000003e0: 7914 8c3d f47a 373e aab5 40bd 86f5 ce3d
000003f0: 54a9 7c3d ed1f 3b3d 2aaa c4bd 8934 6b3d
0.2647106 0.16292553 0.17954189 0.09739818 0.11464393 0.07995279 -0.00047350925 -0.075833224
-0.05781314 -0.099208675 0.056394823 0.059625268 -0.059872795 0.042778444 -0.008670689 0.13730663
0.081864536 0.0796799 0.029467145 0.09147601 -0.09337053 -0.12913077 -0.0885559 -0.030089647
-0.01587406 -0.033314727 -0.06414091 0.18400905 0.068307124 0.20255369 -0.028299516 -0.0648581
0.050210845 0.023029558 0.014351233 0.06446542 -0.052840866 0.2357069 0.09728395 0.16217388
0.07885525 0.0514998 0.06825942 0.0011609293 -0.047470536 0.010479493 -0.0034712122 0.031087844
0.063382424 -0.06906615 0.08045365 -0.038636364 0.027611908 -0.009403429 0.27670786 0.20995042
0.094340004 0.13254228 0.010693134 0.0824736 -0.093129985 -0.26227963 -0.099324085 -0.17543155
-0.16112214 -0.09847388 -0.045425348 0.032901034 0.09525793 0.083544515 0.23500437 0.0657045
0.060592826 0.3345052 0.09357888 0.13759911 -0.15933713 0.049569946 0.1319185 -0.03267316
0.2061971 0.3196363 0.10888271 0.18154092 -0.04813807 0.16534957 -0.010098714 -0.016516695
-0.14760076 -0.047537666 -0.017761674 0.13832103 0.11116444 -0.050996356 0.15174827 -0.24172226
0.11443729 0.19694903 0.019640448 0.09842477 0.13859385 0.17819777 -0.24086353 -0.008311381
-0.1599755 -0.06429532 0.2246113 -0.19332777 -0.014362775 0.045343876 0.0764384 -0.044795442
-0.06353018 0.09445089 -0.015581108 -0.089014664 0.039616868 0.26406965 0.03326362 -0.14163116
0.04685832 -0.081026144 -0.07819958 0.05373355 -0.20273402 -0.12173185 -0.009183898 -0.014814066
-0.11019445 0.028242059 0.03380294 0.15793628 -0.3596987 -0.04853096 -0.037628073 -0.307428
0.038732003 -0.03381387 0.18562764 0.12052696 0.27516028 0.034703795 0.16681685 0.21405835
-0.025075156 0.13734671 0.26049015 -0.06427161 0.12220674 -0.23060709 -0.08373162 -0.20634149
-0.039884035 0.050255477 -0.21358635 -0.1436694 0.044335216 -0.052396595 0.003273925 0.0016698253
0.07689314 0.08566074 0.043916874 -0.101835124 0.034804348 -0.073983066 0.024949752 0.14937927
0.05393604 0.19087009 0.021332437 -0.022331137 0.0700482 -0.009934586 -0.068295814 -0.07545063
0.06624447 -0.038706712 0.057961565 0.07630075 0.11530261 0.006693866 0.032033507 -0.034431074
0.06726339 -0.063302584 -0.27267063 -0.19040239 -0.08084011 -0.00050305726 0.10007165 0.07309415
0.1324421 0.13791566 0.22508258 0.15742461 -0.04899954 -0.025518117 0.0919574 0.12719183
0.02067141 0.0074725985 -0.024284229 0.039705526 0.0062572 -0.11395979 0.09149087 0.21740569
-0.0034019602 0.016398123 0.21997339 0.029589945 0.08861576 0.0040687853 0.17480354 -0.20548698
0.10363812 0.022330977 -0.04283038 0.11455915 0.05525415 -0.6114675 -0.005007187 0.07988452
0.11151358 0.031712275 0.041657798 0.015582276 -0.036498066 0.008117997 0.10770789 -0.13352975
0.093181916 0.014030768 -0.0008766888 0.09719831 -0.0051627825 0.07343594 0.034792732 -0.015832223
0.16078022 -0.35976434 -0.042689607 0.08111755 -0.07407966 -0.042172186 0.101679064 0.051054433
0.06839842 0.17917997 -0.04704825 0.10105424 0.06168492 0.045684744 -0.09602769 0.05742315

encoder.l1.bias f4 [100]
00000000: ba3b f13b e882 84bc ba0f 8b3d 2a98 6d3d
00000010: cb90 a33c 2635 73bc 58c0 413c 3f60 153e
00000020: d55e 5d3d f41c 5b3c 8acb d23d 81bf a4bd
00000030: cf31 4b3c 52e5 b03c 92ab 6d3c f96a 65bd
00000040: d38c 49bd eb5a 81bd ead4 73bd 7891 a53d
00000050: 6625 58bc f9fc 85bc 678b aa3c 05c7 eb3d
00000060: 4be1 26bd e46c 643d b9c0 9e3b 87d2 cb3d
00000070: 6c32 b5bd 6b4b 013e cc8d edbd 1553 373d
00000080: f66b fb3d 5898 8d3c 6858 0b3e ac34 c63d
00000090: cd2f 133d 1396 063d bd51 b33c 0133 c83c
000000a0: fe5e 9abc a8d0 a33d f52f 863d 9fb6 dc3c
000000b0: 1e2e 5a3d 7889 4d3d 9fb0 963d 96d0 263c
000000c0: 1bbc 263d fd87 18bd fb15 cabc 97d1 3ebc
000000d0: c80e 843d d86d b43d 1fe6 cf3c c13a 64bc
000000e0: 4a1a 593d 0bf8 eebc e3aa 913d d23e 813d
000000f0: 53f2 55bd 96a4 3d3d 4f7f 313d c1d1 bb3d
00000100: 3dc8 4fbd bfe7 3fbd 11af 833c 6745 163d
00000110: 6937 eb3d 657c 103d 0164 5dbd 9770 d83c
00000120: 1f95 973d 2849 f23d c063 d73d 77be b43d
00000130: a15c 9e3d f87c cbbc d7b0 e9bc f183 aa3d
00000140: f9a6 12bd 18d8 033e b70e 8cbd 4ca9 613d
00000150: a4d5 d73d 6f93 0d3e 0e10 ffbc fad8 b13c
00000160: 9426 5e3d a6ee e73c 577e 4abd 3868 153d
00000170: 8418 9c3c 09d1 0a3d a4a9 8d3c b28a f43b
00000180: f996 a7ba 0d6c 5ebc 4077 363c dfe9 9ebc
0.0073618563 -0.016175702 0.06790109 0.058006443 0.019966504 -0.014844215 0.0118256435 0.14587496
0.054045517 0.013373602 0.10292728 -0.08044339 0.012402012 0.021593723 0.014506238 -0.05601022
-0.049206566 -0.06316169 -0.059529223 0.080843866 -0.01319251 -0.016355978 0.020818425 0.11512569
-0.0407422 0.05576791 0.0048447517 0.09952264 -0.08847508 0.12626426 -0.11599311 0.044756968
0.12276451 0.017284557 0.13607943 0.09678015 0.03593426 0.032857966 0.021889562 0.024438383
-0.018844124 0.079987824 0.06552116 0.02694255 0.053266637 0.05017993 0.073579066 0.010181567
0.040706735 -0.037239064 -0.024668684 -0.01164665 0.06448132 0.088100135 0.025378285 -0.013930024
0.053003587 -0.02917101 0.07112672 0.0631081 -0.05223305 0.04629954 0.0433343 0.09170867
-0.05072807 -0.04685187 0.01607469 0.03668728 0.11485178 0.035274882 -0.05405045 0.026420875
0.074014895 0.1183036 0.10517073 0.08825391 0.07732511 -0.024839863 -0.028526707 0.08325947
-0.03580377 0.12875402 -0.06838744 0.055093095 0.105387956 0.13825773 -0.031135585 0.021709908
0.05423601 0.028312039 -0.049436893 0.036476344 0.019054659 0.033890758 0.017292805 0.007462823
-0.0012786082 -0.013575566 0.01113683 -0.019398628

encoder.l2.weight f4 [32, 100]
00000000: cfd0 f8bd 8869 63be 15da 553e 9ce8 793e
00000010: 3a37 8f3c e67b 45be 2ee6 883d 6809 153e
00000020: d9eb 91bd bd47 08bf 04d1 c63c 2976 fdbb
00000030: 24ef 8d3e 8956 03be 1193 e1bd 5141 233e
00000040: 7d6e 4dbd 0f5c 203e b9d9 26bd 8f48 bb3d
00000050: 542b 30be 1f1d 7d3b 1b9a 5cbe 544b 853d
00000060: ff68 a13d 0094 19be a7ee 87bd 3f19 913d
00000070: 6cdb 87bd 8c36 093d af7f b1be 0906 b93c
00000080: 7fdb 30be c272 3e3d 4297 d83c cb7a 973e
00000090: 6483 4cbe 62be 5bbe c796 2abe 1470 cebd
000000a0: da29 ab3e bb39 c3bd 52b3 1dbe bdba 733d
000000b0: 0555 a43e 3445 803d f231 46be 33f1 833e
000000c0: d39b 13be cf2a 9f3e 8e38 2f3c 6556 1e3e
000000d0: 7fa1 55bd 2454 533e 9869 adbd b234 c53e
000000e0: de88 53be e826 7ebe 9ea0 733e c9ec a33c
000000f0: b5f3 f5bd 2283 19bd 2d8e acbd 9e27 ac3e
00000100: c937 c43e a923 aebe aa06 23bd 63d8 99bd
00000110: 82dd 513e e5d4 c73c 19fc 96bc 81d7 05bd
00000120: 612e 9dbc f4f0 82bd 40e1 323e 6ef5 b3bd
00000130: 9d96 283e f863 813e d1e4 8e3e c2ab ae3d
00000140: 1b6d a93d 7e28 823e 4d13 06be b79e 413e
00000150: c195 11be 9504 2dbe 4b6f 163c 514e 9bbd
00000160: e4e5 f83e 0c67 54bd 0ea5 61bd 78f4 163e
00000170: d7e0 86be acb5 25be 5cfd 2b3e a82a f43d
00000180: b456 803e aee5 19be ff7a 8e3e a6a0 073e
00000190: d053 4c3e aa5b 6f3e 89d8 d7bd 6112 2abd
000001a0: 4e85 80bd d097 fcbc 992a 583d 2baf da3c
000001b0: 742a 473e 3b11 4d3e 0797 1d3e ae31 5f3e
000001c0: 814b 83be 7c57 f13d 5990 0f3d d611 8d3e
000001d0: b242 933e 6f61 c7bd aa21 80bd e0d0 943d
000001e0: 35e0 1a3d 89bc 983d e136 403e b01b c4bd
000001f0: 3a41 7f3e 8f28 2a3d 06f9 b03e 3cc3 b83d
00000200: 8dbf 82be f5be babc 3e02 c4bd 26d7 603d
00000210: 1304 0c3e 21bc 07be d656 a8bd 27d3 b1bd
00000220: 8c48 153c 0027 ad3e 1708 f23c 09e4 efbc
00000230: 3ae5 6f3d 98f3 c2bd f4f2 1c3e a155 973e
00000240: a1de 30be 89de aabd 34e6 123e a218 11be
00000250: a574 04be 5ecf 5ebe 2b16 a23c 6dd2 19be
00000260: 6b0c 2a3e 2315 173c d26f 90bc 239d 1f3d
00000270: 2331 613e 426e 513e e7a6 5ebe 78a7 34bc
00000280: f833 f03e e22b cf3d 1bc3 2c3e c275 2ebe
00000290: 6517 c8be aeb6 073f 2d83 3f3e 3e4a 94be
000002a0: 54f3 753c 341a f9be dc28 893e 1be2 71bc
000002b0: 66bf b2bd 9a37 64be ee0c 37bd fc3f 6a3d
000002c0: 1102 a2bd 98ac 063e e84c e3bc 8893 323d
000002d0: dec8 0d3e 142c 58be da1d c13e b544 0abe
000002e0: dc6b 26bd dfcc 88bd 9a98 babd dbbe 583e
000002f0: b686 08be 98e6 3bbc 6444 b43e ed31 47bb
00000300: e4d5 cc3c 3c3f 203e e7b1 513c 70e5 f9bd
00000310: 50b9 263c 87ef 0ebe 51ec a2be 7867 28be
00000320: efcb 003e 0af4 adbe 64ea 383d e1a1 29be
00000330: e054 363e 4b27 09be 7e50 afbd 4d6f 263e
00000340: bbcb 18be 50a7 103d 7c56 223d 6adf 11bf
00000350: 5e03 c03c e81f 293d 7442 dcbe 1eeb a2be
00000360: cdaf 90be 0732 0e3e 3562 0bbe 14a3 91bc
00000370: c4db 6d3d ce2f 0f3b 028e 8cbd dc65 323e
00000380: c3ee c0be d805 90bb ac94 12bf 76cc e4be
00000390: ba94 a73c cd90 013d 8510 d73d 4033 2d3e
000003a0: c58d 0cbe 9a92 053e 905d de3d 5a53 0e3e
000003b0: 1dd1 633d 8008 f3be 2906 e83c 925c 53bc
000003c0: 7ab2 b83d 3d89 ab3d 3a9d 92bc 1b8d c3be
000003d0: 227c 6c3d b131 52be 0f45 693c 1e8d 15bd
000003e0: 5207 943d 6975 68be cd2e 8c3d a575 8ebe
000003f0: d5b9 90be b35f 39be 87ff 313e 5ea9 9abe
-0.12149202 -0.22208226 0.20883973 0.2440514 0.017482389 -0.19285545 0.06684528 0.1455437
-0.071250625 -0.53234464 0.024269588 -0.007735033 0.27721512 -0.1282598 -0.11014379 0.15942885
-0.050154198 0.15660118 -0.04073498 0.09144699 -0.17204028 0.0038622094 -0.21543162 0.06508508
0.078813545 -0.14997864 -0.06637316 0.070848934 -0.06633648 0.033499286 -0.34667727 0.022585886
-0.17271231 0.04649616 0.026439313 0.2958587 -0.19971997 -0.21459344 -0.1665908 -0.10079971
0.33430368 -0.095324956 -0.15400437 0.05950426 0.32096115 0.062631994 -0.1935499 0.25769958
-0.14414911 0.31087348 0.010694636 0.15462644 -0.052155968 0.20637566 -0.08467406 0.38516766
-0.2065768 -0.24819529 0.2379174 0.020010369 -0.12009374 -0.037478574 -0.084255554 0.33623976
0.3832381 -0.34011582 -0.039801277 -0.075119756 0.20494655 0.024393508 -0.018430756 -0.032676224
-0.019187154 -0.063936144 0.17468739 -0.087870464 0.16463704 0.25271583 0.27908948 0.08528854
0.08272763 0.25421518 -0.130933 0.18908201 -0.14217283 -0.16896279 0.009181808 -0.07583297
0.48612893 -0.051856086 -0.05508905 0.14741695 -0.26343414 -0.16182584 0.16795868 0.119221985
0.2506615 -0.15029022 0.27828214 0.13244876 0.19953847 0.23374811 -0.10539348 -0.041521434
-0.06275426 -0.030834109 0.052775 0.026694855 0.19449788 0.20026104 0.15389644 0.21796295
-0.25643542 0.117842644 0.03504977 0.2755267 0.28761822 -0.09735381 -0.06256421 0.07266402
0.037811477 0.07457835 0.18770935 -0.095755935 0.24927226 0.041542586 0.3456499 0.09021613
-0.25536767 -0.022796134 -0.0957074 0.05489268 0.13673429 -0.13255359 -0.08219688 -0.08682852
0.009111535 0.33818817 0.029544873 -0.02928354 0.058568217 -0.09519118 0.15327054 0.29557517
-0.17272426 -0.083432265 0.14345628 -0.14169553 -0.12935121 -0.21758792 0.019785961 -0.15021677
0.166063 0.009221348 -0.017631445 0.038968217 0.219914 0.20452216 -0.21743356 -0.011026256
0.4691465 0.10115792 0.16871302 -0.17037109 -0.3908035 0.5301312 0.18702383 -0.28962892
0.015011627 -0.48652804 0.26788986 -0.01476338 -0.087279126 -0.22286835 -0.044690065 0.057189927
-0.079105504 0.13151777 -0.027746633 0.043597728 0.13846156 -0.21110564 0.37718087 -0.13502772
-0.040630206 -0.06679701 -0.09111138 0.21166556 -0.13332638 -0.011468552 0.35208428 -0.0030394748
0.025004335 0.15649122 0.012798763 -0.12201965 0.010176018 -0.1395856 -0.3182092 -0.1644572
0.12577794 -0.3397525 0.045145407 -0.16565658 0.17805815 -0.13393895 -0.085602745 0.16253395
-0.14921467 0.03531581 0.03963326 -0.5698153 0.023439106 0.041290194 -0.4301945 -0.31820005
-0.28259125 0.13886271 -0.13611682 -0.017777957 0.058070913 0.0021848562 -0.06863023 0.17421669
-0.3768216 -0.004395228 -0.57258105 -0.4468724 0.02045666 0.031632233 0.10501198 0.16914082
-0.13725956 0.13044205 0.108576894 0.13898984 0.055619348 -0.47467422 0.02832325 -0.012900488
0.09018417 0.083757855 -0.017897237 -0.38193592 0.05773557 -0.20526768 0.014237656 -0.036511533
0.07227959 -0.22701038 0.06844864 -0.2782413 -0.2826678 -0.18102913 0.17382632 -0.30207342

encoder.l2.bias f4 [32]
00000000: 5eba 9abd 7434 793c d036 843d be36 a3bd
00000010: 8693 0abc 8c53 f639 2f18 653d 3be7 0b3e
00000020: 373d 873c a20c 8abd 3c59 27bd 5dbe 303d
00000030: 15d2 ec3c f9af aa3d ba60 86bd e675 61bd
00000040: 8465 ba3c b0e3 a8bd e44c 0f3d 9862 163d
00000050: 9f67 92bd ff87 363d cf5b 97bd 3f82 603c
00000060: e504 443d 8197 a0bc 9cc0 42bc 8cca 0e3c
00000070: 94a5 0e3c a272 d8bc 667d c43d 6eb3 7cbb
-0.07555078 0.01521026 0.06455767 -0.079694256 -0.008458024 0.00046983024 0.055931266 0.13662426
0.016508682 -0.06740691 -0.040856585 0.043150295 0.028908769 0.08334345 -0.06561418 -0.055044077
0.022753485 -0.08246553 0.034985438 0.03671512 -0.071486704 0.04456329 -0.07390558 0.013702928
0.04785623 -0.019603493 -0.011886742 0.008715283 0.008706469 -0.026421849 0.0959423 -0.0038559097

lstm.weight_ih f4 [512, 288]
00000000: 1e25 a63d f0f1 81bd 5e06 f53d 8964 2b3d
00000010: 4383 eebd e1ae 5abd 0a81 d1bd 8020 03be
00000020: 0b27 cfbd fe8e ab3c 1d70 983d d20f 6abd
00000030: cbed 003e a238 ac3c c338 d53d 7d2b 5ebe
00000040: 017b 95bd 590b 433e 38ca 1c39 64e7 44be
00000050: 8605 8b3d 8dab 41be 82cb 003d 37d7 0cbe
00000060: 3109 013e d6cb 263e 508f 2a3e c32f dd3d
00000070: c98d a2bc d0b5 223d 0c5a d13d 617c 243e
00000080: f6b9 053e ddc7 14bc fc0f 3a3c f1c0 a2bd
00000090: 45ec 0abd a51f 8fbd cc13 f43c 63f7 02be
000000a0: 7852 00bd 656c a1bc 0bda abbd 9940 fbbd
000000b0: 2429 b2bd e5a4 d0bc fa4b d8bd 23b2 8bbd
000000c0: ce5d 293e 68d6 09bd 5ef9 6f3d 6638 41bc
000000d0: 2ca4 11bd 6374 c3bd 50a7 723b b23e aabd
000000e0: 5876 403d 44d3 b3bc 6428 143d c652 adbc
000000f0: 0d94 07bc f658 05be 842d 8bbd 4bb6 ddbd
00000100: 3695 d0bc 14a8 babc 8e0c 5cbc 2c3c c1bd
00000110: 8ecf 563d 8425 09be 56d6 a73b 8dde a2bc
00000120: ac02 c13d c266 a83d 828e 143e d04b 513c
00000130: 7a88 c83d 8778 96bd 78dc 8fba be23 e7bd
00000140: e52e 10bd 742f ebbc 18bf 7fbd 681e f6bc
00000150: 67b8 8e3c 3137 d13c 0b43 dd3c c7f8 263d
00000160: 1ac5 90bb f4cb 93bd acaa c1ba 4399 2b3c
00000170: b0f1 0abc 8370 3cbd 783b 603d a06c b93d
00000180: 950d 9cbb cd47 8a3d d807 5f3a c339 b03d
00000190: 71d4 2c3d a5d9 00bd 4bca 9d3d a043 fb3d
000001a0: 222a 81bd d499 e1bd 2797 4abd f62c f13d
000001b0: e585 a13c 8119 183d da65 37bd 519f ed3d
000001c0: 2854 c8bc bf62 cd3b 02e8 803d 91da 393d
000001d0: f2b6 933c 4381 733d 2e53 473d 2ab6 0abd
000001e0: 0d64 e0bd 247c 98bc ef79 4bbb 00d7 ac3c
000001f0: 8066 99bd 0e22 2abd d739 f0bd 8277 b4bc
00000200: ed59 9cbd e825 54bd 5d97 7bbd cf47 b23d
00000210: 0886 763d 7ba6 f73d 224e 883d d2cc 77bd
00000220: 78c9 c83d d6d2 32bd 850a d93d 17a1 7fbd
00000230: 29e3 f6bb bb67 fabd fe9c 44bc 09ee b53c
00000240: 0187 d73d de1f 263d eeb6 a43c fbea a93d
00000250: a9c4 1fbd 8bc0 b7bd 9a59 363d f4ce 973c
00000260: f42a 8b3d 46b2 ba3b 441b 85bd 35bc f5ba
00000270: 3721 0e3e 08b1 113b b21c 8ebd 0449 52bd
00000280: be29 52bd 0b3f 68bd 0898 93bc 6872 bf3d
00000290: 0efb 8f3b ab16 df3d 8d12 88bb 8a17 033e
000002a0: e04e 613d c4f8 7739 0df9 8d3d 4a69 40be
000002b0: 0130 113e 7d07 8dbd 47ad e2bd e8d4 353d
000002c0: 24ee ddbd ab96 17bc 8dd7 4b3d e2ca 123b
000002d0: 81ab bcbd 4dc2 2bbd 51d8 43bd aac0 f43c
000002e0: db96 a6bc 5c51 afbd 7b10 0e3d 7b7a 08bd
000002f0: c443 4a3d 11d7 3bbd ab9d 9f3c 889c acbd
00000300: a8e8 31bd 16bc dcbc b014 c4bc ed2d a33c
00000310: d4aa 693d a27a 8abc 8889 f9bd a13a 3abd
00000320: 6c0b e53d c7db 6dbc 5e77 c9bd 3528 91bd
00000330: 1271 5cbc ebe5 2dbd 92b2 723d 4aab e0bc
00000340: 6d78 1f3d ca99 c2bd cbe4 babd 2310 8b3d
00000350: b0e2 983d db3e c53c 0808 df3d 5a3b 0dbe
00000360: 0a86 14bd d5d7 023d f6a8 023e 0d84 a33d
00000370: f6fe 4bbe 187a c2bc 040c 1fbd 1898 b63d
00000380: 7400 d63d 7e2d 253d 359f 75bc 6b00 c5bd
00000390: bdd0 9e3c 4436 a63d d5f2 07be 26da 68bd
000003a0: 459e 68bd 1001 b3ba d956 fc3c 001d 6fbd
000003b0: 2b61 f7bc 2bff 82bc 7fc5 f13d 474c 1ebd
000003c0: 34b0 923d 9bd2 a63d 9739 143c 2f8e 663d
000003d0: 3f08 ad3d d1cd 483d 4764 693d 5d47 953d
000003e0: c491 95bd ff20 17be d73a 7fbd 20b5 263d
000003f0: 2563 df3b a10b 48bd b4bf 9ebd 4bce 753d
0.08112548 -0.06344974 0.11964105 0.041843925 -0.1164613 -0.053389434 -0.102296904 -0.12805367
-0.10114869 0.020942207 0.07443259 -0.057143994 0.12590711 0.021023098 0.10411217 -0.21696277
-0.07298852 0.19047298 0.00014952652 -0.19228894 0.06788163 -0.18913098 0.03144408 -0.13753973
0.12601162 0.16288695 0.16656232 0.108001254 -0.019842999 0.03972417 0.10222253 0.16063072
0.1305922 -0.009080854 0.01135635 -0.07946957 -0.03391673 -0.069884576 0.029794596 -0.12789683
-0.03132865 -0.019705007 -0.08391198 -0.122681804 -0.08699253 -0.025469253 -0.105613664 -0.06821086
0.1653969 -0.03365174 0.058587424 -0.011793232 -0.035556957 -0.095436834 0.0037025996 -0.083127394
0.04698786 -0.021951325 0.036171332 -0.021157634 -0.008275044 -0.13022217 -0.06795791 -0.10825785
-0.025461774 -0.022785224 -0.013430728 -0.09435305 0.052444033 -0.13393217 0.0051219864 -0.019881511
0.09424338 0.082227245 0.14507487 0.012774423 0.09791656 -0.073472075 -0.0010975739 -0.11286114
-0.035200972 -0.02870915 -0.0624381 -0.030043796 0.017421914 0.025539013 0.027009508 0.040764596
-0.0044180276 -0.07216635 -0.0014775596 0.010473552 -0.008480474 -0.046005737 0.054744214 0.09053922
-0.0047623613 0.06751976 0.0008507944 0.08604767 0.042194787 -0.031457562 0.077046 0.12268758
-0.06306864 -0.110156685 -0.049460556 0.11776154 0.019717166 0.037133697 -0.044774868 0.11602653
-0.024454191 0.006267875 0.06294252 0.045374457 0.018031571 0.059449445 0.04866331 -0.03386513
-0.10956583 -0.018613882 -0.003104802 0.021098614 -0.074902534 -0.041536383 -0.11729782 -0.022029642
-0.076343395 -0.051793963 -0.06142365 0.08705103 0.060186416 0.120923005 0.06655528 -0.060498066
0.09804052 -0.0436581 0.105977096 -0.062409487 -0.007534404 -0.12226816 -0.0120003205 0.02220823
0.10523797 0.040557735 0.020106759 0.08296772 -0.03900591 -0.089722715 0.044519044 0.0185313
0.06795302 0.0056975214 -0.06499341 -0.0018748107 0.13879858 0.0022230763 -0.06939067 -0.051339164
-0.05130934 -0.056700747 -0.01801683 0.09347993 0.0043939417 0.108929954 -0.004152602 0.12801948
0.05500686 0.00023648428 0.06932268 -0.18790165 0.14178468 -0.06886194 -0.11068206 0.044392496
-0.10836437 -0.009252231 0.049766112 0.002239876 -0.09212399 -0.041933347 -0.047813717 0.029877026
-0.020335605 -0.0856044 0.034683686 -0.03331993 0.049381033 -0.0458594 0.019484362 -0.084282935
-0.04343477 -0.026945155 -0.023935646 0.01991936 0.05704768 -0.016904179 -0.12184435 -0.04546607
0.11183819 -0.014517731 -0.098372206 -0.07087747 -0.013454692 -0.042455595 0.05925233 -0.027425427
0.038933206 -0.09501989 -0.0912567 0.06790187 0.07465112 0.024077823 0.10890204 -0.13792172
-0.036260642 0.031944115 0.12759766 0.07984171 -0.19921479 -0.02373986 -0.03882982 0.08915728
0.10449305 0.040326588 -0.014991571 -0.0961922 0.019386644 0.08115819 -0.13276227 -0.056848668
-0.056791563 -0.0013656933 0.030803131 -0.058377266 -0.0301977 -0.015990814 0.118052475 -0.038646962
0.07162514 0.081456386 0.009046934 0.05628794 0.084488384 0.049024407 0.056980398 0.07289002
-0.07303193 -0.14758681 -0.062311973 0.040700078 0.006817239 -0.048839215 -0.07751408 0.06001119

lstm.weight_hh f4 [512, 128]
00000000: 47ca 68bd 3695 863e 1e35 f3bd 563c 2f3d
00000010: d930 7cbd dfe4 18bd fb02 45bd f865 e63d
00000020: 3364 36be 8e15 e4bd 2711 373d 5372 7b3d
00000030: 844c 3cbe 8d8f 853c 1f5c 603d cc2f ddbd
00000040: d207 7abc 686c 8f3d 3206 fa3d 56ed 143c
00000050: 2fa1 e9bd e947 c83d b2d1 0c3c 86a2 89bd
00000060: b1b1 87be 0fc7 14be 6ba6 c9bd 3c0c 873c
00000070: 9c10 c8bb 4c0d 0e3c 4bd4 6a3d 60a1 b6bd
00000080: 14f4 db3d 0aa7 5f3c 2c54 ad3d f742 b4bd
00000090: 51aa 5eba 695b 63bd a761 313e 0d3b 1a3e
000000a0: beb2 9ebd fd60 113d 30ca ddbd 6c62 4fbe
000000b0: ae62 51bd 1960 913d 64ae d13d 7a53 8dbc
000000c0: b09a 4c3c 9fbd 4fbc 9ddb 80bd 5d16 1c3e
000000d0: 5379 4b3e 2697 01bc d98e 3bbe 1ad2 943d
000000e0: 9c03 25bd 6e45 49be 3a40 13bd 1c08 e83b
000000f0: 4fb1 34be 6ac6 473c 243b 00bd 399a 23be
00000100: 00d4 f33d 362e 17bd bc08 da3d 9cea ddbc
00000110: b313 2abe a7c0 76bc bd90 173d 2c44 7bbd
00000120: c1c6 26bd b11f 673e eae8 133e e430 a03d
00000130: 005d 70be b0fd 013d f8fc 733e bb62 ef3d
00000140: 760d 33bd 6ac2 37be 46f9 863b 2888 4cbc
00000150: 2f95 553d 46a4 99bd b6d9 c9bd 661c 0b3e
00000160: f8c4 71bc c205 033e d54a 24be 58c7 853d
00000170: 6a3e 063d 423c 2fbe 8eba 993d 4624 be3d
00000180: 4511 e43c 6c60 aabd 63c7 e83d 61ec 3dbd
00000190: 3bca b7be 8e87 b93d 7730 0fbe 8cf9 0c3d
000001a0: 2101 0d3d 5347 e93d 20f2 af3b 483e f0bc
000001b0: e36b 8d3d 327b 2a3d 9a30 9c3c 4ebf 3b3d
000001c0: 27e9 fc3d 0f6d fa3c 1bd3 9b3d 0bf3 97bd
000001d0: 5f50 903d f858 1d3a 8cb7 babd d18a bf3d
000001e0: a17a 4a3c 414a c0bd 7621 9c3d 09d9 6dbd
000001f0: cb56 70bd 5893 353d 363c 2dbd 3114 ffbd
00000200: 80c3 e23b 3231 c1bd 40fc 3d3c 7452 f73d
00000210: bc51 da3d 7eab 17be 0b50 5ebe cd6b 0bbd
00000220: dedc d0bd ec18 97bd b14b d3bd f699 6e3d
00000230: 6ad6 3dbe ac8b 1ebc 1e0a af3d ebe0 dd3c
00000240: 2a6d 053d 28d1 0bbe 5789 df3d 7bf0 373c
00000250: 1722 223e 4b9f 9cbe 5a03 9dbd 00e3 ac3d
00000260: 128e 12bd 6dd3 d93d 6c48 ac3d e2e4 333d
00000270: 5080 be3d 1fbf 833b 53ef 1fbe 9020 ddbd
00000280: 355d a3be 9baa 8d3d d154 61bc d852 fe3d
00000290: 2c21 1e3d 9582 963d 3090 963d 4f20 2dbe
000002a0: b269 94bd 7596 a5be 09c6 1a3e 1628 44be
000002b0: 7fa5 cdbc 89c0 243e a227 9a3d 6dcb 32be
000002c0: 545f 5a3d a8de 3bbd 40b0 bf3d 6bab 353e
000002d0: 3efc 2fbe 3f7c 00be 9e16 5c3e e6f9 06bd
000002e0: 15e3 64be 5b99 2a3c ae99 2e3c ef82 8e3e
000002f0: 52c0 babd 72d4 b8bb db74 b63d 4a80 86bd
00000300: e2e9 1f3d 7a3c a03b 9095 b9bd 06e1 f9bc
00000310: 0118 393d 8c36 463e 79a6 383e 41b2 71bc
00000320: e4dd 99bc 49f9 0d3d f501 3a3b 5ea6 323b
00000330: 5cc1 6c3e 5069 c8bd aa7e ad3d be82 d1bd
00000340: c6a6 cabd 8d16 993a 4996 703d 0bd1 a7bd
00000350: a219 0d3e 836a c6bd 3f1c f03d 01ff 80bb
00000360: 68c0 06be 01f8 553d 7111 b6be 4dea dbbd
00000370: 1815 913c 6577 b03d 2c43 cfbd 2a96 5fbe
00000380: 6de4 05bd a71d 9b3d f883 1a3d 7193 ef3d
00000390: 8824 333e 5947 3e3e de7e 133d 4092 283b
000003a0: 04ec cbbd 6753 f4bd a230 e83d 7a72 973e
000003b0: 651c 38bd c7a8 093e b1de e6bd b6a6 a43d
000003c0: 3f9a 1b3c 421b 653d 98e9 babd ef32 8d3c
000003d0: f6b7 143e 0de0 d43d 9421 233d 3ec6 353d
000003e0: aad7 493e cf74 3cbe ae4d 1c3e 8407 21bd
000003f0: 5de3 883d e9c8 5c3d 8046 59be e8b6 123d
-0.05683353 0.26285714 -0.11875366 0.04278215 -0.061570022 -0.037327643 -0.048098546 0.11249918
-0.1781166 -0.11136924 0.044694092 0.061388325 -0.18388563 0.016303802 0.054775354 -0.10800132
-0.015260654 0.07003099 0.12208213 0.009089788 -0.114076965 0.09779341 0.008594917 -0.06720452
-0.26502755 -0.1452906 -0.09846195 0.016485326 -0.0061054956 0.008670162 0.057331365 -0.089174986
0.107399136 0.013650665 0.0846332 -0.08801835 -0.0008494007 -0.055507097 0.17322408 0.15061589
-0.07748936 0.035492886 -0.1082958 -0.20252389 -0.0511195 0.07098407 0.102383405 -0.017251719
0.012488052 -0.012679487 -0.06291888 0.15242906 0.198705 -0.007909572 -0.18316211 0.07266636
-0.040286645 -0.19655392 -0.035949923 0.007081045 -0.17645763 0.012193302 -0.0313064 -0.159768
0.1190567 -0.036909305 0.10646197 -0.02708941 -0.16609077 -0.01506058 0.037003268 -0.06134431
-0.04071689 0.22570683 0.14444318 0.07821825 -0.23472977 0.031736076 0.23826969 0.11688753
-0.04371401 -0.17945257 0.004119071 -0.012483634 0.052144226 -0.07502036 -0.09855978 0.13585052
-0.014756434 0.12795165 -0.16044171 0.065321624 0.032774366 -0.1711283 0.075062856 0.09284262
0.027840266 -0.08319172 0.11366155 -0.046368007 -0.35896477 0.09059058 -0.13983332 0.034417674
0.034424905 0.11390557 0.0053694397 -0.029326573 0.069053434 0.041621394 0.019066144 0.04583674
0.12349158 0.030569581 0.076086245 -0.07419404 0.070465796 0.0006002332 -0.0911704 0.09352649
0.012358339 -0.09389163 0.0762357 -0.05806831 -0.058676522 0.04432997 -0.04229375 -0.12455023
0.006920278 -0.094332114 0.011595786 0.120762736 0.10660121 -0.14811513 -0.21710221 -0.034038354
-0.10198377 -0.073778 -0.10317171 0.058252297 -0.18538824 -0.009676855 0.085468516 0.027084788
0.03257481 -0.13654006 0.10914867 0.011226769 0.15833317 -0.3059028 -0.07666655 0.08441734
-0.03578002 0.106360294 0.08412251 0.04391945 0.093018174 0.004020586 -0.15618639 -0.107972264
-0.3190705 0.06917306 -0.013753132 0.12418145 0.038605854 0.07349125 0.0735172 -0.16906856
-0.07246722 -0.32341352 0.15114607 -0.19155917 -0.025103329 0.16089071 0.075270906 -0.17460413
0.05331357 -0.04586664 0.09359789 0.17741172 -0.17186067 -0.12547396 0.21493003 -0.032953165
-0.2235225 0.010412539 0.010656757 0.2783427 -0.091187134 -0.00564056 0.08909007 -0.06567438
0.039041407 0.004890022 -0.0906173 -0.030502807 0.045188908 0.19356745 0.18032254 -0.014751972
-0.018782564 0.034661565 0.0028382514 0.0027259807 0.23120636 -0.09785712 0.08471425 -0.10230015
-0.09895091 0.0011679694 0.058737073 -0.08194169 0.1377931 -0.09688284 0.117241375 -0.003936649
-0.13159335 0.052238468 -0.35560182 -0.10738049 0.017710254 0.08616523 -0.10120234 -0.21834627
-0.032688547 0.07574015 0.03772351 0.11698044 0.17494404 0.18581904 0.03600966 0.0025721937
-0.09957126 -0.1192997 0.11337401 0.29579526 -0.044948954 0.1344329 -0.11272944 0.0803961
0.009497224 0.0559342 -0.09126586 0.017236201 0.145233 0.10394297 0.039826944 0.04437851
0.19711176 -0.18403934 0.15264007 -0.039313808 0.06683991 0.05390254 -0.212183 0.035818964

lstm.bias_ih f4 [512]
00000000: aa8f 053d afff 113e 35b1 71b9 58bd 14bd
00000010: 830c 5c3c d1cf 8c3b 2095 95bd 038e a3bc
00000020: 069f 88bc 49ec c93d ebc9 ae3d 06c2 0f3c
00000030: fc05 9d3c a6c4 ba3d 269f b93d 32d3 14bc
00000040: c8fb 4ebd bdc6 b93d b4cb 233e c67d 363d
00000050: 94da 893c cc69 5bbd eb17 023e a5fe 133d
00000060: fd20 fc3d cf01 6f3d 7a31 da3d 277a 8b3d
00000070: 1cf0 ccbd 96e5 c7bc 259e 003d 602e a9bd
00000080: c49e 3cbc 7f33 923d ac0f 8aba eb2c b83d
00000090: 05da 62bc 45c8 393e 80cb 103e b75e 67bd
000000a0: 57aa 893d 24e7 b93d 84e3 ab3c 39aa c03d
000000b0: f097 f03d c3bc 4f3c 7c78 e83d 7108 2d3e
000000c0: 7247 edbd 4f06 1b3d 4681 f73d 80df f6bc
000000d0: ab69 fa3c dc69 733d e559 0b3d b22e 423e
000000e0: 9c45 223c 31dd 6b3d db75 053d 3d0c 0e3d
000000f0: 9386 333d 6db1 313e 876d a53d 8afa 3f3d
00000100: 803a b8bc 75a8 b93d 477e 1d3e 8c3d 0d3d
00000110: 20a6 1b3e 4b20 933d 4ca6 3c3d 2cd6 87bd
00000120: 446d de3d a88a 7d3d f44e 39bd 82e1 89bd
00000130: 86d0 02bd 4f69 003e 0dc4 423d 69e8 e83d
00000140: 6164 babb 5ae7 ebbd 733f 4d3d 1759 76bc
00000150: 8531 2cbd 0871 0b3e 41f6 a83d 79fb 3a3b
00000160: 0966 c73d 20c0 d03d 9c53 073e 2d32 e6bc
00000170: 0d95 cc3c fead 813c 2d1c a53d caa7 cdbc
00000180: 1cce 003c 3a08 403d fe44 ae3b d4a7 cb3d
00000190: 49a8 933b 5c0c be3d f1bf 363d 7906 8c3d
000001a0: 904c a23d a729 453d b509 e23d 8bb6 923d
000001b0: 616b a43d b661 eb3d c273 a03d e82a cd3d
000001c0: 9252 6c3d 4bf0 d93d 2ccb 8a3d 6c11 733d
000001d0: 95e8 83bd 13f1 3dbd 2b21 98bc a862 62bd
000001e0: a189 c23d 9e8c 59bc 2df8 a2bc 8e82 26bd
000001f0: 351c d73d 778c 53bc efc8 483d ac6c fe3d
00000200: 74a1 063e bd1c 7c3d 5a13 3d3d d9ab d03c
00000210: b1b5 a7bd ed9e e7bd e6b8 86bd 6a65 b1bd
00000220: 31e7 bcbc 8cd5 603c 8014 66bd 58fb e43b
00000230: 2a0b bdbd ebc7 a7bd 38a4 083e 08b6 d8bb
00000240: c5c5 3dbd 8be6 f33c bd07 7abd 2799 2cbd
00000250: 7335 81bc 2586 923c d45e e6bc 4ade 8f3b
00000260: 7748 63bb d861 413d 7555 27bd 9133 613d
00000270: dd18 27bd c743 4e3d b9bd a0bd 1f5c 09bd
00000280: d97b 9bbc aa26 d6bd c40d a83c cc1e 8ebd
00000290: 2962 b43c cfe9 f6bc d35f 29be ebca f13c
000002a0: a593 11bd 00f2 39bd aa35 a4bc 6144 ecbb
000002b0: f3fa c8bd 28d5 95bd 55ae c7bd 1ff2 ea3b
000002c0: 7ef2 a23c 4892 a33b 82d1 17ba 4292 c03d
000002d0: 884e 68bd e624 7e3c 6403 98bd ffa8 0bbe
000002e0: 6725 efbd d6b4 e6bd c334 0ebe 5afc 593d
000002f0: 705c b5bd 4d15 d23c d45a 943d 2c25 9dbd
00000300: 251b 3ebc 3380 08be 245a a0bd 39fc 2cbc
00000310: 21a2 2a3d 521b a3bc fe74 cabd faae 7ebd
00000320: 8413 47bc 03b1 8bbc 8276 7c3d 918c 74bd
00000330: 4351 a13d 77c9 ee3c e235 a0bc dedc bfbd
00000340: f880 5b3d 7895 6bbd 3b9a 1ebe 606f 953d
00000350: 0257 f1bb 5fb6 12be e1b2 79bd 435b 48bc
00000360: 8209 81bc f8bd 3f3d 6a2f 163d c979 8a3c
00000370: df5e b83a 4a00 443b 2154 e3bc 1b70 333d
00000380: ca59 13bc d9cc 2fbc 3caf 2cbd ddab 173c
00000390: 8d11 d43d 2c3f d6bc 94e6 64bd dce8 e9bc
000003a0: 92de c43d 03e4 9bbd da10 743b 86da 3cbd
000003b0: 8a18 7ebc 959f 3d3d aadd f5bd db22 463c
000003c0: 0a4d 5dbd 8ed4 313d 1e10 d1bd d52c 34bd
000003d0: 932a e3bd a5e8 cebd a164 5ebd 6cf7 d5bd
000003e0: 1201 443d 9af2 f23c f6f7 413d 647a 49bd
000003f0: 8770 8e3d de95 1cbe e146 96bd 4152 91bd
0.03260771 0.14257692 -0.00023049566 -0.036313385 0.013430717 0.0042972346 -0.07303834 -0.019965177
-0.01667739 0.09859521 0.085346065 0.008774286 0.019167893 0.09119539 0.09063558 -0.009083556
-0.050533086 0.090711094 0.15995675 0.04455354 0.016827859 -0.053567693 0.12704436 0.03613152
0.123109795 0.058351334 0.10653968 0.06810408 -0.10006735 -0.024401467 0.03140082 -0.082607985
-0.011512462 0.07138728 -0.0010533235 0.089929424 -0.013845925 0.18142803 0.14140129 -0.05648681
0.06721943 0.0907729 0.020982511 0.094074674 0.1174773 0.012679282 0.113511056 0.16897751
-0.11585893 0.037847813 0.12085204 -0.03013587 0.030567965 0.059427127 0.034021277 0.18963125
0.0099042915 0.05758399 0.0325831 0.03467964 0.04382951 0.17352839 0.08077531 0.046869792
-0.022488832 0.09065334 0.15380202 0.034482524 0.1520009 0.07183894 0.04605703 -0.06632647
0.108606845 0.06189981 -0.04524131 -0.06732465 -0.031937145 0.12540172 0.04755025 0.11372454
-0.0056882356 -0.11518736 0.050109338 -0.015035889 -0.042039413 0.13617337 0.08250094 0.0028531237
0.097362585 0.10192895 0.13215488 -0.028100098 0.024973417 0.015830036 0.08062015 -0.025104422
0.00786164 0.046882845 0.005318283 0.0994412 0.004506145 0.09279701 0.044616643 0.06837172
0.079247594 0.048135426 0.11037008 0.071637236 0.080282934 0.11493246 0.07834579 0.10017949
0.057695933 0.10641535 0.06777033 0.059342787 -0.06440846 -0.046372484 -0.018570503 -0.055269867
0.09498907 -0.013278155 -0.01989373 -0.04065185 0.10503427 -0.012911907 0.04901975 0.12423071
0.13147527 0.061550844 0.046161033 0.025472568 -0.08188952 -0.113096096 -0.06578235 -0.08661921
-0.02305946 0.013722789 -0.056171894 0.0069879703 -0.09230645 -0.08192428 0.13343894 -0.0066134967
-0.046331186 0.029773017 -0.061042536 -0.042138245 -0.015772557 0.01788623 -0.02812139 0.0043905126
-0.0034680644 0.04721245 -0.040852983 0.05498082 -0.040795196 0.050357606 -0.07848687 -0.03353512
-0.018979954 -0.10456593 0.020514376 -0.06939468 0.022019463 -0.030140786 -0.1654046 0.029515704
-0.035541195 -0.045396805 -0.02004512 -0.0072103 -0.0981349 -0.07316047 -0.09750048 0.0071699764
0.01989102 0.0049918033 -0.0005791412 0.094028965 -0.05671552 0.015511727 -0.07422522 -0.13638686
-0.11677056 -0.112649605 -0.13887314 0.053219177 -0.08855522 0.025644923 0.072438866 -0.076731056
-0.011603151 -0.13330154 -0.07829693 -0.010558181 0.041658524 -0.019910488 -0.09885596 -0.06217859
-0.012150649 -0.01705218 0.061636455 -0.059704367 0.078768276 0.0291488 -0.019556943 -0.09368299
0.05358979 -0.05751559 -0.15488522 0.07296634 -0.0073651085 -0.14327382 -0.060961608 -0.01222879
-0.015751604 0.046812028 0.03666631 0.016903775 0.001406636 0.00299074 -0.027750077 0.043808084
-0.008993575 -0.010729992 -0.042159304 0.009257284 0.1035491 -0.02615317 -0.05588396 -0.028553419
0.096127644 -0.07611849 0.003724149 -0.046106838 -0.01550878 0.046294767 -0.1200517 0.012093271
-0.05402855 0.0434156 -0.10208152 -0.043988068 -0.11092105 -0.10102967 -0.054295186 -0.104475826
0.047852583 0.029656697 0.047355615 -0.049188986 0.06955057 -0.15291545 -0.07337738 -0.07095767

lstm.bias_hh f4 [512]
00000000: ec1b 3a3d b5f0 1f3d 4673 b23d eb54 e73d
00000010: b59e 5e3d f645 b73d cefe 963c abfa ef3c
00000020: c2d4 6eba f7f1 f23d ffc9 783d 3440 69bc
00000030: 5dde bcbb a6a9 8e3c 0690 c83d bc9c c43c
00000040: 70be 3abd 39eb 373d 2222 a53d 1865 fc3d
00000050: 7566 843d aad4 ed3c 2a99 693c 2837 9c3d
00000060: 330b a53c a185 bd3d 9c40 053c 8f35 123e
00000070: 3408 38bc 5c60 61bc 7e26 b43d d95a 503d
00000080: 83c8 173d 4901 eebc e3d6 8e3d fb4e 373d
00000090: c355 1a3e 483e 623d 7c91 113e 57c3 133d
000000a0: 049d a23d 16a3 d33d bea1 3e3e f678 463d
000000b0: 5ca8 5d3d 15a5 763d 08c7 173d a153 e83d
000000c0: 7695 9bbd 6828 2c3e e2d9 94bb c7fe 42bd
000000d0: eea5 fa3c f1fc 033d 9eae 813d 534e 0b3e
000000e0: 67ff 8a3d 4fb5 a53d 66c5 84bd 5c96 113e
000000f0: 63ba a73d 28cd d03d 4cd3 8fbd 5c29 383e
00000100: 3c5d c73d 0b35 e9bb b6c5 af3d d280 1a3e
00000110: 4a6d 1dbd a2aa b93d d904 97bd d147 99bc
00000120: bb96 dbbc 9bde ea3d 9a70 7cbd a207 a0bd
00000130: 358b bc3c be80 b53d 74c4 ee3d 186f 953c
00000140: dca4 2c3e c5dd ebbc e572 12bb 3c49 143e
00000150: 0d5b 4e3d d117 ff3d a52f 063d 3c20 f83d
00000160: 2d31 493c 863c 513d ce4f 353e a226 0e3c
00000170: d94a 8bbc ee17 283d 5f17 b73d ebeb 3cbd
00000180: fdee 8c3d e338 d93d d42a b73c ce10 d1bc
00000190: d50b 66bd a6b8 a83d fc94 a03d c301 973c
000001a0: 2934 113e e033 bc3d c3c9 773d 1f0e d5bb
000001b0: bff9 fc3d cc9d d43d 4718 ffbc f4e0 9e3b
000001c0: 753b b13d 5974 9b3d 2d23 20bd fa7e 003e
000001d0: e7cb 853d f46d a23d 69dd 35bd 4f7f adbd
000001e0: b14e 6a3d a0a4 2f3c 5964 03bc 9973 d2bc
000001f0: 7ca6 6f3d da91 013e 0d11 4abd cf6d a43b
00000200: 64ff 61bd 5420 d23c b329 c53c 477a f9bb
00000210: 738e 26bb 295f e9bd a47b 9bbd 576f 1d3d
00000220: 8b15 dfbd d18f acbd 9f0b 68ba 76d1 863d
00000230: 6af1 b03b 2bf2 0bbc e56e 853b 5b04 c5bd
00000240: 1c2d a13c a414 81bd 2dd6 df3d ab4e c43c
00000250: e252 93bd 3164 fcbd 738d ebbb f352 98bc
00000260: 3574 b43d 6cf5 373d f8dc a9bc beae e4bd
00000270: a672 06bd af3f f6bd b6c0 e3bd 5551 e4bd
00000280: c360 973c 66d8 18be 45a0 0dbc 5f52 b33b
00000290: 97f3 babc 2e3e d6bc 9463 debd 8786 933d
000002a0: 1529 1f3d b536 efbd 34e5 96bd 332d e0bd
000002b0: df29 b8bd 6cd5 483d af1d c3bd e0a1 35bd
000002c0: 6e4b 4d3d 9f10 853d 635f 3bbd fb0b 7a3c
000002d0: d489 c4bc c024 3abd 4add 38bd 973f 883c
000002e0: 8b76 51bd 52bd 97bd a8e1 223d e049 1bbd
000002f0: 4429 bcbd a368 403c 0f95 213d c446 fcbc
00000300: 12bd 95bd 226e a0bc d065 09be 7167 aa3d
00000310: 3789 79bd bb80 133d 1515 7dbd beb8 4f3c
00000320: b519 11be b895 04be 8ab2 a23c daa2 3e3d
00000330: b434 8b3c 5072 2dbb 225b 103d 04a4 29bd
00000340: 4a34 5fbd 8559 d4bc afa2 f4bd d697 acbd
00000350: edd8 46bd 3346 11be c1fb cf3d 5205 a6bc
00000360: 3966 a7bd 6e02 eabd 9ce3 28bd 5472 08bd
00000370: c15e 88bc ef61 703d bc8a c5bd fd41 aa3c
00000380: d544 0c3d bb0b 05bd 723d 0bbe b584 76bc
00000390: 1500 403d 5843 d5bc 4d31 9bbd 3ace 6a3d
000003a0: f000 52bd 6db7 283c cd57 c2bd b4f2 f7bc
000003b0: ff53 b4bc c922 1d3d ad2d e9bd 80b6 8a3d
000003c0: a713 e8bd aa6c 9e3d 9555 2abe 3c03 b1bd
000003d0: 6312 54bb 6fd3 d2bd 3c9f 6d3d 9c0e ce3a
000003e0: cf04 c4bd 74a4 9fbd d6a5 89bd b313 2bbd
000003f0: e760 7fbd 68c8 8b3c 2fde bfbd 14cf 21bd
0.045436785 0.039047915 0.08713393 0.11295494 0.054350574 0.08948891 0.018432047 0.029294332
-0.0009110683 0.118625574 0.060739513 -0.014236499 -0.0057638125 0.017414879 0.09793095 0.024000518
-0.04559177 0.04490206 0.08063151 0.123239696 0.06464855 0.02903207 0.014257709 0.07627708
0.020146942 0.09254003 0.00813308 0.14278243 -0.0112324245 -0.013755884 0.08796404 0.05086789
0.037056457 -0.029053347 0.0697458 0.044753056 0.15071778 0.055235177 0.14215654 0.036074962
0.079401046 0.103338405 0.18616387 0.0484552 0.054115638 0.06021603 0.037055045 0.11344076
-0.07596867 0.16812289 -0.004542575 -0.047606256 0.0305967 0.032223646 0.06332134 0.13604097
0.067869954 0.080912225 -0.06482963 0.14217514 0.08189847 0.101953804 -0.070227236 0.17984527
0.0973458 -0.007116919 0.08582632 0.15088204 -0.038434304 0.09065749 -0.073739715 -0.018711003
-0.026805272 0.1146824 -0.061630823 -0.07813956 0.023015598 0.08862446 0.11658564 0.01824145
0.16859764 -0.028792271 -0.0022346315 0.14481062 0.0503798 0.124557145 0.03276028 0.12115523
0.012279791 0.05108311 0.17706224 0.008676203 -0.017003464 0.041038446 0.089400046 -0.046123426
0.06881521 0.106065534 0.02235929 -0.025520708 -0.056163628 0.08238344 0.078409165 0.018433457
0.14180054 0.09189582 0.06049515 -0.0065019275 0.12352323 0.1038166 -0.031139506 0.004848594
0.08653919 0.07590551 -0.039096046 0.12548438 0.06533032 0.07931128 -0.044400606 -0.08471548
0.057203952 0.010720402 -0.00801953 -0.025689887 0.05850838 0.12653294 -0.049332667 0.005017973
-0.0551752 0.02565018 0.024067735 -0.0076134535 -0.0025414496 -0.113951035 -0.07591942 0.03843626
-0.10892781 -0.08425868 -0.00088518293 0.0658292 0.0053998725 -0.008541624 0.0040720575 -0.09619971
0.01967483 -0.06302765 0.10929523 0.023963293 -0.07193543 -0.123237975 -0.007188493 -0.01859424
0.08811227 0.044911787 -0.020735249 -0.11166142 -0.03282418 -0.120238654 -0.11120741 -0.11148325
0.018478757 -0.149263 -0.008644168 0.005472466 -0.02282123 -0.026152696 -0.10858837 0.072033934
0.03885754 -0.116803564 -0.07367936 -0.10946121 -0.08992361 0.04903166 -0.09527146 -0.04434383
0.050120763 0.06497311 -0.045745265 0.015261645 -0.023991503 -0.045445204 -0.045132913 0.016631885
-0.051138442 -0.07409157 0.039765984 -0.03791225 -0.09187558 0.011743697 0.039448794 -0.030795462
-0.07311453 -0.019583765 -0.13417745 0.08320511 -0.060921874 0.03601144 -0.061787684 0.012678323
-0.14169963 -0.12947738 0.019860525 0.046542026 0.016992904 -0.002646584 0.03524316 -0.041416183
-0.054493226 -0.025921592 -0.11945092 -0.08427398 -0.04854672 -0.14186935 0.1015544 -0.020266209
-0.08173794 -0.11426245 -0.04123269 -0.033312157 -0.016646745 0.058687147 -0.09645602 0.020783419
0.03424533 -0.03248189 -0.13597658 -0.015046288 0.04687508 -0.026033089 -0.07577763 0.05732558
-0.051270425 0.010297638 -0.09489403 -0.030267097 -0.022012709 0.03836325 -0.11385665 0.0677309
-0.113318734 0.0773557 -0.1663421 -0.08643195 -0.0032359592 -0.10294234 0.058013186 0.0015720907
-0.0957123 -0.07795039 -0.06721084 -0.041766834 -0.062348273 0.017063335 -0.0936855 -0.039504126
