evaluation_results/models/list_npi_2020_3_3-11_4_26-1824-False-False-1.0-True-0.0-False-False-True-False.pth (torch_old, 973641 bytes, 16 tensors)

Mprog.weight f4 [5, 256]
0	0x3f7dce38	0.9914279
1	0x3fec2e9f	1.8451728
2	0xbee4e11c	-0.44702995
3	0x3fd6df88	1.6786966
4	0x3e82f067	0.25574037
5	0xbf4cd2e6	-0.80009305
6	0x3f6c73b5	0.92364055
7	0x3ea5cffd	0.32385245
8	0xbe87b66a	-0.26506358
9	0xbdd5c2b6	-0.10437529
10	0xbf384955	-0.71986896
11	0x3e8b6ea1	0.2723284
12	0xbc0d8764	-0.008638237
13	0x3ff3a36a	1.9034245
14	0xbfaf44ed	-1.369291
15	0x3ec7289f	0.3889818
16	0x3fd33d52	1.6503088
17	0xbc9b9350	-0.018991143
18	0xbf9a54dd	-1.2057148
19	0x3f172d5d	0.59053594
20	0x4024673c	2.568801
21	0x3e64090a	0.22269073
22	0xbfc3f8fb	-1.5310358
23	0x3fbd28bc	1.4778056
24	0x3f7f8f76	0.9982828
25	0xbe76938b	-0.2407972
26	0x3de99da3	0.1140702
27	0x40450a45	3.0787518
28	0xbf93cdc3	-1.1547168
29	0x3f163e6c	0.58689
30	0x3e4a0b91	0.19730975
31	0xbfb12a11	-1.3840963
32	0x40035e29	2.052622
33	0x3de2b57c	0.11069772
34	0xbf7e042d	-0.9922512
35	0x4002cd43	2.0437782
36	0x3e7e6caa	0.2484614
37	0x3f2cc35c	0.67485595
38	0x3f3e41d0	0.7431917
39	0x3e407692	0.18795231
40	0x404cb2d4	3.1984148
41	0xbff234ae	-1.8922327
42	0x3f2c1fa6	0.6723579
43	0x3d86939a	0.065711215
44	0x3f64166b	0.8909671
45	0xbf1543f1	-0.58306795
46	0xbe0c2a48	-0.13688004
47	0x3d217e48	0.03942707
48	0xbec90e71	-0.3926883
49	0xbd9533c4	-0.07285264
50	0x3ffd9772	1.9811842
51	0xbe31b0d9	-0.17352618
52	0x3f1169b2	0.56801903
53	0xbeffbbd5	-0.49947992
54	0x3f15a111	0.5844889
55	0xbdd54678	-0.104138315
56	0x3e5e3e07	0.21703349
57	0xbedf5919	-0.43622664
58	0xbfbb85d6	-1.4650218
59	0xbea2436a	-0.31692058
60	0x3de1c5fb	0.1102409
61	0xbf90be52	-1.1308081
62	0xbed6b8ff	-0.41938016
63	0xbf2eaa95	-0.6822904
64	0x3fc51770	1.5397778
65	0xbf997d9f	-1.1991462
66	0x3fc66bc0	1.5501633
67	0xbefa7986	-0.4892084
68	0xbfe5443b	-1.7911447
69	0xbdbf0dc8	-0.093288004
70	0x3f49f735	0.78892833
71	0x3fccf453	1.6012062
72	0xbf828cc2	-1.0199206
73	0xbf48a1be	-0.783718
74	0xc02a9bf8	-2.6657696
75	0xbf3a924c	-0.7287948
76	0xbdcba3e1	-0.09943367
77	0xbeb170fd	-0.34656516
78	0xbef751ab	-0.48304495
79	0xbe229925	-0.15878733
80	0x3ec5b3b5	0.38613668
81	0xbec0ef13	-0.376824
82	0x3f90a107	1.1299142
83	0x3f89e4c9	1.0772945
84	0xbf44d96c	-0.7689426
85	0xc0789758	-3.8842373
86	0xbf7e91df	-0.9944133
87	0x3c518f89	0.012790569
88	0xbe18b033	-0.14910965
89	0xbf55bd25	-0.83491737
90	0x3f6ef14d	0.93336946
91	0xbd387ce0	-0.045040965
92	0x3f836b08	1.0267038
93	0x3e7cda4c	0.24692649
94	0x3b7bd653	0.0038427308
95	0x3ef6cf30	0.48204947
96	0xbf7afb7a	-0.9803997
97	0x3f1b862e	0.60751617
98	0xbf9c11f9	-1.2192985
99	0x3f53a59d	0.8267458
100	0xbf496e34	-0.7868378
101	0x3f8a2088	1.0791178
102	0xbd592ac5	-0.053019304
103	0x3ff85ad1	1.9402715
104	0x3f912ce9	1.134183
105	0xbf6341b5	-0.88772136
106	0xbfe30e8b	-1.7738813
107	0xbfac696e	-1.3469675
108	0xbf9b129a	-1.2115052
109	0xbf30699c	-0.6891115
110	0x3fcf03ef	1.6173075
111	0x3fcc41ad	1.5957543
112	0x3e72a655	0.23696263
113	0xbf9990a6	-1.1997268
114	0xbf57b56e	-0.84261215
115	0xbf61bade	-0.8817576
116	0x3f17bbcd	0.59270936
117	0x3e6b6524	0.22987801
118	0x3f902503	1.1261295
119	0xbf896e63	-1.0736812
120	0xbf1c7c84	-0.61127496
121	0x3eb11aa4	0.34590638
122	0x3f403203	0.7507631
123	0x3ecffc4a	0.4062217
124	0xbfa46e96	-1.2846248
125	0x3d84252f	0.06452405
126	0x3fb07469	1.3785526
127	0xbf8bd03d	-1.0922924
128	0xbdcf467f	-0.10120868
129	0xbf0543ef	-0.52056783
130	0xbfed2ede	-1.8529928
131	0x3f177a83	0.59171313
132	0xbf90725a	-1.1284897
133	0xbf38d015	-0.7219251
134	0x3f7d6075	0.98975307
135	0xbdff948e	-0.124795064
136	0x3f3d5aee	0.7396687
137	0xbf3c8c42	-0.73651516
138	0x3d3b4027	0.045715477
139	0x3f4f0c23	0.80877894
140	0xbd6eb75e	-0.05828034
141	0xbebe4343	-0.37160692
142	0xbfc2c2ef	-1.5215739
143	0xbfa7bcbc	-1.3104472
144	0x3ef29ce9	0.47385338
145	0x402faff5	2.7451146
146	0x3f5b7724	0.8572867
147	0x3ef19e4f	0.47191092
148	0xbf6eb0dd	-0.9323862
149	0xbd359bbc	-0.044337973
150	0xbf9dbf74	-1.2324052
151	0xbc8f3d7e	-0.017485376
152	0x3e9c904c	0.3057884
153	0xc003d582	-2.0599065
154	0x3fab4ef3	1.3383468
155	0xbf12c2c4	-0.5732844
156	0xbe53a07f	-0.20666693
157	0xbdfd3541	-0.12363673
158	0xbeb43e2c	-0.35203683
159	0xbfeba996	-1.8411129
160	0x3f869e20	1.0517006
161	0xbe3c105e	-0.18365619
162	0x3fc2613f	1.5185927
163	0xbfa73daf	-1.3065699
164	0x3f400934	0.7501404
165	0xbf6afb2d	-0.91789514
166	0x3f41d83c	0.7572057
167	0xbf9325c3	-1.1495899
168	0x3f982cc5	1.1888663
169	0xbd85584c	-0.06510982
170	0xbebd37cb	-0.3695663
171	0x3f66cb73	0.9015419
172	0xbfd7c2e3	-1.685635
173	0xbf552ba0	-0.8326969
174	0x3e2466eb	0.16054885
175	0xbf084bb3	-0.5324051
176	0x3f00a515	0.50251895
177	0xbe68b9c6	-0.22727117
178	0xbf58b625	-0.8465293
179	0xbf68f9c6	-0.91006124
180	0xbe1aa0db	-0.15100424
181	0xbf9963b5	-1.1983553
182	0xbf3113fc	-0.6917112
183	0x3f98108b	1.1880049
184	0xbf8ef15a	-1.1167405
185	0xbfc713bd	-1.5552899
186	0x402ef1b4	2.7335024
187	0xbd64e950	-0.055886567
188	0x3ea31670	0.31853056
189	0xbf752aac	-0.9576824
190	0x3f97173c	1.1803966
191	0xbe5dbc65	-0.21653898
192	0xbf6733a2	-0.9031316
193	0xbfa6df86	-1.3036964
194	0x3e780c09	0.24223341
195	0xbf0518d8	-0.51991034
196	0xbf5f7d28	-0.8730035
197	0x3fb991ec	1.4497657
198	0x3f19827c	0.5996473
199	0xbe966378	-0.29372764
200	0xbe5047a3	-0.20339827
201	0x40497018	3.1474667
202	0xbe99cffc	-0.30041492
203	0xbfce9897	-1.6140317
204	0xbce85d62	-0.02836484
205	0x3f660fde	0.8986796
206	0x3f926315	1.1436487
207	0x3f87a25f	1.0596427
208	0xbf5ee451	-0.87067133
209	0x3fe1457b	1.7599329
210	0x3f1d87d0	0.6153536
211	0xbf41224d	-0.75442964
212	0x3f949e8a	1.1610882
213	0x3f9520b2	1.1650603
214	0xbf8639d3	-1.0486397
215	0x3f3a9afc	0.7289274
216	0x3f91b85d	1.1384388
217	0x3b82b367	0.0039886716
218	0xbf5f3ee1	-0.8720532
219	0xbd012bfd	-0.03153609
220	0x3dedc190	0.11609185
221	0xbf1e4baa	-0.61834204
222	0x3e7bd106	0.24591455
223	0xbf1dbbc7	-0.6161465
224	0xbe26bdd3	-0.1628335
225	0xbd732e92	-0.059370585
226	0xbf87cf37	-1.0610112
227	0x3f714ea3	0.94260615
228	0x3f4e3ccf	0.80561537
229	0x3da69126	0.081331536
230	0x3ec872bd	0.39150038
231	0x3f8f2d2e	1.1185663
232	0xbe91b3cf	-0.28457496
233	0xbec7d2e5	-0.39028087
234	0x4028e60c	2.639041
235	0xbe8c3c6f	-0.27389857
236	0x3f2d5a16	0.67715585
237	0x3face2e5	1.3506743
238	0x3f4131cc	0.7546661
239	0xbf1431eb	-0.5788867
240	0x3d1b20ff	0.037873264
241	0x3eea41f8	0.45753455
242	0xbdc3cd01	-0.09560586
243	0x3f5e2ba7	0.8678536
244	0x3ec71143	0.38880357
245	0xc016246e	-2.3459735
246	0x3f2db980	0.67861176
247	0x3f4b22fc	0.79350257
248	0x3e7429ca	0.23844066
249	0xbf1fed58	-0.6247153
250	0xbf424170	-0.758811
251	0xbf1462e4	-0.57963395
252	0xbf7fea35	-0.99966747
253	0xbf7b1a03	-0.98086566
254	0x400c51c4	2.1924906
255	0xbee408af	-0.44537875

encoder.l1.weight f4 [100, 64]
0	0xba01d666	-0.00049529073
1	0xbd369716	-0.04457768
2	0xbdc40f8c	-0.09573278
3	0xbd5b0dd3	-0.05347998
4	0x3dd3415b	0.103152
5	0xbde91306	-0.113805816
6	0x3d994faf	0.074859016
7	0x3d39a09f	0.045319196
8	0x3c420d1d	0.011843947
9	0xbdc130b4	-0.094331175
10	0x3e64d6dd	0.22347589
11	0xbe113444	-0.14180094
12	0x3d8f72ac	0.07004294
13	0x3ce43522	0.027857367
14	0x3de56dee	0.11202608
15	0x3e2abd93	0.1667388
16	0xbea899b2	-0.3292976
17	0xbe4856f9	-0.19564427
18	0x3bc6bafb	0.0060647703
19	0x3e0bc1b7	0.13648115
20	0x3d29a1df	0.041414138
21	0xbe78f256	-0.24311194
22	0x3d3cfcb0	0.04613942
23	0xbce5195f	-0.0279662
24	0xbdc28227	-0.09497481
25	0xbd9780da	-0.07397623
26	0x3c9c02d4	0.019044317
27	0xbe17bf61	-0.14819099
28	0xbd73e974	-0.05954881
29	0x3d2e60f5	0.042572934
30	0x3d4561e0	0.048189044
31	0x3e43d703	0.19124989
32	0x3e59efc1	0.21282865
33	0x3e555ac4	0.20835406
34	0x3e112236	0.14173207
35	0x3e373e29	0.17894806
36	0x3e6ee3e5	0.23329122
37	0xbe6c87df	-0.23098706
38	0x3c8836c6	0.01662768
39	0x3e38e3d6	0.18055663
40	0x3ddd40ea	0.10803397
41	0xbeca195d	-0.39472476
42	0x3e240df7	0.16020952
43	0xbe62afbd	-0.22137351
44	0xbe151669	-0.1455933
45	0x3cf3a271	0.029740544
46	0x3e462b9f	0.19352578
47	0xbd7f5bed	-0.062343527
48	0x3e1dfd1e	0.15428588
49	0xbe0e7ee4	-0.13915592
50	0xbd1d9382	-0.038470753
51	0x3d76de20	0.06027043
52	0xbcc025a9	-0.023455458
53	0xbb560f36	-0.0032662875
54	0xbe12b513	-0.14326887
55	0xbebd7260	-0.37001324
56	0x3c797fc1	0.015228213
57	0xbf1f3277	-0.6218638
58	0x3da25ae0	0.07927489
59	0x3e0d84f6	0.13820252
60	0xbe7f71b7	-0.24945723
61	0x3ec55e18	0.3854835
62	0xbd38fa25	-0.04516043
63	0x3dc98786	0.09840302
64	0x3ce07299	0.027398394
65	0x3cfb8c66	0.030706596
66	0xba28bb55	-0.0006436606
67	0x3cc7a376	0.024369936
68	0xbd2131fa	-0.039354302
69	0x3e17496b	0.147741
70	0x3db19106	0.08670239
71	0xbd8a28a6	-0.06746034
72	0xbe2affb4	-0.16699106
73	0xbd10beb1	-0.035338107
74	0xbc8edab3	-0.017438268
75	0x3de0c8aa	0.10975774
76	0xbc96c104	-0.018402584
77	0x3d220fa1	0.039565686
78	0x3dcf9c7e	0.101372704
79	0x3d04ee91	0.032454077
80	0x3dca9148	0.098909914
81	0xbd8d9431	-0.06913031
82	0xbe8fd411	-0.2809148
83	0xbb8582b6	-0.00407442
84	0x3dce96f7	0.10087388
85	0x3dfe6905	0.12422375
86	0x3cdd7754	0.02703444
87	0xbd001b39	-0.03127596
88	0x3cbece29	0.023291664
89	0x3db4d8cc	0.08830413
90	0x3d64edb2	0.055890746
91	0xbd9c09b4	-0.07619038
92	0xbe9d1e7b	-0.30687317
93	0xbd293cc3	-0.041317713
94	0x3c3d0cea	0.0115387235
95	0x3d16843e	0.03674721
96	0xbc97e94a	-0.018543858
97	0x3e46f178	0.1942805
98	0x3df78170	0.12085235
99	0x3e658689	0.22414602
100	0x3e9ccef6	0.3062665
101	0x3e1c6a7c	0.15274996
102	0x3e567381	0.20942499
103	0x3e46eae0	0.19425535
104	0xbd7c59f8	-0.06160924
105	0x3cf80a5c	0.030278377
106	0xbd60dddf	-0.054899093
107	0x3d7eac7d	0.062176216
108	0x3e8148d6	0.25250882
109	0x3c2d8fb0	0.01059334
110	0x3dd010a7	0.10159426
111	0xbd563971	-0.052300874
112	0x3e65adae	0.22429535
113	0xbe09b530	-0.13448024
114	0xbe25ec7d	-0.16203494
115	0x3e24cb38	0.16093147
116	0xbe4a2eb0	-0.19744372
117	0xbce73b4e	-0.02822652
118	0x3e235e60	0.1595397
119	0xbedd54fb	-0.43228897
120	0x3da08ac2	0.07838966
121	0xbf3b833e	-0.73247135
122	0x3e876a38	0.26448226
123	0x3f06c537	0.52644676
124	0xbd455379	-0.04817531
125	0x3e5779a6	0.21042499
126	0xbcf6af79	-0.030112969
127	0xbdb3dc0e	-0.087822065
128	0xbe1c6eaf	-0.15276597
129	0xbe353fcf	-0.17700122
130	0x3d9d964c	0.076946825
131	0x3deccd3d	0.115625836
132	0x3dcde311	0.10053075
133	0xbcfaae54	-0.030600704
134	0xbd58a49b	-0.052891355
135	0xbd966992	-0.07344355
136	0x3d7013a2	0.058612473
137	0x3d125e60	0.035734534
138	0x3e65baf8	0.22434604
139	0x3eb761a6	0.35816687
140	0x3e74b620	0.238976
141	0x3e488cf9	0.19585027
142	0xbe52b27f	-0.20575903
143	0xbd803e23	-0.06261852
144	0x3daf8c3c	0.085716695
145	0xbd98a5c7	-0.074534945
146	0xbe3e27dd	-0.18569894
147	0xbee88799	-0.45415953
148	0xbf07266c	-0.52793
149	0xbed33167	-0.41248628
150	0x3d345de6	0.04403486
151	0xbcdccac7	-0.02695216
152	0xbc816e41	-0.015799643
153	0x3d449c67	0.04800072
154	0x3ccd5ce8	0.025068715
155	0x3e2bef20	0.16790438
156	0x3e51f6ae	0.20504257
157	0x3e37dadc	0.17954582
158	0xbd2e2d9d	-0.04252397
159	0xbe31b7c9	-0.17355265
160	0xbc97a77f	-0.018512486
161	0xbe26a664	-0.1627441
162	0x3e5d5283	0.21613507
163	0x3d87543e	0.06607865
164	0x3d3575fe	0.04430198
165	0x3dc27237	0.09494441
166	0xbcc46ca6	-0.023977589
167	0x3e0364ca	0.12831417
168	0x3a125cd7	0.0005583292
169	0x3e9f2a70	0.31087065
170	0x3ea26097	0.31714317
171	0x3e1f634b	0.15565221
172	0xbdbdc8f1	-0.09266842
173	0x3d255463	0.04036368
174	0x3d68091b	0.05664931
175	0x3e931878	0.28729606
176	0xbd14b631	-0.036306564
177	0x3de46a8d	0.111531354
178	0xbdafab18	-0.085775554
179	0x3ec48b1c	0.38387382
180	0x3e069dd3	0.13146143
181	0xbcececeb	-0.028921565
182	0xbe696656	-0.22792944
183	0xbddba898	-0.10725516
184	0x3dffaf02	0.12484552
185	0xbe49420a	-0.19654098
186	0x3db07246	0.08615546
187	0xbdf72dd3	-0.12069287
188	0x3cb7ea45	0.022450576
189	0x3dfb29f4	0.12263861
190	0x3d9f6eb4	0.07784787
191	0xbd053a6b	-0.032526415
192	0xbdd54cc0	-0.104150295
193	0xbe304749	-0.17214693
194	0xbd0e37e4	-0.03472127
195	0x3e2c1f80	0.16808891
196	0x3d1cceab	0.03828303
197	0x3e33e367	0.17567216
198	0x3d2ab4e6	0.041676424
199	0x3e5fff13	0.21874647
200	0x3e2a3949	0.16623415
201	0x3e5acd91	0.2136748
202	0x3ef57997	0.47944328
203	0x3e087ccb	0.13328855
204	0x3e079481	0.13240243
205	0x3e5d05bb	0.21584217
206	0x3cb2ff61	0.02185029
207	0xbdec8143	-0.11548092
208	0xbe31b834	-0.17355424
209	0xbd41c1b7	-0.04730388
210	0x3d6f3c2a	0.058406986
211	0xbe01d628	-0.1267935
212	0x3e32b942	0.17453483
213	0x3e3231c9	0.17401804
214	0x3e5ad0bd	0.2136869
215	0xbd5a784c	-0.05333738
216	0x3dc2c8d7	0.095109634
217	0x3df9cc9b	0.121972285
218	0xbd987019	-0.07443256
219	0xbc9ba635	-0.019000152
220	0x3c837a0e	0.016049411
221	0xbdd37567	-0.10325127
222	0x3cda7a31	0.026669594
223	0x3c60f986	0.013731366
224	0x3e0efd7f	0.13963889
225	0x3d0b00c9	0.033936296
226	0xbdd1cc43	-0.10244038
227	0x3df5c040	0.119995594
228	0xbdbd8a57	-0.09254902
229	0x3dcf1a83	0.101124786
230	0xbbabedc1	-0.0052468483
231	0xbdb8458c	-0.0899764
232	0x3dda11cf	0.10647928
233	0xbc74ec8f	-0.014948978
234	0xbddf1501	-0.10892678
235	0x3d57d835	0.052696425
236	0xbe932498	-0.28738856
237	0x3de7856d	0.11304746
238	0xbe7b3bc0	-0.24534512
239	0x3dea5d9e	0.11443637
240	0xbdf46767	-0.11933785
241	0x3da93986	0.08262925
242	0xbdd4f45a	-0.10398169
243	0x3d359186	0.044328235
244	0xbda9c26e	-0.08289038
245	0xbe5460eb	-0.20740096
246	0xbe265988	-0.16245091
247	0xbbe418aa	-0.006960948
248	0x3e75f997	0.24020992
249	0xbc3b48e6	-0.011430955
250	0xbe842116	-0.25806493
251	0x3e4f5c3a	0.20250025
252	0x3db9e059	0.09075994
253	0xbcbb9dec	-0.022902451
254	0x3cf9f8bb	0.030514112
255	0x3bdf075d	0.0068062977

encoder.l1.bias f4 [100]
0	0xbc7f1a37	-0.015570215
1	0xbe129d57	-0.14317833
2	0x3c0f8f01	0.008762122
3	0x3e05e60b	0.13076036
4	0xbdaa51d5	-0.083163895
5	0x3cedcd46	0.029028546
6	0xbd555713	-0.052084994
7	0x3d3a92ee	0.04555028
8	0xbd45a9ad	-0.04825752
9	0xbdb231dd	-0.08700917
10	0x3dc02fc7	0.09384113
11	0x3d9ba072	0.07598962
12	0x3df94e3f	0.121731274
13	0xbd3c28f3	-0.04593749
14	0x3aec0ed0	0.0018009786
15	0xbd129517	-0.035786714
16	0x3da9928e	0.08279906
17	0x3cc3ba82	0.023892645
18	0x3d3b5448	0.045734674
19	0xbd95afbf	-0.073089115
20	0x3df3fd2c	0.11913523
21	0xbdb00e64	-0.08596495
22	0xbd7a00b7	-0.061035838
23	0x3d872c86	0.06600289
24	0x3dc056ea	0.093915775
25	0x3ddbf53d	0.10740135
26	0xbd5e5691	-0.054281775
27	0x3da9248f	0.08258926
28	0x3e08a51c	0.13344234
29	0x3db216d4	0.0869576
30	0x3e0ea8c6	0.1393157
31	0x3d868bfd	0.065696694
32	0x3c8bc2dd	0.017060691
33	0xbdb91cc0	-0.09038687
34	0x3bf50602	0.007477523
35	0xbcb93a22	-0.022610728
36	0xbc71c59b	-0.0147565855
37	0x3df02315	0.11725441
38	0x3d18a36e	0.037265234
39	0xbacae507	-0.0015479632
40	0x3d6e78d4	0.0582207
41	0x3d3cedc5	0.046125192
42	0x3b86d008	0.0041141547
43	0x3de2ca25	0.11073712
44	0xbdc11ba2	-0.09429099
45	0x3d56fd94	0.052487925
46	0xbd0389ce	-0.032113843
47	0x3d80112e	0.06253277
48	0x3dc8889f	0.097916834
49	0xba913a9c	-0.0011080089
50	0x3df9cd81	0.121974
51	0x3c8023a4	0.015641995
52	0xbd86d698	-0.06583899
53	0xbbb5e387	-0.005550805
54	0x3db13004	0.086517364
55	0xbda97e1e	-0.08276008
56	0x3cc9f30a	0.024652023
57	0x3d310cf2	0.043225236
58	0x3dce353a	0.10068746
59	0x3da4689e	0.08027767
60	0xbd939a38	-0.07207149
61	0xbcf8c032	-0.030365083
62	0x3d9f6dab	0.077845894
63	0xbdc51bcb	-0.09624442
64	0x3d6fb328	0.058520466
65	0x3c8b55b6	0.017008644
66	0x3bfcc0fc	0.007713435
67	0xbda48d64	-0.080347806
68	0x3de3ecfc	0.111291856
69	0x3dce71ab	0.10080274
70	0x3db88abc	0.090108365
71	0x3e50e2c0	0.20398998
72	0x3d5ca643	0.053869497
73	0x3d80a1e6	0.0628088
74	0x3c8f24d9	0.017473625
75	0x3d376009	0.04476932
76	0x3c92bf19	0.017913388
77	0xbda26c96	-0.079308674
78	0x3d80209f	0.06256222
79	0x3dd4fa92	0.10399355
80	0xbe0431ee	-0.12909672
81	0x3b49856b	0.003074969
82	0x3e059c30	0.13047862
83	0xbda9c498	-0.082894504
84	0xbda2cbe2	-0.07949044
85	0x3d96876f	0.07350051
86	0xbd92b629	-0.071636505
87	0x3d61a2b6	0.055086814
88	0xbd6a993a	-0.057275034
89	0x3dca2830	0.098709464
90	0xbdfbc904	-0.122942
91	0x3c56aae0	0.013102263
92	0x3d85b821	0.065292604
93	0xbc43a6cc	-0.011941623
94	0xba43b9b2	-0.00074663304
95	0xbe10daf4	-0.14146024
96	0xbd2519b6	-0.040307723
97	0xbd90b590	-0.0706588
98	0x3dc50189	0.096194334
99	0x3c0aa008	0.008461006

encoder.l2.weight f4 [32, 100]
0	0xbdd390b2	-0.10330333
1	0xbe2d07c5	-0.16897495
2	0xbeea50e4	-0.4576484
3	0xbcbfa5ac	-0.023394428
4	0x3e3bd1ad	0.18341704
5	0xbcd78503	-0.026308542
6	0xbe6547f1	-0.22390725
7	0x3e763e76	0.24047264
8	0xbc6fa6ef	-0.014627202
9	0xbe63a416	-0.22230563
10	0xbea272b8	-0.31728148
11	0xbea1fcb3	-0.31638107
12	0x3e5eba0e	0.21750662
13	0x3daf3b76	0.08556263
14	0xba4de166	-0.00078537164
15	0xbb3e50cd	-0.002903986
16	0x3de791fc	0.11307141
17	0xbb84c7bd	-0.004052131
18	0xbd97e766	-0.074171826
19	0xbe9f4c93	-0.3111311
20	0x3e281644	0.16414744
21	0xbe88162f	-0.26579425
22	0xbdd7249d	-0.1050503
23	0xbe89aaed	-0.2688822
24	0x3e01a00f	0.12658714
25	0xbeb76c9c	-0.3582505
26	0x3ea6fa05	0.32612625
27	0x3eeb9b78	0.4601705
28	0x3c4c5e0d	0.012473595
29	0x3e5855ef	0.21126531
30	0x3e8b8c06	0.27255267
31	0x3db1cf54	0.08682123
32	0xbe928558	-0.28617358
33	0x3e1b5dc0	0.15172482
34	0xbedf449d	-0.43607035
35	0xbe913441	-0.2836018
36	0x3e8457ca	0.25848228
37	0x3dabd34e	0.083899125
38	0x3d82a63e	0.063793644
39	0xbe6af7b7	-0.22946058
40	0xbedf31bb	-0.4359263
41	0x3e21743e	0.15766999
42	0xbd375049	-0.0447543
43	0x3e2abf29	0.16674484
44	0xbeb8c790	-0.36089754
45	0x3db7b8ca	0.089707926
46	0x3c2c05ab	0.010499398
47	0x3eb14a56	0.34627026
48	0x3e3287f2	0.17434672
49	0x3e8f999f	0.2804689
50	0xbe05cbfd	-0.13066097
51	0xbea24c29	-0.3169873
52	0x3d5f6207	0.054536846
53	0xbee5b873	-0.44867286
54	0xbed89faf	-0.4230933
55	0xbe3b6743	-0.1830111
56	0x3ede2565	0.43387905
57	0x3d0e3dc0	0.03472686
58	0x3d9752f9	0.07388873
59	0xbe2257bf	-0.15853785
60	0xbef5dc65	-0.4801971
61	0x3dbe38e6	0.09288196
62	0x3ed58b00	0.4170761
63	0xbf12951f	-0.5725879
64	0xbe355250	-0.17707181
65	0xbe9292a7	-0.28627512
66	0xbdc9d516	-0.09855096
67	0x3a86142f	0.0010229404
68	0x3cb2dc2a	0.021833498
69	0x3e111b17	0.1417049
70	0xbdbc6e2a	-0.092006996
71	0x3ea2d51e	0.3180322
72	0xbe660ab3	-0.22465019
73	0xba8b2316	-0.0010615315
74	0xbe2f704e	-0.17132685
75	0xbdf60a38	-0.12013668
76	0xbe8c5026	-0.27404898
77	0xbe9f0eb4	-0.31065905
78	0xbe738ed6	-0.23784956
79	0x3d165836	0.03670522
80	0xbe681e8b	-0.22667901
81	0x3d7d743d	0.06187843
82	0x3e1a5ecf	0.15075229
83	0xbea1440f	-0.31497237
84	0xbe8e1035	-0.2774674
85	0x3d3bbf55	0.045836765
86	0xbf0931c4	-0.5359156
87	0x3b02925f	0.001992367
88	0xbde1b70f	-0.11021244
89	0xbedded23	-0.43344983
90	0xbe94f9fd	-0.29096976
91	0x3ec5b08f	0.38611266
92	0x3eb00b8b	0.34383807
93	0x3dd84625	0.10560254
94	0xbf0bb92f	-0.5457944
95	0xbee244eb	-0.44193205
96	0xbe7a8ad0	-0.24467015
97	0xbf0b2d1c	-0.54365706
98	0xbe1f9e75	-0.1558779
99	0xbed5a235	-0.41725317
100	0xbe97c323	-0.29641065
101	0xbe9ece07	-0.3101656
102	0x3d22dd32	0.03976173
103	0x3d9c1430	0.07621038
104	0xb9a2cbac	-0.00031050795
105	0xbdfc7c02	-0.1232834
106	0x3ca733bc	0.020410411
107	0x3da55c32	0.080742255
108	0x3e5a2007	0.2130128
109	0xbd39747a	-0.045277096
110	0x3d808da8	0.06277019
111	0x3eb57987	0.3544428
112	0xbc4e11c7	-0.012577481
113	0x3cf62866	0.03004856
114	0x3e77df78	0.2420634
115	0xbe26753f	-0.16255663
116	0x3e1a7f7c	0.15087694
117	0xbde385e0	-0.11109519
118	0xbd1b76c8	-0.037955076
119	0xbceeb931	-0.02914104
120	0xbe60b10c	-0.21942538
121	0x3c7219fd	0.014776704
122	0x3d2d8e96	0.04237231
123	0x3d9edd3f	0.07757043
124	0x3e51196d	0.20419855
125	0x3e9634c1	0.29337123
126	0xbf0400f7	-0.5156397
127	0xbe6375ef	-0.22212957
128	0x3e5d3387	0.21601687
129	0x3e4250d9	0.18976153
130	0xbe9ed2d4	-0.31020224
131	0x3e718e2a	0.23589388
132	0x3988890e	0.00026042055
133	0xbe2ef24d	-0.17084618
134	0x3e9e7a41	0.30952647
135	0x3e126487	0.1429616
136	0xbf1702a8	-0.5898843
137	0xbd7412a2	-0.059588082
138	0xbe1c9f7f	-0.15295218
139	0xbe4afe55	-0.19823582
140	0x3e9ac523	0.30228528
141	0x3eb39168	0.35071874
142	0x3e79e038	0.24401939
143	0xbd4c2cd8	-0.049847454
144	0x3cc5d4ec	0.02414938
145	0x3bb5ae99	0.0055444953
146	0x3eced902	0.4039994
147	0xbe661001	-0.22467043
148	0xbd4a7d89	-0.049436126
149	0xbe8777de	-0.2645864
150	0x3e24db34	0.16099244
151	0xbe620ca2	-0.22075132
152	0x3e0f5ef6	0.14001068
153	0x3eb99b4e	0.362513
154	0x3e355ad9	0.17710437
155	0x3d697b6a	0.057002462
156	0xbebd762b	-0.37004218
157	0x3e27118f	0.16315292
158	0x3dc7adf6	0.09749977
159	0x3e96e31d	0.2947015
160	0x3e1ed7aa	0.15511957
161	0xbe57f303	-0.21088795
162	0xbe1e4197	-0.15454708
163	0x3e3f22a2	0.18665555
164	0xbe08c65f	-0.13356923
165	0xbddd0182	-0.10791303
166	0xbd02937e	-0.03187894
167	0x3d9a80d5	0.07544104
168	0x3ee4cde8	0.44688344
169	0x3d8534fd	0.06504247
170	0x3f0dc35b	0.55376214
171	0x3e372819	0.1788639
172	0x3f12ac64	0.572943
173	0xbd058b3b	-0.032603484
174	0x3ee14dcb	0.44004664
175	0x3e8d36de	0.27580923
176	0xbda964ba	-0.08271165
177	0x3e73ad9f	0.237967
178	0x3e4849f3	0.1955946
179	0x3ea1f0f6	0.3162915
180	0xbe619fce	-0.22033617
181	0x3e8b5cd8	0.27219272
182	0xbd665e14	-0.056242064
183	0xbdfb81b6	-0.122806
184	0x3e8d8d76	0.2764699
185	0xbe189308	-0.14899838
186	0x3e36aeff	0.17840193
187	0xbf00251b	-0.5005662
188	0x3e6c4b91	0.23075701
189	0x3e3e6f76	0.18597206
190	0x3deb6ab6	0.11494963
191	0x3d4f46a1	0.050604466
192	0x3ecf339b	0.4046906
193	0xbe50e1d3	-0.20398645
194	0xbbfe98e1	-0.0077696894
195	0x3d143d71	0.036191408
196	0x3e0135f2	0.12618235
197	0xbebcc684	-0.36870205
198	0x3b11b7c5	0.002223478
199	0x3ed008ae	0.40631622
200	0x3d5e92f3	0.05433936
201	0x3ceb3b18	0.028714702
202	0x3ea51bd1	0.32247785
203	0x3e3c71ce	0.18402788
204	0x3d8c57f4	0.06852713
205	0xbe4d3ec5	-0.20043476
206	0x3e945002	0.2896729
207	0xbd76c42e	-0.060245685
208	0x3ea43284	0.3206979
209	0xbe8ff976	-0.2812001
210	0x3ef8d620	0.48600864
211	0x3eb28b18	0.34871745
212	0xbd909522	-0.07059695
213	0xbe06b991	-0.13156725
214	0x3e7be28b	0.24598138
215	0xbdcaace2	-0.09896256
216	0x3e8a8fc8	0.2706282
217	0xbe79459a	-0.24342957
218	0xbe64cd1c	-0.22343868
219	0x3ea08bf9	0.3135679
220	0xbe513c84	-0.20433241
221	0xbd7a3a99	-0.06109104
222	0xbec6399c	-0.38715827
223	0x3dbba66f	0.09162604
224	0xbe063c6c	-0.13108987
225	0x3ed8d0e4	0.4234687
226	0xbe08017e	-0.13281819
227	0xbe4a9914	-0.19784957
228	0x3e0c866e	0.13723156
229	0x3e07501a	0.1321415
230	0xbe3c911a	-0.18414727
231	0x3cc2d4f6	0.023783188
232	0xbcddccf1	-0.027075263
233	0xbd40cc20	-0.04706967
234	0x3e8589bd	0.26081648
235	0x3e7bda5a	0.24595013
236	0xbf2b8aac	-0.6700847
237	0x3d7d7d8c	0.06188731
238	0xbd13de75	-0.036100823
239	0x3e961eb8	0.29320312
240	0x3ed1f701	0.41008762
241	0xbd891f00	-0.06695366
242	0x3f13a07a	0.5766674
243	0xbe5752aa	-0.21027628
244	0x3ea3053b	0.31839928
245	0xbe8a98cb	-0.27069697
246	0x3e872ab6	0.26399773
247	0xbe82a144	-0.2551366
248	0x3e9e570d	0.3092579
249	0xbed599ce	-0.41718906
250	0x3e85f4c0	0.26163292
251	0xbd8ec3b6	-0.06970923
252	0x3e6f806a	0.2338883
253	0x3ecf9259	0.40541342
254	0x3e80f19b	0.2518433
255	0xbbae24ff	-0.005314469

encoder.l2.bias f4 [32]
0	0x3dfc036d	0.12305341
1	0x3d0ae101	0.033905987
2	0x3cc19114	0.023628749
3	0x3bdf8a0c	0.0068218764
4	0xbe0c868f	-0.13723205
5	0xbdca39e9	-0.09874327
6	0x3caf9884	0.02143503
7	0x3bd14690	0.0063865855
8	0x3d5c4888	0.05378011
9	0x3c6f2c24	0.014597926
10	0x3aff5a32	0.0019481836
11	0xbc5d7cc2	-0.013518514
12	0xbd9228a6	-0.07136659
13	0xbc1cc820	-0.009569198
14	0xbd4ff982	-0.05077506
15	0x3dff996b	0.12480434
16	0x3d287c9b	0.041134458
17	0x3de6f282	0.112767234
18	0xbc8d5ca3	-0.017256087
19	0x3be98a52	0.007127085
20	0x3ced7a45	0.028988967
21	0xbb769cc2	-0.0037630056
22	0x3ddcc967	0.10780602
23	0xbd3685cc	-0.044561192
24	0x3cc13a55	0.023587385
25	0x3ca9e215	0.020737687
26	0xbcf56698	-0.029956147
27	0x3e53aca5	0.20671327
28	0xbdf891c6	-0.12137179
29	0x3e11ecd0	0.14250493
30	0x3d103d97	0.035214987
31	0x3d92f3e5	0.071754254

lstm.weight_ih f4 [512, 288]
0	0xbe308cc8	-0.17241204
1	0xbe67e492	-0.22645786
2	0xbe6468ac	-0.22305554
3	0xbe087ce3	-0.1332889
4	0x3e9a8f5a	0.30187494
5	0xbe9197c1	-0.28436092
6	0xbe6c61b2	-0.23084143
7	0x3c43c4c4	0.011948768
8	0xbe1ff878	-0.15622127
9	0xbd159c4a	-0.036526002
10	0xbe0060a1	-0.12536861
11	0x3e6b7fff	0.22998045
12	0xbe584585	-0.2112027
13	0xbe6e8e74	-0.23296529
14	0x3db2b3c9	0.087256975
15	0x3e1f6998	0.15567625
16	0xbe65416f	-0.22388242
17	0x3e0ce426	0.13758907
18	0xbce76f95	-0.028251449
19	0x3e4e5401	0.20149232
20	0x3d134017	0.035949793
21	0xbd7950d2	-0.060868092
22	0x3d649b96	0.05581244
23	0xbe6b0af9	-0.22953404
24	0xbd560260	-0.05224836
25	0x3e116f60	0.14202642
26	0xbe02b5de	-0.1276469
27	0xbe143074	-0.14471608
28	0xbe7781d6	-0.24170622
29	0xbdf13ab6	-0.11778776
30	0xbe3af50e	-0.18257543
31	0x3e117c68	0.14207613
32	0xbd6103bb	-0.0549352
33	0xbe181c6b	-0.1485459
34	0x3c49d626	0.012319123
35	0x3cca49ee	0.024693456
36	0xbd8362c8	-0.064153254
37	0x3da58006	0.08081059
38	0xbc9f1d72	-0.01942322
39	0x3cd263d9	0.025682377
40	0x3cf95778	0.030437216
41	0x3de948ef	0.11390864
42	0x3d5ebffa	0.054382302
43	0xbd29145c	-0.04127918
44	0x3bc99268	0.006151486
45	0x3df25d02	0.11834146
46	0x3e0f7996	0.14011225
47	0xbdc816d5	-0.0976998
48	0xbcb3333e	-0.02187502
49	0x3d8605d8	0.06544083
50	0x3de333bd	0.11093853
51	0xbe090c30	-0.13383555
52	0xbde692b7	-0.112584524
53	0xbe24ecb7	-0.16105925
54	0xbd28aaa4	-0.04117836
55	0xbc387c0b	-0.011260043
56	0xbb8ea00f	-0.0043525766
57	0x3db5ef2b	0.08883508
58	0xbc7eddd9	-0.015555822
59	0x3c2e014e	0.010620428
60	0xbd1468d6	-0.03623279
61	0xbd28aabc	-0.04117845
62	0x3c0402d0	0.008057311
63	0xbb88a39e	-0.0041698953
64	0xbe285733	-0.16439514
65	0x3d65034e	0.055911355
66	0x3dcf2009	0.10113532
67	0x3dac4488	0.08411509
68	0x3b1c29d9	0.0023828654
69	0x3bb5cae5	0.0055478686
70	0xbb9105da	-0.0044257464
71	0xbdeec317	-0.11658304
72	0xbdbe53e7	-0.09293347
73	0x3cdb3f2d	0.026763523
74	0xbdcaa5e4	-0.098949224
75	0x3d5e4692	0.05426652
76	0x3daee9e5	0.085407056
77	0x3dc13f4c	0.09435901
78	0xbc7bceab	-0.015369098
79	0xbd7df7ef	-0.062004026
80	0x3dc3dbb9	0.09563393
81	0xbcb10fe7	-0.021614028
82	0xbe144944	-0.14481074
83	0x3da32a03	0.079669975
84	0xbdcaf7b0	-0.09910524
85	0x3e7a971a	0.24471703
86	0xbb72c433	-0.0037043213
87	0x3d3462b6	0.04403945
88	0xbe09917d	-0.13434406
89	0x3dd7eed2	0.10543598
90	0x3dd91780	0.106001854
91	0x3c751f7f	0.014961123
92	0x3dcdb041	0.100433834
93	0xbd545ef7	-0.051848378
94	0x3dc79581	0.097453125
95	0x3b701236	0.0036631948
96	0xbd95a22e	-0.07306324
97	0x3e128573	0.1430872
98	0x3b7790ab	0.0037775438
99	0x3ca2a6f8	0.019855008
100	0x3ca139f4	0.019680955
101	0x3ce9bf42	0.028533582
102	0xbe078a96	-0.1323646
103	0xbd8bba90	-0.06822693
104	0xbbaa2dd6	-0.0051934524
105	0xbd4c34a8	-0.049854904
106	0xbd7feaa7	-0.06247964
107	0x3d66b02e	0.05632036
108	0x3d24b062	0.040207274
109	0x3db6d70c	0.08927736
110	0x3e2f90b6	0.17145047
111	0xbe059333	-0.13044433
112	0xbdace740	-0.08442545
113	0x3d98b745	0.07456831
114	0xbd4ce56f	-0.050023492
115	0x3c957e17	0.0182486
116	0x3bba4aa1	0.005685166
117	0xbdee52a6	-0.11636858
118	0xbdaa7b32	-0.08324279
119	0xbd6f31fd	-0.058397282
120	0x3da21b7b	0.07915398
121	0x3de0c437	0.10974925
122	0xbdcba8d5	-0.099443115
123	0xbc573196	-0.013134381
124	0xbd942c33	-0.07234993
125	0xbe1fdb0d	-0.15610905
126	0x3aa99677	0.0012938519
127	0xbdf8466c	-0.12122807
128	0xbcb84e02	-0.022498135
129	0xbdbad0ad	-0.09121833
130	0x3d68fdc1	0.056882624
131	0xbc6ab1f7	-0.014324657
132	0x3e3de0c5	0.18542774
133	0xbe07fe81	-0.1328068
134	0x3d4dd8f9	0.05025575
135	0x3d9c6393	0.0763618
136	0x3d51650d	0.05112176
137	0x3cc60920	0.024174273
138	0x3c61e577	0.013787619
139	0x3db4c3a2	0.088263765
140	0x3da36ab7	0.079793386
141	0xbd767e3e	-0.060178988
142	0x3df00d0b	0.11721238
143	0x3d4a4477	0.0493817
144	0xbd8266e2	-0.063672796
145	0xbd27ba07	-0.040948894
146	0xbc8bd152	-0.017067585
147	0x3d534e9b	0.051588636
148	0xbdd905ba	-0.105967954
149	0x3bfae656	0.0076568527
150	0xbba9e021	-0.005184189
151	0xbc81cc95	-0.015844623
152	0x3deff76f	0.11717116
153	0xbb24db23	-0.002515503
154	0xbd454c7d	-0.048168648
155	0x3ccadcb6	0.024763446
156	0x3d87c888	0.06630045
157	0x3d11cb4d	0.035594273
158	0xbce33b95	-0.027738372
159	0x3dc6aaea	0.09700568
160	0x3d8e3b95	0.06944958
161	0x3d0f4982	0.034982212
162	0x3e0f25a0	0.13979197
163	0xbd2efce8	-0.04272166
164	0x3e187706	0.14889154
165	0x3d9a7bab	0.07543119
166	0xbdda33b1	-0.106543906
167	0x3de074cb	0.109597765
168	0xbdc0fe82	-0.094235435
169	0x3afe36e7	0.0019395024
170	0xbd4b1f0d	-0.04959016
171	0xbcdc68f4	-0.026905514
172	0x3cfbda69	0.030743795
173	0x3dca2bb0	0.09871614
174	0xbdbfcfca	-0.093658045
175	0x3e2b54e5	0.16731603
176	0x3aff6388	0.0019484619
177	0xbc82f92b	-0.015987953
178	0x3dc4208b	0.095765196
179	0xbdf6ba0a	-0.12047203
180	0x3d0ae9e7	0.033914473
181	0xbcc6c035	-0.024261573
182	0x3d90c85b	0.07069465
183	0xbc9af7b4	-0.018916942
184	0xbdafa3c2	-0.08576156
185	0xbca0c437	-0.019624813
186	0xbdf0a91e	-0.117510065
187	0x3e147af3	0.14500026
188	0x3d2af7d1	0.041740242
189	0x3d95ea05	0.07320026
190	0x3cb4fbd4	0.022092737
191	0x3d2c187c	0.042015538
192	0xbe002ae5	-0.12516363
193	0x3d70a3cc	0.05874996
194	0x3c364316	0.011124393
195	0xbbe0ee1b	-0.006864322
196	0xbdef5cde	-0.11687635
197	0x3e22123a	0.15827265
198	0xbd9aaaff	-0.07552146
199	0x3bb99e8d	0.0056646527
200	0xbcbcf823	-0.02306754
201	0xbd4eae56	-0.05045923
202	0x3c37e501	0.011224032
203	0x38dd66f0	0.00010557275
204	0x3be7ee6a	0.0070779817
205	0x3dd2ab2f	0.10286557
206	0xbd466e1e	-0.04844486
207	0x3dd3e218	0.10345858
208	0x3d4fde5d	0.05074917
209	0x3d171463	0.036884677
210	0x3d99ee1e	0.075161204
211	0x3dadb530	0.084818244
212	0x3da9bd37	0.08288043
213	0x3de0192c	0.10942301
214	0x3be847a5	0.007088619
215	0xbc815bfc	-0.015790932
216	0x3d28a43a	0.041172244
217	0x3c9a73b7	0.018854005
218	0xbc97b4d0	-0.018518835
219	0x3db3581f	0.08757042
220	0x3cee2810	0.029071838
221	0x3df12b10	0.11775792
222	0xbd9e9c4b	-0.07744654
223	0x3da382ff	0.0798397
224	0x3d2c1a6b	0.04201738
225	0x3d25290a	0.04032234
226	0xbc57044c	-0.013123583
227	0x3d4de7fa	0.05027006
228	0x3e13ac84	0.14421278
229	0xbd469f48	-0.048491746
230	0x3d0a7e85	0.033812065
231	0xbc40eaed	-0.011774761
232	0x3dbc32a3	0.09189346
233	0x3dcd4f94	0.10024944
234	0x3e06c3aa	0.13160577
235	0xbcea2b25	-0.028585026
236	0x3d246001	0.04013062
237	0xbd0cd467	-0.03438225
238	0x3b8ec52e	0.0043570017
239	0xbd63ede2	-0.055646785
240	0x3ca9ee74	0.020743586
241	0xbd5c920a	-0.05385021
242	0xbd3378ac	-0.043816254
243	0x3dd46a3a	0.103718236
244	0xba82938e	-0.0009962188
245	0xbc58a21f	-0.013222246
246	0xbc79c5f7	-0.015244952
247	0x3cab40e4	0.020904966
248	0xbd54d163	-0.0519575
249	0xbd63c754	-0.055610016
250	0x3de28e9a	0.11062355
251	0x3c57fef2	0.013183342
252	0x3c226ca6	0.009913599
253	0xbc5dbb27	-0.01353339
254	0x3db929dd	0.09041188
255	0xbcb24df0	-0.02176568

lstm.weight_hh f4 [512, 128]
0	0x3e883b70	0.26607847
1	0xbc93f6b2	-0.01806197
2	0x3e8a1965	0.269725
3	0x3c8b05d9	0.016970562
4	0x3da42396	0.080146
5	0x3e04456d	0.12917109
6	0x3e308722	0.17239049
7	0xbe2c12c5	-0.16804035
8	0xbc8160f1	-0.015793296
9	0xbe2679fe	-0.16257474
10	0x3d99d3ba	0.07511087
11	0x3d6e87c8	0.05823496
12	0xbe3fa21e	-0.18714187
13	0xbd1cd6e8	-0.038290888
14	0x3d022440	0.031772852
15	0xbe0b9db3	-0.13634376
16	0xbdeefde0	-0.116695166
17	0xbdcb400b	-0.099243246
18	0xbbec8331	-0.0072177877
19	0xbe5de79c	-0.21670383
20	0xbe1958f4	-0.14975339
21	0xbddc8ae4	-0.10768679
22	0xbc341908	-0.010992296
23	0xbdfee1f8	-0.12445444
24	0x3e75c4ab	0.24000804
25	0x3db61bc0	0.08892012
26	0xbeace64e	-0.3376946
27	0xbe082fa8	-0.1329943
28	0xbd4d252f	-0.05008429
29	0xbd551c14	-0.05202873
30	0xbe846f0b	-0.2586597
31	0x3e2d479a	0.16921845
32	0xbe4555ef	-0.19271062
33	0xbdfe57b0	-0.12419069
34	0x3c023b4b	0.007948707
35	0x3dfb4458	0.12268895
36	0xbdbee3d1	-0.09320796
37	0x3e61ba51	0.2204373
38	0xbe829934	-0.2550751
39	0x3e903124	0.2816249
40	0xbdf85143	-0.121248744
41	0xbe1b757a	-0.15181533
42	0x3ddf2890	0.108964086
43	0xbcdace07	-0.02670957
44	0x3c4d3238	0.01252418
45	0x3c55b15b	0.013042773
46	0x3e69ca77	0.2283114
47	0x3e58fc18	0.21189916
48	0x3d23aa9b	0.039957624
49	0x3e18e47f	0.14930914
50	0x3d8284cf	0.063729875
51	0x3dfc44eb	0.123178326
52	0x3e9c567e	0.30534738
53	0xbe8f7545	-0.28019157
54	0xbe1b95d5	-0.15193875
55	0xbe0e293b	-0.13882916
56	0x3cdbc2f0	0.026826352
57	0x3df4cec5	0.11953501
58	0x3d7783aa	0.0604283
59	0xbeca318e	-0.39490932
60	0x3e10c405	0.14137276
61	0xbb869e8a	-0.004108255
62	0x3d8ef893	0.069810055
63	0x3e5c6807	0.21524058
64	0xbda9347f	-0.08261966
65	0xbdb2aa72	-0.08723916
66	0xbde3e620	-0.11127877
67	0xbd832cb6	-0.06405012
68	0x3de88919	0.11354274
69	0x3e060662	0.13088372
70	0x3e0b08ad	0.13577528
71	0x3e034df3	0.12822704
72	0xbddc2e80	-0.10751057
73	0xbca0899f	-0.019596873
74	0x3e0f2b72	0.13981417
75	0xbea39be6	-0.3195488
76	0x3e15ec7a	0.1464099
77	0xbd235c16	-0.039882742
78	0x3e154fcd	0.14581223
79	0xbe2dd4e2	-0.1697574
80	0xbe773283	-0.24140362
81	0xbe326be5	-0.17423971
82	0x3daaf3cf	0.08347284
83	0x3d8de570	0.06928527
84	0x3d4be0f6	0.049775086
85	0xbe207537	-0.15669714
86	0xbd744ce4	-0.05964364
87	0x3df05925	0.11735753
88	0xbe0d1217	-0.13776432
89	0xbe4b33fc	-0.19844049
90	0xbdaddf39	-0.08489842
91	0x3d404018	0.046936125
92	0xbebab58e	-0.3646664
93	0x3e2dca04	0.16971594
94	0xbbe42d9c	-0.006963445
95	0x3d05d74b	0.032676022
96	0xbcfdef2a	-0.030997831
97	0xbe792004	-0.24328619
98	0x3e7dd598	0.24788511
99	0xbdd74285	-0.105107345
100	0xbdf21295	-0.118199505
101	0xbe76c253	-0.24097566
102	0x3dc3a1a7	0.09552317
103	0xbe8d49fb	-0.27595505
104	0x3e96db65	0.2946426
105	0xbe85a363	-0.26101217
106	0xbe3b6231	-0.18299176
107	0x3e801aab	0.25020346
108	0x3d2af81b	0.041740518
109	0xbdf853bb	-0.12125345
110	0xbd9c4ef2	-0.07632245
111	0x3e1ae349	0.15125765
112	0x3d415379	0.047198746
113	0xbeee2fc4	-0.46520817
114	0xbce84d83	-0.028357273
115	0xbcf458f3	-0.02982757
116	0xbd24aa9e	-0.040201776
117	0x3dd3cd5d	0.10341904
118	0xbdb41e3b	-0.087948285
119	0xbda959e0	-0.082690954
120	0xbe872a74	-0.26399577
121	0xbdf10345	-0.11768202
122	0x3d1103af	0.035403904
123	0xbe85536f	-0.26040217
124	0xbdc8ff24	-0.09814289
125	0xbe168fb8	-0.14703262
126	0x3e6bc7a6	0.23025379
127	0x3dda7fa3	0.10668876
128	0x3bd86b5f	0.0066045965
129	0xbe3e662f	-0.18593667
130	0xbe080e90	-0.13286805
131	0x3dd6c53a	0.10486837
132	0x3e78496b	0.24246757
133	0xbe83a7b8	-0.25713897
134	0xbd967faf	-0.073485725
135	0x3e9a8174	0.3017689
136	0xbd5f54f6	-0.054524384
137	0x3e8e6050	0.27807856
138	0xbd71a58e	-0.058995776
139	0xbbe69967	-0.00703733
140	0x3e0b0b58	0.13578546
141	0x3df1db35	0.118093885
142	0x3d98344b	0.07431849
143	0x3e3cf563	0.18452983
144	0xbd1edf40	-0.038787127
145	0xbe178f11	-0.14800669
146	0x3cd18d76	0.02558015
147	0x3f006c26	0.5016502
148	0x3e3c0dcc	0.18364638
149	0xbdd89bdd	-0.105766036
150	0xbe0800c8	-0.13281548
151	0xbd77a6c5	-0.06046178
152	0xbe01fbbb	-0.12693684
153	0x3ebbd511	0.36685994
154	0xbe1f88be	-0.15579507
155	0x3e375876	0.17904839
156	0xbe289e4b	-0.16466634
157	0x3e93473f	0.28765294
158	0xbd1138e8	-0.03545466
159	0xbea76e1e	-0.327012
160	0xbc95285b	-0.01820772
161	0x3e470041	0.1943369
162	0x3d6c8cb5	0.057751376
163	0x3bc4f563	0.0060106977
164	0xbcad03b9	-0.02111994
165	0x3e91c9b5	0.28474203
166	0xbdc1ff20	-0.09472489
167	0x3e4f7352	0.20258835
168	0xbe1f4ac6	-0.15555868
169	0x3e264537	0.16237341
170	0x3da34a22	0.07973124
171	0x3e033ff1	0.1281736
172	0xbea19461	-0.31558517
173	0xbe01f7e3	-0.12692218
174	0xbc8b0103	-0.016968256
175	0x3e795088	0.24347126
176	0x3d77a33e	0.060458414
177	0x3de41614	0.111370236
178	0x3d5ba54a	0.05362443
179	0xbdfd19f3	-0.12358465
180	0xbd89e019	-0.06732196
181	0x3e85c7c9	0.26128986
182	0x3e6d1cdf	0.23155545
183	0x3d4c111b	0.049821
184	0xbe1279d5	-0.14304288
185	0x3e3fc62d	0.18727942
186	0x3da7e952	0.08198799
187	0x3d6adc7f	0.057339188
188	0xbe38b9a7	-0.18039571
189	0x3d5da1a4	0.05410923
190	0x3e918078	0.28418326
191	0xbcfc30b2	-0.030784938
192	0x3ddfca91	0.10927308
193	0xbdebf7a7	-0.11521845
194	0x3dbbc1ae	0.09167801
195	0xbd9fbacd	-0.07799301
196	0x3e3f39be	0.1867437
197	0xbea6013e	-0.32422823
198	0xbdda5046	-0.10659842
199	0x3e1d339c	0.15351719
200	0xbd525f76	-0.05136057
201	0xbde06c24	-0.10958126
202	0x3d1f92d9	0.038958404
203	0x3e4335e3	0.19063525
204	0xbe026eb8	-0.12737548
205	0xbe0008cd	-0.12503357
206	0x3e791655	0.24324925
207	0x3e6d8dae	0.23198578
208	0xbe42191b	-0.1895489
209	0x3c82fe41	0.015990378
210	0xbe411cc2	-0.18858626
211	0xbe2de94d	-0.16983528
212	0xbe4988ef	-0.19681142
213	0xbdd04aac	-0.101704925
214	0x3c94e46b	0.018175324
215	0xbe2fd881	-0.17172433
216	0x3da17f0a	0.07885559
217	0xbe11cdfc	-0.14238733
218	0xbc41fee7	-0.011840559
219	0xbe3b75a2	-0.18306592
220	0x3da492d3	0.08035817
221	0xbc3ec9a7	-0.011644757
222	0xbdd5fffc	-0.10449216
223	0x3d18d27b	0.037310105
224	0x3d8703a0	0.06592488
225	0xbe809423	-0.2511302
226	0x3de16624	0.1100581
227	0x3e91fbb6	0.28512353
228	0xbc4e95f5	-0.012608995
229	0x3d82f292	0.06393923
230	0x3e36ba65	0.17844541
231	0x3c4f03f5	0.012635221
232	0xbcad181c	-0.02112966
233	0x3e4857f1	0.19564797
234	0x3e0a69aa	0.1351687
235	0x3d06d755	0.0329202
236	0x3badb911	0.0053016027
237	0xbde66952	-0.11250557
238	0xbe8119b7	-0.2521493
239	0xbdef1718	-0.11674327
240	0x3e447ba7	0.19187795
241	0xbda19ce3	-0.07891252
242	0x3dbf420e	0.09338771
243	0x3ee1e939	0.44123247
244	0xbe293dae	-0.16527435
245	0xbdebe0b1	-0.11517466
246	0x3e3cbfe2	0.18432572
247	0x3d86c8c1	0.065812595
248	0xbe66f9ec	-0.22556275
249	0x3e89eb1b	0.26937184
250	0x3c003002	0.007823946
251	0x3e1139dc	0.14182228
252	0x3c6276c5	0.013822262
253	0xbeaa5f11	-0.33275655
254	0xbe27fcf9	-0.16405095
255	0xbcfa9228	-0.03058727

lstm.bias_ih f4 [512]
0	0x3d0f0831	0.03491992
1	0x3dcd8783	0.100356124
2	0x3e3a7b69	0.1821114
3	0x3ce0fd03	0.027464395
4	0x3db71178	0.08938879
5	0x3dc74f97	0.097319774
6	0x3dcb87b5	0.099379934
7	0x3dad56cf	0.08463823
8	0x3c667d4c	0.014067959
9	0x3e00b8f5	0.12570556
10	0x3e366d0d	0.17815037
11	0xbd897ddf	-0.06713461
12	0xbc860909	-0.01636173
13	0x3c53b3a3	0.012921247
14	0x3d58cfb1	0.052932445
15	0x3dcbf85b	0.099594794
16	0x3dc2819a	0.09497376
17	0x3debee24	0.11520031
18	0x3d45e687	0.04831555
19	0x3d52a728	0.051428944
20	0x3ccbda02	0.024884228
21	0x3db57712	0.088606015
22	0x3dce3acc	0.10069808
23	0x3e1e436c	0.15455407
24	0x3d8f5be4	0.069999486
25	0xbbc0ded8	-0.00588594
26	0xbd27204b	-0.04080228
27	0x3dcc80d9	0.09985513
28	0x3e0f5294	0.13996345
29	0xbcf70a3b	-0.030156245
30	0xbd439134	-0.0477459
31	0x3bb93fee	0.005653373
32	0x3d7c3647	0.0615752
33	0x3dc65c65	0.096855916
34	0x3cfe6c98	0.03105764
35	0x3d5effe2	0.054443248
36	0xbcaa5433	-0.020792102
37	0xbd3bc018	-0.04583749
38	0x3e01a43d	0.12660308
39	0x3cc1ae72	0.023642752
40	0x3c0127a7	0.007882989
41	0x3dbce2f5	0.09222976
42	0x3e09f080	0.1347065
43	0xbca73415	-0.020410577
44	0x3ddf2f64	0.10897711
45	0x3cfb3f70	0.030669898
46	0x3e1df4a6	0.15425357
47	0x3d814168	0.063113034
48	0x3d2379d8	0.03991112
49	0x3dbf83ed	0.09351335
50	0x3dcbb9bd	0.09947536
51	0x3cc1c42b	0.02365311
52	0xbd542860	-0.051796317
53	0xbc6a07b0	-0.014284059
54	0x3e2460ed	0.16052599
55	0x3e02b0f6	0.12762818
56	0x3d584147	0.05279663
57	0x3e0fd6d4	0.14046794
58	0x3dd4705e	0.10372995
59	0xbca9ac3b	-0.020712009
60	0x3d05e60f	0.032690104
61	0x3d638be9	0.05555335
62	0x3e1bd843	0.15219216
63	0x3e257c7c	0.16160768
64	0x3e1a67cb	0.15078656
65	0xbc01ebc6	-0.007929748
66	0x3d1025c4	0.035192266
67	0x3e0b66c7	0.13613425
68	0x3d0bb6c5	0.03410985
69	0x3db8d9e3	0.090259336
70	0x3de1d7e6	0.110275075
71	0x3bfe8fd1	0.007768609
72	0x3d161e82	0.03665019
73	0x3e235c1a	0.15953103
74	0x3ddfc940	0.10927057
75	0x3dada132	0.08478011
76	0x3dc8322a	0.09775193
77	0xbdab6d9c	-0.08370516
78	0x3ca00298	0.019532487
79	0x3d2db530	0.042409122
80	0x3d8d7f72	0.06909074
81	0x3b97147f	0.0046105976
82	0x3c0c3643	0.008557859
83	0xbd9545d4	-0.07288709
84	0xbce03649	-0.027369635
85	0xbbb35a4b	-0.0054734102
86	0x3d9cbfaa	0.076537445
87	0xbd27c061	-0.04095495
88	0xbcbf6d43	-0.02336753
89	0x3d2a7de0	0.04162395
90	0x3c4435d4	0.011975724
91	0x3e05894b	0.13040654
92	0x3b19935d	0.0023433783
93	0x3d274e91	0.04084641
94	0x3c29ba92	0.010359423
95	0x3dc91f9e	0.098204836
96	0x3db6cd65	0.08925895
97	0x3da15977	0.07878392
98	0x3dfafe07	0.12255483
99	0xbc2b82fb	-0.01046824
100	0xbcb220d0	-0.021744162
101	0xbd267cd2	-0.04064638
102	0x3e06f433	0.13179092
103	0x3dd54185	0.104128875
104	0xbbcb2164	-0.006199049
105	0x3d9f1ac8	0.0776878
106	0x3e1213b4	0.14265329
107	0x3b8df353	0.004331985
108	0x3d8f83e2	0.070075765
109	0x3ccdacde	0.025106844
110	0x3e022abc	0.12711614
111	0xbce3bb3f	-0.027799247
112	0x3c0c8e0c	0.0085787885
113	0x3d92652c	0.07148203
114	0x3e1f5bb0	0.1556232
115	0x3dd53e70	0.104123
116	0xbcccdbda	-0.025007177
117	0xbd3be974	-0.045876935
118	0x3cbc398c	0.02297666
119	0x3d1ef724	0.03880991
120	0xbd7d27c9	-0.06180552
121	0x3da92f7f	0.08261012
122	0xbbadd617	-0.0053050625
123	0xbd9e0ff5	-0.07717887
124	0xbc29a16e	-0.010353429
125	0x3df5f393	0.12009349
126	0x3da2ee44	0.07955602
127	0xb91833ae	-0.00014515102
128	0xbca5cc0d	-0.0202389
129	0xbda82a0d	-0.082111456
130	0xbd12ff99	-0.03588829
131	0xbc340fba	-0.010990078
132	0x3cc3b9c3	0.023892289
133	0xbc9328ad	-0.017963732
134	0xbd919714	-0.07108894
135	0xbe07cbaf	-0.13261293
136	0xbd9f5a3c	-0.07780883
137	0x3d026681	0.031836037
138	0xbd2a2f8e	-0.041549258
139	0x3b208321	0.0024492221
140	0x3d90f4e0	0.07077956
141	0x3c9a7326	0.018853735
142	0xbc888818	-0.016666457
143	0xbd835265	-0.064122
144	0xbd4d1edd	-0.05007826
145	0xbddf094d	-0.10890446
146	0x3b304470	0.002689626
147	0xbd9c1ef0	-0.07623088
148	0xbe19db89	-0.15025152
149	0xbd7e942b	-0.062153023
150	0x3d81fd24	0.06347111
151	0xbc6494f6	-0.013951531
152	0x3c07fb51	0.008299665
153	0xbd747f37	-0.059691634
154	0xbda85620	-0.08219552
155	0xbc3228f6	-0.010874024
156	0xbd56362e	-0.052297764
157	0xbe1eb47d	-0.15498538
158	0x3d8b3e2a	0.06798966
159	0xbd825c81	-0.063653
160	0x3cbf5725	0.023356983
161	0x3c16cc18	0.009203933
162	0xbd910a3e	-0.07082032
163	0x3cbbaafe	0.022908684
164	0x3d89e423	0.06732967
165	0xbccce5dc	-0.02501195
166	0xbe01f785	-0.12692077
167	0xbc759353	-0.014988738
168	0x3dc49a7a	0.095997766
169	0xbdb84e61	-0.089993246
170	0xbaa2effd	-0.0012431141
171	0xbcd1b793	-0.02560023
172	0xbd9b6d23	-0.075891756
173	0xbe258228	-0.16162932
174	0x3c9d61c0	0.01921165
175	0xbd3e85b6	-0.046514235
176	0xbc5ba83a	-0.013406808
177	0xbcda9de8	-0.026686624
178	0x3c52de26	0.012870347
179	0xbe264c3b	-0.16240017
180	0xbd22817b	-0.039674263
181	0x3cbd2e6a	0.023093421
182	0xbd9d86ee	-0.076917514
183	0xbcd7ba32	-0.026333902
184	0xbd0aae92	-0.03385789
185	0xbcc2eaee	-0.023793664
186	0xbda35623	-0.07975414
187	0xbcb1f9fd	-0.021725649
188	0xbe0ad96d	-0.13559504
189	0xbc43d56e	-0.011952741
190	0xbe1f45db	-0.15553991
191	0xbd679a45	-0.056543607
192	0xbd38e2fd	-0.045138348
193	0x3be4a6eb	0.006977906
194	0x3d13ccc6	0.03608396
195	0xbdce4cd8	-0.100732505
196	0xbdfe9617	-0.12430971
197	0xbdcaae11	-0.09896482
198	0x3ca2dc16	0.019880336
199	0xbbb14346	-0.005409631
200	0xbd78efc4	-0.060775533
201	0xbdfad0d0	-0.12246859
202	0xbe19ae90	-0.15007997
203	0x3dc3eb7c	0.095663995
204	0x3dd33168	0.10312158
205	0xbe00bd4e	-0.12572214
206	0xbe16c0fe	-0.14722058
207	0x3d594214	0.053041533
208	0x3c99a523	0.018755501
209	0xbcbfd345	-0.02341617
210	0x3cd18f2e	0.025580969
211	0xbe01b99b	-0.12668459
212	0xbd3b7420	-0.045765042
213	0xbd2a087c	-0.041511998
214	0xbde121cf	-0.109927766
215	0x3d790555	0.0607961
216	0x3be8a234	0.0070994142
217	0xbd02eae6	-0.031962298
218	0x3d9297ef	0.07157885
219	0xbd2e236a	-0.042514242
220	0x3cc5c33e	0.02414095
221	0xbcb15fac	-0.021652065
222	0x3d94befc	0.0726299
223	0xbdc2f6b2	-0.0951971
224	0xbd8b2a54	-0.06795183
225	0xbafea744	-0.0019428511
226	0x3d1e33a1	0.038623456
227	0x3c44d869	0.012014487
228	0xbcdccbaa	-0.026952583
229	0xbd329e9e	-0.0436083
230	0xbcafec41	-0.02147496
231	0xbd96731f	-0.07346176
232	0xbd787ca3	-0.060665738
233	0xbe0aaa82	-0.13541606
234	0x3d120620	0.035650373
235	0xbdc215fd	-0.0947685
236	0xbd9746d3	-0.073865555
237	0xbd4e14c6	-0.05031278
238	0xbdbc15cb	-0.09183844
239	0xbe30d72c	-0.17269582
240	0xbdfe84a8	-0.12427646
241	0xbdc1f144	-0.09469846
242	0xbd887989	-0.06663806
243	0xbd65ffa4	-0.056152
244	0xbdd2d453	-0.10294404
245	0x3a563266	0.0008170962
246	0xbda497df	-0.080367796
247	0x39f0758c	0.00045863946
248	0xbd2a1587	-0.041524436
249	0xbd16c236	-0.036806308
250	0xbd2832f0	-0.041064203
251	0xbd5e2b6f	-0.05424064
252	0xbd60cb20	-0.054881215
253	0xbd72b6aa	-0.059256233
254	0x3d7e4687	0.06207898
255	0x3d5320b1	0.05154485
