evaluation_results/models/list_npi_2020_2_26-12_19_18-1424-False-False-1.0-True-0.0-False-True-True-False.pth (torch_old, 971073 bytes, 16 tensors)

Mprog.weight f4 [3, 256]
0.104853325 -0.3621705 -1.288815 0.113089904 1.2654146 -0.48816854 0.99388283 1.1725123
-0.5005943 -0.38317984 -1.8353753 -0.6564135 1.3009291 0.8382928 0.8350567 -0.2746528
-1.0720178 -2.8544922 1.35148 0.25854278 0.3332929 0.7045204 1.6704191 -0.5525311
-1.9676473 -0.44406843 -0.5459693 0.25587448 -1.1963726 0.6526305 0.8119975 1.4274685
0.04582344 0.5859085 -1.9396319 1.0147206 -1.3790352 0.76294935 -0.58160126 -0.70164555
-0.7658517 -0.10617341 0.13541183 -0.043220516 -0.0006841989 0.3123104 -0.052138258 0.13290177
0.029439652 1.1043475 0.09332852 -0.2524146 0.20397808 -0.9385952 1.219337 -0.86338
1.1881734 0.7944034 0.30028793 -0.7468788 -0.19420445 -0.8433426 -1.3274815 -1.106414
0.18726939 -0.013023305 -0.5476519 -0.14271031 -0.51947165 -0.31826797 -1.7716006 -0.76111597
-1.7174356 -1.7471362 -0.90062445 0.9091693 0.6480841 -0.14156935 -0.22115286 0.7470306
-0.10227076 -1.9463359 -1.390964 -0.89782995 -1.1295854 -2.1610496 -1.5203079 0.46075657
-0.7313716 -0.6594929 -1.4100578 -0.37666428 0.16106325 1.573812 -0.056350667 -0.7131292
-0.29140568 0.3566731 -0.005926447 -0.35327554 -0.6680317 1.4109502 0.4597072 -0.717028
1.0753777 -0.3061979 -0.83857805 -1.8312838 0.48540235 0.8306028 -0.5350169 -0.11322491
0.800204 0.49294317 1.3043467 -1.7128714 -0.059666205 0.6801283 -0.1977164 -1.1204083
0.0005033189 -0.08696786 0.035743993 -0.19590528 -0.30246508 -0.24311952 1.2282586 0.2039072
0.036222734 0.012933417 0.9356381 -1.6223382 0.53657675 -1.0743226 -0.5064352 -0.9056226
-0.9833075 -0.92963004 0.26476058 0.771601 0.38763765 1.4157492 1.2563269 1.2099296
-0.1124792 -2.3672175 -1.999772 -0.75693494 -0.60933006 0.4882658 -1.8080827 -0.39645457
-0.8520059 -0.13981089 -2.084361 0.2436632 -0.015571483 -0.37869674 0.7078054 0.16907418
-0.3634583 -0.14262006 -0.09905557 0.3632848 -1.0886283 -0.25667548 -2.0462346 0.74021703
-0.35527614 -0.7062085 0.81255096 -1.6844087 0.20615642 -0.2295348 0.3043308 -0.29285073
-0.53847873 -1.059168 1.7148688 -1.6493741 0.28042233 -0.3839138 -0.6663114 0.3137669
-0.9418327 -1.3556341 0.2752629 0.037215438 0.0058411937 -0.9533224 1.4555924 -0.21494207
-1.8245283 0.20068222 1.7699064 -0.23079692 -0.2354474 -0.7685453 -1.8340245 -0.31462324
0.67378753 -1.9829665 0.88292783 1.5861464 0.58296615 0.59544384 -1.1825343 1.4839212
-0.03626083 -0.011373049 -0.702049 -1.943476 -0.44457063 -1.1104324 -0.39988682 1.6034193
-0.008027947 0.49225372 1.1823958 -0.36836687 0.4652062 1.0752829 0.2609778 -0.5753127
0.37570825 0.83781147 0.3940633 -2.541779 -1.7423527 -0.18091868 1.7467726 -0.6529672
-0.9384972 1.7310857 0.23416646 0.8282769 0.47162122 0.07133909 0.030846141 1.4574692
-0.28964958 -0.13893035 -0.88979566 0.03767841 -1.1550318 0.5065384 -0.46633577 0.24710009
-0.53775316 -0.641075 1.6025853 0.8427714 -0.12733984 0.3109841 -0.01811351 1.4804482
00000000: 57bd d63d 696e b9be e4f7 a4bf ae9b e73d
00000010: 1bf9 a13f 3af1 f9be 1b6f 7e3f e214 963f
00000020: f326 00bf 2630 c4be 94ed eabf b70a 28bf
00000030: d884 a63f 5b9a 563f 47c6 553f 4b9f 8cbe
00000040: e137 89bf 00b0 36c0 4cfd ac3f b85f 843e
00000050: 5ea5 aa3e 735b 343f 4bd0 d53f ae72 0dbf
00000060: dedb fbbf f05c e3be a5c4 0bbf fb01 833e
00000070: bd22 99bf cb12 273f 11df 4f3f 4ab7 b63f
00000080: 5cb1 3b3d 19fe 153f dc45 f8bf 5de2 813f
00000090: 3a84 b0bf a650 433f d2e3 14bf 0b9f 33bf
000000a0: db0e 44bf 7271 d9bd 66a9 0a3e ff07 31bd
000000b0: d05b 33ba 26e7 9f3e ed8e 55bd 6717 083e
000000c0: 6d2b f13c 425b 8d3f 0623 bf3d 7d3c 81be
000000d0: a1df 503e c647 70bf 3c13 9c3f 7906 5dbf
000000e0: 1116 983f 055e 4b3f 57bf 993e 7333 3fbf
000000f0: 88dd 46be 4de5 57bf eaea a9bf f99e 8dbf
00000100: 8cc3 3f3e b35f 55bc ea32 0cbf a722 12be
00000110: 18fc 04bf 05f4 a2be cfc3 e2bf 7fd8 42bf
00000120: eed4 dbbf 29a2 dfbf 538f 66bf 52bf 683f
00000130: d7e8 253f 8ef7 10be e575 62be 663d 3f3f
00000140: 5573 d1bd 8921 f9bf 1c0b b2bf 2fd8 65bf
00000150: 4196 90bf a34e 0ac0 7399 c2bf 49e8 eb3e
00000160: 2b3b 3bbf 87d4 28bf c67c b4bf 24da c0be
00000170: c4ed 243e ac72 c93f f5cf 66bd a38f 36bf
00000180: 2033 95be db9d b63e a432 c2bb 88e0 b4be
00000190: 2004 2bbf 049a b43f be5e eb3e 268f 37bf
000001a0: faa5 893f f9c5 9cbe 0dad 56bf 8267 eabf
000001b0: a886 f83e 63a2 543f def6 08bf 76e2 e7bd
000001c0: 2bda 4c3f 0c63 fc3e d5f4 a63f 5f3f dbbf
000001d0: 8d64 74bd e31c 2e3f 2b76 4abe 8a69 8fbf
000001e0: 29f1 033a 351c b2bd 4b68 123d 659b 48be
000001f0: b4dc 9abe 53f4 78be 9437 9d3f 0dcd 503e
00000200: 4a5e 143d afe6 533c fb85 6f3f c7a8 cfbf
00000210: 185d 093f 6783 89bf bda5 01bf e2d6 67bf
00000220: 0aba 7bbf 3cfc 6dbf b38e 873e a587 453f
00000230: 7178 c63e 4537 b53f 52cf a03f f9de 9a3f
00000240: 7f5b e6bd 7e80 17c0 87f8 ffbf 7dc6 41bf
00000250: 0efd 1bbf fafd f93e 416f e7bf 18fc cabe
00000260: 0f1d 5abf 962a 0fbe 2c66 05c0 d982 793e
00000270: 891f 7fbc 8ae4 c1be bc32 353f c821 2d3e
00000280: 3517 babe fe0a 12be a6dd cabd 7700 ba3e
00000290: 2c58 8bbf f86a 83be 82f5 02c0 dd7e 3d3f
000002a0: c1e6 b5be 15ca 34bf 5703 503f b49a d7bf
000002b0: ab1a 533e 2c0b 6bbe 3fd1 9b3e 88f0 95be
000002c0: bed9 09bf d192 87bf d280 db3f b11e d3bf
000002d0: 8493 8f3e 5990 c4be 6293 2abf 0ea6 a03e
000002e0: f31b 71bf 6b85 adbf 42ef 8c3e 376f 183d
000002f0: 7c67 bf3b f00c 74bf da50 ba3f c619 5cbe
00000300: 258a e9bf a47f 4d3e 4b8c e23f 0756 6cbe
00000310: 2019 71be 63bf 44bf 51c1 eabf 4c16 a1be
00000320: 577d 2c3f d9d1 fdbf 8f07 623f d806 cb3f
00000330: 453d 153f 026f 183f 495d 97bf 21f1 bd3f
00000340: 3c86 14bd 0656 3abc 7cb9 33bf d2c3 f8bf
00000350: c39e e3be a622 8ebf f7bd ccbe d83c cd3f
00000360: a687 03bc ae08 fc3e bf58 973f 959a bcbe
00000370: 822f ee3e dfa2 893f e29e 853e b147 13bf
00000380: d55c c03e d07a 563f aac2 c93e 82ac 22c0
00000390: 6a05 dfbf bf42 39be 3f96 df3f dc28 27bf
000003a0: 5a41 70bf 3794 dd3f 55c9 6f3e f409 543f
000003b0: 5678 f13e 3b1a 923d 0cb1 fc3c 5a8e ba3f
000003c0: f34c 94be c243 0ebe a6c9 63bf ad54 1a3d
000003d0: 15d8 93bf 80ac 013f 90c3 eebe ce07 7d3e
000003e0: 31aa 09bf 7e1d 24bf 8421 cd3f debf 573f
000003f0: 6065 02be 4f39 9f3e c962 94bc 547f bd3f

encoder.l1.weight f4 [100, 64]
0.22700952 -0.18289292 0.15776926 -0.0036895636 -0.023213593 0.08081318 -0.042998433 0.0031865526
-0.025196223 -0.20381513 -0.12306879 -0.29192996 0.06454069 -0.1377601 0.026004264 0.049391605
0.008093036 0.06181494 0.074004896 0.04969439 -0.012993984 -0.17054927 -0.023056453 0.012667363
0.035168465 0.06413666 -0.08338383 -0.058490276 0.17015384 0.019337617 0.1696432 0.028318087
0.07118073 -0.06387573 0.11432523 -0.106664725 0.07429051 -0.021476084 -0.013514174 -0.06392739
0.00088816584 0.15414141 -0.01049693 0.13901353 0.149634 -0.14425941 0.061080396 0.029378595
0.09497016 0.059246436 -0.11469649 0.09339049 0.35771525 0.020784935 -0.051486045 -0.011144383
0.26147652 0.18604946 0.05943542 0.33746606 0.09436153 -0.22101323 -0.018172683 -0.078101516
-0.11948498 -0.10181329 -0.27763233 0.008150893 0.18448608 0.2377679 -0.28581527 -0.009598432
0.103981525 -0.01012181 0.45915705 0.34848595 0.53544736 0.2439949 0.14763866 -0.06407153
-0.107774645 0.14880663 -0.21083143 -0.23341607 -0.16984308 -0.7132732 -0.12048613 0.104441844
0.098721616 -0.10131489 0.04059624 0.2275732 0.08695085 0.28010356 0.093064874 -0.04522175
0.08160657 -0.021743976 -0.19806029 0.2434362 0.02749513 -0.27219215 -0.12521611 0.052947253
0.029067287 0.20589346 -0.1438405 -0.20300168 0.00939389 0.19099554 -0.09982968 0.1596828
0.042733192 0.028589504 -0.069959074 0.17304128 0.020617072 -0.051640596 -0.1185301 0.017940883
-0.05773087 -0.05958567 0.025598377 0.04572182 -0.07795604 0.23989429 -0.10133718 0.13993461
-0.007692875 0.0957665 -0.10080568 -0.036546044 -0.0071864524 0.04207444 -0.009478558 0.07827364
-0.015358639 -0.0481395 0.14123337 0.04641021 0.28857753 -0.06499628 0.14845736 -0.29977834
-0.26168954 0.2193615 0.068944074 0.019666856 -0.108039916 -0.31078702 0.14198099 0.008233407
0.26239616 0.101184234 -0.22141673 0.0555895 0.03894495 0.092761725 0.013408066 -0.27465275
0.14363715 0.26762336 -0.20098944 0.16984813 -0.052645884 0.05803783 0.4041995 -0.0643003
0.08136667 -0.35285866 0.07228027 0.14487515 0.36553553 0.22054704 -0.16385046 0.029598292
0.16983993 0.32653338 -0.026729025 0.10218735 0.4924565 -0.027264373 -0.13043636 0.075653695
0.04749191 0.23821981 0.08017983 0.3115159 -0.049407247 0.08788685 -0.09817704 -0.19695452
-0.12101109 -0.20890248 -0.013891167 0.08595697 0.257599 0.39237925 0.5560926 -0.16094676
-0.5270813 -0.04473392 0.008459005 0.23734921 0.23804705 0.1517391 0.047834776 -0.034325834
-0.39833808 -0.77727765 -0.40425333 0.2493062 0.17326161 -0.030362703 0.16140449 0.047378577
0.14004181 0.07659053 0.009064145 -0.10245853 0.05702907 -0.23692428 -0.028820796 -0.3211817
0.1142367 0.09963494 -0.23868713 -0.06106217 -0.09491594 0.026779095 -0.038238868 0.1562218
0.10290685 -0.09722758 -0.0478351 0.04903972 -0.17176268 0.040104885 0.12747617 0.11475078
0.06640998 0.06221394 0.0020496442 0.07077486 0.14967555 -0.012717023 -0.036011897 -0.1219137
0.3726683 -0.1393074 -0.04440306 0.17247848 -0.099324524 0.07831759 -0.028387407 -0.053858418
00000000: 2f75 683e 4848 3bbe 448e 213e 9bcc 71bb
00000010: 6f2a bebc 6181 a53d 201f 30bd 7bd5 503b
00000020: 4f68 cebc eab4 50be 7d0b fcbd d877 95be
00000030: e92d 843d fc10 0dbe e506 d53c da4e 4a3d
00000040: a798 043c aa31 7d3d e18f 973d 588c 4b3d
00000050: b8e4 54bc 78a4 2ebe e3e0 bcbc c58a 4f3c
00000060: cf0c 103d 155a 833d 24c5 aabd 8093 6fbd
00000070: cf3c 2e3e ec69 9e3c f2b6 2d3e 55fb e73c
00000080: 34c7 913d 47d1 82bd 5923 ea3d 0973 dabd
00000090: 9f25 983d 9dee afbc 8e6a 5dbc 5dec 82bd
000000a0: cdd3 683a 3fd7 1d3e 51fb 2bbc 9059 0e3e
000000b0: a839 193e bdb8 13be 702f 7a3d 61ab f03c
000000c0: b77f c23d 64ac 723d fee5 eabd 8343 bf3d
000000d0: 7426 b73e 2b45 aa3c 08e3 52bd ee96 36bc
000000e0: 40e0 853e c083 3e3e 8e72 733d 5ac8 ac3e
000000f0: 9e40 c13d 4b51 62be e1de 94bc b0f3 9fbd
00000100: 8bb4 f4bd 7c83 d0bd d325 8ebe 538b 053c
00000110: ebe9 3c3e 6e79 733e 6156 92be be42 1dbc
00000120: 44f4 d43d f3d5 25bc a216 eb3e c06c b23e
00000130: 1413 093f cdd9 793e 972e 173e ef37 83bd
00000140: f4b8 dcbd c460 183e 32e4 57be 9f04 6fbe
00000150: 58eb 2dbe 1399 36bf 6fc1 f6bd 9be5 d53d
00000160: 8f2e ca3d 2e7e cfbd 3e48 263d f308 693e
00000170: 4a13 b23d bc69 8f3e cc98 be3d 713a 39bd
00000180: 5821 a73d 6c20 b2bc 51d0 4abe 5747 793e
00000190: 783d e13c c55c 8bbe a738 00be 38df 583d
000001a0: 851e ee3c bcd5 523e ed4a 13be acdf 4fbe
000001b0: d5e8 193c 5694 433e 8173 ccbd e383 233e
000001c0: 0009 2f3d 8934 ea3c b446 8fbd bc31 313e
000001d0: 22e5 a83c 1785 53bd e9bf f2bd c2f8 923c
000001e0: 3477 6cbd 1a10 74bd b0b3 d13c ce46 3b3d
000001f0: 6ba7 9fbd d9a6 753e de89 cfbd 054b 0f3e
00000200: 8314 fcbb 3a21 c43d 3573 cebd 4eb1 15bd
00000210: 557c ebbb 3f56 2c3d f44b 1bbc ee4d a03d
00000220: cda2 7bbc ed2d 45bd 7b9f 103e a218 3e3d
00000230: 6fc0 933e c51c 85bd 3505 183e 8c7c 99be
00000240: 2cfc 85be 4da0 603e 8d32 8d3d 631c a13c
00000250: 0844 ddbd 7a1f 9fbe 7763 113e 69e5 063c
00000260: ca58 863e ae39 cf3d 11bb 62be d1b1 633d
00000270: bd84 1f3d dcf9 bd3d 81ad 5b3c 499f 8cbe
00000280: 9e15 133e ee05 893e 2dd0 4dbe abec 2d3e
00000290: 36a3 57bd 13b9 6d3d 3df3 ce3e e0af 83bd
000002a0: 92a3 a63d e4a9 b4be ae07 943d 275a 143e
000002b0: 7927 bb3e 15d7 613e 6ac8 27be 1e78 f23c
000002c0: 85ea 2d3e 622f a73e d4f6 dabc 9a47 d13d
000002d0: 4223 fc3e 8959 dfbc 1c91 05be 53f0 9a3d
000002e0: e186 423d e5ef 733e 5335 a43d 037f 9f3e
000002f0: 415f 4abd 05fe b33d 0b11 c9bd 72ae 49be
00000300: aad4 f7bd 88ea 55be c797 63bc 350a b03d
00000310: 04e4 833e efe5 c83e 165c 0e3f 3acf 24be
00000320: cdee 06bf ea3a 37bd a397 0a3c ac0b 733e
00000330: 9bc2 733e 7f61 1b3e 66ee 433d 3f99 0cbd
00000340: f8f2 cbbe abfb 46bf 4bfa cebe 204a 7f3e
00000350: 7e6b 313e 34bb f8bc 3847 253e 0a10 423d
00000360: 1f67 0f3e 7fdb 9c3d c881 143c c7d5 d1bd
00000370: 5097 693d 479c 72be 9719 ecbc ee71 a4be
00000380: eef4 e93d 670d cc3d 666a 74be 531c 7abd
00000390: 4a63 c2bd d55f db3c 5ca0 1cbd 9cf8 1f3e
000003a0: d4c0 d23d 411f c7bd bdee 43bd e0dd 483d
000003b0: 8ee2 2fbe 0545 243d 1d89 023e 7502 eb3d
000003c0: f501 883d 0bd4 7e3d 5353 063b 69f2 903d
000003d0: 8c44 193e 0f5b 50bc 3681 13bd e4ad f9bd
000003e0: 61ce be3e 99a6 0ebe fcdf 35bd 339e 303e
000003f0: a86a cbbd f964 a03d b58c e8bc a59a 5cbd

encoder.l1.bias f4 [100]
0.10047021 -0.086747594 0.0428175 0.018060988 0.098905474 0.02404473 -0.080087095 -0.03628939
0.09098521 0.03779564 0.011835471 0.06599378 0.06728986 0.0027378541 0.005985065 0.1061321
0.09624023 -0.051024184 0.05596202 0.042352047 -0.040460132 0.090470016 -0.070072435 0.048995703
-0.1257712 -0.05022648 -0.058855124 0.017720684 -0.015756845 -0.07467641 0.0323979 -0.034487456
-0.026444128 -0.054030187 0.06141699 0.04786099 -0.02201329 0.04311377 0.15686545 0.024449136
0.009058794 0.07417332 0.13507503 0.120379105 0.06529271 0.05728407 -0.00068164343 0.13035114
0.05694495 -0.039822306 0.054753494 -0.0006015294 0.101015545 0.00088117475 -0.0061412933 -0.06512446
0.080164894 0.0017384 0.018199703 0.05806502 0.20089248 -0.05230171 0.14549391 0.12999418
-0.0055469302 0.1685085 0.057582248 0.13143036 -0.023766056 -0.0039121457 -0.13603023 0.08581221
0.073744535 0.11281586 -0.016929844 -0.056913376 -0.07709403 0.011181695 0.079133116 0.06535452
0.007643513 0.088406436 -0.16641961 0.04001746 0.063444406 0.008067313 0.12853609 0.03013756
-0.019316204 -0.117979325 0.014642564 -0.04745598 0.15525645 0.10053002 0.120172076 0.0638398
-0.112520844 0.051320683 0.05037435 -0.07143393
00000000: 53c3 cd3d b9a8 b1bd 6761 2f3d a3f4 933c
00000010: f48e ca3d 74f9 c43c b404 a4bd 2fa4 14bd
00000020: 7456 ba3d 9acf 1a3d 90e9 413c bf27 873d
00000030: 44cf 893d 926d 333b 5d1e c43b c95b d93d
00000040: 9919 c53d bcfe 50bd 6e38 653d 5779 2d3d
00000050: 86b9 25bd 5848 b93d 2382 8fbd b8af 483d
00000060: 2aca 00be 48ba 4dbd 1212 71bd f82a 913c
00000070: 8014 81bc f2ef 98bd a9b3 043d b842 0dbd
00000080: 5ba1 d8bc c24e 5dbd 6290 7b3d e309 443d
00000090: 3755 b4bc 1198 303d 56a1 203e 8e49 c83c
000000a0: 566b 143c 2ee8 973d 1c51 0a3e 5289 f63d
000000b0: 2fb8 853d b3a2 6a3d 51b0 32ba c57a 053e
000000c0: 1c3f 693d b71c 23bd 3345 603d f4af 1dba
000000d0: 3de1 ce3d a3fe 663a e73c c9bb f95f 85bd
000000e0: 7e2d a43d 06db e33a 8b17 953c 96d5 6d3d
000000f0: c2b6 4d3e 513a 56bd 5bfc 143e 321d 053e
00000100: 06c3 b5bb 7e8d 2c3e 5ddb 6b3d ae95 063e
00000110: 08b1 c2bc 7531 80bb 824b 0bbe 50be af3d
00000120: 6007 973d 000c e73d 75b0 8abc 001e 69bd
00000130: 7ae3 9dbd 6e33 373c 8b10 a23d 97d8 853d
00000140: 6f76 fa3b 6f0e b53d e769 2abe 59e9 233d
00000150: 24ef 813d c32c 043c f79e 033e 0be3 f63c
00000160: 043d 9ebc 259f f1bd 5de7 6f3c 3461 42bd
00000170: 8cfb 1e3e afe2 cd3d c71c f63d 71be 823d
00000180: 5471 e6bd a335 523d 5655 4e3d f44b 92bd

encoder.l2.weight f4 [32, 100]
0.11905135 -0.6513495 0.009843564 -0.5511449 0.18640837 0.13138516 -0.42443976 -0.596241
0.05695323 0.23907563 0.45941848 0.0625588 0.17789686 0.11521708 -0.65222555 0.26318657
0.30474496 -0.34595093 0.28205305 0.39422366 -0.4049118 0.13548365 -0.3450376 -0.54623306
-0.26876816 0.3520072 -0.42286113 -0.064307734 0.2838427 -0.24306239 0.14213265 -0.7045613
-0.20491712 -0.54796374 -0.13321519 -0.2898852 0.024973797 -0.1094839 0.33217087 -0.09121747
0.19274719 0.11569788 0.002710637 0.071964316 0.05997485 -0.13036123 -0.54518574 0.2593246
0.080781765 -0.46617863 -0.2035113 0.09892001 0.17524227 -0.30853918 0.1070049 -0.5379241
-0.34912196 -0.25701278 -0.47494686 0.07748749 0.045925755 -0.11049506 0.5125912 0.07402239
0.18253791 0.34945264 -0.0015736781 0.23920573 -0.28616026 0.1516353 0.05873482 0.25135326
0.17955182 0.13455552 -0.5232851 0.18044966 -0.5301517 -0.08671456 -0.2767354 0.3802638
-0.023529038 0.04028912 0.2383314 -0.3011214 0.44083977 0.0737189 0.35339835 0.03157606
0.13051127 -0.20217894 0.19064733 -0.026165642 -0.24055456 0.001859875 -0.012745172 -0.5389106
0.06343044 0.15229195 0.029175155 -0.30752558 -0.34441006 0.33950862 -0.1626926 0.24475753
-0.4437874 -0.201585 -0.06373579 0.26809794 -0.5396893 0.11807511 0.044053145 0.20081094
-0.0803257 -0.198534 0.3315557 -0.37627688 -0.1850926 0.2143811 0.008725627 -0.18768208
0.48382705 -0.06562198 0.09845222 0.15423891 0.27654162 0.11342355 -0.02942106 0.072833925
-0.27779502 0.20149842 0.10310664 0.07849734 0.36844292 0.64008605 0.27276874 0.4334874
-0.042298045 -0.07197984 -0.057494596 0.14821947 -0.0983578 0.6224863 -0.04479117 0.13299231
-0.09081692 0.003880781 0.79993653 -0.42934537 -0.2465924 0.30581117 -0.015226679 0.14888123
0.057173107 0.07610438 -0.25216833 0.68151814 -0.11204911 0.20509478 0.2693151 0.35347855
0.1296679 -0.3244115 -0.3770043 -0.3407655 0.6279087 -0.014442423 -0.12395373 -0.31859088
0.4027071 0.102039196 -0.03846074 0.13227351 -0.70668244 0.055953167 0.29248533 -0.41156444
0.36387965 -0.06418917 0.28511506 -0.18157394 -0.13108324 -0.20424977 0.24036826 0.46917647
0.21020594 -0.27718428 -0.43730614 0.10681112 -0.0017599122 0.24494967 -0.20874642 -0.007882038
-0.38706046 0.1382077 0.025751056 0.044137802 -0.10112098 -0.29125196 0.18022157 0.5775578
-0.15440035 -0.4321696 -0.6260693 -0.11393031 0.5701144 -0.22698 -0.13678816 0.09569898
0.42697418 -0.19035187 0.17101379 0.13843362 0.13023418 0.3490569 0.30694887 0.056983918
0.26980835 -0.04162886 0.13607277 0.16220383 -0.002154839 0.11803179 -0.33786896 0.021932418
-0.9496054 0.013883497 -0.29122445 0.64049935 0.2912065 -0.5936341 0.5621977 -0.24379583
0.37540123 -0.032701302 0.011256652 0.08426788 0.25811726 0.8056168 0.09239596 -0.77585757
-0.21330221 0.1314174 -0.25012517 0.16100432 -0.038038757 -0.54707617 -0.23378317 0.54199845
-0.015318593 0.19376865 -0.03634367 0.0798382 -0.30294648 -0.10187241 -0.32813486 0.04967364
00000000: 32d1 f33d d7be 26bf e646 213c d517 0dbf
00000010: d6e1 3e3e d589 063e 2b50 d9be 40a3 18bf
00000020: ca47 693d 3ed0 743e e638 eb3e d41e 803d
00000030: 982a 363e eff6 eb3d 41f8 26bf 64c0 863e
00000040: 8807 9c3e 7b20 b1be 4269 903e afd7 c93e
00000050: 9950 cfbe 3abc 0a3e c5a8 b0be eed5 0bbf
00000060: fb9b 89be 4a3a b43e 4181 d8be c6b3 83bd
00000070: d553 913e 59e5 78be 398b 113e 215e 34bf
00000080: cbd5 51be 5a47 0cbf 9069 08be d56b 94be
00000090: d995 cc3c 1839 e0bd 4d12 aa3e 3ad0 babd
000000a0: 855f 453e 03f3 ec3d f1a4 313b 0762 933d
000000b0: 30a8 753d 6a7d 05be 4b91 0bbf 32c6 843e
000000c0: e970 a53d f7ae eebe 4465 50be 9396 ca3d
000000d0: b672 333e d9f8 9dbe 6325 db3d 65b5 09bf
000000e0: 1dc0 b2be 2e97 83be 3c2c f3be c3b1 9e3d
000000f0: a51c 3c3d 3c4b e2bd 2d39 033f 0d99 973d
00000100: 38eb 3a3e 75eb b23e e043 ceba 59f2 743e
00000110: 9983 92be 4946 1b3e ec93 703d 60b1 803e
00000120: 6fdc 373e ecc8 093e 03f6 05bf ccc7 383e
00000130: 06b8 07bf 6797 b1bd 43b0 8dbe f0b1 c23e
00000140: f8bf c0bc 3406 253d 260d 743e 962c 9abe
00000150: c0b5 e13e eff9 963d a1f0 b43e e655 013d
00000160: bfa4 053e ff07 4fbe 0e39 433e 5459 d6bc
00000170: ef53 76be 0dc7 f33a 20d1 50bc 0cf6 09bf
00000180: d2e7 813d 6cf2 1b3e bc00 ef3c fe73 9dbe
00000190: 8456 b0be 13d4 ad3e e498 26be b8a1 7a3e
000001a0: 1a38 e3be 4c6c 4ebe e987 82bd 2244 893e
000001b0: 1429 0abf 5dd1 f13d 1271 343d 62a1 4d3e
000001c0: cd81 a4bd 7f4c 4bbe abc1 a93e 5da7 c0be
000001d0: ea88 3dbe b886 5b3e eff5 0e3c bb2f 40be
000001e0: 2eb8 f73e d164 86bd 51a1 c93d cef0 1d3e
000001f0: dd96 8d3e 9b4a e83d 6f04 f1bc f429 953d
00000200: 263b 8ebe 9a55 4e3e 9329 d33d 37c3 a03d
00000210: 8da4 bc3e aedc 233f 58a8 8b3e 0ff2 dd3e
00000220: b740 2dbd 2b6a 93bd 747f 6bbd d8c6 173e
00000230: d06f c9bd 435b 1f3f f276 37bd 232f 083e
00000240: 39fe b9bd b354 7e3b a4c8 4c3f 28d3 dbbe
00000250: b882 7cbe 4893 9c3e 5279 79bc 5274 183e
00000260: 592e 6a3d 9ddc 9b3d 351c 81be f977 2e3f
00000270: 017a e5bd 5e04 523e abe3 893e 24fb b43e
00000280: a9c7 043e 4419 a6be b506 c1be d178 aebe
00000290: a0be 203f ea9f 6cbc 74db fdbd 581e a3be
000002a0: a02f ce3e edf9 d03d 0289 1dbd b572 073e
000002b0: 24e9 34bf 262f 653d a3c0 953e 93b8 d2be
000002c0: 6f4e ba3e 9d75 83bd 9afa 913e 85ee 39be
000002d0: af3a 06be da26 51be 1923 763e e637 f03e
000002e0: 3a40 573e 19eb 8dbe 97e6 dfbe cabf da3d
000002f0: dbac e6ba 16d4 7a3e 9fc1 55be aa23 01bc
00000300: ca2c c6be 5286 0d3e e1f3 d23c d7c9 343d
00000310: 8418 cfbd fa1e 95be 018c 383e d4da 133f
00000320: 201b 1ebe 5545 ddbe 1446 20bf 4b54 e9bd
00000330: 04f3 113f 726d 68be 3212 0cbe d4fd c33d
00000340: 5c9c da3e 9aeb 42be 3d1e 2f3e 8bc1 0d3e
00000350: 1c5c 053e 96b7 b23e 6728 9d3e f867 693d
00000360: 5224 8a3e 0683 2abd a956 0b3e c318 263e
00000370: 3338 0dbb a7ba f13d 29fd acbe 9dab b33c
00000380: 5719 73bf 9b77 633c 5f1b 95be c4f7 233f
00000390: 0519 953e 68f8 17bf 30ec 0f3f 9da5 79be
000003a0: 9734 c03e cdf1 05bd d26d 383c a394 ac3d
000003b0: f227 843e e73c 4e3f 183a bd3d 9a9e 46bf
000003c0: e56b 5abe 4892 063e 6810 80be 51de 243e
000003d0: 87ce 1bbd 2f0d 0cbf db64 6fbe 69c0 0a3f
000003e0: d6fa 7abc 4a6b 463e 1add 14bd 3682 a33d
000003f0: cd1b 9bbe 7ba2 d0bd 4b01 a8be 9676 4b3d

encoder.l2.bias f4 [32]
0.05056295 -0.011941389 0.09670522 0.10688223 -0.035558265 0.13094756 0.03439276 0.02091454
0.011207483 -0.002908339 -0.12364537 0.02412216 0.01503984 -0.06467264 0.08733234 0.09426839
-0.040299103 0.097248994 -0.082311764 -0.11432843 -0.11896326 0.09181916 -0.03197205 -0.040178802
-0.025703758 -0.098605774 -0.005163776 -0.020284357 0.043011855 -0.07630408 0.104834266 0.1456832
00000000: 191b 4f3d d1a5 43bc 630d c63d 12e5 da3d
00000010: 8ba5 11bd 1e17 063e 6cdf 0c3d f854 ab3c
00000020: 979f 373c d599 3ebb c939 fdbd d69b c53c
00000030: a969 763c 1773 84bd 4cdb b23d c90f c13d
00000040: ac10 25bd 7b2a c73d 1293 a8bd 0625 eabd
00000050: 02a3 f3bd af0b bc3d 20f5 02bd 8792 24bd
00000060: b090 d2bc d3f1 c9bd e534 a9bb 612b a6bc
00000070: 332d 303d 5045 9cbd 59b3 d63d fa2d 153e

lstm.weight_ih f4 [512, 288]
-0.22328928 0.57586807 0.23428114 -0.48069534 0.7491239 0.13553569 -0.42456928 -0.26817843
-0.21184488 -0.3341636 -0.08953041 0.10104348 0.12465372 0.4796316 -0.7940485 -0.22124682
-0.7385468 -0.59520215 -0.09374926 0.31120917 0.007319911 -0.047472864 0.58071125 -0.6718912
0.20687571 0.4413302 0.26719245 -0.03129102 0.20152296 0.6227901 -0.14166807 -0.48773852
0.013200777 -0.112761885 0.040107403 -0.16589843 -0.03111459 -0.11416304 -0.05719665 -0.10367604
0.11424401 0.19845532 0.14902605 0.09102626 -0.064183004 0.019991415 0.09142929 0.055726785
-0.062405426 0.06653794 -0.0011522451 0.018036893 0.09249497 0.050807327 -0.06436229 0.073078364
-0.02063305 0.019668331 0.082674064 -0.08268936 -0.060927298 0.012990589 -0.07209564 -0.08140787
-0.063237764 -0.0014710876 0.00055508246 0.083429344 -0.016466128 -0.07573986 0.031841 0.0303179
0.07672189 -0.07327786 -0.03673647 0.0028379515 0.14025828 -0.09084958 -0.07258657 0.08054719
0.029661538 -0.05972198 0.025821354 0.031783782 -0.08918324 0.008388629 -0.071250066 0.013057703
0.020590113 0.03810388 0.0399157 0.059535358 -0.07681096 -0.069051445 -0.0598325 0.09847769
0.00217636 0.29424223 -0.006212965 -0.06954155 0.011267381 -0.008523096 0.11970826 0.21774362
0.044956084 0.13589644 0.2263164 0.0034366648 -0.00040284535 0.048272137 -0.09674499 0.008329107
0.09781778 0.11604351 0.09771515 0.080449864 0.0054389853 0.03214622 -0.09047584 -0.09815513
0.069919884 0.06918408 0.08333265 -0.10433006 0.008686859 -0.15919088 -0.133285 0.070273615
-0.08843779 -0.062123 -0.11625603 -0.08017101 0.09835789 -0.10696568 0.06957216 -0.024233175
-0.051393684 0.13516384 0.09461224 -0.024553215 -0.0043503577 -0.024476944 -0.0007274869 0.044488866
-0.08959182 -0.100648396 -0.10485995 0.08788106 0.07377517 -0.10503425 0.025267377 -0.003362183
0.2447006 -0.06520847 -0.10315857 -0.05903186 -0.07693038 -0.08784597 -0.1831195 0.054129656
-0.0026735193 -0.031979207 0.021110283 0.18183975 -0.14058945 0.054737978 0.09620414 -0.10364029
0.001146156 0.15537438 0.003344494 -0.17811747 0.040355578 -0.12920651 -0.056902967 0.026332026
0.050291054 0.11035154 -0.053002533 0.053116515 -0.005084914 -0.12967524 0.10075264 -0.107141815
0.06238729 -0.018262494 0.08564563 0.07747612 0.02243027 0.009331483 -0.017351665 0.08129669
0.011373256 -0.10339452 0.059744526 0.033660833 0.12554541 0.07712472 0.015579242 -0.115961134
0.0047752694 -0.015692785 -0.085731536 0.014020593 -0.1049561 -0.01640178 0.09886828 0.0035380842
0.033209655 0.015654137 0.029374171 0.1752355 -0.03535893 -0.10831386 0.052365627 0.048985116
0.11341296 0.06991733 -0.04611155 0.017273387 -0.026923591 -0.052651547 -0.07193653 -0.05420027
0.048286565 0.017838813 -0.020041652 0.038300436 0.15361139 0.03928789 0.12031282 -0.049500827
-0.037856217 0.07236593 -0.036246087 0.030405905 -0.19078851 0.023404565 -0.07987763 0.022837328
-0.050552532 -0.17616934 -0.0014300295 0.024313439 0.018508788 0.06664765 -0.04411724 -0.1378502
0.013908231 -0.12349778 -0.06929552 -0.06200121 0.024789728 0.030989017 -0.04877911 0.16485049
00000000: f2a5 64be 176c 133f 65e7 6f3e b31d f6be
00000010: 95c6 3f3f dec9 0a3e 2561 d9be af4e 89be
00000020: dded 58be 7e17 abbe b85b b7bd e2ef ce3d
00000030: 734a ff3d 4692 f53e c346 4bbf 878e 62be
00000040: 6711 3dbf 2b5f 18bf 9dff bfbd cf56 9f3e
00000050: dddb ef3b e872 42bd 7ea9 143f 1001 2cbf
00000060: 3ad7 533e 08f6 e13e 73cd 883e 032b 00bd
00000070: 095c 4e3e 2c6f 1f3f 6f11 11be ddb8 f9be
00000080: 1248 583c b4ef e6bd a947 243d 47e1 29be
00000090: 06e4 febc 50ce e9bd 0947 6abd 1b54 d4bd
000000a0: c3f8 e93d df37 4b3e 499a 183e fa6b ba3d
000000b0: 6172 83bd 09c5 a33c 483f bb3d c541 643d
000000c0: d59c 7fbd 0b45 883d ee06 97ba 1bc2 933c
000000d0: 016e bd3d 581b 503d 60d0 83bd 1caa 953d
000000e0: a406 a9bc 7b1f a13c 0551 a93d 0a59 a9bd
000000f0: e78e 79bd 7bd6 543c e1a6 93bd 2bb9 a6bd
00000100: cd82 81bd 82d1 c0ba f482 113a 01dd aa3d
00000110: f9e3 86bc 801d 9bbd b56b 023d 3f5d f83c
00000120: 5e20 9d3d b412 96bd fb78 16bd edfc 393b
00000130: de9f 0f3e 580f babd 45a8 94bd edf5 a43d
00000140: c1fc f23c 099f 74bd 4e87 d33c b62f 023d
00000150: b4a5 b6bd 7670 093c 8eeb 91bd faef 553c
00000160: 99ac a83c d012 1c3d a57e 233d 59db 733d
00000170: 114f 9dbd d86a 8dbd ec12 75bd acae c93d
00000180: 43a1 0e3b eba6 963e 2196 cbbb cd6b 8ebd
00000190: d29a 383c 75a4 0bbc 9b29 f53d 2ff8 5e3e
000001a0: df23 383d 7028 0b3e 7dbf 673e ab39 613b
000001b0: fd34 d3b9 01b9 453d 3d22 c6bd cf76 083c
000001c0: b054 c83d 38a8 ed3d e11e c83d e6c2 a43d
000001d0: 8439 b23b c1ab 033d 664b b9bd 8f05 c9bd
000001e0: 2832 8f3d 62b0 8d3d 4faa aa3d 00ab d5bd
000001f0: 5453 0e3c ef02 23be dd7b 08be 9deb 8f3d
00000200: df1e b5bd b074 7ebd a417 eebd b330 a4bd
00000210: dd6f c93d d310 dbbd d97b 8e3d a784 c6bc
00000220: 2f82 52bd 6468 0a3e 10c4 c13d d323 c9bc
00000230: 728d 8ebb df83 c8bc d2b4 3eba f539 363d
00000240: eb7b b7bd bf20 cebd d0c0 d6bd fcfa b33d
00000250: 7017 973d 321c d7bd 88fd ce3c 1258 5cbb
00000260: cb92 7a3e 058c 85bd cd44 d3bd 64cb 71bd
00000270: ad8d 9dbd 97e8 b3bd ae83 3bbe 0fb7 5d3d
00000280: 3636 2fbb a1fc 02bd 79ef ac3c 3334 3a3e
00000290: aef6 0fbe ee34 603d ad06 c53d 5c41 d4bd
000002a0: 9d3a 963a 761a 1f3e 4c2f 5b3b 6d64 36be
000002b0: e44b 253d b64e 04be 1613 69bd 43b6 d73c
000002c0: fefd 4d3d fdff e13d 2f19 59bd b490 593d
000002d0: 5a9f a6bb 96c9 04be 6657 ce3d 2b6d dbbd
000002e0: d189 7f3d 3a9b 95bc fa66 af3d cdab 9e3d
000002f0: b0bf b73c 14e3 183c 1425 8ebc e17e a63d
00000300: e556 3a3c 82c0 d3bd adb6 743d f1df 093d
00000310: fa8e 003e 91f3 9d3d 1440 7f3c 087d edbd
00000320: dd79 9c3b 288e 80bc 0494 afbd a1b6 653c
00000330: 39f3 d6bd 075d 86bc 747b ca3d 34df 673b
00000340: d906 083d 1b3d 803c 1aa2 f03c ef70 333e
00000350: 86d4 10bd a8d3 ddbd 577d 563d 9ea4 483d
00000360: 0e45 e83d d130 8f3d 77df 3cbd eb80 8d3c
00000370: dd8e dcbc 26a9 57bd 7653 93bd 1a01 5ebd
00000380: 22c8 453d b422 923c 642e a4bc ebe0 1c3d
00000390: 4e4c 1d3e 57ec 203d 9166 f63d 61c1 4abd
000003a0: 1f0f 1bbd 9734 943d c776 14bd ce15 f93c
000003b0: 105e 43be eeba bf3c e296 a3bd 5915 bb3c
000003c0: 2c10 4fbd bc65 34be d46f bbba fa2c c73c
000003d0: be9f 973c 907e 883d 47b4 34bd 9a28 0dbe
000003e0: 59df 633c 67ec fcbd cfea 8dbd fbf4 7dbd
000003f0: d413 cb3c aedc fd3c 9bcc 47bd 91ce 283e

lstm.weight_hh f4 [512, 128]
0.13485402 -0.124376476 0.08078955 0.14619938 0.23579082 0.014163645 0.28390846 -0.1707759
-0.030195901 -0.190168 0.19243687 0.13247564 0.41201887 -0.1372891 0.12353969 0.07401465
-0.06842825 -0.270349 -0.055329498 0.06660329 -0.3286401 -0.22895 0.05779013 0.16179569
-0.34149957 0.116573706 -0.07952125 0.045601286 0.051571053 -0.010602621 0.31137034 0.12794943
-0.14263079 0.17433731 0.032675248 0.07512325 0.04859315 0.020350274 -0.02529678 0.3899891
-0.12340553 0.048201732 -0.0105699105 -0.1513154 0.021394523 0.08905553 -0.022327071 -0.31400895
-0.19314885 0.71644235 0.14346212 0.042046476 0.15695277 0.023290882 0.28381604 -0.2636633
0.08247982 0.13469315 -0.17476906 0.037695773 -0.20142017 0.4851493 0.32352158 0.16953556
-0.20836107 -0.057538215 -0.18920732 0.47513568 0.5455721 0.06692585 0.20440628 0.14816241
-0.17892383 -0.28352267 -0.14084817 -0.47165835 0.38450745 -0.024572214 -0.29435736 0.03377388
-0.055751536 0.32143605 -0.15570743 -0.05746336 0.13614397 0.05710806 0.101391345 0.05076359
0.21340095 -0.42740384 -0.076405406 -0.009967531 -0.0051558814 -0.06262639 0.23666927 -0.23276949
-0.24262154 -0.20983948 0.45972908 0.3363997 0.09211095 0.034215838 0.25566363 -0.14939213
0.110162385 -0.12268929 0.08779212 0.23901159 0.18329608 0.065877676 -0.17587169 0.1276786
-0.16473378 -0.15608719 0.17268579 0.0070749773 -0.10268761 -0.0018175098 -0.12675992 0.02169092
-0.026883606 -0.112144075 0.3817915 0.0784929 -0.3232233 -0.0038578205 0.18164018 0.14750458
0.11773513 0.09819358 0.16390002 0.3135077 0.14965235 0.077611014 -0.05315511 0.19510193
-0.12824002 0.055471197 0.061112735 0.23652916 -0.54129446 -0.10690723 0.08048545 -0.13645703
0.35660335 -0.13787176 -0.49869007 -0.27007303 -0.10583588 -0.33651572 0.13505208 -0.1357751
-0.18548092 0.08088 0.22603004 0.04147237 -0.07177253 0.2752375 0.081271105 0.074459694
0.3388884 -0.041317925 0.088246666 0.026698789 0.3131809 0.30992097 0.004759486 -0.06286935
-0.07076545 0.17599787 0.67559606 -0.00780658 0.45763692 0.35227653 0.014705442 0.20283265
-0.20589708 -0.19842015 0.1446616 0.21147513 -0.7646843 -0.10261746 -0.3151767 0.025244135
0.13408613 -0.27231175 -0.13527644 -0.42863455 -0.20578742 0.14251614 -0.06748077 -0.33794388
0.54081005 0.09250364 0.19744779 -0.24033123 -0.31791392 -0.120990135 -0.042137682 -0.014928628
0.05302937 -0.18996115 -0.12898321 0.14425078 -0.2456112 0.1699075 0.49306396 0.3490074
-0.05129414 -0.0157297 0.16409151 0.20009404 -0.23628175 0.1251463 -0.05609199 -0.14350136
0.06575423 0.33940437 -0.3652731 0.18991417 -0.05618249 0.32477403 -0.09301446 -0.07625386
0.3157045 0.22769105 0.0108796675 -0.4950814 -0.21087265 0.50677246 -0.3461066 0.080735736
-0.054061964 0.053288404 -0.2930324 -0.01324856 -0.116138786 -0.26204675 0.27776343 -0.08598606
0.3909326 -0.081171915 0.1325784 0.09832291 0.103853345 -0.21550156 0.08988063 0.11166533
0.32512683 0.10040058 0.56426 0.43652076 0.13145308 0.17063233 0.4004213 -0.42084232
00000000: 2c17 0a3e 18b9 febd fe74 a53d 4ab5 153e
00000010: 2673 713e a20e 683c 735c 913e e1df 2ebe
00000020: 655d f7bc 66bb 42be 2c0e 453e b2a7 073e
00000030: 23f4 d23e 8495 0cbe 6102 fd3d fe94 973d
00000040: 1c24 8cbd 2f6b 8abe 2fa1 62bd 4e67 883d
00000050: 8443 a8be de71 6abe 58b5 6c3d c5ad 253e
00000060: 08d9 aebe 32be ee3d 0adc a2bd 6ac8 3a3d
00000070: 2b3c 533d 9eb6 2dbc ef6b 9f3e 2d05 033e
00000080: ce0d 12be 7b85 323e 7bd6 053d 38da 993d
00000090: 9c09 473d 9eb5 a63c 313b cfbc a7ac c73e
000000a0: 0abc fcbd 2e6f 453d 6b2d 2dbc 6df2 1abe
000000b0: 9143 af3c bf62 b63d 43e7 b6bc c8c5 a0be
000000c0: d0c8 45be c468 373f bce7 123e ed38 2c3d
000000d0: 3ab8 203e 85cc be3c 5650 913e e0fe 86be
000000e0: 2eeb a83d 00ed 093e a9f6 32be e266 1a3d
000000f0: 1741 4ebe 7d65 f83e 9fa4 a53e bb9a 2d3e
00000100: 9b5c 55be 31ad 6bbd 90bf 41be fc44 f33e
00000110: 9daa 0b3f 6c10 893d e14f 513e e3b7 173e
00000120: cf37 37be e229 91be 813a 10be 347d f1be
00000130: 29de c43e ab4b c9bc 02b6 96be 7b56 0a3d
00000140: b95b 64bd 4493 a43e c571 1fbe b35e 6bbd
00000150: 5369 0b3e 24ea 693d 44a6 cf3d 7bed 4f3d
00000160: c785 5a3e add4 dabe 707a 9cbd db4e 23bc
00000170: abf2 a8bb 4442 80bd 6e59 723e 205b 6ebe
00000180: c871 78be 29e0 56be 9c61 eb3e 953c ac3e
00000190: aaa4 bc3d e825 0c3d 58e6 823e 40fa 18be
000001a0: d19c e13d 8644 fbbd 5bcc b33d 74bf 743e
000001b0: f8b1 3b3e e0ea 863d b517 34be 2ebe 023e
000001c0: f9af 28be 52d5 1fbe 8bd4 303e 36d5 e73b
000001d0: e24d d2bd 8239 eeba 5acd 01be 28b1 b13c
000001e0: 023b dcbc cbab e5bd 2d7a c33e e3c0 a03d
000001f0: 867d a5be 7dd3 7cbb e2ff 393e 710b 173e
00000200: 1e1f f13d b719 c93d 68d5 273e 1584 a03e
00000210: 773e 193e 86f2 9e3d 2cb9 59bd cdc8 473e
00000220: 5a51 03be c435 633d 5951 7a3d b334 723e
00000230: 4692 0abf 2ef2 dabd 8ed5 a43d 64bb 0bbe
00000240: b794 b63e 412e 0dbe 4e54 ffbe 0347 8abe
00000250: 7bc0 d8bd ca4b acbe 184b 0a3e a108 0bbe
00000260: b6ee 3dbe 6aa4 a53d 6b74 673e efde 293d
00000270: 7afd 92bd eeeb 8c3e 7771 a63d 537e 983d
00000280: c882 ad3e fc3c 29bd abba b43d 6bb7 da3c
00000290: 3f59 a03e f6ad 9e3e 76f5 9b3b a5c1 80bd
000002a0: 7aed 90bd c938 343e ddf3 2c3f 57ce ffbb
000002b0: 634f ea3e 975d b43e 18ef 703c 5db3 4f3e
000002c0: afd6 52be a72e 4bbe 2c22 143e f08c 583e
000002d0: 5ac2 43bf 1a29 d2bd d75e a1be cacc ce3c
000002e0: e04d 093e 726c 8bbe e885 0abe fd75 dbbe
000002f0: f0b9 52be c0ef 113e 5c33 8abd fb06 adbe
00000300: 8772 0a3f 8c72 bd3d c12f 4a3e 6419 76be
00000310: 9dc5 a2be adc9 f7bd 9098 2cbd 3497 74bc
00000320: 5335 593d 2d85 42be 2d14 04be 7ab6 133e
00000330: 8181 7bbe 3bfc 2d3e e172 fc3e 19b1 b23e
00000340: ce19 52bd 92db 80bc 9b07 283e 74e5 4c3e
00000350: d8f3 71be 5a26 003e b7c0 65bd 05f2 12be
00000360: 27aa 863d 69c6 ad3e 1305 bbbe dc78 423e
00000370: 9c1f 66bd c848 a63e 5d7e bebd fc2a 9cbd
00000380: 05a4 a13e d827 693e a240 323c 4f7b fdbe
00000390: 00ef 57be d7bb 013f e234 b1be c758 a53d
000003a0: 1470 5dbd f144 5a3d 5808 96be 7d10 59bc
000003b0: 2cda edbd fe2a 86be 0237 8e3e 7619 b0bd
000003c0: 5128 c83e 763d a6bd a2c2 073e 865d c93d
000003d0: 10b1 d43d 71ac 5cbe 5613 b83d cbb0 e43d
000003e0: 0677 a63e d29e cd3d 5873 103f a67f df3e
000003f0: a39b 063e 3eba 2e3e 0504 cd3e a578 d7be

lstm.bias_ih f4 [512]
-0.06026707 -0.039745122 -0.046777677 0.079525664 -0.048516273 -0.0540135 0.03108131 0.038070288
0.12778509 0.011698649 -0.049655803 0.061531987 0.060471516 0.06684526 0.05364933 0.039444003
-0.015306587 0.088400975 0.0203642 0.06705634 -0.03598292 0.028012238 -0.00026402873 0.08297737
-0.02479974 0.0009674328 0.08969323 0.07025539 -0.018236103 -0.07386924 -0.072305515 -0.0391518
0.063310586 0.07120515 -0.041424956 0.04106204 0.11618264 0.020663498 -0.06930553 0.036809728
-0.038086712 0.18338625 0.070287436 0.021711009 0.028838249 -0.11118215 0.052675292 0.12021829
0.068299554 -0.007923695 0.0030873665 0.13421452 -0.05622562 -0.05596228 -0.009948095 -0.05757899
0.034465007 -0.07119008 0.0730585 0.0362098 0.036486812 0.07737879 0.03453545 0.105229676
0.07351313 0.1109359 0.13057543 0.013725961 0.049985196 -0.035511855 0.040843975 -0.05202787
-0.017952599 0.05788451 0.06546909 0.043637373 0.12528983 0.042284243 0.101603985 0.029207155
0.07501529 0.051682185 0.029513534 0.025476644 -0.04003082 0.093180194 -0.011284064 0.0897957
-0.077133454 0.037012532 -0.055665504 0.12980945 0.010885823 -0.010664646 -0.045010094 0.02870564
-0.0682192 0.031497605 0.12100679 0.14656024 -0.037981488 -0.06755672 -0.08902149 0.037511714
0.12098665 -0.07547508 0.074534334 0.08824461 0.02802576 0.11880192 0.16937532 0.02796906
-0.020374278 -0.012964279 0.1297491 -0.03802042 0.019597884 0.06833711 0.0411054 0.096769325
0.1130895 0.09051801 -0.04300981 -0.045030776 -0.080418274 0.06384133 0.078173384 0.15222053
-0.0056093098 -0.013991767 -0.04835638 -0.07383546 -0.11323711 -0.100111775 -0.05971761 0.06642101
-0.017469332 0.028508086 0.13561025 -0.034044433 0.06018754 0.036199525 0.096576646 0.03668038
0.07322826 -0.06308422 -0.0073029725 0.004669345 -0.083973214 -0.049470518 -0.0068956898 -0.038226157
-0.061460678 -0.048683077 0.11338446 -0.10770698 0.020263713 -0.20083882 0.013041003 -0.07128445
0.06252219 0.039577138 -0.032357868 0.037047938 -0.11650502 0.07575657 -0.08691163 0.0018853198
-0.016700812 0.04693658 -0.012522222 0.04538643 -0.103154935 -0.022076715 -0.16625962 -0.046805184
0.07147132 -0.10888155 -0.06902214 -0.026414273 0.004150774 -0.116779536 -0.12454498 -0.019446101
0.0079192445 -0.036920063 -0.074664555 0.045036618 -0.024695246 -0.038237385 -0.1259489 0.02793678
0.0048800968 0.012408247 0.01340752 -0.047305185 -0.020149957 -0.04794814 -0.01788251 -0.10623835
-0.02369685 0.028307023 0.0077619245 -0.15344995 0.0045473357 -0.12046274 -0.035704613 -0.15752934
0.07079073 -0.083309256 -0.12722953 -0.032083146 -0.03359725 0.021818994 -0.017439896 0.016074406
-0.09989608 -0.10708272 -0.010400677 0.040923804 -0.022738254 -0.013954113 0.09164619 -0.13156517
-0.15381114 0.063670136 -0.099449664 -0.0018933953 -0.030420458 0.045223992 0.043203052 -0.11057735
-0.093709804 -0.027838707 -0.20425805 -0.09530857 0.06721976 -0.022079393 -0.11179698 0.06663436
0.06881096 -0.039681084 -0.00308112 -0.018823832 -0.08538916 -0.062385224 0.015037614 0.011895299
-0.106008604 -0.049589448 -0.08639578 0.03702047 -0.04712736 -0.027515333 -0.046233814 0.023020139
00000000: 9ada 76bd c8cb 22bd f399 3fbd 5ade a23d
00000010: 00b9 46bd 433d 5dbd 3b9e fe3c 97ef 1b3d
00000020: 18da 023e b1ab 3f3c e263 4bbd f708 7c3d
00000030: fbb0 773d 2be6 883d 66bf 5b3d 0990 213d
00000040: 7bc8 7abc 920b b53d d3d2 a63c d654 893d
00000050: d462 13bd ec79 e53c 566d 8ab9 0af0 a93d
00000060: d328 cbbc 519b 7d3a 16b1 b73d 0fe2 8f3d
00000070: e163 95bc c248 97bd ea14 94bd a35d 20bd
00000080: fba8 813d 01d4 913d 37ad 29bd ab30 283d
00000090: 2af1 ed3d 7f46 a93c 0ff0 8dbd ccc5 163d
000000a0: d000 1cbd 9bc9 3b3e dcf2 8f3d 49db b13c
000000b0: 313e ec3c 78b3 e3bd 0cc2 573d 0235 f63d
000000c0: a3e0 8b3d 63d2 01bc 6a55 4a3b 886f 093e
000000d0: d64c 66bd b438 65bd 56fd 22bc f2d7 6bbd
000000e0: 2e2b 0d3d 1bcc 91bd b29f 953d ba50 143d
000000f0: 3273 153d c578 9e3d 0b75 0d3d a882 d73d
00000100: 0d8e 963d 5c32 e33d 91b5 053e dae2 603c
00000110: 47bd 4c3d e174 11bd 034c 273d 2d1b 55bd
00000120: 5411 93bc 4f18 6d3d a914 863d 1abd 323d
00000130: fa4b 003e 3e32 2d3d c015 d03d d843 ef3c
00000140: 9ea1 993d b3b0 533d 5ec6 f13c 65b4 d03c
00000150: 5bf7 23bd 42d5 be3d cbe0 38bc cfe6 b73d
00000160: 25f8 9dbd 749a 173d 8301 64bd c5ec 043e
00000170: 735a 323c c4ba 2ebc 815c 38bd 1728 eb3c
00000180: 82b6 8bbd a203 013d 68d2 f73d e313 163e
00000190: 7a92 1bbd 2d5b 8abd e650 b6bd e2a5 193d
000001a0: d9c7 f73d ae92 9abd 75a5 983d 97b9 b43d
000001b0: 4796 e53c 6c4e f33d b970 2d3e 5f1f e53c
000001c0: f5e7 a6bc 2168 54bc f3dc 043e 4dbb 1bbd
000001d0: be8b a03c 54f4 8b3d 235e 283d ff2e c63d
000001e0: 789b e73d 8261 b93d 0e2b 30bd 3172 38bd
000001f0: 56b2 a4bd 3ebf 823d 5e19 a03d b3df 1b3e
00000200: 4dce b7bb b93d 65bc 5711 46bd 0c37 97bd
00000210: dce8 e7bd 6707 cdbd 749a 74bd bd07 883d
00000220: d81b 8fbc ca89 e93c 6add 0a3e 2d72 0bbd
00000230: 3687 763d f445 143d fac9 c53d 2b3e 163d
00000240: b3f8 953d 4d32 81bd c64d efbb 4e01 993b
00000250: 26fa abbd 99a1 4abd 3df5 e1bb 0893 1cbd
00000260: 31be 7bbd e867 47bd 1d36 e83d 7a95 dcbd
00000270: 1600 a63c b1a8 4dbe eea9 553c 95fd 91bd
00000280: a20b 803d a31b 223d af89 04bd 94bf 173d
00000290: 2f9a eebd 4326 9b3d bafe b1bd d61c f73a
000002a0: 24d0 88bc 9240 403d 012a 4dbc 1fe7 393d
000002b0: e542 d3bd 3ada b4bc f63f 2abe cbb6 3fbd
000002c0: 8e5f 923d 4afd debd 7b5b 8dbd bf62 d8bc
000002d0: 3703 883b 1c2a efbd 7011 ffbd 6e4d 9fbc
000002e0: b8bf 013c 7e39 17bd bbe9 98bd 5178 383d
000002f0: af4d cabc ce9e 1cbd c0f8 00be addb e43c
00000300: 38e9 9f3b f64b 4b3c 37ab 5b3c 15c3 41bd
00000310: 8611 a5bc 4565 44bd 577e 92bc 7e93 d9bd
00000320: e51f c2bc 21e4 e73c be57 fe3b fc21 1dbe
00000330: d101 953b 2bb5 f6bd 003f 12bd 5f4f 21be
00000340: bbfa 903d 0b9e aabd 7548 02be 9e69 03bd
00000350: 459d 09bd bfbd b23c 1dde 8ebc 79ae 833c
00000360: 5196 ccbd 2f4e dbbd 9a67 2abc b89f 273d
00000370: 9345 babc cb9f 64bc ffb0 bb3d 05b9 06be
00000380: ab80 1dbe 7d65 823d 44ac cbbd ce2b f8ba
00000390: 5334 f9bc cb3c 393d aff5 303d 6176 e2bd
000003a0: edea bfbd 000e e4bc 0629 51be 2431 c3bd
000003b0: 83aa 893d d8df b4bc d1f5 e4bd 9877 883d
000003c0: c3ec 8c3d a288 22bd 9eec 49bb 7034 9abc
000003d0: 83e0 aebd a687 7fbd 5360 763c 80e4 423c
000003e0: 0a1b d9bd 4e1e 4bbd 45f0 b0bd c7a2 173d
000003f0: 9e08 41bd d667 e1bc ab5f 3dbd bb94 bc3c

lstm.bias_hh f4 [512]
-0.041356776 -0.05829404 0.069576286 0.10240273 -0.06955522 0.1084573 0.1102874 -0.011190423
-0.03735229 -0.044525106 -0.1162613 -0.059003796 0.1110849 0.044411898 0.068703055 0.061319657
0.12708299 0.055999346 -0.07433631 0.008692406 0.045675598 0.022128245 -0.06708146 0.03061917
0.0986284 0.14303744 0.07283954 -0.042033765 -0.027202765 -0.054307554 0.01593998 0.035806913
0.09045016 0.11089244 0.10450466 0.02040942 -0.023001222 -0.033447508 -0.02589156 0.07743188
0.12139354 0.18782432 -0.012359466 -0.025933644 0.030938538 -0.042656176 0.024527509 0.092367455
0.028375264 0.12331606 -0.06044878 0.06679791 0.103152454 -0.106869094 0.012383512 0.088958636
-0.031377606 0.013639185 0.08473512 -0.0017303876 0.042697586 -0.017511029 0.049404047 0.1042423
0.03827894 -0.033199556 0.079229146 -0.050287254 0.023839498 0.015911948 -0.07009562 0.052809555
-0.090299845 0.025577053 -0.0362967 -0.033097647 0.023671256 0.11892362 0.056297436 -0.085480645
-0.050410233 0.0021959734 0.054516807 -0.038011454 0.060912874 0.11659075 0.019307569 0.07930667
0.056216303 0.07870201 -0.041052487 0.13316049 0.110331655 0.010739203 0.06459818 0.07432278
0.03384541 -0.0072976 0.12648906 0.15200762 0.018067248 0.026465086 0.087116435 0.0042359717
0.12566242 -0.07148248 0.16282368 0.040138215 0.047921196 -0.0469293 -0.015501274 0.13257696
0.040238515 -0.013679554 0.13211592 0.046652 0.011776512 0.011375455 -0.10001066 -0.01986453
0.107798636 -0.068628855 -0.11265337 0.07640763 0.045967367 0.072774485 0.07426849 0.08986051
-0.03075392 -0.08710791 -0.13612084 -0.08579606 0.005881834 -0.10028539 0.06315936 0.07239998
0.04013083 0.054226816 0.07112256 0.09748211 -0.091371596 -0.11013485 0.081421204 -0.0418946
-0.042817768 -0.11142242 -0.08083913 -0.017414626 -0.010393373 -0.060434844 -0.07599464 -0.070446305
-0.082910426 -0.027083227 0.05896048 -0.12951848 0.025197465 -0.013084159 0.1187572 -0.13009468
-0.087656006 0.054822665 0.023104101 0.019179784 -0.022520984 0.0025083425 -0.11926496 0.0364341
0.019224623 -0.011380318 -0.026073515 0.07663583 0.058229547 0.1168842 -0.05913437 0.06996007
-0.0065883235 -0.08671261 -0.004407025 0.07818936 -0.13054161 -0.06149231 -0.0027403752 -0.058790006
-0.017542418 -0.08933801 -0.09752415 0.047239307 0.081192255 0.09272389 -0.015635805 -0.06514136
-0.10876168 0.013410355 0.011438837 -0.047883037 0.050891906 0.05013692 -0.13754427 -0.11063708
-0.095660284 0.07498463 -0.018740222 -0.1013687 -0.03241399 -0.07871216 -0.03632911 -0.0059215543
0.024386069 -0.058965817 -0.052947074 0.0009877541 -0.05431704 -0.040503606 -0.07584898 0.0120258955
-0.03432003 -0.067057155 -0.08209874 0.011577761 -0.042033765 -0.022326758 0.061442256 0.030574428
0.012552425 -0.062122695 -0.028311096 -0.05008693 -0.07455469 0.03356931 0.026770407 0.04268952
-0.15154979 0.030585403 -0.13429418 -0.10402584 -0.058517333 -0.020051654 -0.110558696 -0.10356647
-0.069946565 -0.05783034 -0.033368446 -0.026556758 0.04957908 -0.08949187 -0.05770501 -0.03755955
-0.1900119 -0.033706874 0.018734166 -0.08174377 -0.010950119 -0.079559304 0.016384963 -0.061024822
00000000: b965 29bd bbc5 6ebd 037e 8e3d 86b8 d13d
00000010: f872 8ebd dc1e de3d 5cde e13d 0958 37bc
00000020: b7fe 18bd f55f 36bd 681a eebd f7ad 71bd
00000030: 7b80 e33d 40e9 353d 30b4 8c3d 522a 7b3d
00000040: 0b22 023e 925f 653d a33d 98bd 986a 0e3c
00000050: 5616 3b3d 4b46 b53c 0162 89bd 0ed5 fa3c
00000060: b0fd c93d 6878 123e e62c 953d 992b 2cbd
00000070: 55d8 debc 9971 5ebd 9094 823c 45aa 123d
00000080: ef3d b93d 931b e33d 8a06 d63d a831 a73c
00000090: 0f6d bcbc 4100 09bd 891a d4bc 9b94 9e3d
000000a0: 2d9d f83d 0555 403e 5c7f 4abc cb72 d4bc
000000b0: d172 fd3c 3eb8 2ebd eaed c83c 262b bd3d
000000c0: 3e73 e83c 218d fc3d 2499 77bd 58cd 883d
000000d0: 9841 d33d 2fde dabd 37e4 4a3c f22f b63d
000000e0: ce85 00bd e376 5f3c 9b89 ad3d 2cce e2ba
000000f0: aae3 2e3d 4a73 8fbc e65b 4a3d fd7c d53d
00000100: 61ca 1c3d 42fc 07bd e442 a23d 02fa 4dbd
00000110: 0d4b c33c c659 823c 4b8e 8fbd d54e 583d
00000120: 20ef b8bd f886 d13c d9ab 14bd 6691 07bd
00000130: 39ea c13c 3a8e f33d 2498 663d 7a10 afbd
00000140: f67a 4ebd 52ea 0f3b 044d 5f3d e6b1 1bbd
00000150: c77f 793d 22c7 ee3d e82a 9e3c 896b a23d
00000160: 1143 663d 852e a13d a726 28bd 395b 083e
00000170: 90f5 e13d 7bf3 2f3c 0d4c 843d 8b36 983d
00000180: 7ca1 0a3d b520 efbb 5986 013e e3a7 1b3e
00000190: c401 943c 4fcd d83c 1a6a b23d e8cd 8a3b
000001a0: a6ad 003e 6865 92bd 40bb 263e f867 243d
000001b0: 0449 443d f038 40bd 0ef9 7dbc 41c2 073e
000001c0: 24d1 243d 3520 60bc 6549 073e 2b16 3f3d
000001d0: 45f2 403c 1e60 3a3c 64d2 ccbd f0ba a2bc
000001e0: 88c5 dc3d 498d 8cbd cfb6 e6bd 9b7b 9c3d
000001f0: 4748 3c3d ca0a 953d 141a 983d c908 b83d
00000200: a5ef fbbc a265 b2bd 4363 0bbe d8b5 afbd
00000210: 66bc c03b 6d62 cdbd b259 813d 7146 943d
00000220: 3a60 243d f01c 5e3d b4a8 913d b3a4 c73d
00000230: 0821 bbbd 618e e1bd 29c0 a63d ac99 2bbd
00000240: af61 2fbd 7031 e4bd fc8e a5bd 1ea9 8ebc
00000250: f748 2abc 878a 77bd 14a3 9bbd 2746 90bd
00000260: f1cc a9bd a5dd ddbc 8b80 713d 7ea0 04be
00000270: ea6a ce3c f15e 56bc fa36 f33d 8a37 05be
00000280: fe84 b3bd bb8d 603d d044 bd3c ec1e 9d3c
00000290: ed7d b8bc 0163 243b 3041 f4bd ec3b 153d
000002a0: f57c 9d3c 8374 3abc 2098 d5bc 3ff3 9c3d
000002b0: 1b82 6e3d fc60 ef3d e236 72bd 3a47 8f3d
000002c0: dde2 d7bb 6296 b1bd ce68 90bb be21 a03d
000002d0: b3ac 05be 5cdf 7bbd de97 33bb cacd 70bd
000002e0: 1eb5 8fbc d9f6 b6bd beba c7bd 017e 413d
000002f0: 2048 a63d 06e6 bd3d a916 80bc d568 85bd
00000300: 72be debd 1bb7 5b3c f669 3b3c 0121 44bd
00000310: 0874 503d 5f5c 4d3d 68d8 0cbe b295 e2bd
00000320: 8ae9 c3bd 8b91 993d 1885 99bc 659a cfbd
00000330: 88c4 04bd d733 a1bd d5cd 14bd 9909 c2bb
00000340: 4bc5 c73c 2486 71bd 08df 58bd 8777 813a
00000350: 8b7b 5ebd 1ce7 25bd b656 9bbd 4308 453c
00000360: 2993 0cbd 4355 89bd 6223 a8bd a6b0 3d3c
00000370: 992b 2cbd 9be6 b6bc e0aa 7b3d 3977 fa3c
00000380: b0a8 4d3c 5e74 7ebd acec e7bc f427 4dbd
00000390: 21b0 98bd f97f 093d 9d4d db3c 35db 2e3d
000003a0: de2f 1bbe 3d8e fa3c 6a84 09be 800b d5bd
000003b0: dfaf 6fbd 5e43 a4bc 996c e2bd a81a d4bd
000003c0: 2540 8fbd 82df 6cbd 5aad 08bd 8f8d d9bc
000003d0: 6f13 4b3d 8347 b7bd 175c 6cbd 0bd8 19bd
000003e0: 7b92 42be 3810 0abd 6578 993c 4769 a7bd
000003f0: 2168 33bc fdef a2bd c239 863c 2af5 79bd
