evaluation_results/models/list_npi_2020_3_3-20_59_38-3657-False-False-1.0-True-0.0-True-False-True-False.pth (torch_old, 972357 bytes, 16 tensors)

Mprog.weight f4 [4, 256]
00000000: 45d4 3fbf c2ea 813f 9312 83bf a9e3 80be
00000010: ab10 83bf db69 993d 8b5c bc3d f694 6a3e
00000020: f493 c33f 164a 3dbd 1ba8 e1bf 3cb9 72bf
00000030: be80 b23e cb6f 3fbf b7fc 0bbf c367 1e3f
00000040: 6bb5 e73f 0a68 ae3f df81 c7bf 8e2e c03f
00000050: ddae cd3d 9e1c 89bf 3ff0 c13f abaf 6cbd
00000060: 1efc 40bd 03d4 dbbe 55ca 003f a248 6bbb
00000070: 6116 963f 0724 b9bf 5587 493f a220 863e
00000080: 0ae6 38be 556b 94bd d49c 23bf 0455 393e
00000090: 6721 79bc 8383 963d c296 193d 952d d83e
000000a0: 9b78 963f c4b5 12bf 3be5 c1bf a10c 5c3f
000000b0: 4fb2 6fbf b3ba 27be 028c 8bbf e381 2fbd
000000c0: b239 5bbf cb03 833f 677a 0abe c6b4 af3f
000000d0: 773e 92bf 679b 28bd 0798 0240 e297 133e
000000e0: 3a25 87bf 28ae 953f 101c f6be dbcd 49be
000000f0: f520 83bf 596b e13f 324c 32bf d5fd 943d
00000100: 78ca 143f 3020 883e 5b06 05c0 43d2 f0be
00000110: 5b0a f43e df5e f6bc d440 5abf 52f0 86bf
00000120: 6757 cabd ef7b c7bf e5a4 a83f beb0 8e3f
00000130: 5150 a1bf 7e15 313f fc94 0e3f 10d0 573f
00000140: 86b0 3d3f f12e 22bf a726 58be 26d2 30be
00000150: 9b86 263f 17fa 0fbf e3e3 97be 58e6 35bf
00000160: 47d3 4d3f eef1 b13e 0c83 023f 7e1e ae3f
00000170: e69a 65bd f63b d0be 83ca fe3e 7dc5 b0be
00000180: 34a0 833d 4207 f2be 4075 61be 6af1 623e
00000190: e8e5 2cbf 0684 893f 2917 4f3f 3b53 6bbf
000001a0: fb34 283f 3a87 6f3f 1c47 023e 70a5 b7bf
000001b0: e210 de3f 9bd9 61be 9af5 b63d ee10 6c3f
000001c0: 846a 7b3e 8c69 c1bf 5f47 0cbf 6b5f 5cbf
000001d0: 33a3 88be 0d79 0a3e 0635 e2bf 26a5 73ba
000001e0: a26e 1abf 9096 7ebf 2fa4 3abf 761e 01c0
000001f0: ffae 71bf 452c a1be 5ee9 0d40 447f 933f
00000200: 94ba c5bd d29e d7be 447c 8d3e 383b ddbf
00000210: a75d bf3e fb2f 2cbf 5799 b03f 462c 7fbf
00000220: c7ba a33f 63ca 863f 5b8a 1f3f 023c 3cbf
00000230: 5cf9 a13f 1fac 0f3f 21a5 b23f d277 ed3e
00000240: b529 a7be d40f 313e de35 c4bf 2299 a73e
00000250: 41ae 8fbf 7e95 e43d 76b6 193e 3781 bf3f
00000260: 0c36 ca3e 236d c5bf e0d3 d6be 350a 4dbf
00000270: b784 8ebe f8df 063f 55f4 b3bd b96a d53e
00000280: 5af9 9f3f a44c 97bf c10d dbbf 54c5 363f
00000290: 4f2c ce3f a524 52bf 45d7 acbf 80ae 3bbe
000002a0: e8d3 8c3f b9d2 c83f 610c 8dbe b771 d6bf
000002b0: 2ce6 a4be 4b23 32bf aa6f bf3e b20d 143f
000002c0: d0c2 5f3f be16 693f 1227 90be 176d 573f
000002d0: 2aad 1140 8339 9b3f 515e b93f fd8d 1abd
000002e0: ce6e 18bf da64 803d 5242 d9bc ae80 003d
000002f0: 0687 8cbf 6ab5 953f e55f f33e 7288 1dbf
00000300: fb79 cd3f baee 17bf 0b39 0f3f b3f1 55bf
00000310: e5fa cebf 1aac ee3e 26bd a23f 4726 27bf
00000320: 3390 6ebe edf6 1bbf 6c60 cc3d 5abd 9d3e
00000330: 19ec dc3e 3913 c43d 6644 79bf e06b a03e
00000340: e6c6 cc3f 9a9c 1240 47bc 71bd fa0b 823f
00000350: 7a30 653f 96a8 f43f 2d3a c3bf 8bbd 0e3f
00000360: c221 8e3f 4fdc 62bf a09d 8a3f d851 503f
00000370: ea07 6dbf 3606 12be 6815 433f b4fc 3d3e
00000380: 55f7 813e 036a 61ba 05ce 1040 7830 ba3e
00000390: 0c8f 03bf e0c4 95bf 6e55 90bf 0eed 8ebe
000003a0: bacc 0cbf cacc 59bf 973b 973e a39a babf
000003b0: 68a7 0bbf b9c0 933f e758 303d 1862 25be
000003c0: 9e31 c4bd fc58 8bbf e63f 09c0 08d5 fe3e
000003d0: a58e b7bd af8b 9abe 5a73 4a3e c728 08be
000003e0: 89db 453f 11b1 5fbd f40f 123f df37 673f
000003f0: 6b2b c53f 63e2 e03f e54f 003e 18f6 76bf
-0.7493327 1.0149767 -1.0240043 -0.2517369 -1.0239462 0.074908935 0.09197339 0.22908387
1.5279527 -0.046213232 -1.7629427 -0.94813895 0.34863847 -0.7477996 -0.5468249 0.6187708
1.8102239 1.36255 -1.5586509 1.5014207 0.10043118 -1.0711858 1.5151442 -0.057784718
-0.047115438 -0.4293519 0.50308734 -0.0035901447 1.172558 -1.446412 0.78722125 0.26196772
-0.18056503 -0.072470345 -0.63911176 0.18098837 -0.015205718 0.073493026 0.03749729 0.42222276
1.1755556 -0.573086 -1.514808 0.8595677 -0.9363145 -0.16379814 -1.0902102 -0.04284848
-0.8563491 1.0235533 -0.13523255 1.3727043 -1.1425313 -0.04116383 2.040529 0.14413407
-1.0558236 1.1693773 -0.48068285 -0.19707434 -1.0244433 1.7610885 -0.69647515 0.07274977
0.5812144 0.26587057 -2.078513 -0.47035417 0.4766415 -0.030074535 -0.8525517 -1.054209
-0.09879952 -1.5584697 1.3175322 1.1147687 -1.2602636 0.6917342 0.5569608 0.84301853
0.7409748 -0.63352877 -0.21108495 -0.17267665 0.6504914 -0.5624098 -0.2966605 -0.710546
0.8040051 0.3475489 0.5098121 1.3603055 -0.056055926 -0.40670747 0.4976388 -0.34525672
0.06427041 -0.47271162 -0.22017384 0.22162405 -0.6753831 1.0743415 0.80894715 -0.91923875
0.6570584 0.93565714 0.12722439 -1.4347363 1.7348902 -0.22055666 0.089335635 0.9221333
0.24552351 -1.5110335 -0.54796404 -0.86083096 -0.2668701 0.1352274 -1.7672431 -0.00092943234
-0.6032506 -0.9944849 -0.72906774 -2.0174842 -0.9440765 -0.31479087 2.2173686 1.1523213
-0.096547276 -0.42113358 0.2763387 -1.7283697 0.3737614 -0.6726071 1.3796796 -0.9967693
1.2791375 1.0530514 0.6232049 -0.73529065 1.2654223 0.5612201 1.3956643 0.46380478
-0.32649007 0.17291194 -1.5328939 0.3273402 -1.1225053 0.11161326 0.1501101 1.4961308
0.3949436 -1.5423931 -0.41958523 -0.800937 -0.27835628 0.526855 -0.08786837 0.41682985
1.2497971 -1.1820264 -1.7113572 0.7139485 1.6107272 -0.82087165 -1.3503195 -0.18328285
1.1002169 1.5689307 -0.27548507 -1.6753453 -0.32206857 -0.695851 0.3738988 0.578334
0.87406635 0.91050327 -0.28154808 0.8415083 2.276194 1.2126926 1.4481908 -0.037733067
-0.59544075 0.06269236 -0.026520882 0.03137272 -1.0978706 1.1695988 0.475341 -0.61536324
1.605285 -0.5934864 0.55946416 -0.8357193 -1.6170317 0.46615678 1.2713974 -0.6529278
-0.23297195 -0.60923654 0.099793285 0.30808526 0.43148878 0.09573979 -0.9736999 0.31332302
1.5998199 2.2908082 -0.059017446 1.0159905 0.89527094 1.9113948 -1.5252129 0.5575797
1.1104052 -0.88617414 1.0829353 0.81374884 -0.925902 -0.14260182 0.7620454 0.1855343
0.25384012 -0.0008598866 2.2625744 0.36365104 -0.5139015 -1.1700706 -1.1276071 -0.27915233
-0.5499989 -0.8507811 0.2953765 -1.4578441 -0.54552317 1.1543189 0.043053534 -0.16150701
-0.09579776 -1.0886531 -2.144525 0.49771905 -0.08962754 -0.30184695 0.19770566 -0.13296805
0.7728811 -0.054612223 0.5705559 0.9031963 1.5403875 1.7569088 0.12530477 -0.9646926

encoder.l1.weight f4 [100, 64]
00000000: edc4 a43e c3e5 4dbd 0986 e83d aaa2 7abd
00000010: ebb2 3f3d a7c8 343d f3e3 c8bd 104d da3c
00000020: ff1c aebd f272 d3bd fae8 11be 9466 edbb
00000030: 9fe3 0c3e a8ec 3fbd f5c4 763d cb23 6a3e
00000040: df02 a93d 2a97 0c3c 6f8d 223c 84f4 bdbc
00000050: 91d8 8f3d 4bf8 a53d 0eb4 2dbd b6dd 0a3e
00000060: f9df 763e acf7 103e ef20 893d 878d 4abb
00000070: 2deb b0bd c22c c3b9 deb2 ec3d 8e6c 2d3d
00000080: 9338 f33c 6a7a 92bd d833 97be f217 25be
00000090: 63f6 8fbc 14a2 a43d a4d6 8e3d 798a 23bb
000000a0: f447 363e a15b 8d3e e147 253e 29e3 bc3b
000000b0: 9b2d fc3d 3a48 8b3d ccb3 663d 798f 14be
000000c0: 758a 9bbe f918 203b f047 be3c bf86 8d3d
000000d0: 9c92 aebd 2a9e 843d e5e0 2cbe eb16 263c
000000e0: 3421 7d3d 080a fcbe 712e 58be 26a2 403e
000000f0: fb6e 00bf 06fa 6d3e 579a 4cbd e7ed 703e
00000100: c6c8 c43d 4b0c c93d 0138 4c3d 4c97 1c3e
00000110: 1424 d63d 0536 60be 0ac4 073e 4154 8d3d
00000120: 8877 683d 064c ebbc 0b18 00be 0f81 26bd
00000130: ce71 5d3e b770 973c 4014 3cbd 0a38 563e
00000140: dd5b 443e d52a f4bc d0ba 203d 5d3c dc3d
00000150: 0750 a23d 04de 8cbd 8e03 7bbd b0da 3f3b
00000160: d2e5 603e e824 ab3d f6df e43d 9160 393d
00000170: 2118 3a3e f971 f4bc fa4b 5a3e 45d8 93be
00000180: 7702 32be ec1d c0be 255a 873d 09bc 50be
00000190: ccdd 9ebd cd74 2a3e d0fa d3bc b160 383e
000001a0: 005e 8a3d 8f36 9abe ffda bebe ee75 e8be
000001b0: dcee 473c d2f5 a1bb 1a81 b03d 3bdd 9fbd
000001c0: 0def 8e3e 1c1a d2bb 9a87 68be e61d 25bd
000001d0: 0ee8 b2bd d45e d4bd 0203 4b39 d9dc 9ebd
000001e0: 01df c8bd 12c4 4ebf e004 143d fefa c53d
000001f0: c9cd 03bf 0b70 ab3e 230d dc3d dc4f 3f3e
00000200: 03d2 923e 4354 fe3c edbc 243e 95d8 3dbd
00000210: 5d44 08bf 3220 6fbe 89b8 d73e a007 8f3e
00000220: 8553 cfbc 7c16 c5be e7d9 f0be 0c28 813d
00000230: 0b09 5cbe c342 6f3e 4365 873e 9ce9 11bf
00000240: ab26 53bf c4e9 af3d e340 7c3e 3a60 7e3e
00000250: 39f9 8dbd cf72 233c d6af d53d 8f41 143e
00000260: 8fd3 db3d 54e8 38bd f842 96be 8a9d 663c
00000270: bb4b 843e 1e46 13be 72d8 8abc c0ac 6f3e
00000280: 1a38 0ebd 5c04 84bd 288e 183e ec6f c43d
00000290: a12e 16be 1e7a 67be 26fd a33d a12b 41bd
000002a0: 5926 a3bc 7ebf b9bc b637 533e 4b61 703d
000002b0: ebac bd3d f079 3c3e bb3f 6b3c 1715 833c
000002c0: b733 f03d 4dc8 68bc 1e77 083b 2b4e 573d
000002d0: be68 93be 8c46 e53d 31ec 673b 2f0a af3d
000002e0: 2071 1abe 6648 8b3d fc7c fa3d 3ace b73d
000002f0: ce7a 883d ec49 923c 9eed a83d d85d 30bc
00000300: 4ebe 67be 739d cf3d 625a 333e 91b7 843e
00000310: bfb9 7b3d 8745 ccbd a363 d4be 65ef 43bf
00000320: 39a3 f53d fef8 653e 61ff 1b3e 2ba1 463e
00000330: e9df 8a3d e7fc 6e3b 010b ccbe ce8e 34bf
00000340: b94c cebe f937 a5bd f02b f63e 9947 643d
00000350: 4d68 cc3d 9ede 533d b856 5abe e10a 32be
00000360: ce33 f0bd ecc9 cf3d 241d bfbb e6bf 993d
00000370: 3233 013e ec9e 30bc d9c8 133c 6f42 503e
00000380: 098e 4a3e abd0 63bd 5a5f d2bd 27f3 abbb
00000390: 05c7 2fbd 61cf 19be 08ed 16be fbe8 4e3e
000003a0: 37a2 043e f5a2 973e b4aa 4ebe 7f9b cc3c
000003b0: 3f12 b63d a83b e1bd b5dc 68bc 7325 82be
000003c0: f271 4cbc 459b 353c af08 5ebd 3807 0ebd
000003d0: 1767 f3bd a6a6 16bd ac08 803d ac6e 91bc
000003e0: 0a05 51bd 244e 1f3d 9fc5 2c3c 26ca 0dbd
000003f0: 276c 65bd 4ffb 02bd e401 ea3c 0430 b43d
0.32181492 -0.050267946 0.1135369 -0.061190285 0.04680149 0.04413667 -0.09809103 0.026648074
-0.08501624 -0.103246585 -0.1424903 -0.0072448943 0.13758706 -0.046856552 0.060246427 0.22865216
0.08252501 0.008580962 0.009921416 -0.023187883 0.07023729 0.08103999 -0.04240804 0.13561139
0.24108876 0.1415698 0.06695735 -0.003090711 -0.08638606 -0.00037226646 0.11557554 0.042339854
0.029690063 -0.07152255 -0.2953174 -0.16122416 -0.017573541 0.080387264 0.06974533 -0.0024954362
0.17800885 0.2760897 0.16140701 0.0057643843 0.12313386 0.068008855 0.05632381 -0.14507855
-0.30379072 0.0024428947 0.023227662 0.069104664 -0.08524057 0.0647548 -0.16882665 0.0101373
0.061799243 -0.49226403 -0.21111466 0.18811855 -0.5016934 0.23239908 -0.049951877 0.23528253
0.09608607 0.09816798 0.049858097 0.1529209 0.104561 -0.21895607 0.13258377 0.06900836
0.05675462 -0.028722774 -0.12509172 -0.040650424 0.21625444 0.018486364 -0.04591775 0.20919815
0.19175668 -0.02980558 0.03924066 0.10753701 0.0792542 -0.068782836 -0.061282687 0.0029274635
0.2196267 0.08356649 0.1117553 0.04525811 0.18173267 -0.029839503 0.21318045 -0.28875938
-0.17383753 -0.3752283 0.066089906 -0.2038423 -0.07757148 0.16646118 -0.025876433 0.18005635
0.0675621 -0.3011975 -0.37276456 -0.45402473 0.012202945 -0.004942634 0.08618374 -0.07805868
0.27916756 -0.006411804 -0.22707978 -0.040311716 -0.08735667 -0.103696495 0.00019360709 -0.07756967
-0.098081596 -0.8076793 0.03613746 0.096670136 -0.5148588 0.3348392 0.10744693 0.18682808
0.2867585 0.031046038 0.16087694 -0.046349127 -0.53229314 -0.23352125 0.42132977 0.27935505
-0.02530838 -0.38493717 -0.47041246 0.063064665 -0.21487825 0.23365311 0.26444444 -0.56997085
-0.8248088 0.08589509 0.24634127 0.24841395 -0.06932301 0.009976103 0.10433929 0.14478134
0.10733711 -0.04514344 -0.29347968 0.014075646 0.25839028 -0.14382216 -0.016948912 0.23405743
-0.03472147 -0.06446144 0.14897978 0.0959166 -0.14666225 -0.22605178 0.080072686 -0.04716075
-0.019915747 -0.022674318 0.20626721 0.058686536 0.09261497 0.1840589 0.014358456 0.016001267
0.11728614 -0.014207912 0.0020822953 0.05256478 -0.2879085 0.111950964 0.0035388584 0.08546864
-0.15082216 0.06800918 0.1223087 0.089748815 0.06664048 0.017857514 0.08248447 -0.010764562
-0.22631189 0.10137453 0.17514947 0.259213 0.06145644 -0.09974199 -0.41482267 -0.7653716
0.11994023 0.22458264 0.15234138 0.19397418 0.06780989 0.003646666 -0.39852145 -0.705304
-0.4029291 -0.080673166 0.48080397 0.055732343 0.09980831 0.051725976 -0.21322143 -0.17386962
-0.11728631 0.101459354 -0.0058323313 0.07507305 0.12617186 -0.010780077 0.009020054 0.20337842
0.19780745 -0.055618923 -0.10272093 -0.005247492 -0.04291441 -0.15020515 -0.14738858 0.20206062
0.12952505 0.29616514 -0.20182306 0.02497649 0.08890199 -0.10997707 -0.014212777 -0.25419196
-0.012478339 0.011084382 -0.0542075 -0.034674853 -0.11884897 -0.036780022 0.06251654 -0.017752968
-0.051030196 0.03889288 0.010545163 -0.034616612 -0.056011345 -0.031977948 0.028565355 0.08798221

encoder.l1.bias f4 [100]
00000000: 4daf 013e 1850 073d 1a48 f73b da89 723d
00000010: eb22 fbbc 435e 8d3c efd8 06bb e1be 99bd
00000020: 7212 7abd fa06 b63d de98 8238 c3d0 b43d
00000030: de19 0dbd ac57 84bb e052 e93d cb04 043e
00000040: d97e 9dbd 9296 673c 09c4 b43d bcfe ccbc
00000050: 1d35 51bd c288 863d 3859 68bb 2150 a33d
00000060: 12ff 4d3d c7cf f13d 8709 063e b6d5 5a3d
00000070: 2697 c3bd 1638 d33c 6187 a8bd 3b84 8b3d
00000080: f3be dabc ad8f 4b3d 18a0 63bd 6a9d aa3d
00000090: 2df0 d3bd b581 75bc c20f 3fbd fb6e 563d
000000a0: 6a83 7c3b 1b74 b43c e783 93bd 43ea dc3d
000000b0: 5d16 163d 1c71 3ebc 665d 2a3d 0672 34bd
000000c0: 2991 30bd 60fc 9e3d 580e 82bc f1ff 813c
000000d0: 076d cc3d 6930 1e3e b1f5 53bc c22c 113d
000000e0: 10f3 f1bb 51dd e9bd 54a8 023e b80a a33d
000000f0: 87f8 f23c ee6e 30bd 74e1 54bd 9b08 50bc
00000100: 1c0b 7c3d e1ab 1bbd 32a1 44bc 08c3 383c
00000110: b990 1cbd 6140 f7ba 2872 953c fbd9 42bd
00000120: 9c27 693d 3714 f3bb 6f46 783d 423c 553d
00000130: 8c98 da3c d937 1bbd 691f 83bd dbc9 4dbc
00000140: ac3b a03c f065 54bd db7e e83c 7ae7 e1bd
00000150: ba34 503d 2f1a 483d 54fa 7a3c 7c18 073d
00000160: f00d 803d 999f e43c 0579 cb3d 3f60 b23d
00000170: e03d 493e 7be8 963b ebe6 9bbd 2bf9 ef3d
00000180: 8922 833c 4d2a c93d 8bb8 bf3d c7eb f7bd
0.12664528 0.033035368 0.007546437 0.059213497 -0.030656299 0.017256862 -0.002057608 -0.075071104
-0.061052747 0.088880494 6.227357e-05 0.08828881 -0.034448497 -0.0040387716 0.1139276 0.12892453
-0.0769021 0.01413502 0.08826453 -0.02502381 -0.051076043 0.06569053 -0.003545357 0.07974268
0.050292082 0.118072085 0.13089572 0.053426467 -0.09550314 0.02578358 -0.082289465 0.0681233
-0.02670238 0.049697567 -0.0555726 0.083308056 -0.10348544 -0.014984538 -0.046645887 0.052351933
0.0038530477 0.02202802 -0.07202893 0.107868694 0.03664242 -0.011623647 0.041592978 -0.044054054
-0.043107186 0.077629805 -0.01587598 0.015869113 0.09981733 0.15448155 -0.012936995 0.035443075
-0.0073837116 -0.11419166 0.12759525 0.07961029 0.029659523 -0.04307454 -0.05197282 -0.012697364
0.061534032 -0.038005713 -0.012001323 0.011276968 -0.038223956 -0.0018863791 0.01824291 -0.047571164
0.05692254 -0.0074181813 0.060614046 0.05205942 0.026684068 -0.037895057 -0.064024754 -0.012560333
0.019559704 -0.051855028 0.028380802 -0.11030479 0.050831534 0.048853096 0.015318472 0.032982334
0.06252658 0.027908133 0.09935192 0.08709764 0.1965251 0.0046053506 -0.076124035 0.11717447
0.016007679 0.09822521 0.09361371 -0.12105518

encoder.l2.weight f4 [32, 100]
00000000: b2b0 993c 1508 fbbc 1dd0 e0be 2962 163f
00000010: d1bc 05be fcfe a3bc 3773 e4be 66ae 343e
00000020: 6398 ab3e bd36 913e 414a ea3a 029d 893e
00000030: 0ee6 debd 0e44 8b3d e67f d03e 4272 3ebe
00000040: 315f 303e c827 d53e 960e b93d d0ed c93e
00000050: 96a6 9bbc e13a 5c3e af8f ae3e 346c dcbe
00000060: 03a6 3a3e c22e ed3d ebbc e5bd ccab aebe
00000070: e8fb 893e c9eb dc3d e43c 28be cfa8 49bd
00000080: 61c8 193e 908e 8d3c 333b f73d 9a3c e2be
00000090: bf3b 743e bbc9 b0bd 975d cbbe b322 ea3e
000000a0: 2a96 293e 2391 eabd a42b 9fbd 6433 ccbd
000000b0: e6c0 2abd a38e f83e a293 a5be d64c 2e3e
000000c0: af9d 073e a447 3cbd d99c 4dbe 893a 96be
000000d0: 5620 833e 28ef 8ebe 0fb5 9e3e 3d01 823d
000000e0: ad5b aa3e d014 25be 3577 8ebe 1902 0bbf
000000f0: 5ba6 703d eeeb 1cbe b978 8fbe cf05 3a3d
00000100: f420 b13e 6d81 9d3e 6503 9e3e c190 963e
00000110: 0fc1 483e 8185 863d 03e7 7f3c b1b5 4ebe
00000120: 5b9a bbbd 9762 fb3b bdb6 a0bd e514 f13e
00000130: 8e2e 853e 6c1b 103f 7d76 bfbe 50cb b4be
00000140: 563b d7be 3ed5 f7bc a1cd 13be 7dc0 b8be
00000150: 049a a4be 62e3 133e 3e1d 4e3e 5f5e 053f
00000160: 6da6 4d3d 1207 bebd 7d97 543e 30a3 163d
00000170: f100 ddbd db30 8fbd 1a80 c0bd 58c1 423f
00000180: 0c0a d1bd b1f9 dd3e d54d 103f c3aa 92bd
00000190: b15c 39be 5dc8 6bbe 6c24 533e ce0d f83d
000001a0: 46cf 033e b228 f9be 558a 3cbd 4b20 9a3d
000001b0: 7782 e63c 9433 443e 03d9 7bbd d117 b33e
000001c0: fed4 fc3e acfa a1ba 2959 03be f2b8 68bc
000001d0: 6092 bcbd 12a9 e93e 33bd 013e 0ba8 153f
000001e0: 8fce 0cbe 3258 6e3e bbbb c8bd 885e 553e
000001f0: 09f6 3e3d d8b5 0fbd 7cb4 913c 8464 d93c
00000200: f6a1 d43e d7c5 53be b7ea 5bbe 20e1 ac3e
00000210: de6e c23d 0848 0bbf 5dee adbd b0d3 6c3e
00000220: 32b5 1ebf 8f3c b9be d21b df3e 6140 973d
00000230: b12f 6e3c bcd9 a8be da36 cfbe 8e3d 3c3e
00000240: 6b85 333d 73a9 a2be 2477 2d3d e7ee 2f3d
00000250: 0349 ae3e d9f2 893e 45ff 92be f360 f8be
00000260: 7fa9 303e 1c4f 8ebd cad5 9cbd 7ea0 a73b
00000270: 34f9 1cbe 70ab 77be 3030 eb3d b45e b63d
00000280: 3482 a23e 82ba 47be 1015 9c3d dabd f83c
00000290: 1cb9 91be f259 4f3e 3864 3c3f c826 3fbe
000002a0: 6ca0 a8bc 8102 1d3d 5f68 94be 62bb 633e
000002b0: b717 adbd 821d b8bb 6130 e53d 6e2b 163c
000002c0: 6d7d 13be 2521 e1bd 6655 b4be c178 48be
000002d0: 4e28 f7be e3df 983e 977d ce3c 9542 483d
000002e0: 3590 75be dde5 c5bd 7136 0a3b 5cc6 8bb9
000002f0: 94df 083f d5f5 b43d bcac cf3e 45ef aebe
00000300: eaf4 8c3e 5681 1dbd ea9a 063f cce4 7abe
00000310: 8eab 83be 0ad6 1e3d cc2c c6bd a37c e6bd
00000320: 61ab 383e a17c e53e aadc e8be 3bb4 1abe
00000330: 44b9 bfbc 259a f93e bbbc 2bbc 716d 8ebe
00000340: f6cd 5e3d d953 92be 27f7 443e 5b27 e2be
00000350: d6aa 873d 84e3 8dbe dc7a 3a3e b3c8 9ebd
00000360: da00 dabd 4fc9 5abe d630 d3be f652 dbbd
00000370: c6dd 4a3d 0906 65be 5631 6cbe 18b8 62be
00000380: 791d 573d 5f0f 3a3e 67c6 0bbe 6c39 b8bd
00000390: 2280 96bb 6cc3 6b3e f8d3 9e3e 96df 8cbe
000003a0: 8c88 98bd a6c5 3d3e 45e1 983e 7735 713c
000003b0: 13f7 c23e f144 c23e 8ce0 cbbe 53b8 29be
000003c0: a336 b4bd c1ea ce3e 0ab6 dc3e e074 bf3c
000003d0: e90e ed3e b71f 983e cbde 84bd 357d 3dbe
000003e0: f100 25be 823d 88be d63f 013d 038e a93d
000003f0: 93a9 0b3e 486c 07bd 781f 39be 2588 3c3e
0.018761013 -0.030643502 -0.43908778 0.5874353 -0.13060309 -0.020019047 -0.44619152 0.17644653
0.335147 0.28362074 0.0017874913 0.268776 -0.10883723 0.0680009 0.4072258 -0.18598273
0.17223813 0.41631913 0.09035985 0.3943925 -0.019000333 0.21506836 0.34093997 -0.43051302
0.18227391 0.11581184 -0.11217674 -0.34115446 0.26950002 0.1078716 -0.16429478 -0.049233254
0.15017845 0.017279893 0.12071838 -0.4418686 0.23850916 -0.08632227 -0.3971984 0.45729598
0.1656119 -0.11453464 -0.07771996 -0.099707395 -0.04168787 0.48546323 -0.32339197 0.17021498
0.13243745 -0.04596676 -0.20079364 -0.29341534 0.25610608 -0.27916837 0.30997512 0.063478924
0.33273068 -0.1612122 -0.27825323 -0.54300076 0.0587524 -0.15324375 -0.28021792 0.045415696
0.34595454 0.30762807 0.30861965 0.29407313 0.19604896 0.065684326 0.015619042 -0.20186497
-0.091603 0.007671665 -0.078473546 0.47086254 0.2601208 0.5629184 -0.37395087 -0.35311365
-0.42037457 -0.030253049 -0.1443391 -0.36084357 -0.32148755 0.14442208 0.20128343 0.52097124
0.050207544 -0.09278692 0.20760913 0.03677672 -0.10791195 -0.0699174 -0.093994334 0.7607627
-0.102069944 0.43354562 0.5636876 -0.071614765 -0.18101765 -0.23025651 0.20619363 0.12112008
0.12872037 -0.4866386 -0.04603036 0.07525691 0.028138382 0.191603 -0.061486255 0.34979108
0.4938125 -0.0012358031 -0.1282698 -0.014204251 -0.09207606 0.45636803 0.1266983 0.5845954
-0.13750671 0.23275831 -0.09801432 0.20836842 0.046621356 -0.03508553 0.017786257 0.026537187
0.41529816 -0.20680939 -0.21476255 0.33765507 0.094938025 -0.54406786 -0.0849273 0.23127627
-0.6199523 -0.36179015 0.43575913 0.07385326 0.014537738 -0.32978618 -0.40471536 0.18382856
0.04382841 -0.31769904 0.04234995 0.042952444 0.3404008 0.2694309 -0.2871038 -0.48511466
0.17252158 -0.06948683 -0.076579645 0.0051155677 -0.15329438 -0.24186492 0.114838004 0.08904782
0.31739962 -0.19504741 0.07621205 0.030363966 -0.2846154 0.20249155 0.7359042 -0.18667138
-0.020584308 0.038332466 -0.2898588 0.2223945 -0.08451789 -0.005618752 0.11190868 0.009165628
-0.14403315 -0.1099265 -0.35221404 -0.19577314 -0.48272938 0.29858312 0.02520637 0.048891623
-0.23980792 -0.096629836 0.0021089579 -0.00026659935 0.53466153 0.08835951 0.40561473 -0.34166923
0.27530605 -0.038453422 0.5258013 -0.24501342 -0.25716823 0.038778342 -0.09676513 -0.11254241
0.18034126 0.44821647 -0.45480853 -0.15107815 -0.023403771 0.48750415 -0.010482009 -0.27817872
0.05439564 -0.28579596 0.19234906 -0.4417065 0.06624381 -0.27712643 0.1821093 -0.07753124
-0.10644694 -0.21365856 -0.41248196 -0.10709183 0.049527906 -0.22365583 -0.23065695 -0.22140539
0.05251834 0.18169926 -0.13649903 -0.08995327 -0.0045929113 0.23023766 0.31021094 -0.27514333
-0.07447919 0.18532428 0.29859367 0.01472222 0.38079128 0.37943223 -0.39819753 -0.1657422
-0.087994836 0.40413478 0.43107635 0.02337116 0.46300438 0.29711697 -0.06487807 -0.18504794
-0.1611364 -0.26609427 0.03155502 0.0827904 0.13638906 -0.03306225 -0.1807841 0.1841131

encoder.l2.bias f4 [32]
00000000: 10cb 393d fd6f f8bc 7667 433d e486 62be
00000010: 7d43 2cbe 5631 093c 9710 3fbd 9979 df3d
00000020: c40e bd3c 0675 283e 63e6 01bd 5cfc 843e
00000030: 4e26 333d eba4 89bd 9f14 de3d 2cb5 12be
00000040: d271 783c b9ad 1b3d 448b f93d e4dc 033e
00000050: 0f74 9e3c 1ed0 51b8 77e4 393e 1662 6abc
00000060: 50ab 03be e972 d5bc 01eb 22bd 2363 eebc
00000070: 06ad 9ebd d7e3 853d bd96 c03c e91c 17bd
0.04535967 -0.030326838 0.04770609 -0.22121769 -0.1682262 0.008373579 -0.04664668 0.10911865
0.02307833 0.16450891 -0.031713855 0.25973785 0.043737702 -0.06720909 0.10843777 -0.14326924
0.015163856 0.03800747 0.12184766 0.12877232 0.01934245 -5.0023307e-05 0.18153559 -0.014305612
-0.1285832 -0.02605577 -0.0397749 -0.029100006 -0.07747845 0.065375976 0.023509378 -0.036892805

lstm.weight_ih f4 [512, 288]
00000000: 7f8c 3b3e 5879 dd3d 4850 5fbd ce27 86be
00000010: 4e06 803e 8c1a d4bd 1188 8bbd b3e9 bc3e
00000020: 934e 633e 8d4f 873b fdba 6e3d b0f9 99be
00000030: 2726 4bbd 6dca f1bd dad3 9bbd 269a 9c3d
00000040: 0943 9b3e 07da b13e 88c9 fd3c e7d5 1d3e
00000050: 2401 c9be edd1 84be c4eb b8be a59d 8f3e
00000060: a45a 60be 8ef4 7a3e 3269 7ebe a9e7 073e
00000070: 9ebe ef3d 5e61 6bbd 0628 e9bd cf91 0e3f
00000080: 36a5 443d a11e a33d bb42 57bd 30b5 8ebc
00000090: 3800 1dbe 34fb 0c3e 044e e33d b930 ebbd
000000a0: 0915 c63d eadb 61bb 73a7 9c3c f06a 03be
000000b0: f35f a73d ed7e 183d 7c62 5fbc ac7a 3a3e
000000c0: 83a3 d03d 84e6 573e 4d94 5fbc 41e0 1bbe
000000d0: 959d 00bd 4b44 52bd 36c6 0b3d fc0f 813d
000000e0: eac7 d5bd 78a7 a53c 0a4b aa3b 2e35 83bd
000000f0: 2358 8c3d 4a1f 0cbe fe04 503e 3289 fa3d
00000100: edb9 febc 7ad5 40be 341a bb3d 8f5c 80bc
00000110: 8be8 82bc 5a4b c23d 492e 88bd 50ee d7bd
00000120: c0f9 963b 075c 5cbd 6a0b efbd 03da 5bbd
00000130: 6f7e cf3c b095 31bd adf4 2d3e f3de b1bd
00000140: 114e 39bd 7319 013c 2ac0 0f3c c0d5 f7bc
00000150: 77e1 babd 077e 1fbd 29b8 523d c9a9 143e
00000160: dd3b 8f3d cc51 ac3c 730a 7dbd d7a8 2f3d
00000170: 1702 293a eaea 423d 17be 21bd 1b5b 623c
00000180: cd03 053d 2f8f a9bc 9de5 b2bd f5b8 8ebe
00000190: b80d 90bd bbee 63bd 3ae3 aabb 3c9a a73c
000001a0: 89d8 77bd 27ed 803d 790c 8ebd c4d5 6fbc
000001b0: 9a14 d03d f643 2b3d 3914 6a3d e1f2 9dbd
000001c0: 94c3 7ebd 578c d63d 6661 0ebc df10 f8bd
000001d0: 5cef 443d 0a63 44be 970a b5bd cb01 bf3d
000001e0: 57ed 17be cb9b 303d bbcd fcbd 8943 abbd
000001f0: 1cfc b3bc e43e 013c 438c b63a 4850 983b
00000200: b60b d73d 0927 513d f672 8f3c 0e77 52bd
00000210: 2efd 1ebe e3fd c53c 1d63 ab3d afa9 d7bd
00000220: 2fd8 d43c ac53 653b 56c2 66bd 31ef b4bb
00000230: 2528 85bc 9b47 383d 86cc 27bc 799a 01bc
00000240: 463a afbd 48f3 b9bd 3cb5 60bd 9adf 6c3d
00000250: 3e2e 03be 7519 ba3c 0c88 85bd fc01 fd3c
00000260: 3205 a23d 8dcc a7bc f046 073e ee5f 4ebe
00000270: 3d41 94bd 22a5 803c f98f 623e 2cd9 5dbd
00000280: 10be a63c f0f2 0bbe 2d8f 5abd 7e8e ec3a
00000290: 466b 8c3d 43cf f4bc 9ced 513e e5b2 98bd
000002a0: 52c6 183e c8d6 0fbc 3b5c cd3d 9adf 57bc
000002b0: b498 3c3e 668e 32bd 2693 4fbe 86d8 9f3d
000002c0: 8512 58be f9bc c0bc e4a8 8dbd 4a0a 343d
000002d0: 023d 583d 1301 0c3e a16a ae3d ba3b 323e
000002e0: 9928 f3bc 7b2e 4f3e 6172 bf3d 3d3e d6bd
000002f0: 33f5 b4bd 1242 583d 2926 d3bd feec 3ebd
00000300: a5b9 963c 0da2 21be 26e0 923c 2f91 3d3d
00000310: 1b58 8c3d 7a6e c6bd 88ae 04be 8825 28be
00000320: 002c 8bbc 6930 0abb 7f80 8cbd ace2 96bd
00000330: 52ce 4bbd 3742 d23d 4712 1d3e bd05 24bc
00000340: 541e 41bd b3ec 31bd 11d5 fabc 0f17 bc3b
00000350: a870 62bd 4048 c2bd cba5 0bbd 06e8 cebd
00000360: 6396 7dbd e9df 86bd 8374 92bd e654 f93c
00000370: e2f0 933c cb1b 433d c105 8f3d 651b cf3d
00000380: 6de9 0abe 9035 e6bd f09e 253e 54e1 94bd
00000390: e644 ccbd 7ce4 253e dd94 90bc 4221 0fbe
000003a0: 41c4 5dbc 8922 34be 3303 143d 373b c93d
000003b0: 0669 4c3e 342f c93c b776 ea3d 01f5 10bd
000003c0: afb4 253e dee9 113e 5dfd a4bd fa6c cdbc
000003d0: c49f 023e 69c0 6c3c 214d 9b3d e367 723d
000003e0: 9960 de3c 64dc 12be dacd d33d c14e a4bc
000003f0: 75bd 4dbd e7fd a9bd 0cab c03c b96a 4d3e
0.18315314 0.1081416 -0.05451992 -0.26202244 0.2500481 -0.10356626 -0.06813062 0.36897048
0.22197942 0.0041293562 0.058283795 -0.3007331 -0.04959693 -0.11806188 -0.07608767 0.07646589
0.3032458 0.34736654 0.030979887 0.15413629 -0.39258683 -0.2594141 -0.36117375 0.2804996
-0.21909577 0.24507353 -0.24844816 0.13271965 0.11706279 -0.057465903 -0.11384587 0.55691236
0.04800912 0.079648264 -0.052553874 -0.017420381 -0.15332115 0.13767701 0.11098865 -0.114839025
0.09671981 -0.0034463354 0.019122815 -0.12833762 0.08172598 0.03723042 -0.01363432 0.18210858
0.101874374 0.21084028 -0.0136461975 -0.15222265 -0.031400282 -0.05133466 0.034124576 0.06301877
-0.10438521 0.020221457 0.0051969336 -0.064066276 0.06852748 -0.13683811 0.20314404 0.12233199
-0.031094516 -0.18831435 0.09135857 -0.015669135 -0.015980026 0.094870284 -0.06649453 -0.105435014
0.0046074092 -0.0537987 -0.11672099 -0.05367471 0.025328843 -0.043355644 0.16987868 -0.08685102
-0.045240466 0.007879603 0.008773843 -0.030253291 -0.09125035 -0.03893855 0.05144516 0.14517893
0.0699384 0.021035098 -0.061777543 0.042885628 0.000644715 0.047587313 -0.039487924 0.013815667
0.032474328 -0.020698158 -0.087352015 -0.27875486 -0.07033867 -0.055647593 -0.005215076 0.020459287
-0.06050924 0.06295233 -0.06935973 -0.014638368 0.101601794 0.04181286 0.057148192 -0.07712341
-0.062198237 0.104759865 -0.008690214 -0.12112593 0.048079833 -0.19178405 -0.088399105 0.09326514
-0.14836632 0.043117326 -0.123439275 -0.08362491 -0.021970801 0.007888529 0.0013927299 0.004648242
0.105002806 0.051062617 0.017510872 -0.05138307 -0.15526268 0.024168914 0.08368514 -0.105304115
0.02598199 0.00349925 -0.056337677 -0.005521678 -0.016254494 0.044990163 -0.010241633 -0.007910364
-0.08556037 -0.09079605 -0.05486034 0.05783043 -0.12810609 0.022717217 -0.065200895 0.030884735
0.07911147 -0.02048328 0.13210654 -0.20153782 -0.07239006 0.015703741 0.22125234 -0.05416219
0.0203543 -0.13666892 -0.0533592 0.0018047837 0.06856398 -0.029883986 0.20500797 -0.074559964
0.14919403 -0.008779235 0.10027357 -0.013175869 0.18417627 -0.043592833 -0.20270976 0.078049704
-0.21100815 -0.02352761 -0.06916979 0.043955125 0.052792557 0.13672285 0.085164316 0.17405596
-0.029682444 0.20232575 0.09347988 -0.1046109 -0.088358305 0.052797385 -0.10310013 -0.046612732
0.01839907 -0.15784474 0.017929148 0.046281036 0.06852742 -0.096890405 -0.12957203 -0.16420567
-0.016988754 -0.0021085984 -0.06860446 -0.07367453 -0.04975731 0.10266536 0.15339004 -0.010011134
-0.047148064 -0.043438625 -0.030619176 0.0057400535 -0.05528322 -0.09486437 -0.03409366 -0.10102849
-0.061910998 -0.06585676 -0.07151129 0.03043599 0.018059198 0.047633927 0.06983519 0.10112647
-0.13565607 -0.11240685 0.16173911 -0.072695404 -0.09974079 0.16200441 -0.017649109 -0.1397753
-0.01353556 -0.17591299 0.036135864 0.098257475 0.19961938 0.024558641 0.11448424 -0.035389904
0.16182207 0.1424937 -0.08056138 -0.025076378 0.12756258 0.014450171 0.075830705 0.059181105
0.02714567 -0.14341885 0.103419974 -0.020057084 -0.05022951 -0.08300381 0.023519062 0.20060243

lstm.weight_hh f4 [512, 128]
00000000: fcee 94be ee2e 84be c042 25be d361 793e
00000010: 2218 783d 00d8 fa3c 1cd1 71bd a00c 70be
00000020: f56c b53e ed63 123d c540 663d ca7e e13d
00000030: b21b af3d 4995 433e 8715 e8be d2fa 1fbd
00000040: de93 3c3e de1f 48bd def1 c4bd 3979 033e
00000050: cc26 84ba f25a 30be bd65 5f3e d627 313d
00000060: 9d1c 863c eba8 05bd c93b 9e3e 8f68 17be
00000070: c961 94be 5262 07be 0b7e bc3e e2a1 473e
00000080: e0a3 6ebe dff1 b83e 29fc 933c ae4c b63e
00000090: 66de 8ebe 7b8d 0abe 8d07 093d e44b 96bc
000000a0: 5b0e 6c3e 63e5 84bd 1842 733e 6655 993c
000000b0: f1a8 3f3d 5134 dfbc 7300 87bb eab6 54be
000000c0: 7813 a53e 0520 8abe 0a99 32bd 7451 88bd
000000d0: 5f39 d13d fcfb c93d 6578 cabd cd34 eebd
000000e0: 6bea 7a3d 416f 2d3d 2a29 8cbe ecc0 a5bd
000000f0: d12c d83c afd8 ca3d 2e17 f0bd 2d3e 303d
00000100: beea 003e 1f31 4d3b 1e6f da3d 9a50 48be
00000110: 0069 00bd 600b fe3d 2b2d 2a3d 2282 ffbd
00000120: 7bc1 343e 7ce2 5fbd 5c77 3a3d 22da ad3e
00000130: 06ec 493e e40b 5d3d 325d 0f3e be9d 823e
00000140: 9c8b bd3e 9720 2e3d cc24 8abe c746 04be
00000150: a832 6abd 5a57 f43d a13c ddbd aa66 52be
00000160: 3b2e 183d cf79 4a3e 3378 ddbd 553e 80be
00000170: 7468 b83e 27b8 bbbe 9338 2e3e 7d5e af3e
00000180: a81f 4cbe e377 bcbc faf9 1c3d d7a7 383e
00000190: d1af 913e 42a4 48bd 25de 4dbc c773 993d
000001a0: 3e28 94bd 1ac2 993b 6ffa 1cbe 652f 00bd
000001b0: b2d0 abbe a2e4 ac3d 7c64 073e fc3a b9bb
000001c0: a159 fbbd c974 c5be cd49 b43e 2c73 adbe
000001d0: 4220 2fbe 136c 093e 7512 cebd bef9 bd3d
000001e0: 87bc 73bd 8e19 b8bd 6069 2d3d 0d10 073e
000001f0: 804e c9be b338 05be 41d4 e0bb 4e2c 5dbd
00000200: 2fd7 cb3e 7bbc ed3d d391 ad3d 0d79 35be
00000210: ce0a ba3e 60ed 9dbd 6596 8c3e dad3 df3d
00000220: bfc1 063e 77dd 623e a620 3fbe 546c 0abe
00000230: 4d32 733e 4a09 95be 5eef 68bd fb1c 9ebe
00000240: 6e73 723e fea0 dfbe e9c6 533d 62c7 cabe
00000250: 1461 72bd 2de8 d93c f5fb 2a3d e46f dbbc
00000260: 9769 f53d 5d18 03bf 7eb2 47be 5831 d2be
00000270: 38e8 fbbe 7706 13bd 32e9 62be 4f7c ec3d
00000280: e179 5e3e 4cfd 9a3e f2a5 073d 2289 473d
00000290: 8e18 8fbd 77aa 603e 1c29 2dbd 59f7 3dbe
000002a0: 4f26 683d 1b3f ffbc 01d4 463e 3177 8c3e
000002b0: 2598 4b3e df04 53bd 51f3 a9bd ae4f a6be
000002c0: 86a9 e7be 3b57 473d fe57 213e 9ab8 823c
000002d0: f3af 423e 7176 733d ba45 42bc 9de0 f0bd
000002e0: 742b 823d 62a7 dd3d 54e4 ed3d 2894 c33d
000002f0: 672b bfbc b51b 2d3e 9843 1a3f 669c 80be
00000300: 1efe 7a3d 394e 903e 8238 fb3d 2f31 b23a
00000310: 3b0c fc3e 8741 b6bc 673d d63d 7b32 b63d
00000320: 2f0c 023c 8b30 ea3d 8f5c 2abe 7755 eabc
00000330: 350f a7bc 2316 99bd d22e 653e 9aab c5be
00000340: 97dc febd 4131 3f3d cbcc 3fbe 7e81 813d
00000350: 9bef bdbd 28e1 013e c24a 333b 0ef8 ad3d
00000360: aafa 58be 42c9 3fbe 76e1 a73e 49fe b4be
00000370: e86d 85be 33a1 5dbe b254 8cbd fe20 fb3c
00000380: ae00 e93c 18bb 37bc 3064 68bd f4f1 2dbe
00000390: dc29 353e 8b7b 3fbe 9334 823e 264f 92be
000003a0: 67bd 02bf 64b8 47bd b9ba 953e 020c 28bb
000003b0: 148c a13d 97db 873e 9687 aab9 548a 41be
000003c0: 452f 263e 9125 23bd 0008 8a3e a55a 753e
000003d0: b914 b33c f580 2c3e abc0 553e 461f 833d
000003e0: 527a 243d 6969 5b3e 61bf 4d3e 1bc0 f43e
000003f0: 492f ab3d 0be3 273e 9768 133e 9391 c13c
-0.2908858 -0.25817055 -0.16138744 0.24353723 0.06056989 0.030620575 -0.059037313 -0.23442316
0.3543469 0.035739828 0.056214113 0.11010511 0.08550204 0.19099917 -0.45328924 -0.03905756
0.18415782 -0.048858516 -0.09616445 0.12839212 -0.0010082363 -0.17222193 0.21816154 0.04325088
0.016371066 -0.032631796 0.30904987 -0.1478598 -0.28980854 -0.132211 0.36814913 0.19495347
-0.23304701 0.36122033 0.018064575 0.35605377 -0.27904052 -0.13530533 0.033454467 -0.018346734
0.23052351 -0.064890645 0.23755682 0.018717479 0.046791974 -0.027246626 -0.0041199266 -0.20772901
0.32241416 -0.26977554 -0.04360298 -0.06656161 0.10216021 0.09862515 -0.09886245 -0.11631165
0.061258715 0.042342428 -0.27375156 -0.080934376 0.026388558 0.0990461 -0.11723171 0.043028045
0.12589547 0.0031309796 0.10665725 -0.19561997 -0.031350136 0.12404513 0.04154698 -0.12475993
0.17651932 -0.05465935 0.045523986 0.33955485 0.19718942 0.053966418 0.14000395 0.25510973
0.37020576 0.04251155 -0.269812 -0.12917624 -0.057177216 0.119307235 -0.1080258 -0.20546976
0.037153464 0.19773029 -0.10813942 -0.25047556 0.3601719 -0.36663935 0.17013769 0.34251776
-0.19933951 -0.023006385 0.038324334 0.18032776 0.2845445 -0.048984773 -0.01256517 0.07492786
-0.07234238 0.004692328 -0.15329908 -0.0312952 -0.3355766 0.08442046 0.13221925 -0.0056527834
-0.12272955 -0.38565663 0.35212556 -0.33876932 -0.17102149 0.13420133 -0.10062114 0.0927615
-0.059505966 -0.08989249 0.04233682 0.13189717 -0.39317703 -0.1300991 -0.00686124 -0.05399733
0.3981261 0.116082154 0.084750794 -0.17721958 0.36336368 -0.07711291 0.27458492 0.10929079
0.13159846 0.22154795 -0.18664798 -0.13517886 0.23749657 -0.2910865 -0.056868903 -0.30881485
0.23676845 -0.43677515 0.051703367 -0.39605242 -0.059174612 0.026599968 0.04174419 -0.026786752
0.1198303 -0.5120905 -0.19501683 -0.4105327 -0.49200606 -0.035894837 -0.2215927 0.115471475
0.2172618 0.30271375 0.033117242 0.048714764 -0.06987105 0.21940027 -0.042275533 -0.18551387
0.05667716 -0.03115802 0.1941681 0.27434686 0.19882257 -0.051518317 -0.08298362 -0.32482666
-0.45246524 0.048667174 0.15756223 0.015957166 0.19012432 0.059439126 -0.011857444 -0.117615916
0.06355944 0.10822941 0.11615816 0.09549743 -0.023336126 0.169051 0.6025939 -0.25119323
0.0612775 0.2818468 0.122666374 0.001359498 0.4922808 -0.022248043 0.1046093 0.08896347
0.007937475 0.1143504 -0.16636871 -0.028605206 -0.020392993 -0.07474925 0.22381142 -0.38607484
-0.12444418 0.04667783 -0.18730466 0.06323527 -0.09274217 0.12683547 0.0027357792 0.08494578
-0.21189371 -0.18729118 0.327892 -0.35350254 -0.26060414 -0.21643524 -0.06852092 0.03065538
0.028442707 -0.01121404 -0.05673617 -0.16986829 0.1769175 -0.18699472 0.25430736 -0.2857601
-0.51070255 -0.048759833 0.2924402 -0.0025641923 0.07888046 0.2653472 -0.00032525946 -0.18900424
0.1622897 -0.039830748 0.2695923 0.2396036 0.021860467 0.16846068 0.20874278 0.06402449
0.040155716 0.2142693 0.20092537 0.47802815 0.08358628 0.16395204 0.14395367 0.023628986

lstm.bias_ih f4 [512]
00000000: 7c3f f4bb 768e b8bc c5c4 243d b900 3cbc
00000010: 7725 63bb 715b 21bd bb21 2d3d 89be 9abc
00000020: 3d80 06be 295e f03d dadb 323d 436d 61bd
00000030: cf8a c1bc 1dc4 413c 811b 253d 7f5e 293e
00000040: b250 f53d 868d 663d 73b5 b13d becd 6c3d
00000050: 2b8f b13d 0674 043e e161 173e a56c 813d
00000060: d5ca ed3d 73b9 fb3c 7faf cfbc df37 763c
00000070: 4e5a b93d ec13 b8bd 1d48 b53d 3000 393e
00000080: 73a3 12bc 0e53 98bd 908b 98bc cbd5 da3c
00000090: d2ec 033d 7a5a 353c fab0 143d e337 7b3c
000000a0: 06be 783d 5660 e1bd 39f9 213e b61f 5f3d
000000b0: e6bd 21bd 3e7c d83c 1281 073e 9573 233e
000000c0: c3dd 5d3d fc1f 6c3d 2f2f a2bc 5a7d 543d
000000d0: cd16 c5bc 90f1 953d 36d3 e93d 15fc 1d3e
000000e0: 1dfc fc3d 1c22 bebd a78a 84bd 7cdd b13d
000000f0: 428b 713c 279e fb3d 52ba b93d d774 1c3e
00000100: 1553 c83c 9588 6f3e bf0a df3d b828 f63c
00000110: 7bfc 7a3d 4e34 4bbc f392 f43d 6754 1c3d
00000120: bb76 83bc 5bb6 ad3a 5399 9f3d 4f0c 99bd
00000130: d527 2dbd 0217 d23d e280 893d f091 063d
00000140: 4cd2 f4bc 1ac9 91bc 13f0 c33d 86e8 753c
00000150: d247 ac3b c562 5f3d d142 523d 6d5f 3a3e
00000160: b60c 443e 4dd0 cb3d 491a 013c 502f 8ebd
00000170: bb4c 973d da3d 9a3d a9dd d83c fd12 8abd
00000180: c31c 70bd 224b ae3d 0a92 573d 2f8f 5ebd
00000190: cfff 063e 7baa 133d 19ed 783d 6acc 43bd
000001a0: d460 f63d f8b5 883d c17e ad3d 741d b63d
000001b0: d020 673c 9b35 bc3d aaeb 063d 7e68 373e
000001c0: e6a7 39bc 6f97 0b3d 03ef 363e 66ba ff3b
000001d0: e1e9 343d ca3c c1bc 39c4 e83c 4081 8a3d
000001e0: 0b3d 323d d8f1 97ba 2982 bc3d d64c c43d
000001f0: 4ad0 b33d f2ef 063e fa99 d63b 5ebc 8bbd
00000200: 592e a1bd 3407 5d3d c832 a63d 6f43 72bd
00000210: bcd0 dbbd 429e a7bd 2a4e 5bbe b63f 9dbd
00000220: 3901 0e3c eb89 9d3c 3593 603d bc5b a43c
00000230: 3a06 0dbe 58df 22bd 977e 13be 7cb7 f6bb
00000240: ec31 23bd 23a2 d4bc 59c4 09be 8225 69bd
00000250: f88c a73d bdc3 a93d b0fd f8bd 74f0 3dbd
00000260: 7842 a9bd 76e9 943d c558 eabd 2f0d 4ebc
00000270: f565 13be 0c6a 993d 2b5a 9bbd f9fb 15bd
00000280: 0686 21bd e293 0ebd c73c d5bd c143 dcb9
00000290: df75 af3d 7aa1 8bbd 5f49 0dbe 8261 7f3c
000002a0: 05f2 09be 925a fdbd 2a4a 88bd f7d3 73bd
000002b0: b58f 0dbe b23d 12be e30a 03be 24df a33c
000002c0: 6cbb cc3c e02b bebd 27a1 5abc 5072 e5bc
000002d0: 8f8f 733d e725 b3bd ca1e bdbd 69a1 35be
000002e0: e889 d6bd 1c5e 8ebc d6f2 20bc 00f6 ab3d
000002f0: 405a 393d 6a1e 1a3c 7188 26be 331c f2bd
00000300: 6878 31bc 6d30 54bd 6eff abbd 55f8 193d
00000310: b632 18be 76d1 87bc 8cc2 02bd 0068 cf3d
00000320: ad75 b63c b93b 49bd 4089 3bbe ed9e d0bc
00000330: d826 f3bd a016 cfbd da95 95bd a628 ed3c
00000340: 5a93 fd3b 3e45 c2bd 8fe1 8bbd fa50 86bd
00000350: e72a 8d3c 8285 b7bd 93f6 cabd 941f c5bc
00000360: 4a62 1f3e 85af d13d 8ccb 09be 1ebb bcbc
00000370: 5a6d 46bc f5d0 81bd 0be0 9fbd 1990 f6bd
00000380: 0397 b1bd 9701 1a3d c30b 4abc 1bd6 b2bd
00000390: 1157 84bd a4d9 adbd 0ee8 05be b787 bfbd
000003a0: 7c19 b9bd 1e02 abbd f6e1 17bd c316 713d
000003b0: 0d98 f0bd 013f ebbd 1959 f8bd ec5f e33c
000003c0: bb59 a83d 744e 4c3c ebe7 133d cb93 163d
000003d0: 154d 65bd 55c9 55bd e8bc 72bd 323d b1bd
000003e0: e7ca 8abb 127e 2cbe 506e 4f3d 24fa 6dbd
000003f0: 2132 b1bc 1a72 3f3d cce8 3ebd 1db8 eabd
-0.007453857 -0.022528868 0.040226717 -0.011474782 -0.0034659782 -0.039393846 0.042268496 -0.018889682
-0.13134857 0.117367096 0.043666698 -0.05503584 -0.02362576 0.011826542 0.040309433 0.16539954
0.11978282 0.05628731 0.08677187 0.0578134 0.08669885 0.12934884 0.14783432 0.063195504
0.11610953 0.030728078 -0.025352238 0.015027969 0.090504274 -0.08988175 0.08851645 0.18066478
-0.008950102 -0.074377164 -0.018621236 0.026713273 0.03220827 0.011068935 0.03630159 0.015333149
0.060728095 -0.11004703 0.15817727 0.0544736 -0.039487742 0.02642643 0.1323283 0.1596206
0.054166567 0.05764769 -0.01979789 0.051877357 -0.024058724 0.07321465 0.114172384 0.15428193
0.12352774 -0.092838496 -0.06471758 0.08684823 0.014742674 0.122860245 0.09068741 0.15278946
0.02445368 0.23391946 0.108907215 0.030048713 0.06127594 -0.012402607 0.11942091 0.03816643
-0.016047826 0.0013253199 0.07792916 -0.07473051 -0.042274315 0.10258295 0.067140356 0.03285402
-0.029885434 -0.017796088 0.09567275 0.015009051 0.005257585 0.054537553 0.051333252 0.18200465
0.19145474 0.099518396 0.007879802 -0.06942618 0.07387682 0.075313285 0.026472883 -0.06741903
-0.05862118 0.08510424 0.052629508 -0.05433577 0.1318352 0.036051255 0.06077299 -0.047802366
0.12030187 0.06675333 0.08471442 0.088923365 0.014106944 0.09189912 0.03293959 0.17910954
-0.011331534 0.034079965 0.17864613 0.007804203 0.044168357 -0.023588557 0.028413879 0.06762934
0.043515246 -0.0011592461 0.092045136 0.09584968 0.08779962 0.1317747 0.006549117 -0.068230376
-0.07870168 0.053961948 0.081151545 -0.05914634 -0.10733172 -0.08184482 -0.21416536 -0.076781675
0.008667284 0.019230803 0.054827888 0.020063274 -0.13771906 -0.03976378 -0.14403759 -0.0075291973
-0.03984253 -0.025956219 -0.13453807 -0.056920536 0.081811845 0.08289287 -0.12157762 -0.046371892
-0.08264631 0.07271092 -0.11442713 -0.012576385 -0.14394362 0.0749093 -0.075855576 -0.036617253
-0.039434455 -0.034809 -0.10411983 -0.0004201215 0.08567404 -0.068179086 -0.1379752 0.0155872125
-0.1347123 -0.123707905 -0.06654771 -0.059528317 -0.13824351 -0.14281347 -0.12797122 0.020003863
0.024991713 -0.09285712 -0.013344086 -0.02800861 0.05946308 -0.08747464 -0.09234388 -0.17737354
-0.10475522 -0.01737886 -0.009823522 0.0839653 0.045252085 0.009406665 -0.16262986 -0.11821785
-0.01083193 -0.051803995 -0.08398329 0.037590344 -0.14863095 -0.016579371 -0.031923816 0.10127258
0.022272909 -0.04912922 -0.18314075 -0.025466407 -0.11872643 -0.10111737 -0.073039725 0.028950047
0.007738513 -0.09485863 -0.06830131 -0.06558414 0.017232371 -0.089610115 -0.099103115 -0.02406291
0.15564838 0.10238556 -0.13456553 -0.023038443 -0.012111032 -0.063386835 -0.07806405 -0.12039203
-0.08671381 0.037599172 -0.012331906 -0.087322436 -0.06461919 -0.08488777 -0.13076803 -0.093520574
-0.09038064 -0.08350013 -0.037080728 0.058859598 -0.117477514 -0.114866264 -0.12126369 0.0277557
0.0822024 0.012469877 0.036109846 0.03676204 -0.055981714 -0.05219396 -0.059262186 -0.0865425
-0.0042356136 -0.16844967 0.05064231 -0.05809988 -0.021630349 0.046739675 -0.04660873 -0.11460898

lstm.bias_hh f4 [512]
00000000: 72e7 853c fa19 5d3b 4030 243e 2908 c93d
00000010: 2121 f2bd b394 2dbd b989 21bd 32af 8f3d
00000020: 72ea 94bd f97a ce3d 09c8 c63a 5224 ee3c
00000030: 9a14 de3d 301b 71bd bf58 02bd 0558 463e
00000040: a479 c13d 0d48 533c c979 bcbc 8d8a 9f3d
00000050: 4ba2 b03d bdf0 e33d c4dd cd3d d1fd 0c3d
00000060: 0123 a33d e208 333e 5c32 5ebc ed82 0fbe
00000070: ba7b 633d 4af9 90bd 4b98 0a3e 1889 4f3e
00000080: f37e 313e bc74 ba3d 5132 da3d fede 8e3d
00000090: 4e3f 9e3d 0725 1abc 032c 143e 7c20 403c
000000a0: 8187 0f3e 7af2 d63c 0716 8b3d 3062 183d
000000b0: d6e5 683d 697b e73d ff8f a83d 2b25 1c3e
000000c0: 02a4 c83c 478c cc3b 4b87 aebc 9bfc 943d
000000d0: 1ef3 613d 1bdf 833c 1220 923c c14e a03d
000000e0: db88 a43a bac7 9cbc f9e3 073d da60 433e
000000f0: e11a 513e 29d6 17bd 9ff4 6d3d 7934 bd3d
00000100: 1d74 833d 9d74 993d 6a07 1c3c 5ae0 e93c
00000110: b506 d63d a282 643d ace2 1a3e d098 e93d
00000120: 1671 1abd 37bb 2a3e 09bd fd3d 8a87 0a3d
00000130: 8c4b cebd b72a 0fbd a285 053e 168e 863d
00000140: 6603 14bd 2a5a b53d 6034 d1bb da0b 8cbd
00000150: d347 9bbd d319 163e 6df7 bd3c b559 9cbb
00000160: 5bba 8b3d eb3e e03d c3cc 343d f639 7a3c
00000170: 4eb4 ae3c 34f7 433e d569 ad3c 1ef2 43bd
00000180: f2c7 d73b 4fa0 d8bc 341e 33bd 985b 113e
00000190: e2f7 e8b9 9ca5 ecbc 1d62 3b3d 44d0 4c3d
000001a0: 77ec a23d b77a a1bd 39ea d13d 1942 223e
000001b0: 9a15 b53d 4be8 8c3d 5fad 7cbd 60d1 053e
000001c0: a28a db3b 270a c93d 5eae f63d 696c 9fb9
000001d0: 05bd f03d a1d5 93bc 35c1 51bd d466 993d
000001e0: 81d7 e43c cb6c 773c f791 9f3d fe53 943d
000001f0: 701c 803c d706 e7bb 3bf7 c73d ca3a db3d
00000200: 8f09 21be 91de ac3d f06a afbd 4a76 abbd
00000210: 77e8 583d 043a f0bd aa91 3bbe acb5 c5bd
00000220: 7535 c1bd 4196 ddbc 00bf 80bd f7d1 4cbd
00000230: 69f2 a83b bed1 05be 6b2a 25bd 7a02 1bbe
00000240: 06c6 703c e19a 35be 0a3e f0bc 6a28 c93d
00000250: 1ba1 c73c 0f49 8a3d e905 87bd 3d2f 18be
00000260: 661d bcbd bd65 233d 7308 edbc e8da 88bd
00000270: a14f 3fbe 1c5c 02bc 5ecc 13be 003c 0bbd
00000280: fa27 a4bd debc 073d 91ea 3dbd 8e04 e7bb
00000290: b173 e63c f545 35bc ff57 20be 37aa 97bd
000002a0: 275f d1bd f413 77bd d29a 22be b4d0 12be
000002b0: 6755 80bb 107f 113d 2450 45bd da3c 093d
000002c0: e0f4 a23c 002a 1abd aa90 c63a d128 fbbd
000002d0: 9751 28bd 39a5 8bbd b032 d7bd 6764 3dbd
000002e0: b87b b3bd 63fa 0bbe 8742 bbbd 3a2c db3d
000002f0: 7cda 9b3b 2248 fdbd 7361 07be 2d6d 97bd
00000300: 96c9 ffbd b129 87bd eb83 513d 028a e03c
00000310: 2311 af3c ccea 6dbc 05c1 843d 1cdc a03c
00000320: 0d25 983d 1c16 543c 7e1c 9dbc 9a99 45bc
00000330: 9ef9 e7bd 2dea 22be 453c 10bd 5a91 e73c
00000340: 163b 71bd 8b6d 3ebd e9f9 a83d 9c8e 84bd
00000350: 4dcd 9a3d cd16 74bd 78db 103d 5cef 1abe
00000360: f20b 263e 8e32 6cbd 4d59 05be bbd5 4b3c
00000370: b0bc 643c 41a7 1bbe f30b 01be 049a e53c
00000380: 3369 f1bd e45d 5f3d cb9d 383c ca87 c1bb
00000390: ea2d abbd 4955 373d 161b 01be d146 07be
000003a0: 9ad6 ecbd 16ea 2c3d 6c26 9cbd 7908 1d3d
000003b0: 8476 5dbc bcb9 0dbd 9b6b d9bd c0a2 6c3d
000003c0: 53ef 9f3d 6819 bb3d bea7 d3bc 576e dcbd
000003d0: 5950 62bd 4678 e3bd fe23 213c 74e5 02be
000003e0: b8ec 0abe 7d4d 03bd 2fef 9fbc 52cf 423d
000003f0: 5013 f0bd 411c db3c d0e4 23bd 0e8e ab3c
0.016345713 0.0033737407 0.16034031 0.098160096 -0.11822725 -0.04237814 -0.039437983 0.07015838
-0.072712794 0.10082049 0.0015165816 0.029070053 0.10843773 -0.05886382 -0.031822916 0.19369514
0.09447029 0.012895596 -0.02300729 0.07790098 0.08624705 0.111299016 0.10052064 0.034421746
0.07965661 0.17483857 -0.013561811 -0.14014788 0.055537917 -0.07078798 0.13534658 0.20267141
0.17333584 0.091042966 0.10654128 0.06976126 0.07726918 -0.009408242 0.14469914 0.011726495
0.14016534 0.026238669 0.06791311 0.037203014 0.056859814 0.113028355 0.0823059 0.15248553
0.024492268 0.0062423083 -0.021304747 0.07274743 0.055163495 0.016097596 0.017837558 0.07827521
0.0012552993 -0.019138206 0.033176396 0.19079915 0.2042041 -0.037069473 0.058094617 0.09238524
0.06418631 0.07492945 0.009523252 0.028549362 0.10450498 0.055788644 0.15125531 0.114061
-0.037705503 0.1667298 0.12389571 0.033820666 -0.10073003 -0.034952845 0.13039258 0.065700695
-0.036136054 0.08855088 -0.0063844174 -0.06838198 -0.07582059 0.14658289 0.02318927 -0.004771436
0.06822654 0.10949501 0.04414059 0.015272608 0.02132621 0.1913727 0.021168629 -0.047838323
0.0065851146 -0.026443629 -0.043729976 0.14195096 -0.00044435175 -0.028887562 0.045747865 0.050003305
0.07955258 -0.07884734 0.102497526 0.15845527 0.08842011 0.06880244 -0.061688777 0.13068151
0.006699876 0.098163895 0.12044977 -0.00030407615 0.117548026 -0.018046202 -0.051209647 0.07490316
0.027934792 0.015101622 0.077915125 0.07242583 0.01563856 -0.007050376 0.09763952 0.107045725
-0.15726303 0.08440889 -0.085653186 -0.08372171 0.05295607 -0.117298156 -0.18317285 -0.09653792
-0.09434024 -0.027049186 -0.0628643 -0.050004926 0.0051558507 -0.13068292 -0.040323656 -0.15137663
0.01469565 -0.17734863 -0.029326458 0.098221615 0.024368813 0.06752216 -0.06592924 -0.1486177
-0.09185295 0.039891947 -0.028934693 -0.06682378 -0.1868272 -0.007956531 -0.14433429 -0.033992767
-0.080154374 0.033139102 -0.046366278 -0.0070501035 0.028131338 -0.011064042 -0.15658568 -0.07405513
-0.10223227 -0.060321763 -0.15879372 -0.14337426 -0.0039164308 0.035521567 -0.04817213 0.0335053
0.019892156 -0.03763771 0.0015149314 -0.122636445 -0.041093435 -0.06818623 -0.10507715 -0.04623833
-0.08763832 -0.13669734 -0.091435485 0.10701795 0.00475627 -0.12367274 -0.13220768 -0.073938705
-0.12489621 -0.06599749 0.051151197 0.027409557 0.021370476 -0.014521312 0.06482128 0.019636206
0.07428942 0.012944724 -0.019178625 -0.012060547 -0.113269076 -0.15909643 -0.035213728 0.028267551
-0.05889424 -0.046491187 0.082507916 -0.06472513 0.07558689 -0.059592057 0.03536555 -0.15130371
0.16215494 -0.0576654 -0.13022347 0.012441094 0.013961002 -0.15200521 -0.12602215 0.028027542
-0.11787643 0.0545329 0.0112680895 -0.00590608 -0.08358367 0.04475907 -0.12607989 -0.13210608
-0.115643695 0.04221543 -0.07624516 0.03833816 -0.013517026 -0.03460096 -0.10616227 0.057772398
0.07809319 0.09135705 -0.025836822 -0.10763233 -0.055252407 -0.11106925 0.009835241 -0.12782842
-0.13566864 -0.03205632 -0.019523231 0.047560997 -0.117224336 0.026746871 -0.040013134 0.02094176
