evaluation_results/models/list_npi_2020_2_25-9_59_11-2286-False-False-1.0-True-0.3-True-False-True-False.pth (torch_old, 972357 bytes, 16 tensors)

Mprog.weight f4 [4, 256]
000000 a5 43 b4 3e fc c8 6f 3f 88 59 a5 bf 40 3d 3d 3e
       0.3520786 0.9366605 -1.2917948 0.18480396
000010 e6 0b 32 3e 32 da f8 bf 21 58 b3 be 67 54 82 3e
       0.17387351 -1.9441588 -0.35028175 0.2545502
000020 be 5d 2e 40 75 c6 f1 3f cd c7 15 bf 53 82 b7 bf
       2.7244716 1.8888689 -0.58507997 -1.4336647
000030 93 65 21 40 db db 26 be c6 d6 5c bf 21 e3 ac 3e
       2.5218246 -0.16294806 -0.8626522 0.33767036
000040 ce 9e 4c bf de 17 c1 bf 90 d0 b5 3e e7 e1 e8 3f
       -0.79929817 -1.5085409 0.35510683 1.819394
000050 dc 6d f0 3d 16 11 ad 3f 50 11 32 bf 61 a7 7e 3e
       0.11739704 1.3520839 -0.69557667 0.24868537
000060 7a 0f a1 3f 04 50 7a 3f 8e a6 37 be eb a1 91 be
       1.2582848 0.97778344 -0.1793463 -0.28443846
000070 df 83 71 bf 5d 61 6e bf 84 f8 1d 3f cb 13 31 3d
       -0.94341844 -0.93117315 0.6170733 0.043231767
000080 46 9d 0e be 6d d1 f8 3f 2c 43 2b 3e 95 9b 09 40
       -0.13927183 1.9438912 0.16724843 2.150121
000090 bf e9 c6 be 04 7b 30 3f 15 e7 c3 bd c1 18 cd be
       -0.3885021 0.68937707 -0.0956556 -0.40057948
0000a0 a3 a2 96 bc 07 ad 6e bf e6 d3 99 3f 9d 98 a2 3f
       -0.018388098 -0.9323277 1.2017791 1.2702824
0000b0 a6 5a d2 bf ce de 12 be 40 ac 56 3e 24 d6 24 c0
       -1.6433914 -0.14342806 0.20964146 -2.57557
0000c0 3f 54 4d 40 49 9a c1 be ec 39 0b be 45 78 19 c0
       3.208267 -0.37813023 -0.13596314 -2.3979657
0000d0 84 71 9d 3e 1d 86 39 bf c2 49 22 40 51 5f 9e be
       0.30750668 -0.72470266 2.5357518 -0.30932096
0000e0 0b 49 17 3e 9e be 82 3f c2 3a e5 bd 9e 4b ec 3f
       0.14773957 1.0214422 -0.11192848 1.8460577
0000f0 6b f8 30 3f c5 8c 1c bd 6c bd b2 3f db 12 51 3f
       0.69129056 -0.038220186 1.3964057 0.81669396
000100 95 e3 4a bf 51 2a 33 3f 88 ab c4 3f dd 80 04 be
       -0.7925351 0.69986445 1.5364847 -0.12939782
000110 41 9d 7c 3f c9 d9 50 40 cb 2d ab 3f 7b 90 2a 3e
       0.9867745 3.2632926 1.337335 0.16656677
000120 b1 6f e3 3c 40 c8 95 3f 56 62 88 be d5 72 85 3f
       0.02776322 1.1701736 -0.26637524 1.0425669
000130 78 5f 9c 3f 57 c1 8d bc 37 57 e9 3e ac 58 5f 3d
       1.2216635 -0.017304106 0.45574352 0.054527923
000140 74 85 58 3f e2 c8 eb 3d 8e 7d 89 bf 8d d8 37 3d
       0.84578633 0.11512925 -1.0741441 0.044884253
000150 08 58 11 40 91 db 61 3f d0 2c c3 be ba 86 8f 3f
       2.270998 0.88225657 -0.38120127 1.121299
000160 ee 17 07 bf 99 d8 ea 3e 7f 9f 65 3f fc a0 fb be
       -0.5277089 0.45868376 0.89696497 -0.4914626
000170 58 e5 94 3c f5 7f c1 3f e1 05 8b 3f 77 36 c6 bf
       0.018175766 1.5117174 1.0861169 -1.5485371
000180 99 2e 1d 3f d6 90 8c 3e 69 d1 fd 3f 7e 73 4e bf
       0.6139923 0.2745425 1.9829532 -0.8064498
000190 99 6d 11 bf a3 4d 09 3f 9c 7f e2 bf 8e 22 b9 3e
       -0.5680786 0.5363409 -1.7695193 0.36159176
0001a0 1b 46 24 bf 46 ab 9c bf 71 12 54 bf a7 0e 3b bf
       -0.6416947 -1.2239769 -0.8284064 -0.7306923
0001b0 ab 6a e4 bf 37 35 4a 3f 2b 92 d3 bf a4 f2 7c 3f
       -1.7845052 0.7898745 -1.6528982 0.9880774
0001c0 54 88 9f be 10 88 82 3f 96 cf a5 bf d4 6e 14 3f
       -0.31158698 1.0197773 -1.2953975 0.5798161
0001d0 b9 66 2c 3f 6b 3e a8 bf 22 1f 39 3e 84 4d 94 bf
       0.6734424 -1.3144048 0.18078282 -1.1586156
0001e0 b2 0b c0 3e 82 e3 b1 3e a6 5d b9 3f 75 aa 33 bf
       0.37508923 0.34743887 1.4481704 -0.7018197
0001f0 6b b6 d9 bf 34 01 40 3e 94 ba 15 bf b9 b3 d5 bf
       -1.7008795 0.18750459 -0.5848782 -1.6695472
000200 61 82 a1 bf ef 24 96 3f b3 83 af be 89 c8 22 bc
       -1.2617913 1.1730021 -0.34280166 -0.009935507
000210 9e ad aa 3e 7d 7e 33 bf ef a3 fe be a4 03 5d bf
       0.33335584 -0.7011488 -0.49734446 -0.8633368
000220 8e 7d 08 be ee 7a 06 40 d1 66 e2 bf 88 87 6f be
       -0.13329145 2.101253 -1.7687627 -0.23391545
000230 78 f8 6a 3f 45 a4 5c be 67 91 d2 3f 29 7e d3 3f
       0.91785383 -0.21547039 1.6450623 1.6522876
000240 f0 6e 69 bf 79 7d a1 3f d5 5e 81 bd b6 b7 be bf
       -0.911849 1.2616416 -0.06316916 -1.4899814
000250 ab 3c ca 3f 79 b3 15 bf 38 09 6b be 3f 91 32 bd
       1.5799764 -0.5847698 -0.22952735 -0.04359555
000260 21 fc f0 3e c3 94 0d bf 51 39 29 be ae ba a7 bf
       0.4706736 -0.5530512 -0.1652577 -1.3103845
000270 dc 3b 94 be fa 1a 2c bd f8 e2 26 bf 99 b1 1c 40
       -0.2895192 -0.042017914 -0.65190077 2.4483397
000280 12 49 23 c0 e2 8b 23 c0 77 52 23 3f 14 97 82 3f
       -2.5513349 -2.5554128 0.63797706 1.0202355
000290 1d 26 57 3f b8 25 9b bf a3 36 4f 3e 08 cf 1b c0
       0.8404253 -1.2120886 0.20235686 -2.4345112
0002a0 62 65 e0 bd a9 34 8e 3f 48 24 c3 bf 27 c1 a7 3e
       -0.10956837 1.1109821 -1.5245447 0.3276455
0002b0 f0 74 a9 3d 4e a4 b0 3d d5 79 2e be c0 d8 65 3e
       0.08274257 0.08625089 -0.17038663 0.22445965
0002c0 64 96 cc 3e be 3b de 3e d3 8f c4 bd 99 b8 de 3e
       0.3995849 0.43404955 -0.09597745 0.43500212
0002d0 ff dd 01 bf 59 46 ef bd e7 a9 8d 3f 3b d7 e4 bf
       -0.50729364 -0.116833396 1.1067475 -1.7878183
0002e0 79 7a 72 3e 35 88 4d bf 56 77 e5 3e 0d ec 8f 3f
       0.23679532 -0.8028596 0.4481761 1.1243912
0002f0 14 c0 16 bf e4 48 86 bd e9 25 b6 3e 35 3c 9a bf
       -0.5888684 -0.065568715 0.35575798 -1.2049624
000300 20 cd 3e bf d5 1c 54 be 1c 49 be bd be b2 30 3f
       -0.74531746 -0.20714124 -0.09291288 0.6902274
000310 d0 28 5f bf 82 9a ac 3f 29 d6 9d 3e 3f 54 82 3f
       -0.8717165 1.3484652 0.30827454 1.018196
000320 5c 56 b5 3f f5 22 02 c0 ba 47 98 3b 2b 65 80 bf
       1.416698 -2.0333836 0.0046472223 -1.0030874
000330 24 00 9d bf 3a ed f3 3e 99 35 84 bf c1 d0 a4 3f
       -1.2265668 0.47641927 -1.0328857 1.2876207
000340 3e 24 5a 40 7e 58 4c bf 99 12 17 40 96 b5 da 3e
       3.408462 -0.7982253 2.36051 0.42716664
000350 dd bf 85 be d0 f3 1b 3f bd 96 1f 3e 1d da ca be
       -0.26122943 0.60918903 0.15584846 -0.39619532
000360 b1 12 04 bf fb dc 89 3f d1 ee fc 3f ae f7 2b 3d
       -0.5159102 1.0770563 1.9760381 0.041984253
000370 f6 93 e4 be 59 1c f2 bf ba b8 5c be e1 0b 25 3f
       -0.44644135 -1.8914901 -0.21554843 0.6447125
000380 40 14 42 3f ce c1 e1 3d eb 61 fe 3e c3 38 3e bf
       0.7581215 0.110232934 0.4968408 -0.7430536
000390 56 cb 31 3e 00 c4 81 3f 2b bd d3 3f a4 41 3d 3f
       0.17362723 1.013794 1.6542104 0.73928285
0003a0 28 c3 a0 be cf 78 e3 be ee 7a 9d bf 83 28 05 bf
       -0.31398892 -0.44428107 -1.230314 -0.5201494
0003b0 64 3a bc bf b3 97 9e bf d6 bc 86 3f fb c8 28 bf
       -1.470532 -1.2390045 1.0526378 -0.6593167
0003c0 0a de 4b 3f 4b ae 42 bf 5d 65 53 3f e0 17 47 3f
       0.7963568 -0.760472 0.82576543 0.77770805
0003d0 18 43 0b 3f d9 1a 9b be 7f 64 e0 3e 25 00 cf 3e
       0.5439925 -0.3029392 0.43826672 0.40429798
0003e0 b1 09 38 bf 8d 26 74 3f b8 80 41 be a3 27 90 bf
       -0.7188979 0.95371324 -0.18896759 -1.1262096
0003f0 da f5 dd 3e 45 e5 87 3f 55 c2 3b bf d5 3e 8d bf
       0.43351632 1.0616843 -0.733434 -1.10348

encoder.l1.weight f4 [100, 64]
000000 fd a5 39 3e 07 82 16 3e 55 02 51 3d b2 13 4e 3e
       0.18129726 0.14698039 0.051027615 0.201247
000010 eb 99 65 bc 01 a2 07 be ae ae 67 be 22 01 9d 3d
       -0.014013748 -0.13245393 -0.22625229 0.07666232
000020 83 58 d3 3c a8 2d 6a bb cb f1 45 be 67 b2 9e 3d
       0.025799042 -0.003573278 -0.19330518 0.07748871
000030 c9 27 a7 3d 63 ac ee bd 47 06 08 3e 12 b6 06 3e
       0.08161885 -0.11653974 0.13283645 0.13155392
000040 38 5b bf 3c 1b 81 15 3c 46 7e 3e 3d df d9 2c 3d
       0.023358926 0.009125019 0.046507142 0.042199966
000050 44 66 9c 3d 95 65 b0 3d 11 07 33 be 7a 41 31 3d
       0.07636693 0.08613125 -0.17483164 0.043275334
000060 f3 05 9a bc 7c 78 02 be 04 c8 3f bd a4 da 2f 3d
       -0.018801665 -0.12741274 -0.04682161 0.04293312
000070 4a a2 dd bc c6 0f 12 3e 92 0e d5 3d d5 f5 36 be
       -0.027054925 0.1426383 0.1040317 -0.17867215
000080 6f 61 8b be 07 a7 cf bc 37 9e 2a be cc fc ec bd
       -0.27222773 -0.0253482 -0.16661917 -0.11571655
000090 52 77 b7 3d ef 2b db bc a0 cf 07 3e a5 d3 9b 3e
       0.089583054 -0.026754348 0.13262796 0.3043491
0000a0 ce a3 1e 3c 29 77 98 3d 49 e2 49 3d df d2 f6 3d
       0.009682609 0.07444603 0.049288068 0.12051939
0000b0 1d 36 e2 bd fe ea a7 3d dd 07 24 3e 8a 0d f8 bc
       -0.110454775 0.08199118 0.16018625 -0.030279893
0000c0 4c 87 43 3d c3 70 61 3c 0b dd 16 3e 82 14 0d 3e
       0.04773645 0.013759795 0.14732759 0.13777354
0000d0 eb 35 c0 3d 69 aa c2 bd d3 5e 96 3c 44 16 36 3e
       0.09385284 -0.095051594 0.018355763 0.17781931
0000e0 9a e9 e0 bd ba e4 35 3e e3 f0 25 bc b8 a0 32 3b
       -0.10982056 0.17763034 -0.010128233 0.002725644
0000f0 54 f7 08 be a5 87 93 bb 34 77 c5 b9 84 c9 43 be
       -0.13375598 -0.004502254 -0.0003766358 -0.19119841
000100 90 d1 94 3d 37 b1 93 bd 11 fd 83 bd 7b e2 80 3d
       0.072665334 -0.072115354 -0.06444753 0.06293198
000110 e7 48 84 bb 9c 67 88 3c 9c 8c 47 3d 7e ea d4 3c
       -0.004037011 0.016650967 0.04871808 0.02599072
000120 12 d4 c1 bc 6d 88 01 be a8 87 08 3e 2b 10 09 3d
       -0.023660693 -0.12649699 0.13332999 0.033462685
000130 35 7b d4 3d d7 ed bc 3d f6 b0 06 bd 53 31 8d bd
       0.103750624 0.09225052 -0.032883607 -0.068941735
000140 58 78 8f 3d 42 bf a6 3c 0b 7e b4 3d 5c 9e 04 3d
       0.070053756 0.02035487 0.08813103 0.032377586
000150 a9 a4 37 be b4 f0 8e bd 62 db 50 bb 40 5c d3 bd
       -0.17933907 -0.06979504 -0.0031869044 -0.1032033
000160 f6 7d 02 bc ef f5 97 3d e2 6f c0 3d 29 3e a4 3c
       -0.007964602 0.07419955 0.0939634 0.020049172
000170 43 c3 37 bc 59 b2 49 3a 1e 7d cc 3d 67 2c b4 bd
       -0.011215988 0.00076941174 0.09984802 -0.087975316
000180 39 28 dd bc 33 8b d0 3d 1e 94 6c 3d e5 3b 10 3e
       -0.026996719 0.101828 0.057758443 0.14085348
000190 c1 91 5b bc a4 1e 75 3d 91 bd bc bd 04 5a 1d 3c
       -0.01340145 0.059843674 -0.092158444 0.009603981
0001a0 74 95 e8 3b 32 f7 61 3d 85 1f b8 bc bb 81 71 be
       0.0070978943 0.055167384 -0.022475967 -0.23584644
0001b0 7b 67 88 3d 8e 2c 13 3e 51 f2 1d bd e6 67 ae 3d
       0.06660362 0.14372465 -0.03856117 0.08515911
0001c0 81 da ed bc 00 46 e9 3d b7 7d 5a 3d c3 06 59 bd
       -0.029034855 0.113903046 0.053342547 -0.052984964
0001d0 fe a8 38 be 12 55 3c 3d a1 c1 74 3d 92 4b 45 bd
       -0.18033215 0.045979567 0.05975497 -0.048167773
0001e0 d2 bb 4d bc 7b ba 2c 3e 99 f0 00 bd 89 13 e0 3e
       -0.012556987 0.16868012 -0.03147945 0.43764904
0001f0 0c cc e2 bd a0 31 f1 3d ee ec 82 3d b2 63 cd 3b
       -0.11074075 0.11777043 0.06392847 0.006267988
000200 c9 80 29 be 00 8c 92 3c d4 e9 d2 bd bb bb 85 3d
       -0.16553034 0.017889023 -0.102985054 0.06529947
000210 b8 db d3 bd f3 29 56 3c c6 b2 8a bd 0c 15 59 3e
       -0.103446424 0.013071525 -0.067723796 0.21199435
000220 e9 0a 71 3e ce e2 d3 bc 27 d8 87 be f0 db 19 3e
       0.23539318 -0.025864985 -0.265321 0.15025306
000230 c4 1f af 3d 54 48 1b 3e b3 c2 a7 3d 33 4a 4f 3e
       0.08550981 0.1516431 0.08191433 0.20243149
000240 f4 90 7d bc 7d 49 1f 3e 6f 45 f5 bd 9f 8e b3 be
       -0.015476454 0.15555377 -0.11976134 -0.3506975
000250 b5 72 85 3e d1 7d 65 3d cb 21 bc 3d 3e 12 04 3e
       0.26064077 0.05602819 0.09186133 0.12897584
000260 70 14 2e bd c4 f8 a9 3d 42 a8 c9 bb 74 d2 a6 bc
       -0.04249996 0.082994014 -0.006154091 -0.020364024
000270 cc 58 62 bd 82 a1 47 be 68 e9 a2 bc dc 78 51 3d
       -0.055260465 -0.19495204 -0.019886687 0.05114065
000280 4b ed aa be 5f ae 37 be 79 d5 d7 3c 90 b2 42 3d
       -0.33384165 -0.17937611 0.026346909 0.04753357
000290 a6 e0 89 3d e7 9c 74 3c 9b f3 80 3d df bf 24 be
       0.067323014 0.014929987 0.06296464 -0.16088818
0002a0 48 c3 bb 3c 30 b6 51 bd b4 1d 57 3d 67 02 19 be
       0.022920266 -0.05119914 0.05251856 -0.14942323
0002b0 03 05 36 bc e2 80 85 bd 18 17 a1 bd fc 6d 4e 3d
       -0.011109593 -0.06518723 -0.07865733 0.050397858
0002c0 8e f0 b7 3d 5a c8 70 3d f6 ee ff bd 26 83 55 3e
       0.08981429 0.05878482 -0.1249675 0.2085081
0002d0 6c d1 39 3d 69 26 c3 3c af f9 b3 bc b2 6f 6b 3e
       0.045365736 0.023822026 -0.021969644 0.22991827
0002e0 21 b7 3f be 62 bd f2 3b bb 1f 01 bd 67 53 82 bd
       -0.18722202 0.00740783 -0.0315244 -0.06363564
0002f0 9f 13 4c bd b1 8b 5e 3a cd 71 a2 3c 22 fa 3d bd
       -0.0498234 0.00084894436 0.019829655 -0.046381123
000300 d2 57 16 3e 2b a7 f8 3d 65 1c 19 3e 46 4b 8d 3d
       0.14681938 0.1214126 0.14952238 0.06899123
000310 a1 d6 1d be 5a 23 a6 bd 9c ea cc 3d 3b 48 60 3d
       -0.15413906 -0.081122115 0.10005686 0.054756384
000320 de 9e bd 3c b5 6f 4f be 80 6c 96 be 05 1d e1 bd
       0.023147043 -0.20257457 -0.29379654 -0.10991863
000330 78 bf 33 bd c7 57 90 bd 31 f6 01 3c cf 67 0a bd
       -0.04388377 -0.07047992 0.007932232 -0.033790406
000340 57 26 82 be fa e2 a8 3d 92 80 84 3e 85 c2 88 3e
       -0.25419876 0.08246417 0.2587934 0.26710907
000350 85 4b 93 bd f9 76 4e 3d f0 a1 b9 bb 97 b3 18 3d
       -0.071921386 0.05040643 -0.0056650564 0.037280645
000360 b6 42 c6 bd a0 fd a7 ba 47 2e 8f 3d ad 44 42 3d
       -0.09680693 -0.0012816675 0.069912486 0.047428776
000370 58 24 48 3e f0 9c 89 3d 8c d7 43 bc 3e d4 15 3d
       0.19545114 0.067193866 -0.011953246 0.036579363
000380 00 fa 41 3e 10 21 76 be ab 5c 07 3e cf 60 0e 3e
       0.18943024 -0.2403605 0.13218944 0.13904117
000390 d6 e5 c2 3c bd 12 6a 3d 1e 33 83 bd 15 4e 8d bd
       0.023791235 0.057146776 -0.06406234 -0.068996586
0003a0 86 49 79 3d f6 48 c2 bc ba b7 0d 3d 54 34 7c bc
       0.060861133 -0.023716431 0.034599043 -0.015393335
0003b0 f1 88 9b 3c 48 2d 0e 3d 4d 22 a8 bd 8d 73 16 be
       0.018986197 0.034711152 -0.08209667 -0.14692517
0003c0 81 04 71 3d bc a2 3d be 0b c5 e5 3d 9b 91 f4 bd
       0.058842186 -0.1851911 0.112192236 -0.119418345
0003d0 c3 7c 85 bd 07 b4 11 3d 17 38 3e bd a5 87 3a 3d
       -0.06517937 0.035572078 -0.04644021 0.045539517
0003e0 49 f3 d4 bd 22 a5 5c 3e e6 ef 7f bd 37 27 47 3e
       -0.103979655 0.21547368 -0.062484644 0.19448553
0003f0 3d 4a 92 bd 9f 0c dd bc ed 29 0c 3e dc c3 41 bd
       -0.07143066 -0.026983557 0.13687868 -0.047305927

encoder.l1.bias f4 [100]
000000 70 d6 7f bd e5 aa 58 3d 67 c8 8b 3d e1 c4 ae bc
       -0.062460363 0.052897353 0.06825333 -0.021334114
000010 5c bb 7a bd 0b 35 8d 3d 97 35 86 3d c6 1c 03 3e
       -0.061213836 0.06894883 0.0655319 0.12803945
000020 cc ca c6 bd 3c 49 e3 bc 5f b4 a8 bd 30 ba 20 bd
       -0.09706649 -0.027744882 -0.08237528 -0.039240062
000030 7c 65 8a 3d 78 37 b0 bd bb 25 05 3d a5 06 2a 3d
       0.06757638 -0.0860433 0.032506686 0.041510243
000040 5a 39 4b bd c9 9a 8d bb 0f 88 48 3d 85 77 03 be
       -0.04961524 -0.0043214303 0.04895788 -0.12838562
000050 34 ce 1a 3d 72 8d 36 bc d4 bf fc bb 8b 28 a7 3c
       0.037794307 -0.011142122 -0.0077132974 0.020405075
000060 e3 6b 9d 3d da 80 7c bb 8a d6 8c bd 70 41 48 bc
       0.076865934 -0.003852895 -0.068768576 -0.012222633
000070 bc 5d ca bc 5c b1 de 3d 19 a2 1a 3d 27 1d e3 3d
       -0.0247029 0.10873672 0.037752245 0.11089545
000080 e6 27 c0 3d 79 a0 b9 bb e8 bc 9c 3b 41 f8 f9 3d
       0.0938261 -0.005664882 0.0047832616 0.12205554
000090 f1 a0 ad 3d 64 70 98 3d 51 a1 15 ba 52 d7 67 bd
       0.08477963 0.07443312 -0.0005707937 -0.05660183
0000a0 27 ed a4 bd cc be d2 3d 7b c2 df 3d a2 7a 75 3d
       -0.08053046 0.10290298 0.10925766 0.059931405
0000b0 e1 79 b0 3d 53 2f 71 3d df c5 db ba 53 77 64 bd
       0.086169966 0.058883023 -0.0016767344 -0.05577786
0000c0 bd d6 52 3c 47 d2 56 3d 9d b7 ae 3c cd 00 71 bc
       0.01286858 0.05244663 0.021327788 -0.014709664
0000d0 60 a3 40 bc a0 cf 58 3d 22 4f 95 bd a3 3d 40 3c
       -0.011757702 0.05293238 -0.07290484 0.011733445
0000e0 fc 98 47 3d de 1d d4 3d c2 df ea 3d d3 fc cd bc
       0.04872988 0.10357259 0.1146846 -0.02514497
0000f0 82 26 a9 bc f4 cc 39 3d 2d 57 98 3d b4 b9 4d bd
       -0.020648245 0.045361474 0.074385025 -0.05022593
000100 0c aa 60 bd 99 39 e0 bc 11 a0 2a bd ee 7a 25 bb
       -0.05484967 -0.027371215 -0.041656557 -0.0025250274
000110 3b a8 28 3d cc e4 8f bd 6a cc 19 bd 26 be 0f bc
       0.041176062 -0.070260614 -0.03754846 -0.008773362
000120 5b f2 c9 3d 06 0d bc bd 83 9b 91 3d 9f 10 ab 3d
       0.09860679 -0.091821715 0.0710974 0.083527796
000130 2e 1e be 3d 38 42 e2 3d 75 cc 43 3c 7c cf 1e 3d
       0.092831 0.110477865 0.011950602 0.03877209
000140 df 4f e0 3d ae f0 dd 3d a9 ce 3e bd cb 05 98 3d
       0.10952734 0.10836922 -0.046583805 0.0742298
000150 ed 56 b1 3d 50 ae 65 bd ce 48 ad bb b2 56 04 bd
       0.08659158 -0.05607444 -0.00528822 -0.03230924
000160 22 b6 aa ba 29 f3 6b bd 00 fc ed bc 2b ce 91 bc
       -0.001302425 -0.057604942 -0.029050827 -0.017798504
000170 c6 ab 31 3d 84 ce 27 bd 21 48 69 3c 89 a4 4f bc
       0.043376707 -0.040968433 0.014238388 -0.012673506
000180 6b 23 e4 bc c2 4d 4d bd 73 b1 48 bd 21 d3 2d bd
       -0.02784892 -0.050122984 -0.048997354 -0.042437676

encoder.l2.weight f4 [32, 100]
000000 94 5b 18 3e a4 48 28 3d d6 77 92 be e1 8d 14 3e
       0.14878684 0.0410849 -0.28607053 0.14507248
000010 ff 14 45 3e f5 f0 bd bc 9e fe 76 bd 2e 5c 23 be
       0.1924629 -0.023186186 -0.060301416 -0.15953133
000020 ea 27 b3 bd c4 23 40 be 36 78 0a 3e 98 37 5b 3e
       -0.087478474 -0.18763644 0.1352242 0.21407926
000030 6b 14 ee be 31 08 4a bd ac b0 87 3e d4 c2 7a be
       -0.46499953 -0.04932422 0.26501977 -0.24488384
000040 08 08 fa 3c 2d 59 95 be fb eb 7a 3e 9b b5 fd bd
       0.030521408 -0.29169598 0.24504082 -0.12388154
000050 13 87 1d 3e 72 15 05 3e 2b 8b ce 3d fc 40 98 bd
       0.15383558 0.12996462 0.10085138 -0.0743427
000060 ac de 57 be f6 a6 1f 3b 0f 43 94 3d ef ee 80 be
       -0.21081036 0.002436099 0.07239353 -0.25182292
000070 11 13 e7 bd 24 cd e1 bc 18 b9 b3 3d 8b 7a a3 3d
       -0.112829335 -0.027563639 0.08775538 0.079823576
000080 c9 0a c2 be 03 8a b1 be 06 5e 05 be 2f cf 6d be
       -0.37898853 -0.34675607 -0.13024148 -0.23223566
000090 83 86 89 bd 7a 34 d5 3d 6e d4 ad 3d 2a 41 bc 3d
       -0.06715109 0.104104 0.08487783 0.091921166
0000a0 84 6e 74 3d f8 fa 9f be a8 b8 74 be 44 a1 8d 3c
       0.05967571 -0.3124616 -0.23898566 0.017288812
0000b0 3e 14 85 3e ae d3 a3 3e 6e 9f 09 be 9f 45 54 3e
       0.25992006 0.31997436 -0.13439724 0.20729683
0000c0 fe a2 b6 3e c2 94 23 3e e8 c4 02 3e 7c 00 43 3e
       0.35671228 0.15974715 0.12770426 0.19043154
0000d0 3c c2 b2 3d 33 e7 93 be f4 a8 9d 3d 0b ed 9b be
       0.087284535 -0.28887329 0.07698241 -0.30454287
0000e0 eb 65 bd be ab c5 44 3e 26 40 73 be 0a cc a3 bd
       -0.3699182 0.1921603 -0.2375494 -0.07997902
0000f0 ca b9 ab bb e8 e3 2d bc 3d 91 bc 3d 5e b6 6e be
       -0.0052406536 -0.010613419 0.092073895 -0.23311755
000100 f9 d6 85 3e 6c 7a fe bd c7 f2 8a be c4 f2 d1 bc
       0.26140574 -0.12425694 -0.2713835 -0.025628455
000110 9d 04 ee be fb 3d 38 3d 06 2e 59 3e 8d 9e 04 3c
       -0.46487895 0.044980984 0.21208963 0.008094442
000120 2a 32 67 3e 26 64 be bd 5e c9 1e be 3b 72 87 be
       0.2257773 -0.092964455 -0.15506503 -0.26454338
000130 14 8d 5f bd cf 0c 46 bd 87 69 b5 3c 10 e3 98 be
       -0.054577902 -0.04835206 0.022145046 -0.29860735
000140 a2 05 6c 3e 33 44 a1 bc a3 67 37 3e 14 93 47 bc
       0.23049024 -0.01968584 0.17910628 -0.012181062
000150 4c 73 97 be 9f 85 ac 3d d4 5f b5 be 9d 90 0e 3e
       -0.29580152 0.08423924 -0.35424674 0.13922353
000160 fb 99 a4 3d 0c bf 43 be eb a8 d2 3d 19 8c bb 3d
       0.08037182 -0.19115847 0.10286125 0.09157581
000170 d5 6d 9c 3c f2 21 16 3e b8 d1 28 bd 2a e4 cb 3e
       0.01909534 0.14661387 -0.04121563 0.39822513
000180 81 2b cc be ef 9a 6d 3e be 02 93 be e6 f5 8e 3e
       -0.3987694 0.23203634 -0.2871303 0.2792198
000190 8d 1c 3c 3e a2 aa 5d 3d 4b a2 7d be 24 c0 17 3e
       0.18370266 0.054117806 -0.24768941 0.1481939
0001a0 4e 57 65 3e 91 51 f5 3c 7e 28 88 3d a3 1c 1b bf
       0.22396585 0.02994612 0.06648348 -0.6059057
0001b0 57 89 14 3e 43 b8 2f bd d4 d8 93 3e 04 54 13 3e
       0.14505516 -0.042900335 0.28876364 0.14387518
0001c0 a4 38 fc bd c3 7e 81 be b5 e3 14 3e 1b 60 45 3e
       -0.12315491 -0.25292024 0.14539988 0.19274943
0001d0 fb 09 7d 3e 2d d5 76 be 5f 1f 00 be 30 98 ae be
       0.24710838 -0.24104758 -0.12511967 -0.34100485
0001e0 ef 0f 72 3e 56 a2 84 3e cf ee c2 bb 67 59 18 3e
       0.2363889 0.25905102 -0.0059488784 0.14877854
0001f0 cc 4d ba bd 3b 63 f8 bd 1f 12 ba bd ef a3 c1 be
       -0.0909687 -0.12128302 -0.090854876 -0.37820384
000200 ef 62 5e 3e 42 9d e6 bd 60 8e 8d 3e 09 a0 c1 be
       0.21717428 -0.11260463 0.27647686 -0.3781741
000210 7f e0 bd 3c 2a ba bf bc b6 c2 2c 3e 30 bf 5e bc
       0.023178337 -0.0234042 0.16871151 -0.013595387
000220 63 f5 d6 be 8f 62 78 3e 19 a1 90 bd 5e ce 07 bd
       -0.4198409 0.24256347 -0.07061977 -0.03315579
000230 cf aa 93 bd 4b bf 3c 3c 77 ee 35 3e 5b 35 43 be
       -0.072103135 0.011520217 0.17766748 -0.19063322
000240 e0 d8 d1 3d d8 0f a2 bd 70 4b c9 be f1 ee 31 bd
       0.10246444 -0.07913178 -0.39315367 -0.043440763
000250 a0 f2 2c 3d 68 ba cd 3d 76 03 1b be 6a 38 11 3d
       0.042223573 0.1004532 -0.15138039 0.03545419
000260 50 2d fd 3e fe 32 04 bd 01 33 cd 3d 74 74 e0 be
       0.49448633 -0.032275192 0.10019494 -0.43838847
000270 3c b8 56 be 91 60 f3 3d 2b f9 6b 3e db 2d a2 be
       -0.20968717 0.11883653 0.23044269 -0.3167561
000280 1b 92 5e 3e 35 bc 68 3d e8 c1 0b bc 32 8d 3d be
       0.21735422 0.056820113 -0.008530118 -0.18510893
000290 ad af 86 3d 08 e3 96 bd cb ff a7 bd 90 dc d4 be
       0.06576476 -0.073675215 -0.082030855 -0.41574526
0002a0 d7 58 ed bd a1 35 44 be 22 62 aa 3e 54 55 ef 3d
       -0.115892105 -0.19161083 0.33277994 0.11686197
0002b0 e3 25 da 3d f8 c0 5b 3e 95 5d 08 3e df 18 a1 be
       0.106517576 0.2146033 0.13316949 -0.31464288
0002c0 5c 2f 58 bc 97 25 4e 3d 02 8b 6f be e0 7c 3a 39
       -0.013194885 0.050328817 -0.23392871 0.00017784862
0002d0 a7 55 0f bd 93 49 49 3e 57 f7 14 3e 67 4a d1 3c
       -0.034993794 0.19656973 0.14547478 0.025548173
0002e0 83 6c e0 3c ee e4 af 3d 5b 1a 95 be a8 27 4a be
       0.027395492 0.08588587 -0.2912167 -0.1974169
0002f0 65 34 ae 3d 3b 42 60 3d 5d 5a 4f bd c9 e5 07 3e
       0.08506087 0.054750662 -0.050623287 0.1327125
000300 09 fe a6 be 28 3b 64 bd 60 39 19 be f9 33 6a bb
       -0.32615688 -0.05572048 -0.14963293 -0.0035736545
000310 92 a9 9c be 50 0d 85 3e 20 c0 d4 be cb 96 f3 bd
       -0.30598122 0.2598672 -0.4155283 -0.11893996
000320 23 81 83 be 8f 0a 29 be 26 d6 e5 3d 61 1f 0f be
       -0.2568446 -0.16507934 0.11222486 -0.13976814
000330 a8 28 fc bd 2a 24 2b 3d 3d d2 20 3d 76 b6 9b 3e
       -0.12312442 0.041782536 0.039263 0.30412644
000340 b6 80 0d be df 91 37 be 2b a5 37 be 25 89 10 be
       -0.1381863 -0.17926739 -0.179341 -0.14114816
000350 cf 60 a8 bc 5f e5 56 3e 7f 42 da 3c 44 3a 0e 3d
       -0.020553974 0.20985936 0.026643036 0.034723535
000360 0a 56 19 be 14 65 a9 bd 31 02 fe bc 8e 26 fa 3d
       -0.14974228 -0.08271232 -0.031006904 0.12214385
000370 88 9d 59 be 03 03 a3 bc 7d 19 96 3c db 89 52 be
       -0.212515 -0.019898897 0.0183227 -0.205604
000380 af 05 d2 3c 91 7d ef 3d 81 61 09 3e ce af ce 3e
       0.025637476 0.11693872 0.13416101 0.40368503
000390 a4 f0 69 be e1 1a 8e 3e c7 bc 5d be 69 74 83 3e
       -0.22845703 0.27754882 -0.21654044 0.2567475
0003a0 fb 3c 31 bd ac b5 e5 bd 79 84 36 be 28 6e 03 be
       -0.043271046 -0.11216292 -0.17823972 -0.1283499
0003b0 7a 49 ae 3e 5d ec 83 be 82 5e fd bb 52 fc 51 3d
       0.34040433 -0.25766268 -0.0077322135 0.051266022
0003c0 ad c5 05 3e 7a ac dc bd 3d 3d f3 bc af 55 d2 3d
       0.13063689 -0.10775085 -0.029692287 0.10270249
0003d0 c5 c8 86 3e 1e 0b b2 bd 73 ae e2 3e ca 8f 92 bd
       0.2632505 -0.08693527 0.4427372 -0.07156332
0003e0 8f 29 0a be 07 00 8b be 56 63 91 3e fe 7f 1b bd
       -0.13492416 -0.27148458 0.283961 -0.03796386
0003f0 70 5c 4b be f7 96 c5 bd 80 46 f3 bd 36 cd 94 3e
       -0.19859481 -0.09647935 -0.11878681 0.29062814

encoder.l2.bias f4 [32]
000000 cf 89 54 bd bf 08 23 3d 94 f5 74 bb 6e c5 af bd
       -0.051889237 0.039803263 -0.0037377821 -0.085825786
000010 12 ba 46 3d 8f e7 8d bd 9c c7 d2 bc d3 5f 19 3d
       0.048517294 -0.06928932 -0.025729947 0.0374449
000020 14 be 12 3d 86 e4 1e 3d 82 a9 b6 bd b4 49 5c bd
       0.035825804 0.038792156 -0.0891905 -0.053781226
000030 34 88 61 3d dd c8 c3 bd c7 0b a3 3d 70 a0 3c bb
       0.055061534 -0.09559796 0.07961231 -0.0028782152
000040 f5 a0 ae 3d 55 45 da 3c e2 d5 a1 3d 50 03 7a 3d
       0.08526794 0.026644388 0.07902123 0.061038315
000050 7b 0b 8a 3d fe 0c 2d 3d c4 3b b2 3c eb 1f c1 3d
       0.06740471 0.04224872 0.021757014 0.09429916
000060 15 cd 10 3d 4f 49 af bb d2 13 ca 3c ed 8d 56 bd
       0.03535183 -0.0053493152 0.024667654 -0.052381445
000070 de 5a b5 bd b9 25 f6 bc a8 9f fa bc 18 0a 24 3d
       -0.08855222 -0.030047284 -0.030593708 0.04004869

lstm.weight_ih f4 [512, 288]
000000 0c a5 9a bd 84 6d fa 3d 63 ae e0 b9 ed 03 35 3d
       -0.075510114 0.1222792 -0.00042854538 0.044193197
000010 02 2f 31 bc 03 52 9d 3d d0 c4 56 3b d7 1d 72 3d
       -0.01081443 0.07681658 0.0032771118 0.05911049
000020 f4 84 7d bb 51 2e 41 3e da 64 25 be 3f 8c dd 3d
       -0.0038683983 0.18865325 -0.16151753 0.108177654
000030 a5 ce 9a bb fc f3 a2 bd dc 78 65 3e 52 a3 52 be
       -0.004724341 -0.079566926 0.22409385 -0.20570114
000040 bd d1 db 3b c9 6b 14 3d 72 64 01 3d 28 03 89 3d
       0.0067083524 0.036235604 0.031589933 0.06690055
000050 b5 ab a5 bd e2 c9 8b bd 99 ce 47 3e 4d 5f 6c 3d
       -0.08089391 -0.068256155 0.19512405 0.057708073
000060 1d e0 31 be e5 e6 eb 3d 4b d4 91 3d 87 47 69 be
       -0.17370649 0.11518649 0.0712057 -0.22781192
000070 87 48 d3 bd fe ca 31 3e f8 f5 54 bd 10 98 2b be
       -0.10316568 0.17362592 -0.051992387 -0.16757226
000080 e8 89 0f 3e 21 4c 18 3d 33 95 ec 3d c6 66 c5 3d
       0.14017451 0.037181977 0.11551895 0.09638743
000090 b2 7b fc bb 8f 1e 07 3d f7 82 9f 3d f0 d4 90 bd
       -0.0077051753 0.032988127 0.077886514 -0.070718646
0000a0 a6 88 00 3d 22 a7 c3 3c 6b ef 37 3d 62 bf ef bd
       0.031380318 0.023883406 0.04490606 -0.11706425
0000b0 c9 56 7e 3d 9d 91 00 be 92 80 c3 bb d7 45 65 bc
       0.062094484 -0.12555547 -0.0059662545 -0.013993702
0000c0 59 cf 2a bd ab f5 c6 3d 4d 6b 16 bd 45 0b 31 3e
       -0.04170165 0.09714826 -0.036723424 0.17289455
0000d0 20 56 b9 bd 42 2b 6b bb a6 72 c9 3c aa 57 fc 3d
       -0.0904963 -0.0035883938 0.024590801 0.12321408
0000e0 e9 dc 15 bd e6 93 1e 3e d4 ea 05 be d5 c1 06 bd
       -0.03658763 0.15486106 -0.13077861 -0.032899696
0000f0 c6 77 99 bd 3d 50 ed bc f0 c6 6d 3d 21 41 b8 3d
       -0.07493548 -0.028968925 0.05805105 0.08996797
000100 11 9d 4f bd 5a 00 92 bb 44 b2 f8 3d 2b ff cc 3c
       -0.0506869 -0.0044556083 0.121433765 0.025024017
000110 a1 31 d1 bd 70 c7 62 bd fa ae 98 3c 08 01 4f 3d
       -0.10214544 -0.05536598 0.018638123 0.050538093
000120 c4 f1 79 bd 34 24 dd 3d c3 01 47 3d c4 c0 8a bd
       -0.06102158 0.10797921 0.048585664 -0.067750484
000130 ae 4c 02 bc 67 52 eb bd 18 47 8e 3d 9e 43 7e 3d
       -0.007952852 -0.114903264 0.06947154 0.062076204
000140 85 15 92 3d 28 6c 98 3d e1 b6 85 3d 2c c5 06 be
       0.07133011 0.07442504 0.06529022 -0.13161153
000150 8d a2 59 3d 29 52 e5 3c 2f 54 ae 3d 20 d4 96 3a
       0.053133536 0.027993279 0.085121505 0.001150731
000160 3f 1f 71 bd e8 17 d9 bc dc 0c 44 3d 4f 3b ca 3d
       -0.05886769 -0.026500657 0.047863826 0.098745935
000170 58 22 b0 3d ea 66 c8 bd 0b a7 48 3d 81 56 75 bc
       0.086003006 -0.09785254 0.04898743 -0.014974237
000180 76 2a ea 3c 68 17 df 3d a8 89 fa 3d bf 48 3c bd
       0.0285847 0.10893136 0.12233287 -0.045967814
000190 4a 8c ff 3c 50 0e ac 3d 30 d8 24 3d 3d 1e ef 3d
       0.031194825 0.084011674 0.040245235 0.11675689
0001a0 80 43 06 bd 60 23 85 3c 8b cc f6 3c 11 41 d7 3c
       -0.032779217 0.01625222 0.03012683 0.026276143
0001b0 2a 14 aa 3d 90 f6 a6 bd ba 86 04 3e 19 5b b2 3c
       0.08304627 -0.08152497 0.12942019 0.021771954
0001c0 0d 73 17 3c 7d 48 16 3e 5f 2e e7 bd 97 93 91 bd
       0.009243739 0.1467609 -0.112881415 -0.07108229
0001d0 12 25 a7 bd 34 84 6c bc 1c 7a 44 3d 91 c7 ce 3c
       -0.081613675 -0.014435817 0.047968015 0.025241645
0001e0 9f ce 9f bd e2 59 e7 3b 77 93 e5 bd fe 60 dc bb
       -0.07803082 0.0070602754 -0.11209767 -0.0067254296
0001f0 12 fe c7 bb 16 b9 69 bd 16 31 fc 3c d8 da df bb
       -0.0061032856 -0.057061277 0.030785125 -0.006831508
000200 d9 36 45 3d 1f 3a 90 bd d4 25 0b 3d 3b d1 0f bd
       0.04814801 -0.07042336 0.033971623 -0.035111647
000210 27 40 48 3d 14 9e 9f bd 6a 2b dd bd 02 f2 7f 3d
       0.048889305 -0.07793823 -0.10799296 0.062486656
000220 57 cc 84 bd 58 7c 16 bd 5c 44 e0 bd 00 fd ed bd
       -0.06484287 -0.036739677 -0.109505385 -0.116205215
000230 5f 9e 95 bd e3 55 a9 3c db a3 b1 3d cc 7e be bd
       -0.073055975 0.020670837 0.08673831 -0.09301528
000240 2e eb 27 3d 61 06 ad 3d d4 0d de 3c 01 91 22 3b
       0.04099577 0.08448482 0.027106203 0.0024805667
000250 47 f5 6a 3d a3 8e 8a 3d 94 4b 84 bd 7e 6a 5a 3d
       0.05736282 0.06765487 -0.06459728 0.053324215
000260 a6 b9 ce 3c 75 34 e7 3c 25 be 50 3d f5 59 b2 3c
       0.025235008 0.028223256 0.050962586 0.02177141
000270 5c 11 44 bc 03 89 af bd d8 a3 80 bd 56 dd 86 bd
       -0.011967029 -0.08571055 -0.06281251 -0.06585185
000280 c7 fd fb bb 1a b1 b4 3c 90 fc dd bd 9a 90 7d bd
       -0.0076901647 0.022057105 -0.10839188 -0.06190548
000290 0e b4 9a 3b f9 3b 4a bc 71 d3 08 bd 75 98 11 3c
       0.004721171 -0.0123434 -0.03340477 0.008886446
0002a0 0e 36 b8 3d a6 6e d3 bd 9d da bf 3d 07 09 1d bd
       0.08994685 -0.10323839 0.09367869 -0.038338687
0002b0 00 99 71 3c 5b 0a 8e 3d 2e 32 f6 bd 83 21 ec 3d
       0.014745951 0.06935569 -0.1202129 0.11529829
0002c0 71 73 a8 bd ce b6 af 3d d7 11 4f bd 45 d4 94 3c
       -0.08225144 0.08579789 -0.050554123 0.018167624
0002d0 ce 68 19 3d 81 0a 0c 3d d8 9f b4 bd 35 4b 56 3d
       0.037453465 0.034189705 -0.0881955 0.052317817
0002e0 19 a1 5e 3d d3 55 a7 3d a5 de e6 bd 53 9d fb 3c
       0.054352853 0.081706665 -0.11272935 0.030714666
0002f0 3f 31 e6 3d 38 c6 f5 bd cd 4a 07 3c 55 08 1d 3d
       0.11239862 -0.12000698 0.00825758 0.038338024
000300 d0 49 90 bd 20 f5 2c 3d a2 a4 1b 3d 0f 87 0b 3e
       -0.070453286 0.042225957 0.037998803 0.1362574
000310 2c e7 76 3d d5 b9 8c bd 7b a9 df 3a c1 59 0d be
       0.060279056 -0.06871382 0.0017064059 -0.1380377
000320 93 4a 78 bd 50 dc 55 bd 23 37 cd bd b3 55 bd 3d
       -0.060617995 -0.05221206 -0.10020282 0.092448615
000330 cc 9a 8d 3d 71 2e 70 3c 61 ef 1c 3d 4b 7b 77 bc
       0.06914291 0.01465951 0.038314227 -0.015105079
000340 33 d2 05 bd 6d 7d 70 bc 07 bb b8 3c f6 e5 e2 bc
       -0.032671165 -0.014678341 0.02255012 -0.027697545
000350 77 26 33 3d 25 e4 02 3d b6 23 05 3e bb 00 2f bd
       0.043737855 0.031955857 0.13001904 -0.042725306
000360 65 25 a5 bd b3 ec dd bd f9 4d c0 3d 9c cd d4 3d
       -0.08063773 -0.108361624 0.09389872 0.103907794
000370 dc eb 60 3c 20 7c 46 3d 40 30 57 3c 8f 34 a8 bd
       0.013728108 0.04845822 0.013134062 -0.0821315
000380 ed 7a 15 be b4 2a cd 3c 2f f9 11 bd ff 7c 88 3c
       -0.14597674 0.025044776 -0.03563803 0.016661165
000390 0d 86 d4 bd 85 a9 85 3d 14 1c d7 3d 85 ce 14 3c
       -0.10377131 0.06526474 0.10503402 0.009082441
0003a0 47 89 51 bc bc 51 4c 3d 72 c8 ac bd a0 e6 af bc
       -0.012789077 0.049882635 -0.084366694 -0.021472275
0003b0 c2 df 08 bd ab 11 ba 3b 48 35 1f 3d 1d 09 d3 3a
       -0.033416517 0.0056783757 0.038869172 0.0016100738
0003c0 32 d5 88 3d b2 e1 9d 3c 83 d9 bf 3d 26 2b 5d 3d
       0.06681289 0.019272659 0.09367659 0.053996228
0003d0 72 55 02 bd 4d 79 e2 3b c4 7d 11 3e 06 1f c1 3c
       -0.03181977 0.006911433 0.14208132 0.023574363
0003e0 9f 34 aa 3b 5b 06 3c 3d 38 21 b3 3d 0d 96 57 3d
       0.005194261 0.0459045 0.0874657 0.052633334
0003f0 1e a8 da bd 6a 75 9e bd e8 34 b2 bc 26 8f ea 3c
       -0.10676597 -0.07737239 -0.021753743 0.028632712

lstm.weight_hh f4 [512, 128]
000000 a7 6c fc bd 24 57 51 bd 19 63 cb bd 69 24 19 3e
       -0.12325411 -0.051108494 -0.09931011 0.14955296
000010 8c 73 db bd 0b ba 63 bc c3 9f 76 3c e6 8f ed bd
       -0.10715398 -0.013899337 0.015052739 -0.11599712
000020 b9 de 27 be dd 80 84 bd 90 da a9 bd 4c ae 86 3d
       -0.16393556 -0.06469891 -0.082936406 0.06576213
000030 a6 ec a5 bc 84 33 2e be 87 49 e1 3c 8b 85 33 bd
       -0.020254444 -0.17011839 0.02750088 -0.04382853
000040 16 d0 99 be 54 58 68 bb 3e cb f4 bc 8e f6 b7 bd
       -0.3004157 -0.0035453038 -0.02988207 -0.089825734
000050 92 bf 04 3d d2 70 8d 3d 32 22 cf 3e 70 68 0b 3d
       0.03240926 0.069062844 0.40455776 0.034035146
000060 27 0b 02 3e 67 9a cb bd 5a 28 94 bd db 30 84 3e
       0.12699567 -0.09941559 -0.07234259 0.25818524
000070 4c 57 e0 3a d8 31 38 3d 2b 7c 5e 3d 87 6b 81 bd
       0.001711586 0.04496941 0.054317635 -0.06319337
000080 3b 41 3f 3d 8a d2 67 bd 83 37 00 3d 87 f2 99 3d
       0.046693068 -0.05659727 0.03130294 0.075169615
000090 44 ca 43 bd ee 29 b6 bd 62 81 ee bb d3 24 a1 3d
       -0.047800317 -0.08894716 -0.007278607 0.07868352
0000a0 b0 4a 07 bd 93 22 31 bd ce ab c5 bb 65 d6 30 be
       -0.033030212 -0.043245863 -0.0060324436 -0.17269285
0000b0 97 09 bf bd 6e a2 c5 3d dd 92 94 3c 0c c2 21 3e
       -0.09328001 0.09650122 0.018136436 0.1579668
0000c0 cd 31 de bd cd d1 32 3e e5 98 b5 3c 8b 6a a7 3d
       -0.108493425 0.17462845 0.022167632 0.08174618
0000d0 81 1b 40 be 2f b1 db 3d f9 c6 66 3e ca 4c db bd
       -0.18760492 0.107271545 0.2253684 -0.10708006
0000e0 93 7b 04 3a ce 2d ea bc a6 5f 11 3d 53 ac 88 bc
       0.00050538144 -0.028586295 0.035491608 -0.016683733
0000f0 84 d3 29 3e a6 52 bb 3d c5 cd 0d be ca ef a2 bd
       0.16584593 0.09146623 -0.13848026 -0.079558924
000100 67 47 a4 bd 10 6b 28 bd 6a 0b 29 3e d9 62 e8 3d
       -0.080214314 -0.041117728 0.1650826 0.11346979
000110 c8 ed 82 3d 75 39 a2 bd 83 c5 f4 3d 7d 62 c1 3d
       0.063930094 -0.07921115 0.11951735 0.09442613
000120 2d cb ba 3c f5 db e2 3c 44 e6 d9 bb 28 1e d0 3d
       0.02280196 0.027692774 -0.0066497643 0.10162002
000130 39 e3 ad bd e5 e0 5b 3e 22 67 2e be ec 89 a1 bd
       -0.08490605 0.21472509 -0.1703153 -0.07887635
000140 32 d6 91 bd c8 a6 17 bd e8 15 d9 bd c8 bf 0b 3c
       -0.07120933 -0.03702429 -0.105998814 0.008529611
000150 f2 f5 27 be f8 00 29 be 69 35 8f bc 46 09 64 bd
       -0.16402414 -0.16504276 -0.017481523 -0.055672906
000160 c4 f6 c8 3c f2 08 26 bd ad e4 7f 3e 90 a7 24 bd
       0.02453173 -0.040535875 0.24989577 -0.040198863
000170 dc db 4f be 83 89 c0 be a8 62 fa 3c c0 0c 13 be
       -0.20298713 -0.37604913 0.030564621 -0.14360332
000180 5a 1b 6a bc 04 ee fb 3d 12 eb ad 3c 02 45 2d 3c
       -0.014288748 0.12301257 0.021230254 0.010575535
000190 bc 3e e7 3d 20 c0 e3 3c dd 66 9d 3e 4f d2 08 3e
       0.112912625 0.027801573 0.3074254 0.13361476
0001a0 c8 a8 07 bc a3 f8 3c 3d de 5e c3 bd 9f 81 17 3d
       -0.008279987 0.046135556 -0.09539579 0.03698885
0001b0 5c 44 fc bd a2 56 98 bd e7 70 85 bd 4d dd de bc
       -0.12317726 -0.07438399 -0.06515675 -0.027205134
0001c0 af 3d f6 3d 4d 88 7c 3e 48 1e 4d be ea 8f f5 3a
       0.12023484 0.2466137 -0.20031083 0.0018734906
0001d0 f7 62 3d bd ee 7c a0 bd 13 68 16 3d 21 ba 5d be
       -0.04623696 -0.078363284 0.036720347 -0.21653034
0001e0 ba b6 d8 3d 27 6a f8 bd 87 04 81 bc 46 06 71 3e
       0.10581727 -0.12129622 -0.01574923 0.2353755
0001f0 01 39 a8 3b 22 90 a9 bd f1 3c a1 3d ba b3 83 bd
       0.0051337485 -0.08279444 0.07872952 -0.064307645
000200 58 a6 17 bd e6 ca 17 3e 2a f7 9c bd ea 73 0b 3e
       -0.037023872 0.14823493 -0.0766433 0.13618436
000210 61 3a 5d be 64 23 bb bd 0b 75 2a be 2d 11 c7 bd
       -0.21604301 -0.091376096 -0.16646211 -0.09720073
000220 7a fa 26 3e 39 16 85 3e 6a b1 98 be 30 96 a9 bd
       0.16306487 0.25993517 -0.29822856 -0.08280599
000230 a4 38 81 be 1b be 60 bc a7 d2 2f 3e a2 53 2f 3d
       -0.25238526 -0.0137172 0.17170201 0.042804368
000240 8b 36 94 3e 6a c1 b2 3e 5f db 5d be f1 ea 8f be
       0.28947863 0.34913188 -0.21665715 -0.28108934
000250 cd 6a 0a bd 01 01 ca bd fe 17 99 3e aa 3b 4f 3e
       -0.03379326 -0.09863473 0.29901117 0.20237604
000260 40 8d 42 3a fd a5 3a bd f0 63 e8 3d b1 f6 bf 3d
       0.00074215606 -0.045568455 0.113471866 0.093732245
000270 80 3b ff bd 4f 17 44 3e 2b 2c e7 bd a0 f9 3c 3e
       -0.124625206 0.19149517 -0.11287721 0.184546
000280 aa 5a 4a 3e 98 ed d8 bd db db 02 be 3e 29 36 bd
       0.19761148 -0.105921924 -0.1277918 -0.044472925
000290 49 bd 32 be 7f 18 5f be 8c 12 57 3e f1 8a fb bd
       -0.17455019 -0.21786688 0.21003169 -0.1228236
0002a0 b8 ea fa 3d 45 d6 e2 be 87 35 b2 3e fe ec 0b be
       0.122518 -0.443041 0.34806463 -0.13664624
0002b0 79 7e 7f bd 2c 78 c5 be 7b b4 2c 3e 92 a1 17 3d
       -0.062376473 -0.38568246 0.16865723 0.03701932
0002c0 e4 4c 1e be e2 f4 b3 bd 33 50 2d be 08 50 1b be
       -0.15459019 -0.08786942 -0.16925125 -0.15167248
0002d0 4c 59 26 3d fb d9 83 be 35 f4 16 be 09 74 48 bd
       0.040612504 -0.25752243 -0.14741595 -0.048938785
0002e0 eb f7 74 be b1 6d ca bc ea e8 de bd c4 4b 2b 3e
       -0.23922698 -0.024710508 -0.108842686 0.16728121
0002f0 7f 1b f0 bc 79 28 6d bd c5 51 9a be 22 8a dc 3d
       -0.029309986 -0.057899926 -0.3014051 0.10768534
000300 1e ee 3e 3c 68 6b 75 be 3b a4 90 3e f7 dd 50 3e
       0.011653451 -0.23966753 0.28250298 0.20397173
000310 dc 5a bb 3c bc 88 2b be 53 2c f0 bb d3 71 43 be
       0.022870474 -0.16751379 -0.0073295026 -0.19086389
000320 63 a5 69 3d 4f c9 13 be bb 20 ce bd f5 74 3f be
       0.05704249 -0.14432262 -0.100648366 -0.1869696
000330 37 79 30 bd 34 97 3f be 86 49 48 be e9 92 00 bc
       -0.04308435 -0.18710023 -0.19559297 -0.007847526
000340 ce d7 ac 3e 8a 23 fd 3d e2 32 5f bd 7c 07 c0 bc
       0.33758396 0.12360294 -0.054491885 -0.023441069
000350 24 3c 33 3d c0 7b 84 bd 91 37 a0 3e 7b 29 3b 3e
       0.043758526 -0.06468916 0.31292394 0.18277542
000360 e5 2d 21 3c a8 36 30 3d fb a7 2c 3e 36 5b 91 bc
       0.009837602 0.043020874 0.16860954 -0.017743688
000370 92 14 e2 3d e0 79 fd bd 73 50 41 bc 95 41 59 bc
       0.1103908 -0.123767614 -0.011798966 -0.013260265
000380 d5 ff 81 3e 65 93 20 3e ca 67 5b 3e 18 05 8d bd
       0.25390497 0.15681227 0.21426311 -0.06885737
000390 5b e3 07 3e bd 04 2d ba bd 29 4d 3d 45 4e 37 3c
       0.13270323 -0.00066001323 0.050088633 0.0111880945
0003a0 95 ef 26 bd 7b 52 db 3d 20 62 15 be 5a ea f2 3c
       -0.040755827 0.10709091 -0.14588213 0.029652763
0003b0 47 96 07 bd 09 19 84 bd 60 40 05 be 6d 2f cf be
       -0.0331023 -0.064500876 -0.13012838 -0.4046587
0003c0 95 df b9 be 57 94 d1 3a 2e 0c 6b be c6 b5 9e 3d
       -0.36303392 0.0015989643 -0.22953865 0.07749514
0003d0 c1 b3 7c 3d 3b 63 98 3c 2e 9d 2e 3e 9c 61 c6 bc
       0.061694864 0.018602004 0.17052147 -0.024216466
0003e0 ad 86 ab 3c 65 6b f3 3d 1b bf bd bb 98 6e f4 bd
       0.020938242 0.11885718 -0.005790604 -0.119351566
0003f0 65 91 8e 3e 30 be 9c be b4 f8 ba 3d ee 1c da be
       0.27845302 -0.30613852 0.091294676 -0.42600197

lstm.bias_ih f4 [512]
000000 13 38 1b 3c 8b 1d a0 3b 1a c7 7d bd f1 5d b3 3c
       0.009473818 0.0048863343 -0.061957456 0.02189538
000010 98 ca fa 3d 1a bd 19 3e c5 67 1e 3d 95 8a 03 3d
       0.12245673 0.15013543 0.03867318 0.032114584
000020 14 9f 31 3d a2 36 b9 3d 17 73 39 bb c2 63 34 bd
       0.0433646 0.090436235 -0.0028297359 -0.04404045
000030 f6 79 2d 3e ed 79 01 3e 26 5e 92 3d 9d 68 8f bb
       0.16941056 0.12644167 0.07146864 -0.0043764845
000040 69 6f 8d bd c4 91 77 3d cc 6a 51 bd 3d 88 bc 3c
       -0.069060154 0.060441747 -0.05112724 0.023014182
000050 17 fa a4 bc 5e 51 9f bc ab c6 57 3c 91 41 c7 3d
       -0.020138783 -0.019447979 0.013169925 0.09729303
000060 f8 f7 9b 3c 6e a7 af 3d 26 6a 96 3d cb 60 06 3d
       0.01903914 0.085768566 0.07344465 0.032807153
000070 1d 86 c2 3d f9 a4 0d 3e 5d 59 b7 3d 01 b7 7d bd
       0.09498236 0.13832463 0.089525916 -0.061942104
000080 1d 09 90 bc 3a f7 f0 bc 24 f8 16 39 d5 c3 21 3e
       -0.01758247 -0.029414762 0.00014397554 0.1579736
000090 7f cb f7 3d 41 31 2d 3c 7d a5 a1 bc fa 2d 20 3c
       0.12099361 0.010570825 -0.019732231 0.009776587
0000a0 7f 09 09 bd 6b 1a a7 3b 07 f9 2b bd 4e 12 f3 3d
       -0.03345632 0.005099585 -0.041985538 0.11868726
0000b0 5e 2d 8e 3c 82 8e af 3d 75 27 c9 3d 1b 31 79 bc
       0.017355617 0.08572103 0.09821979 -0.015209462
0000c0 9d bf 04 3e 7e f9 93 3c 84 b5 85 3c eb ed d9 bc
       0.1296372 0.018063303 0.016321905 -0.026602706
0000d0 81 ae 87 3d 8a f8 29 3e 09 52 71 3d 37 6c ae bc
       0.06625081 0.16598716 0.058916125 -0.021291835
0000e0 4a e0 d4 3d 96 19 81 bc bb 10 ce 3d 1c de cc bc
       0.10394342 -0.01575927 0.10061785 -0.025008254
0000f0 91 b7 2d 3d de 1e 9f 3d 20 5e 15 3c 23 4c f6 3d
       0.04241139 0.07769559 0.009116679 0.12026241
000100 d6 df 0f bd 82 73 eb 3d 51 f1 0d bd f3 e8 2b 3e
       -0.035125576 0.11496641 -0.034653965 0.16788082
000110 fc d5 e5 bc 2b 37 c6 3d db a7 9b 3d a2 07 de 3d
       -0.028056137 0.09678491 0.07600375 0.108412996
000120 d0 1b e0 3c 2c b3 62 3d ec 77 03 3e 42 92 c5 3c
       0.027357012 0.055346653 0.12838715 0.024117593
000130 13 4b d7 3d 8a b8 6e 3d 50 aa a1 bd 8f 94 2a 3d
       0.10512366 0.05828146 -0.07893813 0.041645583
000140 6b ac a6 bc cd a8 a6 3d 48 43 ae 3b f9 7c 85 bc
       -0.020345887 0.08137665 0.005318079 -0.016294943
000150 cf 2a b5 3d fe 3a 18 3d ae 07 22 3e 87 58 d1 3d
       0.08846056 0.037165634 0.15823242 0.102219634
000160 0f 21 51 3d 1d a8 df 3d 80 c4 6f 3d c7 84 02 3e
       0.051056918 0.10920737 0.058537006 0.12745963
000170 57 ac df 3b 8b 37 a6 bb 31 82 38 bd 32 b1 e0 bc
       0.0068259644 -0.005072539 -0.045046035 -0.027428243
000180 8b 68 a3 3d 58 a2 e2 3d 1f 5e 55 3d d4 34 86 3c
       0.07978924 0.11066121 0.052091714 0.016382612
000190 00 f9 81 3d 7a f3 5e 3d 19 a8 00 3c 49 ac 63 bc
       0.06346321 0.054431416 0.007852578 -0.013896056
0001a0 c5 19 9c 3d 0a 12 4e 3c bc ee bd 3d bb 40 07 bc
       0.07622103 0.012577543 0.092740506 -0.008255179
0001b0 c0 44 3e 3d bc 88 cc bc 2c 8c e8 3c 58 57 fe 3d
       0.046452284 -0.024967544 0.028387152 0.12419003
0001c0 07 09 9e 3d b8 05 ae 3d db d3 f6 3c 91 f3 a9 3c
       0.077165656 0.084971845 0.030130317 0.020746024
0001d0 de f5 89 bd 5c cc 75 bd 3d 82 c2 3d 1b 91 6a 3d
       -0.067363486 -0.060009345 0.09497497 0.05726729
0001e0 af af 01 3e db 8a 56 3d 97 90 3a bc d2 a2 fe 3d
       0.12664674 0.052378517 -0.011387012 0.12433399
0001f0 07 6c 1a 3e 63 70 86 bd 52 43 48 3d 96 85 dd 3d
       0.15080272 -0.06564405 0.048892327 0.10816495
000200 79 f4 6a bd 99 1f c2 3c f2 e3 7e bd fc 45 e0 bb
       -0.057362054 0.023696708 -0.062229104 -0.0068442803
000210 eb 9d dc bd 3d d1 f9 3b 1e a2 ae 3d 99 1f 72 3d
       -0.10772308 0.00762382 0.08527015 0.059112165
000220 ae 97 ef bd fe 69 82 bd 5c 4a 45 bd f5 6e 26 bc
       -0.116988525 -0.06367873 -0.048166618 -0.01015829
000230 cd dc 2d 3d 84 b9 08 be a3 68 1c be 0a 3b 0b 3c
       0.0424469 -0.13352019 -0.1527429 0.008497963
000240 06 bd 9a 3d 3f 8e 17 bd 68 a6 85 3d c8 75 7a 3d
       0.075555846 -0.03700089 0.0652588 0.06114748
000250 a1 fb 84 bd 43 7b 84 3d c4 38 9b bd c6 cb 12 be
       -0.06493307 0.06468823 -0.075791866 -0.14335546
000260 43 fc a4 bd 24 c2 8d 3d 9c e3 cd bc 62 43 ba bd
       -0.080559276 0.06921795 -0.025132947 -0.090948835
000270 eb 15 c6 bd 51 ca a0 bc 8e 1d 12 be 1a 6a a2 3c
       -0.09672149 -0.019627722 -0.14269087 0.019825984
000280 b6 f2 a5 bd 76 f2 a3 3c f7 68 9f bd 84 a7 00 bd
       -0.08102934 0.020013075 -0.07783692 -0.031409755
000290 bd 80 89 3d 32 6a 60 3c 29 bd 08 3c ca 55 a7 bd
       0.06714008 0.013697194 0.008345881 -0.0817066
0002a0 f9 b0 c0 3c 25 6a d3 bd a2 09 bb 3d fb 73 08 bc
       0.023521887 -0.1032298 0.09132697 -0.008328433
0002b0 48 c9 61 bd d2 e5 58 bd f9 38 b7 3c 0c 34 58 bd
       -0.055123597 -0.05295355 0.022366034 -0.05278401
0002c0 bd 8f 03 bd 8c bf 1a 3d 93 bd c2 bd 4a 89 d1 bc
       -0.0321195 0.03778033 -0.09508815 -0.02557816
0002d0 3e 17 c4 bd cb 52 19 3d 26 58 b2 bd 89 84 fa bd
       -0.095747456 0.037432473 -0.08708219 -0.1223231
0002e0 24 af 52 bd 8b e9 e1 3d b1 6c e8 bc 4c c5 67 bd
       -0.05143656 0.11030873 -0.02837214 -0.05658464
0002f0 26 c6 df 3c 6c 10 a5 bb ec d4 6c bc c8 0c f1 ba
       0.027316164 -0.005037358 -0.014455061 -0.001839065
000300 64 c5 0d bd 2c e9 16 bd 67 84 e8 bc 10 2f ab 3c
       -0.034612074 -0.036843464 -0.028383447 0.020896465
000310 3e ee 3e bd 77 0d 76 bd a0 3e fc bd 16 68 18 bd
       -0.046613924 -0.060071435 -0.12316632 -0.03720864
000320 c8 72 9e 3d 96 6c 60 bc 4f f1 29 bd e0 39 32 3a
       0.077367365 -0.013697764 -0.041489895 0.0006798785
000330 33 bf ed bc 0b 9a da bd 10 bb 8d bd f9 2a 47 3d
       -0.029021835 -0.106739126 -0.06920445 0.048624966
000340 50 f8 b7 bd c1 d9 67 3c 7f 82 89 3d b5 78 dd bb
       -0.08982909 0.014151038 0.06714343 -0.006758774
000350 8b d0 ff bc a2 a4 95 3c ff 3b 8b bc 16 12 7f bc
       -0.03122737 0.01826698 -0.016996382 -0.015568277
000360 6f 6d fe bb 42 fa d8 bd e4 b4 28 3c 53 f3 9a bd
       -0.0077645103 -0.10594608 0.010297034 -0.07565942
000370 7b 30 89 bd a6 2d db bd 95 15 f8 bd 17 e1 87 3d
       -0.066987 -0.10702066 -0.121134914 0.06634729
000380 30 4e a5 3d ad d2 c1 bc d8 7f d4 bd a9 a9 ff 3d
       0.08071554 -0.023660028 -0.10375947 0.12483532
000390 2f 4a 56 3d d6 ac 8e bd ad db 8b bd 64 ae 83 3d
       0.05231684 -0.069665596 -0.06829009 0.06429747
0003a0 25 77 a3 bd 3f 38 9d bd 0d e7 d4 3c 8e a5 be 3c
       -0.079817094 -0.07676744 0.02598908 0.023272302
0003b0 0e 99 a6 3a 81 a5 07 bd 5a e7 87 3c eb 60 78 3d
       0.0012710409 -0.03311682 0.01658981 0.060639303
0003c0 21 b7 3f 3d a9 b5 fe bd 64 e8 b1 bd 64 67 f2 3b
       0.046805505 -0.12436993 -0.08686903 0.007397579
0003d0 eb 6c a8 3d 3a 7d 26 bd a6 46 8c 3d e8 c5 e4 3b
       0.082238995 -0.04064677 0.068494126 0.0069816
0003e0 f9 53 b0 bd 0f 05 72 bd 84 9d b1 3c fa 9d 22 bd
       -0.086097665 -0.059086856 0.021681555 -0.03970144
0003f0 72 20 7b bc 2a ba bb 3b 8b 7d c8 3d f6 76 0a 3d
       -0.01532756 0.0057289796 0.097895704 0.033804856
