evaluation_results/models/list_npi_2020_3_3-11_5_6-4012-False-False-1.0-False-0.3-False-False-True-False.pth (torch_old, 965641 bytes, 16 tensors)

Mprog.weight f4 [5, 256]
0.2167489 3.0675862 0.84138733 -0.22729547 -1.3654542 0.7238437 1.591494 1.5801663
0.26771963 0.68616426 0.27645937 -0.0049121547 0.4724232 1.2393634 -0.20938838 -0.7428225
0.22532149 1.1314632 -0.5762888 -0.7471411 1.5437855 0.9697448 2.080003 -0.041565906
0.8808864 0.9399942 0.46346065 1.2146032 0.17104164 0.28290692 -0.19475432 1.1987033
-0.5370915 1.1908416 1.0644025 0.14004749 -0.16765967 -0.018071031 1.1413109 1.1336575
-0.009529553 -1.8734009 0.29420352 0.43165538 1.5035995 0.7629196 -0.722901 0.26656482
-0.12447976 -0.36549014 -0.14413409 1.2597883 -1.3240334 -0.80416214 -1.383711 0.094627514
1.8611257 0.058750086 -1.236381 -1.2314689 -0.6978999 0.07544448 0.26706663 -0.7564748
1.3673939 -0.41886047 0.6603436 1.5156345 0.36814904 0.15603337 0.39561436 -2.2642143
0.2764317 -0.7994144 0.8031395 -0.6539319 -0.28377688 0.6832494 -0.27495533 -0.98278666
0.44338834 -2.6872802 -0.649545 1.5273069 -1.4218206 -0.7361182 -0.95557374 0.9130591
-1.5742602 0.69518214 0.3340837 -0.73290765 -0.18232037 0.42986152 -0.29022714 1.3823639
0.55442023 0.5818299 -1.4313927 -1.2699487 1.1039774 -0.10973888 0.6985202 -0.4792796
-0.19069333 -0.49350187 -1.0137359 1.3567594 1.7425759 0.023453787 -0.82394224 1.1299903
0.30704945 -1.5485466 -1.1449639 -0.30228686 -1.1081597 -0.53685594 -0.30972412 -0.008955686
0.36234108 0.44058692 0.7365463 -0.7490256 -0.5492727 -2.1930244 -1.470541 0.77420115
0.019245975 -0.15515758 -0.559716 -0.38033763 1.8536587 1.646512 -0.8090132 0.31783712
0.24141471 1.5555056 -0.10483772 0.22090062 0.019152038 0.52287745 -0.48232895 1.4176735
-0.13843596 -0.5640219 0.6820082 -0.91480803 -1.0620416 -0.8685961 -1.385409 -0.05582328
0.14270146 -1.3472997 0.7912412 -0.90016955 -0.048451442 -2.595587 1.5176181 -0.1598396
-1.2694719 1.857116 -0.56954724 -0.4410901 -0.6387736 -0.76808953 0.26218697 0.45975724
-0.55503035 2.18197 0.13781238 -1.7989726 0.5846645 0.86504716 -0.9845711 -0.3051712
-0.7695192 -0.23028453 1.0770404 -1.4398488 0.51883084 -2.3176785 0.376934 -0.5673124
-0.82764715 -1.0211332 -0.95037705 -0.8802831 0.22110382 0.37599614 0.2696326 -0.2808267
-1.3441623 -1.420555 1.3971255 1.1925391 -0.48947656 1.2899457 -0.94060886 1.6585119
0.063851535 0.4514999 0.37781438 -0.7060918 1.106944 1.6514354 -0.12033698 0.7613416
-0.5241635 -1.3809619 1.2203214 1.7348377 -1.6396619 -0.7264501 -1.8895166 -1.3520776
-0.31827277 1.0629462 -0.9248433 -0.30892196 -0.3005578 -0.9827032 1.2770743 0.12100219
0.1834453 0.26972693 0.23474383 -0.10482253 -0.6100024 0.3172047 -0.4915965 -0.34498012
-0.7495541 1.4890572 -0.26930726 -2.3389137 -0.3244163 1.0250384 -0.20678931 0.28635567
1.6617502 1.053329 -0.92882943 0.308342 1.3394263 1.425746 -0.03333226 -0.4795374
-0.28946102 -1.2719276 0.32398826 -0.23478319 -0.27912772 1.139062 -0.13248599 -1.2239908
00000000: 6cf3 5d3e 5553 4440 2965 573f 25c0 68be
00000010: 34c7 aebf d24d 393f 13b6 cb3f e442 ca3f
00000020: 8c12 893e 76a8 2f3f 158c 8d3e 24f6 a0bb
00000030: 74e1 f13e 76a3 9e3f e869 56be 9e29 3ebf
00000040: adba 663e c9d3 903f aa87 13bf a444 3fbf
00000050: c39a c53f 3241 783f c51e 0540 0341 2abd
00000060: c581 613f 76a3 703f b74a ed3e 1e78 9b3f
00000070: 8a25 2f3e 2dd9 903e ad6d 47be 1c6f 993f
00000080: d47e 09bf 7f6d 983f 573e 883f 9c68 0f3e
00000090: faae 2bbe b309 94bc 7a16 923f b01b 913f
000000a0: d821 1cbc 9acb efbf d8a1 963e ef01 dd3e
000000b0: f375 c03f b34e 433f 0a10 39bf 2f7b 883e
000000c0: 3fef febd 8621 bbbe e397 13be be40 a13f
000000d0: ed79 a9bf 92dd 4dbf 711d b1bf 12cc c13d
000000e0: 5e39 ee3f eea3 703d bc41 9ebf c6a0 9dbf
000000f0: 91a9 32bf a382 9a3d f5bc 883e 55a8 41bf
00000100: c306 af3f e174 d6be 470c 293f 5000 c23f
00000110: 087e bc3e 36c7 1f3e f78d ca3e e3e8 10c0
00000120: 7588 8d3e 6ca6 4cbf 8d9a 4d3f 1568 27bf
00000130: 344b 91be 6fe9 2e3f f2c6 8cbe e897 7bbf
00000140: cc03 e33e 66fc 2bc0 9548 26bf cb7e c33f
00000150: 38fe b5bf 3e72 3cbf 7ba0 74bf 3ebe 693f
00000160: 5c81 c9bf 75f7 313f 050d ab3e d69f 3bbf
00000170: 31b2 3abe cf16 dc3e a798 94be 4df1 b03f
00000180: 7cee 0d3f cef2 143f e037 b7bf ae8d a2bf
00000190: 224f 8d3f c7be e0bd 38d2 323f 2364 f5be
000001a0: 1d45 43be 47ac fcbe 19c2 81bf 4baa ad3f
000001b0: ba0c df3f 2822 c03c e1ed 52bf 86a3 903f
000001c0: 9635 9d3e c636 c6bf 2d8e 92bf 58c5 9abe
000001d0: 2dd8 8dbf 646f 09bf 2994 9ebe dfba 12bc
000001e0: c584 b93e 9c94 e13e 4c8e 3c3f 24c0 3fbf
000001f0: 239d 0cbf 835a 0cc0 b03a bcbf 0c32 463f
00000200: bca9 9d3c a1e1 1ebe 8c49 0fbf 9dbb c2be
00000210: b044 ed3f e8c0 d23f 7d1b 4fbf 8cbb a23e
00000220: 6b35 773e cf1a c73f 29b5 d6bd c633 623e
00000230: bce4 9c3c 4cdb 053f d2f3 f6be 5376 b53f
00000240: 28c2 0dbe bd63 10bf 1798 2e3f dc30 6abf
00000250: fbf0 87bf 505c 5ebf 1555 b1bf f4a6 64bd
00000260: 5520 123e 5174 acbf c98e 4a3f 8371 66bf
00000270: 0575 46bd 191e 26c0 4f41 c23f feac 23be
00000280: 0e7e a2bf fab5 ed3f d9cd 11bf 90d6 e1be
00000290: ab86 23bf 84a1 44bf 5f3d 863e 4d65 eb3e
000002a0: 7816 0ebf 65a5 0b40 b01e 0d3e bc44 e6bf
000002b0: 93ac 153f bb73 5d3f da0c 7cbf 663f 9cbe
000002c0: 36ff 44bf b5cf 6bbe 76dc 893f f74c b8bf
000002d0: 19d2 043f d854 14c0 7efd c03e 633b 11bf
000002e0: afe0 53bf 7eb4 82bf e94b 73bf 3c5a 61bf
000002f0: 0a69 623e 9182 c03e 490d 8a3e 84c8 8fbe
00000300: 830d acbf bfd4 b5bf 02d5 b23f 1fa5 983f
00000310: ac9c fabe f11c a53f becb 70bf 1e4a d43f
00000320: 98c4 823d ff2a e73e e370 c13e 6fc2 34bf
00000330: 57b0 8d3f 3c62 d33f 3c73 f6bd 48e7 423f
00000340: 942f 06bf 5cc3 b0bf 7e33 9c3f 290f de3f
00000350: 71e0 d1bf a2f8 39bf aedb f1bf e110 adbf
00000360: a6f4 a2be 9f0e 883f 88c2 6cbf 052b 9ebe
00000370: b6e2 99be 7092 7bbf 2c77 a33f ffcf f73d
00000380: 16d9 3b3e a619 8a3e b060 703e 32ad d6bd
00000390: 1e29 1cbf a868 a23e 89b2 fbbe 3ca1 b0be
000003a0: c7e2 3fbf 6d99 be3f a4e2 89be c3b0 15c0
000003b0: e519 a6be 7534 833f 94c0 53be 369d 923e
000003c0: 3bb4 d43f 7cd3 863f c4c7 6dbf 01df 9d3e
000003d0: 5272 ab3f d87e b63f 6887 08bd ed85 f5be
000003e0: 3c34 94be 86ce a2bf cae1 a53e 016b 70be
000003f0: d4e9 8ebe c9cc 913f 68aa 07be bbab 9cbf

encoder.l1.weight f4 [100, 44]
0.23381516 0.16246153 0.14853112 0.020746225 0.1712282 0.14524086 -0.033455353 -0.08713923
-0.035361573 -0.12508592 0.068672344 0.031429842 -0.100533895 0.06817626 0.04361864 0.09894199
0.120103456 -0.02565782 0.017800404 0.021727892 -0.1662274 -0.17120323 -0.093237735 -0.076002136
-0.031429205 0.011331439 -0.10153935 0.22241746 0.102472804 0.292814 -0.046131782 -0.08141651
-0.052889448 -0.0071216277 -0.030030966 0.07538398 0.0011563823 0.2752562 0.1064611 0.16817735
0.07975681 0.075039476 0.050597806 -0.02526346 -0.06354298 0.036326256 -0.09733844 0.13536315
0.065635614 -0.07422838 0.03667206 -0.0883956 -0.06543646 -0.048239067 0.3387729 0.16502
0.10771484 0.09739512 -0.021126838 0.035423398 -0.10389307 -0.46140176 -0.15486561 -0.0993812
-0.21923937 -0.100579955 -0.1484074 0.014459588 0.0848929 0.16703695 0.24516952 -0.053588074
-0.12530339 0.300097 0.06393108 0.22094709 -0.17245749 0.08075792 0.1329984 -0.080736674
0.17740574 0.34379086 0.11083186 0.115863286 -0.12355345 0.15120539 -0.049266245 -0.087636575
-0.22832392 -0.06644765 0.0009089083 0.2193508 0.092917465 -0.07726069 0.054288026 -0.3668113
0.15359782 0.23082204 0.03901042 0.15519814 0.20481494 0.08153753 -0.20575601 0.076841764
-0.16473472 -0.11598903 0.24743624 -0.1905687 0.024528855 0.048693314 0.087276466 -0.09043289
0.0341881 0.06391458 -0.15369989 0.0071730483 0.07767749 0.20278917 0.04674077 -0.06576326
0.08787996 -0.06470894 -0.13864082 -0.012223286 -0.1364016 -0.16322885 -0.003614708 -0.03455749
-0.09206159 0.00055887917 0.012676578 0.15248738 -0.3738703 0.0166989 0.046476964 -0.40190172
0.053221326 -0.004535542 0.17773804 -0.0081844125 0.38410372 0.11749204 0.21538891 0.27601835
-0.06299869 0.18389791 0.31549066 -0.07833903 0.11232595 -0.24421266 -0.026750956 -0.36151534
0.081655614 0.06435919 -0.1670287 -0.06745213 0.08173086 -0.03313738 -0.10857126 -0.076751135
0.08310276 0.004054297 -0.0021815354 -0.10621466 0.08520758 -0.08505492 0.002427299 0.16991352
0.056470063 0.1824408 0.07317832 -0.033809233 0.13044204 -0.0032014924 -0.045472894 -0.0102364775
0.060654595 -0.039353006 0.065247364 0.09302806 0.11482906 0.03682711 0.036689796 -0.043348875
0.019983418 -0.08808215 -0.2697396 -0.18909596 -0.116200365 -0.026352493 0.05131397 0.09217533
0.17089069 0.13921852 0.21434726 0.18559912 -0.06966629 0.020257868 0.093706556 0.122094646
-0.025193498 0.037088815 -0.04318479 0.05047309 -0.023972107 -0.07070568 0.11011618 0.21345942
0.0061515635 0.08566043 0.17329468 0.08489128 0.13501477 0.00034511476 0.21433805 -0.21600758
0.08870469 0.0012626505 -0.050825264 0.11549553 0.02577933 -0.6939758 -0.037103895 0.20057563
-0.016952857 -0.0075750067 0.0660049 0.028563624 -0.045650985 -0.019570911 0.07393742 -0.15430571
0.0734344 0.18689644 -0.13614316 0.17030081 -0.031938236 0.10140714 0.008500116 -0.08168408
0.1433504 -0.34300035 -0.14954893 0.10503971 -0.13426301 -0.012011507 0.1967469 -0.020950854
0.06808619 0.20099354 -0.13731752 0.16461435 -0.07814399 0.0009668696 -0.19954422 0.041530203
00000000: 3e6d 6f3e 515c 263e 8b18 183e fdf3 a93c
00000010: 7256 2f3e 05ba 143e 7b08 09bd 0d76 b2bd
00000020: 4cd7 10bd 8616 00be 16a4 8c3d 94bc 003d
00000030: b7e4 cdbd ff9f 8b3d 76a9 323d 19a2 ca3d
00000040: cdf8 f53d 5930 d2bc 27d2 913c b1fe b13c
00000050: 8437 2abe e64f 2fbe 6df3 bebd 02a7 9bbd
00000060: e9bb 00bd 80a7 393c ddf3 cfbd 67c1 633e
00000070: 43dd d13d b7eb 953e aef4 3cbd b3bd a6bd
00000080: 9ba2 58bd 8b5c e9bb 8003 f6bc eb62 9a3d
00000090: c091 973a 61ee 8c3e 4708 da3d af36 2c3e
000000a0: 8a57 a33d 4cae 993d a53f 4f3d 51f5 cebc
000000b0: d222 82bd d7ca 143d 6059 c7bd a39c 0a3e
000000c0: f76b 863d 0d05 98bd 7135 163d c108 b5bd
000000d0: 8d03 86bd 5496 45bd a473 ad3e 01fb 283e
000000e0: 9999 dc3d 1877 c73d 3112 adbc 2018 113d
000000f0: e4c5 d4bd da3c ecbe 1795 1ebe 5f88 cbbd
00000100: 4980 60be ddfc cdbd 1cf8 17be e8e7 6c3c
00000110: 54dc ad3d bc0b 2b3e b80d 7b3e 2b7f 5bbd
00000120: 884f 00be 50a6 993e 4cee 823d f43f 623e
00000130: b298 30be 6964 a53d bc30 083e 4559 a5bd
00000140: daa9 353e 5b05 b03e d0fb e23d bb49 ed3d
00000150: 9709 fdbd 96d5 1a3e 67cb 49bd ce7a b3bd
00000160: bfcd 69be b515 88bd ce43 6e3a 7f9d 603e
00000170: 834b be3d da3a 9ebd 1f5d 5e3d b1ce bbbe
00000180: bf48 1d3e 9d5c 6c3e 64c9 1f3d 43ec 1e3e
00000190: 02bb 513e 26fd a63d b4b1 52be 375f 9d3d
000001a0: 38b0 28be a88b edbd ed5f 7d3e 7124 43be
000001b0: bdf0 c83c a472 473d 01be b23d e134 b9bd
000001c0: d208 0c3d a6e5 823d 8163 1dbe e40b eb3b
000001d0: 6015 9f3d f7a7 4f3e 4073 3f3d e3ae 86bd
000001e0: 69fa b33d 1f86 84bd dcf7 0dbe 2d44 48bc
000001f0: dcac 0bbe 7725 27be bde4 6cbb 288c 0dbd
00000200: c98a bcbd bf81 123a 6cb1 4f3c a725 1c3e
00000210: ee6b bfbe 22cc 883c a15e 3e3d 10c6 cdbe
00000220: 9bfe 593d e29e 94bb f600 363e ea17 06bc
00000230: 3ea9 c43e ab9f f03d e98e 5c3e 4752 8d3e
00000240: 7505 81bd bc4f 3c3e fe87 a13e 3770 a0bd
00000250: 260b e63d e212 7abe d224 dbbc 8a18 b9be
00000260: 0f3b a73d c0ce 833d 9209 2bbe 5824 8abd
00000270: 8262 a73d 10bb 07bd 9c5a debd b32f 9dbd
00000280: c831 aa3d e9d9 843b 17f8 0ebb 1287 d9bd
00000290: 5081 ae3d 4631 aebd 5213 1f3b cffd 2d3e
000002a0: 274d 673d c3d1 3a3e 84de 953d 8d7b 0abd
000002b0: 9992 053e 21d0 51bb c941 3abd e6b6 27bc
000002c0: f470 783d 9e30 21bd 69a0 853d 7f85 be3d
000002d0: 802b eb3d 06d8 163d 0a48 163d 978e 31bd
000002e0: 44b4 a33c 6a64 b4bd 4f1b 8abe 5fa2 41be
000002f0: 75fa edbd 2fe1 d7bc 992e 523d 6bc6 bc3d
00000300: f8fd 2e3e 4d8f 0e3e d97d 5b3e b20d 3e3e
00000310: 33ad 8ebd d4f3 a53c 39e9 bf3d c20c fa3d
00000320: 9862 cebc 71ea 173d 89e2 30bd dfbc 4e3d
00000330: 2761 c4bc 24ce 90bd 9784 e13d 1b95 5a3e
00000340: 0e93 c93b bc6e af3d 2974 313e 7bdb ad3d
00000350: 5041 0a3e 85f0 b439 6f7b 5b3e 1731 5dbe
00000360: ceaa b53d 857f a53a 272e 50bd ec88 ec3d
00000370: 2c2f d33c 66a8 31bf 41fa 17bd b363 4d3e
00000380: b8e0 8abc c337 f8bb 942d 873d 43fe e93c
00000390: 87fc 3abd 2d53 a0bc 816c 973d 5102 1ebe
000003a0: c664 963d c861 3f3e 1d69 0bbe 5663 2e3e
000003b0: abd1 02bd 8cae cf3d 1244 0b3c fc49 a7bd
000003c0: 72ca 123e be9d afbe 5b23 19be 0f1f d73d
000003d0: 3e7c 09be e9cb 44bc 0578 493e 20a1 abbc
000003e0: c670 8b3d 40d1 4d3e f79c 0cbe aa90 283e
000003f0: f509 a0bd 8575 7d3a 5255 4cbe 931b 2a3d

encoder.l1.bias f4 [100]
-0.0068163658 -0.08200929 0.055939324 0.08885085 0.021433223 -0.034705143 0.0013068938 0.12587123
0.08070422 0.03298493 0.10276513 -0.09829325 0.017129526 0.0074646617 0.057698257 -0.11920873
-0.09112382 -0.010745371 -0.08311537 0.06267368 0.007652898 -0.028390791 -0.014447363 0.091781616
-0.07855935 0.04897211 0.007839019 0.10855608 -0.10355662 0.12991853 -0.030553687 0.051995784
0.11874368 0.0485789 0.13886556 0.06633831 0.0851205 0.01825421 0.01299585 0.018502062
0.0006152086 0.058351412 0.06700411 0.025959002 0.071744926 0.041910257 0.06257317 -0.03904796
0.08156182 -0.007359655 -0.018427989 -0.0108003905 0.061825205 0.08780657 0.053693067 -0.027580233
0.06264026 -0.05229839 0.051120326 0.05689152 -0.037706427 0.05530361 0.020011816 0.10351204
-0.05227865 -0.04020916 0.029064873 0.058322724 0.11269886 0.074294664 -0.056090113 0.020018976
0.07072323 0.09396339 0.08584277 0.0931741 0.1196895 0.01013281 -0.055605907 0.0723652
-0.027732164 0.12691864 -0.05236833 0.047660396 0.11624304 0.11238266 0.009306928 0.041787494
0.07620441 0.039646413 -0.020050136 0.0084328335 0.0465033 0.0453671 -0.008488178 -0.018875837
-0.0051423777 -0.006374679 0.0699009 -0.025407027
00000000: d25b dfbb 7df4 a7bd a220 653d 6ff7 b53d
00000010: ba94 af3c fb26 0ebd 144c ab3a 63e4 003e
00000020: 4148 a53d 351b 073d 8676 d23d f94d c9bd
00000030: 3853 8c3c 1f9a f43b 0255 6c3d b523 f4bd
00000040: 209f babd 5a0d 30bc 6438 aabd 0f5b 803d
00000050: 29c5 fa3b ce93 e8bc a2b4 6cbc 00f8 bb3d
00000060: b9e3 a0bd fb96 483d 3b6f 003c a652 de3d
00000070: 7e15 d4bd 5d09 053e ba4b fabc 88f9 543d
00000080: e32f f33d abfa 463d c632 0e3e 61dc 873d
00000090: a853 ae3d da89 953c 8cec 543c a391 973c
000000a0: f345 213a e401 6f3d 7339 893d f9a7 d43c
000000b0: 01ef 923d 17aa 2b3d 5d26 803d c1f0 1fbd
000000c0: e209 a73d 4329 f1bb 4bf6 96bc 1ff4 30bc
000000d0: 6d3c 7d3d eed3 b33d 43ed 5b3d f1ef e1bc
000000e0: 8949 803d d636 56bd 8c63 513d 1507 693d
000000f0: 0e72 1abd 0a86 623d d2ef a33c 1ffe d33d
00000100: 2322 56bd 5cb2 24bd 7519 ee3c cfe3 6e3d
00000110: a9ce e63d cd27 983d bfbe 65bd d6fe a33c
00000120: 57d7 903d e16f c03d 56ce af3d 10d2 be3d
00000130: c51f f53d 1604 263c 05c3 63bd 3534 943d
00000140: 902e e3bc f6f6 013e 2d80 56bd 8c37 433d
00000150: d510 ee3d e128 e63d 167c 183c 5d29 2b3d
00000160: 0f11 9c3d 4764 223d 2f40 a4bc de29 0a3c
00000170: 3f7a 3e3d dad2 393d 0012 0bbc 80a1 9abc
00000180: 6481 a8bb afe2 d0bb 3428 8f3d 6622 d0bc

encoder.l2.weight f4 [32, 100]
-0.16452366 -0.2500972 0.22611238 0.33792233 0.0041789995 -0.33778965 0.019219717 0.0689736
-0.13002998 -0.6493406 -0.021499457 0.06860448 0.31305483 -0.19057104 -0.15245876 0.1362059
-0.050212912 0.22024615 -0.15556033 0.056399588 -0.2489826 0.03330677 -0.37360203 0.08974561
0.0952701 -0.11055118 -0.10016457 -0.014136532 -0.0750255 -0.013888346 -0.5166823 -0.010125289
-0.18451454 0.006920946 0.0015864723 0.3320322 -0.22160535 -0.26721546 -0.17389886 -0.05964937
0.3542186 -0.16069758 -0.15091938 0.05262884 0.33170965 0.053183183 -0.24576065 0.24789964
-0.19997452 0.34783787 -0.005269188 0.39112568 -0.04347342 0.22911415 -0.09624357 0.3626674
-0.32087985 -0.3306656 0.39400703 0.039144307 -0.12563084 -0.03759978 -0.10111397 0.3879797
0.3617335 -0.45016843 -0.08309703 -0.17546849 0.22184783 -0.0225475 -0.049899366 -0.09048384
-0.028014913 -0.09225066 0.17714714 -0.13614294 0.20325054 0.26376432 0.2616912 0.05976692
0.09842298 0.2404924 -0.18845056 0.13087645 -0.1787351 -0.24554284 0.027973324 -0.11217216
0.48903352 -0.07349504 -0.06048749 0.10585054 -0.2691574 -0.2017836 0.12892771 0.19793452
0.28269726 -0.1394607 0.23776853 0.17132433 0.30778456 0.37291926 -0.06143238 -0.0690277
-0.07461875 0.055326942 -0.023521349 0.044228088 0.29771274 0.0059843077 0.15808718 0.27446613
-0.20595874 0.11754486 -0.05927247 0.30551392 0.30942053 -0.1027785 -0.08919804 0.11042094
0.06925435 0.116684556 0.3162936 -0.08899321 0.3700224 -0.011666281 0.4128494 0.117900334
-0.24381177 -0.07225684 -0.08790074 0.073363125 0.2598078 -0.10710796 -0.10554964 -0.14750925
-0.004883829 0.23113328 0.012438664 -0.022126174 -0.115503274 -0.06130196 0.15347101 0.21467759
-0.18721473 -0.07751675 0.1316687 -0.12130989 -0.2242408 -0.18929581 0.019145051 0.042236514
0.19518273 -0.105820835 -0.06271663 -0.032878347 0.27386224 0.21314546 -0.17315546 0.037103016
0.7485343 0.13370027 0.26783824 -0.23938993 -0.5431507 0.627857 0.4822247 -0.29761243
0.03514877 -0.6793694 0.3367169 -0.08544874 -0.07572391 -0.20910513 -0.11243106 0.04464159
-0.07915231 0.1614797 0.052592125 0.06262854 0.3006944 -0.2422566 0.4809511 -0.2008358
-0.11467263 -0.0035846208 -0.15345904 0.19247763 -0.12869158 -0.030908538 0.36882216 0.04612157
-0.024043178 0.054903835 0.105432 -0.14735542 0.037139907 -0.28166848 -0.3960063 -0.104999095
0.14098161 -0.3991949 0.08206061 -0.25702703 0.12907836 -0.15901363 -0.14473273 0.21482867
-0.093706794 0.099880345 0.044629924 -0.5827053 0.042790487 0.039960433 -0.56370586 -0.37526652
-0.32640466 0.16308926 -0.18487428 -0.0056767454 0.05431107 -0.015704552 -0.16142783 0.18633574
-0.39931217 -0.094992064 -0.6503113 -0.6126752 0.057868276 0.028280957 0.097036175 0.17653371
-0.13425954 0.16953611 0.1047968 0.23263167 0.051689487 -0.6108089 0.027282786 -0.0006599257
0.14284398 0.11277802 -0.03632232 -0.60143447 0.10660209 -0.25617135 0.008824127 -0.059539817
0.0025021352 -0.1742483 0.061611746 -0.28468692 -0.32359788 -0.20856234 0.19114842 -0.29011428
00000000: e478 28be bd0c 80be 018a 673e 2804 ad3e
00000010: fdef 883b c4f2 acbe ab72 9d3c 0842 8d3d
00000020: 9426 05be 303b 26bf a11f b0bc 8180 8c3d
00000030: b948 a03e 0e25 43be 261e 1cbe 8f79 0b3e
00000040: 0eac 4dbd 3588 613e 354b 1fbe 4103 673d
00000050: 4bf5 7ebe ae6c 083d c448 bfbe 8ccc b73d
00000060: f81c c33d a868 e2bd 1523 cdbd ea9c 67bc
00000070: f8a6 99bd f28b 63bc 4b45 04bf 8ae4 25bc
00000080: 61f1 3cbe 1ac9 e23b 2df1 cf3a 2000 aa3e
00000090: 83ec 62be 77d0 88be 8b12 32be e652 74bd
000000a0: 245c b53e e88d 24be 9c8a 1abe 5791 573d
000000b0: d9d5 a93e 9cd6 593d aea8 7bbe 67d9 7d3e
000000c0: 1fc6 4cbe ce17 b23e 27a9 acbb a041 c83e
000000d0: 2f11 32bd e69c 6a3e 591b c5bd 8baf b93e
000000e0: 5d4a a4be 004d a9be 4abb c93e c855 203d
000000f0: 5fa5 00be 3a02 1abd d714 cfbd 46a5 c63e
00000100: 2235 b93e 7a7c e6be c72e aabd 03ae 33be
00000110: 142c 633e 89b5 b8bc 4763 4cbd 974f b9bd
00000120: 887f e5bc eaed bcbd 0f66 353e 0e69 0bbe
00000130: e920 503e 1e0c 873e 64fc 853e 28ce 743d
00000140: fd91 c93d a443 763e 2ff9 40be 7a04 063e
00000150: 5606 37be 956f 7bbe 5028 e53c 84ba e5bd
00000160: 9a62 fa3e 9184 96bd bbc1 77bd 2bc8 d83d
00000170: 00cf 89be 5ca0 4ebe a005 043e 59af 4a3e
00000180: b2bd 903e c9ce 0ebe 9879 733e a56f 2f3e
00000190: f095 9d3e 46ef be3e 85a0 7bbd 655e 8dbd
000001a0: b7d1 98bd 819e 623d d8af c0bc 8328 353d
000001b0: ce6d 983e 0318 c43b 9be1 213e d386 8c3e
000001c0: d9e6 52be 5cbb f03d b1c7 72bd 526c 9c3e
000001d0: 5e6c 9e3e 897d d2bd 76ad b6bd 6024 e23d
000001e0: 3ad5 8d3d 50f8 ee3d 3cf1 a13e 1242 b6bd
000001f0: 9373 bd3e ee23 3fbc ff60 d33e bb75 f13d
00000200: cba9 79be 65fb 93bd 4e05 b4bd 683f 963d
00000210: 8705 853e 6b5b dbbd 692a d8bd aa0c 17be
00000220: 8708 a0bb 34ae 6c3e 8acb 4b3c f341 b5bc
00000230: fb8c ecbd c417 7bbd 8127 1d3e 71d4 5b3e
00000240: 38b5 3fbe 1ac1 9ebd 29d4 063e 5271 f8bd
00000250: 619f 65be c3d6 41be 15d6 9c3c 3200 2d3d
00000260: fbdd 473e 98b8 d8bd 9471 80bd 72ab 06bd
00000270: ac37 8c3e ce42 5a3e aa4f 31be 55f9 173d
00000280: f29f 3f3f b9e8 083e 1822 893e a222 75be
00000290: ed0b 0bbf 3dbb 203f 28e6 f63e a860 98be
000002a0: 28f8 0f3d 27eb 2dbf 2866 ac3e c0ff aebd
000002b0: 2315 9bbd a81f 56be 4142 e6bd 1ada 363d
000002c0: 9b1a a2bd ef5a 253e d76a 573d 6443 803d
000002d0: 9ef4 993e 1d12 78be 393f f63e e6a7 4dbe
000002e0: 7cd9 eabd f5eb 6abb 5e24 1dbe db18 453e
000002f0: bac7 03be e733 fdbc 42d6 bc3e f9e9 3c3d
00000300: 33f6 c4bc d8e2 603d bbec d73d 57e4 16be
00000310: 0420 183d da36 90be 56c1 cabe c409 d7bd
00000320: 7c5d 103e 4663 ccbe 650f a83d 0c99 83be
00000330: 1e2d 043e 78d4 22be d134 14be 0cfc 5b3e
00000340: 59e9 bfbd 118e cc3d decd 363d 2d2c 15bf
00000350: 1445 2f3d 8dad 233d 074f 10bf ef22 c0be
00000360: 831e a7be df00 273e af4f 3dbe fe03 babb
00000370: 4975 5e3d d5a6 80bc 564d 25be ccce 3e3e
00000380: a572 ccbe 338b c2bd cd7a 26bf 48d8 1cbf
00000390: 4907 6d3d 77ad e73c e7ba c63d 41c5 343e
000003a0: 557b 09be e09a 2d3e b49f d63d ff36 6e3e
000003b0: 5bb8 533d f95d 1cbf 2680 df3c ddfe 2cba
000003c0: b145 123e 2af8 e63d b7c6 14bd 9cf7 19bf
000003d0: 3252 da3d e428 83be 1293 103c 06e0 73bd
000003e0: ddfa 233b 256e 32be 995c 7c3d 7cc2 91be
000003f0: 9fae a5be 5e91 55be 69bc 433e dc89 94be

encoder.l2.bias f4 [32]
-0.11626426 0.00015383796 0.09356467 -0.10660857 -0.027990725 -0.03566467 0.056989122 0.16676453
0.025051178 -0.11242705 -0.010893428 0.08197676 0.027255539 0.11211984 -0.07639223 -0.082084715
0.017510269 -0.06357966 -0.002774521 0.042760823 -0.065065704 0.093476936 -0.06817775 0.007957049
0.048900668 -0.053558365 -0.023479728 0.019599443 0.05912122 -0.029781219 0.10048731 0.0132186245
00000000: f51b eebd 904f 2139 d59e bf3d 9855 dabd
00000010: ce4c e5bc 1e15 12bd 6d6d 693d 52c4 2a3e
00000020: 2138 cd3c 2740 e6bd 597a 32bc 6ee3 a73d
00000030: 0247 df3c 169f e53d 8873 9cbd 081c a8bd
00000040: b271 8f3c 0e36 82bd bdd4 35bb f925 2f3d
00000050: 2b41 85bd d670 bf3d c7a0 8bbd 485e 023c
00000060: 114c 483d 0460 5bbd 8f58 c0bc 038f a03c
00000070: 1829 723d bef7 f3bc 4acc cd3d ee92 583c

lstm.weight_ih f4 [512, 288]
0.093693726 -0.07295416 0.058766138 0.0992278 -0.016743185 -0.018522454 -0.08524415 -0.12556596
-0.15964454 0.06795068 0.04488356 -0.1323688 0.018797077 -0.114561036 0.10888442 -0.27940783
-0.10419311 0.23363632 -0.039815314 -0.25514448 0.06778978 -0.14454833 0.049805645 -0.09904241
0.032760896 0.23511013 0.08404409 0.06636816 -0.051134482 0.14465709 0.11621227 0.18863499
0.076347105 -0.019551575 0.027777385 -0.04462225 -0.0045415857 -0.08609664 0.021710515 -0.13151224
-0.07130421 -0.021245724 -0.048419625 -0.20835042 -0.077516995 -0.040713836 -0.064668864 -0.044938467
0.16248904 -0.037920836 0.061776154 -0.002259025 -0.05408311 -0.09007495 -0.0004517119 -0.13849823
0.007941877 -0.036404572 0.049272824 -0.044977877 0.012567445 -0.1290646 -0.111860156 -0.12596822
0.014159548 -0.047357433 -0.017136864 -0.11735928 0.027590033 -0.13250548 -0.005716181 -0.036434326
0.09670291 0.09313184 0.10345422 -0.01921109 0.08361046 -0.10102734 0.039625037 -0.09561029
-0.062958725 0.008294172 -0.041364416 -0.03217041 0.022365037 0.053738113 0.03994271 -0.05645333
-0.0054838457 -0.022671117 0.025577711 0.019310895 -0.027363231 0.02094825 -0.005054948 0.09761156
-0.0043740566 0.08592573 -0.0035863458 0.08120374 0.060647786 -0.029934056 0.021013044 0.13923542
-0.076708786 -0.112518 -0.05860995 0.11613383 0.050618507 0.021577029 -0.012921583 0.1609071
-0.08455985 0.008095682 0.050209157 0.047099512 0.043821268 0.07786495 0.037560623 -0.031222582
-0.09878938 -0.009588588 -0.0050421394 0.02036228 -0.12678812 -0.08107404 -0.11879227 -0.036639065
-0.06094477 -0.051302124 -0.04831553 0.08549822 0.056705106 0.20533168 0.0632795 -0.04552398
0.09180555 -0.06649674 0.10816415 -0.05383161 -0.024586575 -0.13468641 0.014990807 0.005645007
0.13185766 0.06876687 0.016113663 0.09733659 -0.008041854 -0.09829237 0.0250186 -0.03364661
0.048017785 -0.013674963 -0.074778944 0.0077641434 0.15994558 0.014106812 -0.048232354 -0.09052072
-0.040091716 -0.01946816 -0.0007208334 0.08814707 -0.0018859823 0.11019604 -0.010624214 0.14613605
0.061850555 -0.005707107 0.116560504 -0.2090915 0.081855275 -0.075308606 -0.07526801 0.04122696
-0.025380181 -0.027455654 0.01183867 0.018165398 -0.09613941 -0.018229939 -0.04854616 0.06910926
-0.019073984 -0.074539974 0.026634706 -0.04279504 0.11316694 -0.03711191 -0.0024278695 -0.055886816
-0.014245666 -0.021766633 -0.03694901 0.054758288 0.048383914 -0.011286361 -0.20984508 -0.03278486
0.10704522 -0.022839835 -0.08059388 -0.052676324 -0.022031054 -0.043844678 0.09725283 0.0062635057
0.06077776 -0.12545995 -0.09346484 0.07042543 0.07801146 0.031524397 0.12256774 -0.10691207
-0.006107134 0.03729478 0.12722771 0.089401186 -0.21097684 -0.05381839 -0.058408745 0.0662488
0.13108131 0.042359427 -0.045793112 -0.12595166 0.056824885 0.06231766 -0.13636336 -0.084570415
-0.021609489 0.0143145425 0.018389631 -0.0074504875 -0.029425172 -0.032052696 0.12522225 -0.06997093
0.087652914 0.086545825 -0.019568685 0.05558696 0.11102261 0.054289225 0.064760745 0.07234583
-0.033451106 -0.1473082 -0.062700704 -0.0002747756 -0.017211663 -0.04043865 -0.09899392 0.028551899
00000000: 7fe2 bf3d fe68 95bd c3b4 703d f237 cb3d
00000010: 0129 89bc 67bc 97bc 7c94 aebd 5d94 00be
00000020: dc79 23be ba29 8b3d d3d7 373d b08b 07be
00000030: 54fc 993c fa9e eabd cbfe de3d 8b0e 8fbe
00000040: 3263 d5bd 5c3e 6f3e 6215 23bd 4ca2 82be
00000050: 5ed5 8a3d 7a04 14be 0101 4c3d bfd6 cabd
00000060: 4a30 063d b6c0 703e 4f1f ac3d 08ec 873d
00000070: 6472 51bd fd20 143e b300 ee3d 8829 413e
00000080: df5b 9c3d a02a a0bc 668d e33c d2c5 36bd
00000090: 95d1 94bb 6f53 b0bd 40da b13c 25ab 06be
000000a0: f107 92bd 830b aebc a853 46bd d059 55be
000000b0: 3bc1 9ebd 8dc3 26bd 1c71 84bd 6611 38bd
000000c0: 8763 263e e152 1bbd fe08 7d3d 260c 14bb
000000d0: 4086 5dbd 3779 b8bd bfd3 ecb9 7bd2 0dbe
000000e0: a51e 023c f61c 15bd 4dd2 493d b93a 38bd
000000f0: afe7 4d3c 8329 04be f016 e5bd d0fd 00be
00000100: 73fd 673c def9 41bd 9c62 8cbc 105a f0bd
00000110: 7e04 e23c 84af 07be cd4e bbbb 293c 15bd
00000120: 2d0c c63d e8bb be3d cedf d33d 9360 9dbc
00000130: f63b ab3d 6ce7 cebd dd4d 223d 54cf c3bd
00000140: 81f0 80bd 47e4 073c bc6d 29bd 1fc5 03bd
00000150: e236 b73c 7f1c 5c3d f89a 233d 9b3b 67bd
00000160: d5b1 b3bb c7b8 b9bc 5988 d13c e231 9e3c
00000170: db28 e0bc aa9b ab3c faa3 a5bb 92e8 c73d
00000180: 3f54 8fbb d4f9 af3d e608 6bbb 254e a63d
00000190: d069 783d 4438 f5bc 8c23 ac3c bb93 0e3e
000001a0: 7f19 9dbd d66f e6bd fd10 70bd 93d7 ed3d
000001b0: 5a55 4f3d 4fc2 b03c 0cb5 53bc d5c4 243e
000001c0: b72d adbd c0a3 043c 1ea8 4d3d 6beb 403d
000001d0: ee7d 333d a977 9f3d 2bd9 193d 80c6 ffbc
000001e0: 1652 cabd 7419 1dbc 8838 a5bb ccce a63c
000001f0: bfd4 01be 250a a6bd 5d49 f3bd d812 16bd
00000200: 39a1 79bd 2d22 52bd 81e6 45bd b119 af3d
00000210: 9d43 683d 7842 523e af98 813d 5a77 3abd
00000220: 8c04 bc3d 712f 88bd 2a85 dd3d 897e 5cbd
00000230: c969 c9bc 3ceb 09be 009c 753c c0f9 b83b
00000240: b205 073e a5d5 8c3d cd00 843c 6858 c73d
00000250: fbc1 03bc 834d c9bd cff3 cc3c 07d1 09bd
00000260: 4cae 443d f40c 60bc b425 99bd 5b6a fe3b
00000270: c6c8 233e 4220 673c 4a8f 45bd ed62 b9bd
00000280: 3637 24bd b17b 9fbc 50f6 3cba 7386 b43d
00000290: 1133 f7ba 76ae e13d 2f11 2ebc b0a4 153e
000002a0: 0257 7d3d af02 bbbb 46b7 ee3d 151c 56be
000002b0: bda3 a73d 663b 9abd 1d26 9abd 9add 283d
000002c0: 19ea cfbc aeea e0bc fbf6 413c 9acf 943c
000002d0: bde4 c4bd f456 95bc 57d8 46bd 2889 8d3d
000002e0: 0b41 9cbc 6aa8 98bd 0731 da3c da49 2fbd
000002f0: 12c4 e73d a802 18bd e41c 1fbb 93e9 64bd
00000300: a766 69bc f04f b2bc d857 17bd 3a4a 603d
00000310: 362e 463d 6eea 38bc a1e1 56be 6b49 06bd
00000320: 863a db3d 9b1a bbbc 670e a5bd 21c3 57bd
00000330: 787a b4bc 7a96 33bd 7e2c c73d 183e cd3b
00000340: 1af2 783d 9378 00be 7e6a bfbd 353b 903d
00000350: 79c4 9f3d ba1f 013d cc04 fb3d b7f4 dabd
00000360: 5a1e c8bb 69c2 183d fb47 023e f817 b73d
00000370: 500a 58be ac70 5cbd 023e 6fbd 73ad 873d
00000380: 2e3a 063e 1481 2d3d 8f91 3bbd 79f9 00be
00000390: 36c1 683d cd40 7f3d d6a2 0bbe 4133 adbd
000003a0: 6206 b1bc 8b87 6a3c daa5 963c 3823 f4bb
000003b0: 0f0d f1bc b049 03bd 433a 003e eb4c 8fbd
000003c0: 5f83 b33d f03e b13d 824e a0bc 27af 633d
000003d0: d25f e33d 615e 5e3d 48a1 843d 0d2a 943d
000003e0: 0704 09bd f6d7 16be 3a69 80bd c20f 90b9
000003f0: 79ff 8cbc ffa2 25bd 53bd cabd ace5 e93c

lstm.weight_hh f4 [512, 128]
-0.10176291 0.25987446 -0.040309213 -0.0038945647 -0.01682722 -0.042231478 0.20307508 0.2357125
-0.27751362 -0.1118176 0.0029970356 0.09984267 -0.17839488 0.030047463 0.07476346 -0.06856648
-0.016566744 0.10174448 0.12657407 0.087793246 -0.16571826 0.09253595 0.04456983 -0.08529629
-0.2265102 -0.11720276 -0.0028369802 0.044506967 -0.020220492 0.016109118 0.019532876 -0.15716982
0.14849034 0.03414067 -0.02887616 -0.04746612 0.008752914 -0.062187225 0.11612234 0.15843274
-0.09180308 0.025461078 -0.13691448 -0.16563897 -0.042133644 0.045525488 0.12690239 -0.04533629
-0.03782625 -0.05596289 -0.12412375 0.1316367 0.16512807 0.07671379 -0.3129111 0.09619325
-0.050589524 -0.20588273 -0.09596474 0.08589473 -0.0817325 0.12318445 0.0048696008 -0.13136066
0.20887895 0.019631626 0.0821422 -0.05767743 -0.24527043 0.09245294 0.08535388 -0.03972889
-0.033477094 0.23461981 0.10758571 0.18175988 -0.28444895 0.05987828 0.20673151 0.09956699
-0.06959239 -0.19137295 -0.061329126 0.019944444 -0.0043516783 -0.22448598 -0.08642532 0.05956571
-0.04758061 0.09760522 -0.04730767 -0.004363479 0.02454789 -0.18943962 0.051556386 0.13621381
-0.027223976 -0.08552228 0.055253252 0.13553771 -0.17924796 0.08599676 -0.10696565 0.21157627
0.061078303 0.23606515 0.17618476 -0.05003363 0.19489904 0.013446817 -0.028860176 0.060265012
0.1051879 0.10846144 0.06229501 -0.10159936 0.077700295 0.046725404 -0.113261074 0.021005249
-0.04221772 -0.078635864 0.08332394 -0.09076356 -0.086280264 0.017431656 -0.03398898 -0.008600879
0.07639851 -0.20975101 -0.07092684 0.1172882 0.26974565 -0.2182491 -0.23943561 0.023167884
-0.074850045 -0.034398567 -0.16909438 0.078206666 -0.22298351 0.017744718 0.124147736 -0.02669941
0.07798277 -0.16878343 0.15100124 -0.14338028 0.013176118 -0.2971966 -0.13760166 0.10949908
-0.095943294 0.09829793 0.22184482 0.011592616 0.09383183 0.039839953 -0.18537426 -0.08391694
-0.325159 0.04028744 -0.077539995 0.07881622 0.060012944 0.031570494 0.08462917 -0.2335964
-0.038075734 -0.2819792 0.23676388 -0.2609942 -0.15118863 0.25134358 0.13284713 -0.12764163
0.0069088633 -0.1447651 -0.0035905584 0.27012554 -0.1863655 -0.22102393 0.23341799 -0.065551296
-0.2252049 0.07196614 -0.11837281 0.24665903 0.01391162 -0.043153998 0.1452049 -0.056423582
-0.006672698 0.08431345 -0.101316996 -0.02238734 0.097035825 0.21992166 0.20533933 -0.08358032
-0.1171251 -0.05677516 -0.10502859 0.05967719 0.15917248 0.006104264 0.17122987 -0.04974825
-0.05900926 0.24505083 0.18362184 -0.082876354 0.11885208 -0.11341001 0.22677884 -0.05078036
-0.102528535 0.074120596 -0.40937012 -0.09026725 0.05504476 -0.012397979 -0.09963066 -0.15912001
-0.1514108 0.16282141 0.035596844 0.15552346 0.33056536 0.27572572 0.08467806 -0.05372891
-0.15471545 -0.2106023 0.0153730055 0.20145029 -0.062400322 0.07748438 -0.17338814 -0.052772433
-0.019095061 0.020243911 -0.10214266 0.08761909 0.043310396 0.118629515 -0.015572158 0.043239452
0.20355602 -0.20660785 0.103728406 -0.041518323 0.10434344 0.1279673 -0.26383153 0.014877325
00000000: 1369 d0bd 440e 853e 461b 25bd f43b 7fbb
00000010: 3dd9 89bc eafa 2cbd eaf2 4f3e 9e5e 713e
00000020: 4416 8ebe a000 e5bd ea69 443b 507a cc3d
00000030: 26ad 36be 1926 f63c 961d 993d 956c 8cbd
00000040: fbb6 87bc 695f d03d a29c 013e f2cc b33d
00000050: 0cb2 29be 7d83 bd3d db8e 363d d2af aebd
00000060: 4af2 67be 0008 f0bd a1ec 39bb f04c 363d
00000070: 72a5 a5bc 45f7 833c 6903 a03c 20f1 20be
00000080: da0d 183e 16d7 0b3d b28d ecbc d66b 42bd
00000090: 6268 0f3c 08b8 7ebd 8dd1 ed3d 313c 223e
000000a0: 4103 bcbd c093 d03c 4f33 0cbe 439d 29be
000000b0: 5494 2cbd ef78 3a3d b3f2 013e 8cb2 39bd
000000c0: b3ef 1abd 5839 65bd 9834 febd c5cb 063e
000000d0: 5517 293e 1f1c 9d3d e235 a0be f700 c53d
000000e0: f636 4fbd ecd2 52be 2989 c4bd 94e9 af3d
000000f0: 5e63 a7bd 2148 fc3d 2c91 9f3b 6983 06be
00000100: 5de4 553e 81d2 a03c 2b3a a83d 2b3f 6cbd
00000110: 2c28 7bbe f857 bd3d 04ce ae3d c3ba 22bd
00000120: 471f 09bd 2d40 703e e655 dc3d 431f 3a3e
00000130: 4ba3 91be ed42 753d 6db1 533e c7e9 cb3d
00000140: 7486 8ebd 45f7 43be 4034 7bbd 8862 a33c
00000150: 8698 8ebb a7df 65be c2ff b0bd 2dfb 733d
00000160: e3e3 42bd 3fe5 c73d b0c5 41bd 84fb 8ebb
00000170: a818 c93c 76fc 41be ca2c 533d a27b 0b3e
00000180: d104 dfbc 4e26 afbd 3c51 623d 66ca 0a3e
00000190: c78c 37be 121f b03d cf10 dbbd 73a7 583e
000001a0: 3e2d 7a3d 10bb 713e c769 343e 10f0 4cbd
000001b0: 9d93 473e 0a50 5c3c 2d6c ecbc 72d8 763d
000001c0: c16c d73d 0821 de3d 0d29 7f3d 5313 d0bd
000001d0: 5521 9f3d 2363 3f3d 6cf5 e7bd 3313 ac3c
000001e0: 7dec 2cbd d70b a1bd bea5 aa3d 3fe2 b9bd
000001f0: b5b3 b0bd d5cc 8e3c 0738 0bbd b4ea 0cbc
00000200: d276 9c3d f8c8 56be 1742 91bd cc34 f03d
00000210: 1a1c 8a3e b17c 5fbe 9c2e 75be 93ca bd3c
00000220: fb4a 99bd 83e5 0cbd 1427 2dbe d12a a03d
00000230: ca55 64be 5f5d 913c 2b41 fe3d b9b8 dabc
00000240: 6eb5 9f3d 90d5 2cbe 12a0 1a3e 48d2 12be
00000250: a5e0 573c 272a 98be 73e7 0cbe 0e41 e03d
00000260: eb7d c4bd 6d50 c93d 4a2b 633e f5ee 3d3c
00000270: e72a c03d 382f 233d c0d2 3dbe a5dc abbd
00000280: 3e7b a6be 7104 253d 4acd 9ebd 666a a13d
00000290: 22d0 753d 1050 013d 0f52 ad3d e533 6fbe
000002a0: 4df5 1bbd 945f 90be 3b72 723e 08a1 85be
000002b0: 31d1 1abe 1bb0 803e 1409 083e 7db4 02be
000002c0: bf63 e23b 4d3d 14be 934f 6bbb e54d 8a3e
000002d0: 99d6 3ebe 1954 62be 2005 6f3e c23f 86bd
000002e0: 1d9c 66be fc62 933d 726d f2bd 2f94 7c3e
000002f0: 90ed 633c 3fc2 30bd 98b0 143e 6a1c 67bd
00000300: a6a6 dabb 88ac ac3d 497f cfbd a865 b7bc
00000310: b8ba c63d 2533 613e 7944 523e 292c abbd
00000320: 49df efbd 128d 68bd 3b19 d7bd 1270 743d
00000330: 1cfe 223e 4706 c83b e256 2f3e d2c4 4bbd
00000340: b2b3 71bd 9bee 7a3e 5d07 3c3e 14bb a9bd
00000350: b868 f33d 8243 e8bd b638 683e 11ff 4fbd
00000360: 7bfa d1bd 8acc 973d f698 d1be 09de b8bd
00000370: 9d76 613d e520 4bbc 290b ccbd 5bf0 22be
00000380: 6f0b 1bbe a8ba 263e ffcd 113d 8b41 1f3e
00000390: dd3f a93e ec2b 8d3e b16b ad3d d812 5cbd
000003a0: ba6d 1ebe 21a8 57be 0fdf 7b3c fc48 4e3e
000003b0: 7b97 7fbd 21b0 9e3d a98c 31be e827 58bd
000003c0: 3f6d 9cbc 8fd6 a53c 2c30 d1bd a371 b33d
000003d0: 3e66 313d 08f4 f23d 5d22 7fbc da1b 313d
000003e0: fd70 503e 0291 53be 8f6f d43d 1e0f 2abd
000003f0: 03b2 d53d dc09 033e ed14 87be 06c0 733c

lstm.bias_ih f4 [512]
0.014797268 0.1392746 0.0056366636 -0.040028393 0.018971287 -0.0194544 -0.06566491 -0.0068124146
0.024403792 0.09117657 0.08896501 -0.008779458 -0.019714601 0.1198226 0.11179676 0.009834493
-0.024525264 0.1365162 0.17458951 0.04307317 0.029720737 -0.042515345 0.12100802 0.055882886
0.16261129 0.049591087 0.09477096 0.026891029 -0.02836644 0.027979512 0.015687585 -0.056818984
-0.01619591 0.056179337 -0.006354227 0.09314597 -0.049755868 0.17898695 0.1512589 -0.053803496
0.049183104 0.041350648 0.014578533 0.09257194 0.11879474 0.04829764 0.14221813 0.17918082
-0.12562588 0.018669734 0.10334732 -0.022376247 0.050033536 0.05391398 0.040513106 0.17481546
0.0155543685 0.054676883 0.046316482 0.04496789 0.047710914 0.16720927 0.15853961 0.04834849
0.02230787 0.0699033 0.13563952 -0.007781122 0.15980844 0.100212105 0.032889787 -0.071389645
0.10805727 0.09546647 -0.06346695 -0.08615865 0.009640943 0.15018253 0.018345192 0.08735577
-0.03950162 -0.09177967 0.036939807 -0.0508435 -0.03503697 0.16311659 0.08331016 0.032784395
0.13179086 0.1058924 0.10611986 0.016117446 0.037144728 0.033530116 0.07863039 -0.020644896
-0.033846345 0.06737137 0.01603119 0.038014863 -0.015695306 0.1181918 0.079270646 0.04749086
0.09619171 0.03022261 0.09787533 0.10553926 0.060048915 0.15447482 0.12537336 0.10762208
0.028692061 0.14011337 0.06709546 0.05186555 -0.0426911 -0.04647573 0.028987803 -0.041196354
0.11336947 -0.021523345 0.025870591 -0.060587026 0.09534569 0.014493503 0.062411238 0.09980263
0.12531959 0.040000424 0.04096091 -0.0025908547 -0.063594714 -0.12621617 -0.035919134 -0.07036861
-0.05830396 0.046605032 -0.06063596 -0.023444379 -0.051727712 -0.088958964 0.09798679 -0.023170022
-0.08202468 0.063942 -0.073326014 -0.012352315 -0.032132797 0.02300728 0.0059469775 0.0014786653
-0.085385464 0.049492247 -0.076717764 0.051132064 -0.047054816 0.0770234 -0.08141069 -0.049689904
-0.026880158 -0.13352138 0.005697487 -0.093400486 0.03972362 -0.02951721 -0.18050458 -0.010043533
-0.024350079 -0.051079303 -0.093940996 -0.026446223 -0.0999159 -0.116821006 -0.07732385 -0.027730344
0.024319777 0.012528007 -0.005706914 0.117710926 -0.09375672 0.011514869 -0.110905915 -0.21994616
-0.11104895 -0.15399738 -0.13070624 0.06005411 -0.09228782 0.053714518 0.06351935 -0.100477256
-0.04855903 -0.08762837 -0.10186334 -0.015729824 0.02848046 -0.050631475 -0.09729911 -0.026579062
-0.06936553 -0.011852596 0.024869496 -0.06883852 0.062262088 0.029086422 -0.090348765 -0.11607201
0.04484207 -0.0713291 -0.10905366 0.041398477 -0.021775585 -0.14494011 -0.117967695 -0.033143908
-0.011875241 0.04748568 0.013578981 -0.052918658 -0.048091196 -0.0057216603 -0.051616255 0.015168877
-0.060644697 -0.040487282 -0.06235768 0.030761324 0.11865819 -0.0042409 -0.096740365 -0.046222724
0.10522566 -0.09638992 -0.00623707 -0.015988797 0.033983443 0.041764647 -0.13072461 0.021097278
-0.039730832 0.04411787 -0.07537218 -0.03246709 -0.11636733 -0.10191505 -0.041255187 -0.10605665
0.038379833 -0.0072912383 0.035347864 -0.056501813 0.078650735 -0.19956173 -0.080238424 -0.039882626
00000000: 3e70 723c 009e 0e3e c3b3 b83b d0f4 23bd
00000010: ac69 9b3c d55e 9fbc 537b 86bd ad3a dfbb
00000020: 76ea c73c c8ba ba3d 4a33 b63d b7d7 0fbc
00000030: 8480 a1bc 8d65 f53d b3f5 e43d da20 213c
00000040: 35e9 c8bc e7ca 0b3e 98c7 323e 7e6d 303d
00000050: e778 f33c 9224 2ebd 0ed3 f73d 74e5 643d
00000060: 9383 263e 0620 4b3d 4717 c23d 934a dc3c
00000070: bd60 e8bc 4a35 e53c 4083 803c 06bb 68bd
00000080: 49ad 84bc 4e1c 663d 1f37 d0bb 50c3 be3d
00000090: cfcc 4bbd 5b48 373e 9de3 1a3e 0e61 5cbd
000000a0: 3974 493d 4c5f 293d cdda 6e3c 5b96 bd3d
000000b0: a84a f33d bfd3 453d a1a1 113e 2d7b 373e
000000c0: 12a4 00be 45f1 983c c2a7 d33d 644e b7bc
000000d0: f7ef 4c3d e8d4 5c3d 12f1 253d d302 333e
000000e0: c0d7 7e3c def4 5f3d 5ab6 3d3d 4030 383d
000000f0: 856c 433d e838 2b3e 3558 223e 1109 463d
00000100: ffbe b63c 7629 8f3d 16e5 0a3e c8f8 febb
00000110: d3a4 233e 013c cd3d 71b7 063d bc34 92bd
00000120: 214d dd3d ed83 c33d f6fa 81bd f273 b0bd
00000130: 0cf5 1d3c 73c9 193e a848 963c 95e7 b23d
00000140: 73cc 21bd fbf6 bbbd 324e 173d 4641 50bd
00000150: ed82 0fbd 0908 273e 849e aa3d ee48 063d
00000160: 2ff4 063e 1dde d83d 5f55 d93d bc08 843c
00000170: 1225 183d e056 093d f808 a13d 7c1f a9bc
00000180: 77a2 0abd 00fa 893d d853 833c 79b5 1b3d
00000190: 7193 80bc 8b0e f23d a658 a23d c785 423d
000001a0: 2900 c53d 6895 f73c dc72 c83d f824 d83d
000001b0: daf5 753d a62e 1e3e e061 003e f768 dc3d
000001c0: 9d0b eb3c e179 0f3e 5869 893d f970 543d
000001d0: dddc 2ebd 565d 3ebd d477 ed3c 82bd 28bd
000001e0: 412e e83d ba51 b0bc 90ee d33c 1a2a 78bd
000001f0: 9a44 c33d 2876 6d3c eda2 7f3d 5265 cc3d
00000200: c753 003e 7cd7 233d a1c6 273d 54cb 29bb
00000210: f23d 82bd d03e 01be f11f 13bd 6b1d 90bd
00000220: 22d0 6ebd ebe4 3e3d 6a5d 78bd 6d0e c0bc
00000230: 70e0 53bd 1e30 b6bd 4cad c83d 0fcf bdbc
00000240: 8efc a7bd 06f4 823d f32b 96bd 5d61 4abc
00000250: ae9d 03bd c379 bc3c ddde c23b c6cf c13a
00000260: 93de aebd 62b8 4a3d 341e 9dbd db6f 513d
00000270: 8dbc 40bd 72be 9d3d a6ba a6bd a487 4bbd
00000280: c733 dcbc d4b9 08be fcb1 ba3b c148 bfbd
00000290: 3cb5 223d 13ce f1bc 31d6 38be a18d 24bc
000002a0: d179 c7bc 8838 51bd 2364 c0bd c0a5 d8bc
000002b0: b5a0 ccbd da3f efbd f75b 9ebd bf2a e3bc
000002c0: 453a c73c 4542 4d3c 1001 bbbb 6d12 f13d
000002d0: 8603 c0bd dca8 3c3c a422 e3bd 9139 61be
000002e0: a26d e3bd 7db1 1dbe dbd7 05be 4cfb 753d
000002f0: 6601 bdbd c103 5c3d 6f16 823d 05c7 cdbd
00000300: d5e5 46bd 8176 b3bd ba9d d0bd d5db 80bc
00000310: db4f e93c f362 4fbd c144 c7bd 55bc d9bc
00000320: 840f 8ebd 6431 42bc 1dbb cb3c 36fb 8cbd
00000330: 8806 7f3d a646 ee3c c608 b9bd 29b7 edbd
00000340: 52ac 373d fe14 92bd 8657 dfbd 7391 293d
00000350: b662 b2bc 2e6b 14be 0c99 f1bd e8c1 07bd
00000360: 5f90 42bc 5880 423d 607a 5e3c 3cc1 58bd
00000370: 46fb 44bd c47c bbbb 916b 53bd e286 783c
00000380: 9366 78bd fed5 25bd c46a 7fbd 2cff fb3c
00000390: 1103 f33d 3ff7 8abb d01f c6bd 0a54 3dbd
000003a0: 8d80 d73d 1468 c5bd 5660 ccbb f0fa 82bc
000003b0: 3932 0b3d 6811 2b3d acdc 05be 33d4 ac3c
000003c0: ccbc 22bd f1b4 343d bb5c 9abd 36fc 04bd
000003d0: ff51 eebd d6b8 d0bd 33fb 28bd 3b34 d9bd
000003e0: 2c34 1d3d 57eb eebb ecc8 103d 726e 67bd
000003f0: a313 a13d e959 4cbe 0b54 a4bd f75b 23bd

lstm.bias_hh f4 [512]
0.027626742 0.035744 0.093001336 0.10924002 0.059890706 0.06573748 0.025804859 0.04244782
0.040170573 0.111206934 0.064358175 -0.03179006 -0.044646274 0.04604179 0.11909213 0.042918593
-0.019583987 0.09070701 0.09526403 0.121760614 0.077541724 0.040083557 0.008221615 0.096029
0.05964931 0.083780006 -0.0036368943 0.101568304 0.06046816 0.038624987 0.072250664 0.076656915
0.032373164 -0.04426083 0.06444426 0.04797003 0.11480761 0.052794952 0.15201415 0.038758248
0.06136388 0.053916417 0.17975952 0.04695331 0.05543262 0.09583317 0.065762036 0.12364277
-0.08573473 0.14894634 -0.022045784 -0.039846905 0.050062273 0.026711022 0.06981399 0.121225424
0.073520236 0.07800454 -0.051096275 0.15246272 0.08577932 0.09563516 0.007537184 0.18132447
0.1421439 -0.027866371 0.06766467 0.10861773 -0.030626308 0.1190309 -0.08690725 -0.023773482
-0.027354982 0.14824675 -0.07985689 -0.09697355 0.06459348 0.11340588 0.08738007 -0.008127526
0.13478214 -0.0053840573 -0.015403935 0.10900208 0.057382192 0.15150021 0.033568956 0.15108661
0.046707585 0.05504623 0.15102577 0.052894585 -0.004831854 0.0587378 0.08741023 -0.04166373
0.027106984 0.1265537 0.03307184 -0.08694679 -0.07636489 0.1077789 0.11306295 -0.0024470373
0.15874575 0.073983416 0.048000295 0.027401516 0.103287645 0.14335817 0.015887417 0.012291092
0.05753592 0.109604456 -0.039770592 0.118007496 0.08704813 0.07920746 0.0031573803 -0.07064177
0.07558436 0.0024755297 0.037744906 -0.04562466 0.048818104 0.15393987 -0.035941545 -0.019412376
-0.06133138 0.004099666 0.01886811 -0.035676535 0.015754044 -0.1270713 -0.04605676 0.05468722
-0.14417242 -0.051376376 -0.00534922 0.035397027 0.04597844 -0.015576206 -0.031378765 -0.11275759
-0.01601897 -0.028857755 0.09701193 0.053748794 -0.08829564 -0.11811813 0.026879976 -0.021506606
0.006195028 0.0471917 -0.05659917 -0.115510516 -0.03908373 -0.09357323 -0.11413126 -0.12763578
0.010578544 -0.17821933 -0.023461321 -0.018532677 -0.00511691 -0.025529059 -0.123686016 0.032474376
0.050049186 -0.12248608 -0.14757515 -0.12869675 -0.09170451 0.005370212 -0.07509483 -0.07924368
0.054549593 0.07250937 -0.05087321 0.03894498 -0.061032195 -0.0494421 -0.08181286 -0.066928506
-0.045415875 -0.115438454 0.047932446 -0.031077499 -0.09560856 0.03981337 0.030529434 -0.05454234
-0.11007087 0.026089698 -0.15774536 0.078032404 -0.07410082 0.0052903984 -0.060232237 0.048277903
-0.19891499 -0.12427686 -0.016905634 0.037407715 0.00048671837 -0.002709053 -0.035548493 -0.06380622
-0.063241586 -0.03973587 -0.073621705 -0.115840696 -0.06295718 -0.14353564 0.044548433 -0.04118167
-0.07786134 -0.113589294 -0.064320706 -0.10313527 -0.06614511 0.049974658 -0.12032257 -0.007856112
-0.017406272 -0.062239423 -0.15617293 0.0064576915 0.061985016 -0.0041207843 -0.11663413 0.039656524
-0.042173624 -0.009974693 -0.10485513 -0.00014838431 0.027479475 0.033832923 -0.12452874 0.076734945
-0.09902078 0.07805838 -0.13963042 -0.0749117 -0.008681633 -0.103827834 0.071052395 -9.488522e-06
-0.10518574 -0.11489875 -0.0792191 -0.04908035 -0.053248324 -0.029582828 -0.10054655 -0.008428666
00000000: 7a51 e23c 4d68 123d 7c77 be3d 3bb9 df3d
00000010: f54f 753d 5fa1 863d b664 d33c c4dd 2d3d
00000020: e689 243d 76c0 e33d 38ce 833d 4b36 02bd
00000030: 03df 36bd 5196 3c3d 93e6 f33d 68cb 2f3d
00000040: 996e a0bc 99c4 b93d ca19 c33d a15d f93d
00000050: 32ce 9e3d a82e 243d f4b3 063c daaa c43d
00000060: d652 743d da94 ab3d f658 6ebb 0b03 d03d
00000070: 76ad 773d 3c35 1e3d 28f8 933d 4dfe 9c3d
00000080: b999 043d d84a 35bd 5afb 833d 397c 443d
00000090: 4120 eb3d 853f 583d 99a9 1b3e f8c0 1e3d
000000a0: b158 7b3d 76d7 5c3d e112 383e 1d52 403d
000000b0: 510d 633d 2e44 c43d 3fae 863d 6c38 fd3d
000000c0: b195 afbd 6485 183e 5c99 b4bc 8236 23bd
000000d0: 190e 4d3d 13d1 da3c a3fa 8e3d 0945 f83d
000000e0: c791 963d d8c0 9f3d 544a 51bd 301f 1c3e
000000f0: 11ad af3d 5edc c33d 7bfa f63b 1fad 393e
00000100: 2c8e 113e 0448 e4bc c693 8a3d f972 de3d
00000110: 06e4 fabc 79c6 f33d 6efc b1bd 9bc0 c2bc
00000120: 8e17 e0bc ffcd 173e 028c a3bd 129a c6bd
00000130: 9649 843d 5841 e83d 52f4 b23d 5129 05bc
00000140: 5404 0a3e bf6c b0bb c960 7cbc 7c3c df3d
00000150: 9709 6b3d df22 1b3e 9a7f 093d 73b6 1a3e
00000160: 7450 3f3d 2878 613d 80a6 1a3e fea7 583d
00000170: 8754 9ebb 0c97 703d 2204 b33d 96a7 2abd
00000180: 770f de3c 4b97 013e 5676 073d 2911 b2bd
00000190: 3265 9cbd 2fbb dc3d 8c8d e73d 795e 20bb
000001a0: 3f8e 223e 9e84 973d f59b 443d 2579 e03c
000001b0: 7988 d33d 7ccc 123e 5426 823c 9460 493c
000001c0: c9aa 6b3d 4d78 e03d 7de6 22bd eaad f13d
000001d0: 4a46 b23d 8537 a23d 0dec 4e3b a2ac 90bd
000001e0: f9cb 9a3d 7f3c 223b 679a 1a3d ece0 3abd
000001f0: 7ef5 473d 6aa2 1d3e 7137 13bd b406 9fbc
00000200: 9d36 7bbd 7e56 863b 4b91 9a3c 8f21 12bd
00000210: a00e 813c fb1e 02be 03a6 3cbd b5ff 5f3d
00000220: efa1 13be 0970 52bd 8248 afbb 79fc 103d
00000230: e453 3c3d 5833 7fbc 0587 00bd 74ed e6bd
00000240: 373a 83bc 1967 ecbc 31ae c63d b227 5c3d
00000250: 58d4 b4bd ebe7 f1bd 6533 dc3c 9f2e b0bc
00000260: a9ff ca3b 164c 413d 88d4 67bd c790 ecbd
00000270: 4316 20bd 52a3 bfbd a6bd e9bd f4b2 02be
00000280: a151 2d3c 217f 36be f531 c0bc d7d1 97bc
00000290: c1ab a7bb 5122 d1bc 184f fdbd da03 053d
000002a0: 6000 4d3d fbd9 fabd f11d 17be 15c9 03be
000002b0: 93cf bbbd 9af8 af3b 51cb 99bd 834a a2bd
000002c0: 656f 5f3d cb7f 943d 6d60 50bd c584 1f3d
000002d0: e5fc 79bd cd83 4abd 808d a7bd d011 89bd
000002e0: ff05 3abd ff6a ecbd d054 443d 3d96 febc
000002f0: 6cce c3bd 5813 233d dd18 fa3c ca67 5fbd
00000300: d66c e1bd 10ba d53c 0088 21be 74cf 9f3d
00000310: 2cc2 97bd 145b ad3b 14b6 76bd 0dbf 453d
00000320: 5fb0 4bbe de84 febd af7d 8abc d538 193d
00000330: 3c2e ff39 5e8a 31bb 4c9b 11bd d6ac 82bd
00000340: ce84 81bd 14c2 22bd fac6 96bd e33d edbd
00000350: b2ef 80bd 02fb 12be 6b78 363d 1cae 28bd
00000360: c475 9fbd 81a1 e8bd 93ba 83bd 9638 d3bd
00000370: 1677 87bd 3ab2 4c3d ae6b f6bd ecb6 00bc
00000380: 9997 8ebc c4ee 7ebd cceb 1fbe 0b9b d33b
00000390: 00e4 7d3d a507 87bb e0dd eebd e16e 223d
000003a0: 40be 2cbd e56c 23bc 49be d6bd 9c97 1bb9
000003b0: a31c e13c 6494 0a3d ed08 ffbd 3627 9d3d
000003c0: 68cb cabd 12dd 9f3d 47fb 0ebe 4e6b 99bd
000003d0: 683d 0ebc b0a3 d4bd eb83 913d e430 1fb7
000003e0: 9f6b d7bd 0950 ebbd a03d a2bd 7a08 49bd
000003f0: ea1a 5abd b057 f2bc 59eb cdbd 6318 0abc
