evaluation_results/models/list_npi_2020_2_26-12_19_30-9674-False-False-1.0-True-0.3-False-True-True-False.pth (torch_old, 971073 bytes, 16 tensors)

Mprog.weight f4 [3, 256]
0	0xbdf60b53	-0.12013879
1	0xc00c4b32	-2.1920896
2	0xbf0b8290	-0.544961
3	0xbf00f6ef	-0.5037679
4	0xbd9c9b38	-0.07646793
5	0x3f679f0d	0.9047707
6	0xbe40fc9f	-0.18846367
7	0x3eaa6277	0.33278248
8	0x3fcb4f33	1.5883545
9	0xbd9def13	-0.077116154
10	0xbf68cedb	-0.90940636
11	0xbe7f28a6	-0.2491785
12	0x3f38ae80	0.72141266
13	0x3e7b64ea	0.24550214
14	0x3f6f4fbe	0.9348105
15	0xbffe4a62	-1.986645
16	0xbf5cf7d4	-0.86315656
17	0x3e05cc82	0.13066295
18	0xbf91b70f	-1.138399
19	0x3e8de7f0	0.27716017
20	0x3f0d56e3	0.55210704
21	0x3d98dd1e	0.0746405
22	0x3e968c13	0.29403743
23	0xbe98a2f2	-0.29811817
24	0xbfd4781f	-1.6599158
25	0x3ea1bd93	0.31589946
26	0x3e5d683c	0.21621794
27	0x3cd9fa3a	0.026608575
28	0x3f4534ab	0.7703349
29	0x3fe18ab8	1.7620459
30	0x3f8aba4e	1.0838106
31	0xbf1ab978	-0.6043925
32	0x3fc19175	1.5122515
33	0x3e467c3b	0.19383328
34	0xc028bdf9	-2.636595
35	0xbe674efe	-0.22588727
36	0xbdc1a56c	-0.0945538
37	0x3f22efdc	0.63647246
38	0xbeb78160	-0.35840893
39	0x3fe3991e	1.7781103
40	0x3f938ba4	1.152699
41	0x3f334939	0.70033604
42	0x3f5521d9	0.8325477
43	0xbf3334fd	-0.7000273
44	0x3ef1571b	0.4713677
45	0xbe9484ff	-0.29007718
46	0x3e8aa5fd	0.27079764
47	0xbf6461f7	-0.8921198
48	0x3eeff389	0.4686549
49	0x3d5c4d9c	0.05378495
50	0x4017403b	2.3632953
51	0x3f30cbb5	0.6906083
52	0xbfcaa33d	-1.5831066
53	0xbf50ee7b	-0.8161389
54	0xbf6cc361	-0.92485625
55	0xbf8da58b	-1.1066145
56	0x3f1861f0	0.5952444
57	0xbfaf04d0	-1.3673344
58	0x3fe5db59	1.7957565
59	0xbf990b4f	-1.1956576
60	0x3ec11942	0.37714583
61	0xbe0d042f	-0.13771127
62	0xbf5dca15	-0.8663648
63	0x3f65676f	0.8961095
64	0x3c02de20	0.007987529
65	0xbea1c5aa	-0.31596118
66	0x3f9c1c07	1.2196053
67	0x3f3fd192	0.74929154
68	0xbeb199cf	-0.3468766
69	0xbfe5a51c	-1.7941012
70	0xbf041bd5	-0.5160497
71	0x3d0974e2	0.033558734
72	0xbd4efa73	-0.050531816
73	0xbed2ff85	-0.4121057
74	0xbdf061f6	-0.117374346
75	0xbef80a53	-0.48445377
76	0xbf5ec48c	-0.87018657
77	0xbf247f70	-0.64256954
78	0xbe074490	-0.13209748
79	0xbf80fd48	-1.0077295
80	0x3ec14ad6	0.37752408
81	0xc038135c	-2.8761816
82	0xbf0d88d9	-0.5528694
83	0x3d2b4f7e	0.041823857
84	0x3e051d6e	0.12999508
85	0x3f6b9b31	0.9203368
86	0xbeba45e3	-0.36381444
87	0x3ee7e0dc	0.45288742
88	0xbebc90ee	-0.36829323
89	0xbf8892cc	-1.0669799
90	0xbfbb5694	-1.4635797
91	0xbf7fbecf	-0.99900526
92	0xbeeb7d9b	-0.45994267
93	0xbfe30317	-1.7735318
94	0xbf979eb2	-1.1845305
95	0x3fcf840f	1.6212176
96	0x3f5cdb2a	0.8627192
97	0xbde21860	-0.110398054
98	0xbef780a9	-0.48340347
99	0xbe6faf1a	-0.2340664
100	0xbf4b634c	-0.7944839
101	0x3f406d4d	0.7516678
102	0x3e231acd	0.15928192
103	0xbe237121	-0.15961124
104	0xbf73f9b0	-0.9530287
105	0x3f703d5d	0.9384363
106	0x3e890e19	0.26768568
107	0x3ef129e3	0.4710227
108	0x3e0a1237	0.13483511
109	0x3f94dbb9	1.1629554
110	0x3f829a3d	1.020332
111	0xbeceef6e	-0.40417045
112	0xbfb750ca	-1.432153
113	0x402e6df5	2.7254612
114	0x3e89549d	0.26822367
115	0x3e438517	0.19093738
116	0xbfba336f	-1.4546946
117	0x3f5d9acf	0.86564344
118	0xbfa72ec5	-1.3061148
119	0xbf418544	-0.7559397
120	0xbefe5167	-0.4967148
121	0xbe994593	-0.29935893
122	0x3e81b27e	0.2533149
123	0xbf516b23	-0.818041
124	0xbf54fef8	-0.8320155
125	0x3e4cceb1	0.20000722
126	0x3e776d29	0.24162735
127	0xbf13075c	-0.57433105
128	0x3f2bbb1c	0.6708238
129	0x3dff60a6	0.12469606
130	0x3ec54ff4	0.38537562
131	0xbeb377f7	-0.35052463
132	0xbfd1ae56	-1.6381328
133	0xbf8e75a2	-1.1129649
134	0xbf1c5d22	-0.6107961
135	0xbfc11fb5	-1.5087801
136	0xbe82fb1c	-0.25582206
137	0xbfc9aa24	-1.5755048
138	0xbde0c3de	-0.10974859
139	0xbce0b7d6	-0.02743141
140	0xc01ad00c	-2.4189482
141	0x3f6bf5b9	0.9217182
142	0xbe38a27d	-0.18030734
143	0xbf0619d7	-0.5238318
144	0xbfe25382	-1.7681735
145	0x3f407e05	0.7519229
146	0xbe739da8	-0.2379061
147	0xbea732e0	-0.32656002
148	0xbeb1d6bf	-0.3473415
149	0xbdca1dc9	-0.09868962
150	0xbe1ea87d	-0.1549396
151	0xbeed460c	-0.46342504
152	0xbfd1166f	-1.6334971
153	0x3f3e155a	0.7425133
154	0x3f0b304e	0.5437058
155	0xbf45ec1d	-0.77313405
156	0xbe973ba2	-0.29537684
157	0xbfadcdd8	-1.3578444
158	0x3f3c00d5	0.7343877
159	0xbd5b0682	-0.053473003
160	0xbfa4b14d	-1.2866608
161	0xbf533e64	-0.82517076
162	0xbf4f440f	-0.80963224
163	0xbfb04ea2	-1.3773997
164	0xbf77f295	-0.96854526
165	0xbf07ca44	-0.5304301
166	0x3dcfac5b	0.10140296
167	0x3d725739	0.059165213
168	0xbfd61fad	-1.6728417
169	0x3e2d7628	0.16939604
170	0xbf37d1d7	-0.71804565
171	0xbd97b71c	-0.07407972
172	0xbf6046ad	-0.8760784
173	0xc00081fd	-2.0079339
174	0xbe277dc6	-0.16356573
175	0x3f2f1f54	0.6840718
176	0x3fa98431	1.3243467
177	0xbf0249e0	-0.50893974
178	0x3cb00109	0.021484869
179	0x3f14148d	0.5784386
180	0x3fbe9900	1.4890442
181	0x3f232c43	0.63739413
182	0xbedc5c57	-0.430392
183	0x3d427a9a	0.047480203
184	0x3fc15713	1.5104698
185	0xbfbf69c1	-1.4954149
186	0xbf5056c4	-0.81382394
187	0x3f72b7aa	0.948115
188	0xbd7451eb	-0.059648436
189	0x3fb41f60	1.4072075
190	0xbf88f94f	-1.0701083
191	0xbf210459	-0.6289726
192	0x3f9dfc20	1.2342567
193	0xbedd0aad	-0.43172207
194	0x3ee009a7	0.43757364
195	0x3f3e85a2	0.7442266
196	0xbf39b9e0	-0.7254925
197	0xbf7b79af	-0.9823255
198	0xbfc2d1fd	-1.5220333
199	0xbffa57e5	-1.9558073
200	0x3fa2b6d0	1.271204
201	0xbf3dfacb	-0.74210805
202	0x3ec3ce53	0.3824335
203	0x3fa6d11d	1.3032566
204	0x3ffa89e0	1.9573326
205	0x3c5479a0	0.012968451
206	0x3fc86a01	1.565735
207	0x3edf5239	0.43617418
208	0x3ec23a32	0.37935024
209	0x3e96e0f4	0.294685
210	0x3f9b42c6	1.2129753
211	0xbe90307c	-0.2816199
212	0x3e4ca128	0.19983351
213	0x3f0ac1e7	0.5420212
214	0x3f46fec7	0.7773251
215	0xbf437e79	-0.76364857
216	0x3f671181	0.90261084
217	0x3fbc3005	1.4702154
218	0x3f447838	0.7674594
219	0x3ecb6377	0.39724323
220	0xbf2e3702	-0.68052685
221	0xbfa32054	-1.2744241
222	0xbf99c094	-1.2011895
223	0x3f290be7	0.66033787
224	0xbe9a23cf	-0.30105445
225	0xbd2036b9	-0.039114688
226	0xbfc45700	-1.533905
227	0xbfe414f9	-1.78189
228	0x3eb357a2	0.35027796
229	0xbe40f9a5	-0.18845232
230	0xbe687438	-0.22700584
231	0x3d02f067	0.031967547
232	0xbe5af637	-0.21382986
233	0xbf601401	-0.87530524
234	0xbf8ea056	-1.1142681
235	0xbe172a24	-0.14762169
236	0xc0001744	-2.00142
237	0x3db52fe6	0.088470265
238	0x3f718545	0.9434398
239	0x3f4262bc	0.75931907
240	0x3f73ffa5	0.9531196
241	0xc013f0dc	-2.311576
242	0xc001d2df	-2.0284956
243	0xbf56d16a	-0.8391329
244	0xbf275f88	-0.65380144
245	0xbf5725cb	-0.8404204
246	0x3fbc8c1d	1.4730259
247	0xbf2ccf10	-0.6750345
248	0xbd5f6592	-0.054540224
249	0x3ee0f778	0.43938804
250	0xbf6d3ad3	-0.92667884
251	0x3d754203	0.059877407
252	0xbd3abe5e	-0.045591705
253	0xbe8602c9	-0.26174
254	0xbfc6b495	-1.5523859
255	0xbf849220	-1.0357094

encoder.l1.weight f4 [100, 64]
0	0x3ea30733	0.3184143
1	0x3e0dbdf0	0.13841987
2	0x3dae881e	0.08522056
3	0xbda1a521	-0.07892824
4	0xbd44d588	-0.0480552
5	0xbdce11d4	-0.10061994
6	0x3cb6ab20	0.022298396
7	0xbca621cb	-0.020279786
8	0x3d850157	0.06494396
9	0xbe0f782a	-0.14010683
10	0xbde9b84e	-0.114121065
11	0x3d00ee24	0.03147711
12	0xbd6b581f	-0.057457086
13	0x3befe6eb	0.0073212287
14	0x3da5da9a	0.080983356
15	0xbd8727a4	-0.06599358
16	0xbdf4290a	-0.1192189
17	0xbdcfa3b9	-0.101386495
18	0x3d46f4cc	0.0485733
19	0x3e11ce29	0.142388
20	0x3c8765df	0.016528068
21	0x3e02a978	0.1275996
22	0x3ddb5ca2	0.10711028
23	0xbe45d562	-0.1931968
24	0xbcb2f073	-0.02184317
25	0xbda3976a	-0.07987864
26	0x3d06ccd5	0.032910187
27	0x3d9687c6	0.073501155
28	0x3d7f78bf	0.06237101
29	0x3d89a260	0.06720424
30	0x3dc3f5ee	0.09568392
31	0x3e485009	0.19561781
32	0xbd0a0bee	-0.033702783
33	0xbe4ca1b7	-0.19983564
34	0xbde1863a	-0.1101193
35	0x3c2df4a6	0.010617411
36	0xbd1e1e42	-0.038603075
37	0xbe24672f	-0.16054986
38	0xbd8c1b18	-0.06841105
39	0xbc16912d	-0.009189886
40	0x3e09e8fb	0.13467781
41	0x3d90e77d	0.07075403
42	0x3e5adc16	0.21373019
43	0xbe0fb98b	-0.14035623
44	0xbdc1e040	-0.094666004
45	0xbdc72584	-0.097239524
46	0xbdc7a15a	-0.09747572
47	0x3d61ce26	0.05512824
48	0x3c80a6b8	0.015704498
49	0xbe034182	-0.12817958
50	0x3e49b006	0.19696054
51	0x3d844920	0.0645926
52	0x3eaeff74	0.3417927
53	0x3d3cca95	0.046091635
54	0x3c589ed2	0.013221459
55	0x3e5cd3b9	0.21565141
56	0xbd198a1c	-0.037485227
57	0x3e83f29e	0.2577104
58	0x3db8e491	0.090279706
59	0xbdf9e7f6	-0.12202446
60	0x3dcd8f15	0.10037056
61	0xbe42bbbd	-0.19016929
62	0x3e212d79	0.15740003
63	0xbdf1705c	-0.11789009
64	0xbcae7026	-0.02129371
65	0xbe945868	-0.289737
66	0xbcb61944	-0.022228844
67	0x3e12a02b	0.14318912
68	0xbe969c97	-0.29416344
69	0xbdb75018	-0.089508235
70	0x3e34b23d	0.17646118
71	0x3e4e2d3b	0.20134442
72	0xbcf9012f	-0.030396072
73	0x3d60dafb	0.054896336
74	0xbe3c0937	-0.1836289
75	0xbe821122	-0.25403696
76	0x3e345c5f	0.17613362
77	0x3c88ea57	0.016713304
78	0xbec6b974	-0.38813365
79	0x3e751c3d	0.23936553
80	0x3da0c28e	0.07849608
81	0x3de84608	0.113414824
82	0xbe5a666d	-0.21328135
83	0xbe2961d2	-0.16541222
84	0xbdc0ddbb	-0.09417292
85	0x3e14fc31	0.14549328
86	0x3dd8359a	0.10557099
87	0x3d1ee169	0.038789187
88	0x3e3fa2b2	0.18714407
89	0x3e23eb8e	0.16007826
90	0x3d27b288	0.040941745
91	0xbeed63af	-0.46365115
92	0x3d09e94b	0.03366975
93	0xbd0a9cb0	-0.033840835
94	0xbc91b467	-0.017786218
95	0xbeded329	-0.43520477
96	0xbd58672b	-0.052832764
97	0xbd295908	-0.041344672
98	0x3e5f7d19	0.21825065
99	0x3ad4e7a7	0.0016243354
100	0xbd247ea2	-0.04015983
101	0xbe1b9f3a	-0.15197459
102	0x3cf8bd4a	0.030363698
103	0x3c85051e	0.016237792
104	0xbca1bc1d	-0.01974302
105	0xbd62ea4d	-0.055399228
106	0x3c9023dc	0.017595224
107	0xbcca7ef3	-0.024718737
108	0x3d8e3d31	0.06945265
109	0x3da25719	0.07926769
110	0x3d1a0792	0.037604876
111	0xbb8fadb7	-0.004384722
112	0x3e38a928	0.18033278
113	0x3d66d7ea	0.056358255
114	0x3cfe8cbd	0.031072969
115	0x3e17c672	0.14821795
116	0xbda780d6	-0.081788704
117	0xbd2584d2	-0.04040987
118	0xbd644ed1	-0.055739228
119	0x3dbc708e	0.092011556
120	0x3e03425d	0.12818284
121	0xbe37c4d8	-0.17946184
122	0x3d80f1b7	0.062961034
123	0x3d066e1e	0.03281986
124	0x3ce2ea04	0.027699478
125	0x3ca09874	0.019603945
126	0xbdbfbd5f	-0.093622915
127	0x3e2feea0	0.17180872
128	0xbe168db5	-0.14702494
129	0xbe55640e	-0.20838949
130	0xbe79b6be	-0.24386117
131	0x3dd9cf46	0.106352374
132	0x3daf7493	0.08567157
133	0x3d4bd91b	0.049767595
134	0x3c5f3f0b	0.01362587
135	0x3dadd27a	0.08487411
136	0x3daee261	0.08539272
137	0x3cd042b5	0.025422433
138	0xbecfebbd	-0.40609542
139	0xbe824d36	-0.25449532
140	0xbeb29880	-0.34881973
141	0x3e4981a5	0.19678362
142	0x3e147ca9	0.14500679
143	0xbde45842	-0.11149646
144	0x3df89ea6	0.12139635
145	0xbe8d91d2	-0.27650315
146	0x3e06ccb4	0.13164026
147	0x3d65a74d	0.056067754
148	0xbca9eb6c	-0.02074214
149	0xbe3593c4	-0.1773215
150	0xbe5cc1de	-0.2155833
151	0x3d9696b5	0.07352964
152	0x3d594eea	0.053053774
153	0x3d8245e7	0.06360989
154	0x3d7d1eac	0.06179683
155	0xbd8bed4c	-0.0683237
156	0x3df62dc1	0.120204456
157	0x3e6d40ee	0.231693
158	0x3e276707	0.16347896
159	0x3d4eefbc	0.050521597
160	0x3c970d89	0.018439071
161	0x3d23eeb0	0.040022552
162	0xbbd51e23	-0.0065038367
163	0x3d1e255e	0.038609855
164	0xbe6fe390	-0.23426652
165	0x3de111d4	0.109897286
166	0xbbd2d1fb	-0.006433723
167	0xbd6f481c	-0.05841838
168	0x3d93d9bb	0.07219263
169	0x3e018fc0	0.12652493
170	0x3def5160	0.11685443
171	0x3cb20331	0.021730037
172	0x3d17365c	0.036917076
173	0x3da94a49	0.08266122
174	0xbe83cf0f	-0.2574391
175	0xbdeaa3b5	-0.11457006
176	0x3e5096da	0.20370045
177	0xbbc18577	-0.005905803
178	0xbe7068b0	-0.23477435
179	0xbd17f389	-0.037097488
180	0xbd48e9a1	-0.04905093
181	0x3e1c5f27	0.15270673
182	0xbe203a65	-0.15647276
183	0x3db52cba	0.088464215
184	0x3c94a948	0.018147126
185	0xbdcad107	-0.0990315
186	0x3e295e2f	0.16539834
187	0x3e17ec5f	0.14836262
188	0xbe194d20	-0.14970827
189	0x3d72e7dd	0.059303153
190	0xbbd8b702	-0.006613613
191	0xbd3b89b8	-0.045785636
192	0x3e3623c9	0.17787088
193	0xbe230a0c	-0.15921801
194	0x3cbc0854	0.02295319
195	0xbcbd9598	-0.02314262
196	0x3d0bc7d3	0.034126114
197	0x3dfefc0e	0.12450419
198	0x3e2ba80c	0.16763324
199	0x3dede49e	0.11615871
200	0xbe370262	-0.17872003
201	0x3da5d55c	0.08097336
202	0xbe34a5db	-0.17641394
203	0xbedb5b96	-0.42843312
204	0x3db1f5b8	0.08689445
205	0x3e47e12d	0.19519491
206	0x3e705d4c	0.2347309
207	0x3d70655a	0.058690406
208	0xbe5ed2b3	-0.21760063
209	0xbe2c36ee	-0.16817829
210	0x3e659759	0.22421016
211	0x3d28eede	0.041243427
212	0xbeb04aa6	-0.34431952
213	0x3eab4313	0.3344961
214	0x3ead3445	0.3382894
215	0x3cc9eba7	0.0246485
216	0xbed5530a	-0.41664916
217	0xbe59f00b	-0.21282975
218	0x3d655b68	0.055995375
219	0x3df49ab7	0.11943572
220	0xbe9bdd91	-0.3044248
221	0xbd8180d9	-0.06323404
222	0xbd3d1d90	-0.04617077
223	0xbda9cd1a	-0.08291073
224	0x3d851039	0.06497235
225	0x3e25928e	0.16169187
226	0xbc88dd9e	-0.016707238
227	0xbd903c59	-0.070427604
228	0x3e048498	0.12941206
229	0x3e062dfc	0.13103479
230	0x3e2b4fc7	0.16729651
231	0xbe018e32	-0.126519
232	0x3b1ee845	0.002424733
233	0xbb885507	-0.0041605267
234	0xbde28d68	-0.11062127
235	0x3ccf45f8	0.025301918
236	0xbdb5a59d	-0.08869479
237	0x3d439a4b	0.047754567
238	0xbd4e7c03	-0.050411236
239	0xbc51794e	-0.012785269
240	0xbd000143	-0.031251203
241	0x3dd9c870	0.106339335
242	0xba72d2dc	-0.0009262988
243	0x3d846d46	0.06466155
244	0xbea65314	-0.3248526
245	0xbc989ce0	-0.018629491
246	0x3c843a5b	0.016141107
247	0xbe061f84	-0.1309796
248	0x3da5a804	0.08088687
249	0xbebc1b46	-0.36739558
250	0xbe3ef21e	-0.18647048
251	0x3d4e69ee	0.05039399
252	0x3ddbedbf	0.10738706
253	0x3cb6eeec	0.022330724
254	0xbc900278	-0.017579302
255	0x3cd8ec18	0.026479766

encoder.l1.bias f4 [100]
0	0xbd24d72b	-0.040244263
1	0x3cac08e5	0.021000335
2	0x3dca671b	0.09882947
3	0x3dcd234f	0.100165
4	0xbcfd299e	-0.030903634
5	0xbd76fa1b	-0.060297113
6	0xbd075c1e	-0.033046834
7	0x3d6979a0	0.057000756
8	0x39ade056	0.00033164275
9	0xbd1b3882	-0.037895687
10	0x3e078e9d	0.13237996
11	0xbd6d6d3a	-0.057965495
12	0x3bb9d8d1	0.0056715985
13	0x3dd4b256	0.103855774
14	0xbd6e8517	-0.058232393
15	0x3daf4de7	0.085597806
16	0xbcc1c5a0	-0.023653805
17	0x3c6b385c	0.014356699
18	0x3b518e0a	0.003197553
19	0x3d61701d	0.05503856
20	0xbd3c083a	-0.045906283
21	0x3bc8bd2b	0.006126066
22	0xbce32436	-0.027727228
23	0x3d9323a6	0.07184534
24	0xbd9c485c	-0.07630989
25	0xbd9c67f4	-0.07637015
26	0xbd2521d7	-0.040315475
27	0x3d8a67fe	0.06758116
28	0x3df50514	0.11963859
29	0x3ddeb70c	0.10874757
30	0xbdbd3038	-0.092377126
31	0xbcea2969	-0.028584199
32	0x3ca64b06	0.020299446
33	0xbda0b8ca	-0.07847746
34	0xbbabb23b	-0.0052397526
35	0x3dff59dc	0.12468311
36	0x3c99b076	0.018760901
37	0xbca2c1e3	-0.019867843
38	0x3c76ba97	0.015059135
39	0xbd340029	-0.043945465
40	0xbab84f04	-0.0014061634
41	0xbc89694f	-0.016773848
42	0xbce0c218	-0.027436301
43	0x3cc53a54	0.024075665
44	0xb91c3f4a	-0.00014900896
45	0x3ddc41f1	0.10754765
46	0xbe02b26a	-0.12763372
47	0x3d954593	0.07288661
48	0x3e152b4e	0.145673
49	0x3dcb58b5	0.09929029
50	0x3dd81849	0.10551507
51	0xbd7460f9	-0.059662793
52	0x3d010923	0.031502854
53	0x3d88d98d	0.066821195
54	0xbc819f7f	-0.015823124
55	0x3cc6d99e	0.02427369
56	0x3d82da5e	0.063893065
57	0x3d61b11b	0.05510054
58	0x3d04052b	0.03223149
59	0x3e3812f8	0.17975986
60	0x3cd1614a	0.025559086
61	0xbcaca3de	-0.021074232
62	0x3e48e9f4	0.19620496
63	0xbdc80922	-0.09767367
64	0x3d3c2c08	0.04594043
65	0x3d18d1bf	0.037309404
66	0x3d8e355a	0.0694377
67	0x3e233063	0.15936427
68	0x3d534a96	0.051584803
69	0x3dc4d65d	0.09611199
70	0x3cafe0a5	0.021469424
71	0x3c076d00	0.008265734
72	0x3bc3029c	0.005951239
73	0x3d30a579	0.043126557
74	0x3d341583	0.043965828
75	0x3de11c22	0.10991694
76	0x3dacad33	0.08431473
77	0x3d849125	0.064729966
78	0x3d24d604	0.040243164
79	0x3de380e3	0.111085676
80	0x3cfaf4cb	0.030634305
81	0xbc89ca06	-0.016819965
82	0x3c961f9b	0.018325618
83	0x3d8a5e61	0.067562826
84	0x3b25fb07	0.0025326626
85	0x3ba555d3	0.0050456314
86	0x3d53e3ac	0.051730797
87	0xbda14bd7	-0.078757934
88	0xbbb5445b	-0.0055318302
89	0x3dc57e62	0.09643246
90	0x3e04585f	0.12924336
91	0xbd8a59cf	-0.06755411
92	0xbd7083fe	-0.058719628
93	0xbb14f350	-0.0022728033
94	0x3dda69a7	0.10664683
95	0xbd6f4a49	-0.058420453
96	0x3d4561aa	0.048188843
97	0x3cad9baf	0.0211924
98	0x3aed8672	0.0018121733
99	0x3c35101d	0.011051205

encoder.l2.weight f4 [32, 100]
0	0x3e3bf599	0.18355407
1	0x3d78637f	0.060641762
2	0xbea68341	-0.32522014
3	0x3e38a90e	0.18033239
4	0x3e5f6e49	0.21819414
5	0xbeedb376	-0.4642598
6	0x3d6dd641	0.058065657
7	0x3e9b6bb7	0.30355617
8	0xbd21aa65	-0.03946914
9	0xbe67e79e	-0.22646949
10	0x3e99e3e4	0.3005668
11	0xbe97759f	-0.29581925
12	0x3eb6fb9d	0.3573884
13	0xbe82b6cd	-0.2553009
14	0xbd4e944f	-0.050434407
15	0xbe4ea2ba	-0.20179263
16	0x3de47083	0.111542724
17	0xbd64f34a	-0.05589608
18	0xbf01545e	-0.5051936
19	0xbee5a2ba	-0.44850713
20	0xbd8f3bf0	-0.06993854
21	0x3ee37b31	0.44429925
22	0xbdc2c3c0	-0.095099926
23	0x3e548442	0.20753577
24	0xbf0319cc	-0.5121124
25	0xbf19f10f	-0.6013345
26	0xbea25f6d	-0.3171343
27	0x3e79eb95	0.24406274
28	0xbe159717	-0.14608417
29	0xbe318586	-0.17336091
30	0x3c5a76b0	0.013333961
31	0xbeaa62a4	-0.33278382
32	0x3d5788c1	0.052620653
33	0x3e509a29	0.20371307
34	0x3de4f2e4	0.1117914
35	0x3e8feb6a	0.28109294
36	0xbe9f1713	-0.31072292
37	0x3ead1ab6	0.3380944
38	0x3e8b7b5b	0.2724255
39	0xbd8c24f8	-0.06842989
40	0xbe533bd2	-0.20628288
41	0xbe570405	-0.20997627
42	0xbe002ee0	-0.12517881
43	0x3e6b0da2	0.2295442
44	0x3e18ac3f	0.14909457
45	0x3ed186f8	0.40923285
46	0x3f3218ca	0.69569075
47	0xbe728117	-0.23682056
48	0x3ecc0729	0.39849213
49	0x3e8c0e59	0.27354696
50	0x3e6ff810	0.23434472
51	0xbe412401	-0.1886139
52	0xbc9ef726	-0.019404959
53	0xbd5cfe76	-0.05395361
54	0x3dc9e782	0.0985861
55	0x3dee244f	0.11628019
56	0xbdf694fc	-0.12040135
57	0xbea73d0e	-0.3266377
58	0x3e17e024	0.14831597
59	0xbc7534b3	-0.014966178
60	0xbe77cb46	-0.24198636
61	0x3f052efe	0.5202483
62	0x3e8a4134	0.2700287
63	0xbea23d08	-0.31687188
64	0x3df31e38	0.11870998
65	0x3e2a2c8d	0.16618557
66	0x3c94970d	0.018138433
67	0x3df4a790	0.119460225
68	0x3de57fae	0.112059936
69	0xbdba00fe	-0.090822205
70	0x3e32e14b	0.17468755
71	0xbe92ec87	-0.2869608
72	0x3b7b782a	0.0038371184
73	0xbe843105	-0.2581865
74	0xbe71d915	-0.23617966
75	0x3e8ed271	0.2789493
76	0x3ea4be69	0.3217652
77	0x3d86a82c	0.06575045
78	0xbe4f42ad	-0.20240279
79	0x3e197649	0.14986528
80	0xbeeae8f9	-0.4588087
81	0xbe2504b1	-0.16115071
82	0xbe65ca72	-0.22440508
83	0x3d803db7	0.06261771
84	0xbf121763	-0.57066935
85	0xbe06a572	-0.1314905
86	0x3ec4637e	0.38357157
87	0xbe59c049	-0.21264757
88	0x3e340d60	0.17583227
89	0x3dd8c82c	0.10585055
90	0xbea10847	-0.31451628
91	0x3da4005d	0.08007882
92	0x3e1569dc	0.14591163
93	0xbe49c6e6	-0.1970478
94	0x3d4f28c1	0.050575975
95	0xbede15fa	-0.43376142
96	0x3e90a75b	0.28252682
97	0x3d367132	0.044541545
98	0x3eb101bb	0.34571633
99	0xbe8a733d	-0.27041045
100	0xbda1a4e9	-0.07892782
101	0x3e9338be	0.28754228
102	0xbe23bd72	-0.15990236
103	0x3e184ed2	0.14873818
104	0x3e503ab3	0.20334892
105	0xbe30cd18	-0.17265737
106	0x3e7f222d	0.24915381
107	0x3cfe9e11	0.031081231
108	0x3e513bb6	0.20432934
109	0x3e25ae86	0.16179857
110	0xbe5d4dea	-0.21611753
111	0xbd958cc1	-0.07302237
112	0x3ecfdf7a	0.40600187
113	0xbd5e99af	-0.054345783
114	0x3e997041	0.29968455
115	0x3d77a577	0.060460534
116	0x3e14543d	0.1448526
117	0xbe7332ab	-0.23749797
118	0xbe626e15	-0.22112305
119	0xbe3434e0	-0.17598295
120	0x3e34bd9a	0.17650452
121	0xbe9b521a	-0.30336076
122	0xbda34f0e	-0.07974063
123	0xbe7dac18	-0.2477268
124	0xbc992fb7	-0.01869951
125	0xbd905265	-0.070469655
126	0xbe882e11	-0.26597646
127	0x3e4be1d3	0.19910364
128	0xbd39da71	-0.045374338
129	0xbebd124f	-0.3692803
130	0x3ed2b143	0.41150865
131	0x3d719561	0.05898035
132	0xbe2b0d9b	-0.16704409
133	0xbd9cd44f	-0.07657682
134	0x3eb0a9fa	0.34504682
135	0xbda45c89	-0.08025462
136	0xbe7d4cb0	-0.24736285
137	0x3eafb7fb	0.34320053
138	0x3ee52880	0.44757462
139	0xbd745ba2	-0.0596577
140	0xbe906d5a	-0.2820843
141	0xbf00e9ae	-0.50356567
142	0xbc822b9a	-0.015889931
143	0xbe6a4163	-0.22876506
144	0xbe13d2ac	-0.14435834
145	0x3e84524b	0.25844035
146	0x3e1da703	0.15395741
147	0xbe4ba14d	-0.1988575
148	0x3da42ba1	0.08016134
149	0xbe5c832a	-0.2153441
150	0xbe844d41	-0.2584019
151	0xbea8e022	-0.329835
152	0x3ec67e55	0.3876826
153	0x3e767897	0.24069439
154	0x3e99be20	0.30027866
155	0x3ea8b846	0.3295309
156	0x3d24bbf0	0.040218294
157	0xbf2241df	-0.6338176
158	0x3e628b74	0.2212351
159	0xbe82ecbd	-0.25571242
160	0x3d3a50e0	0.045487285
161	0x3efea39e	0.49734205
162	0x3e70da8c	0.23520869
163	0xbe975212	-0.29554802
164	0x3d616f48	0.055037767
165	0xbcaed90e	-0.021343734
166	0xbd9c858d	-0.0764266
167	0xbe8b9cd6	-0.27268094
168	0x3e438f44	0.1909762
169	0xbe4a6187	-0.19763766
170	0xbe78bb13	-0.24290113
171	0x3d59e002	0.053192146
172	0xbc0b98ed	-0.008520347
173	0xbd026617	-0.03183564
174	0x3e5c46f7	0.21511446
175	0x3e08b78b	0.13351266
176	0x3d3fd76e	0.04683631
177	0xbbe0de8e	-0.006862468
178	0xbe8464eb	-0.25858244
179	0x3d4527a0	0.048133492
180	0x3a832df2	0.00100082
181	0xbe3830c4	-0.17987353
182	0xbe36a078	-0.17834651
183	0x3cbcbeb4	0.023040153
184	0xbe83b9f4	-0.25727808
185	0x3e7d775b	0.24752562
186	0x3eb40830	0.35162497
187	0xbcb82f3d	-0.022483462
188	0x3e641c48	0.22276413
189	0x3d18ca2a	0.037302174
190	0x3c73cefb	0.014880891
191	0x3e2b82dd	0.16749139
192	0xbe9259ae	-0.28584045
193	0x3db83f8f	0.08996498
194	0x3dca312d	0.09872661
195	0x3e932111	0.28736165
196	0xbd3bb679	-0.045828316
197	0xbe92b78f	-0.2865567
198	0x3e29a02f	0.16565011
199	0x3eb4cbaa	0.35311633
200	0x3e0b9fc8	0.1363517
201	0xbeb1502e	-0.34631485
202	0x3e149db3	0.14513282
203	0xbd07e8c8	-0.033180982
204	0x3f02ed3f	0.5114326
205	0xbeca1fcd	-0.39477387
206	0x3f0730f7	0.5280909
207	0x3e3f8afb	0.1870536
208	0x3da99e55	0.082821526
209	0xbbafad44	-0.005361231
210	0xbdcda06f	-0.10040366
211	0x3e35db41	0.1775942
212	0xbc95ab82	-0.018270258
213	0xbf1932ff	-0.5984344
214	0xbd9128e3	-0.07087877
215	0xbf08cd6e	-0.5343846
216	0xbe2edb68	-0.17075884
217	0x3c80eaad	0.015736902
218	0xbedbae9d	-0.42906657
219	0xbdeb94da	-0.115030006
220	0xbe97ff87	-0.2968714
221	0xbd41d8b6	-0.047325812
222	0xbf20da3f	-0.6283302
223	0x3ea30901	0.31842807
224	0xbd9663c5	-0.07343248
225	0x3cd2fcd7	0.025755329
226	0xbf1c8b74	-0.6115029
227	0xbde3c583	-0.11121657
228	0x3dad5910	0.08464253
229	0xbe8fc3e2	-0.28079134
230	0x3e8ae7f3	0.27130088
231	0x3e94f8e6	0.29096144
232	0x3ec272f0	0.37978315
233	0x3ef9091e	0.48639768
234	0xbe178df1	-0.1480024
235	0xbd7f9f18	-0.062407583
236	0x3c9d594b	0.019207617
237	0xbe52e2c7	-0.20594321
238	0x3e7bc742	0.2458773
239	0xbf065a73	-0.52481765
240	0xbe124793	-0.14285116
241	0xbe03c71e	-0.12868926
242	0x3ddcaa11	0.10774625
243	0xbe2eb8ea	-0.17062727
244	0x3eabd739	0.3356264
245	0x3ec19b0a	0.37813598
246	0xbe4dc18c	-0.20093364
247	0xbe1dc307	-0.15406428
248	0x3e636fad	0.2221057
249	0x3e07fb49	0.13279451
250	0x3dd4f0f4	0.10397521
251	0x3e41fd20	0.18944216
252	0x3e89825f	0.26857278
253	0xbed1851b	-0.40921864
254	0x3dd94c72	0.10610284
255	0x3d046e93	0.032332014

encoder.l2.bias f4 [32]
0	0xbd448ecd	-0.047987748
1	0xbd8f9467	-0.070107274
2	0xbba5fd69	-0.0050656092
3	0xbe056291	-0.13025881
4	0xbe1042db	-0.14088003
5	0x3d87de80	0.066342354
6	0x3a31d6f9	0.00067840476
7	0xbd957026	-0.07296781
8	0x3d8db10d	0.069185354
9	0xbe523af8	-0.20530307
10	0xbdc6bfb7	-0.097045355
11	0xbd436d38	-0.04771158
12	0x3ca23aee	0.01980349
13	0x3d9b5752	0.075850144
14	0xbdfdbdbb	-0.12389704
15	0xbc4d1c6e	-0.012518985
16	0x3c8ae7ea	0.016956288
17	0x3d8684f9	0.06568331
18	0x3d6a57e7	0.057212736
19	0xbd667158	-0.056260437
20	0xbd2d202c	-0.04226701
21	0x3da11e54	0.07867113
22	0x3b52e32e	0.0032178867
23	0x3c8b3392	0.016992364
24	0x3b824387	0.003975335
25	0xbe235b30	-0.15952754
26	0x3dbced5f	0.092249624
27	0x3dd6e6c4	0.10493234
28	0x3d009b41	0.03139806
29	0xbd021bd7	-0.03176483
30	0xbc1f51d2	-0.009724097
31	0xbc74519d	-0.014912036

lstm.weight_ih f4 [512, 288]
0	0x3d07db2f	0.033168014
1	0xbe61039e	-0.21974036
2	0xbe43d6f6	-0.1912497
3	0xbcea5a2c	-0.02860745
4	0x3ddf6c72	0.10909356
5	0xbdffcfd9	-0.12490816
6	0xbd90d412	-0.07071699
7	0xbdbfe728	-0.093702614
8	0xbc977e99	-0.018492984
9	0xbd221f97	-0.039580908
10	0xbe0067ac	-0.12539548
11	0x3e3c15eb	0.18367736
12	0x3e801667	0.25017092
13	0xbce319f2	-0.027722333
14	0xbdc24842	-0.09486438
15	0x3b3de13b	0.002897336
16	0x3dc622e0	0.09674621
17	0x3e97f3f1	0.296783
18	0xbd1d8e4e	-0.03846579
19	0x3df3b310	0.11899388
20	0x3da2fd26	0.079584405
21	0x3df6f8a5	0.12059144
22	0x3e0540e8	0.13013041
23	0xbe9cef10	-0.3065114
24	0xbdcd224a	-0.10016306
25	0x3e249aaa	0.16074625
26	0xb9da4e55	-0.00041638562
27	0x3e9c5f90	0.30541658
28	0xbd71ce48	-0.059034616
29	0xbe055adc	-0.13022941
30	0x3d91c765	0.071181096
31	0xbe10b2dd	-0.14130731
32	0x3e16a021	0.14709522
33	0x3cf2c037	0.02963267
34	0x3db100b0	0.08642709
35	0xbd6c5ed9	-0.05770764
36	0x3e09ef72	0.13470247
37	0xbdc05086	-0.093903586
38	0x3cda8b31	0.0266777
39	0x3c56b41f	0.013104468
40	0xbe1e0265	-0.15430601
41	0x3c504a37	0.012713007
42	0xbcb461aa	-0.022019226
43	0x3c0379b4	0.008024622
44	0xbe1490d4	-0.14508373
45	0xb916de0d	-0.00014387835
46	0xbcb4b411	-0.022058519
47	0x3c552f0c	0.013011705
48	0x3d4a3e91	0.049376074
49	0xbc956a65	-0.01823921
50	0xbd528cf4	-0.051403955
51	0x3c9505ee	0.018191304
52	0xbc13ebc9	-0.0090283835
53	0x3c8370a8	0.01604493
54	0x3dd11c30	0.102104545
55	0xbd08c3d5	-0.033389885
56	0xbc80cdbe	-0.015723106
57	0x3ce7b05f	0.028282342
58	0x3d12b8a7	0.03582063
59	0x3ddbb56b	0.10727962
60	0x3dbade4f	0.09124433
61	0xbc080260	-0.0083013475
62	0x3ddb1460	0.106972456
63	0xbdb1d52c	-0.086832374
64	0xbdaf63d4	-0.085639626
65	0x3c5ff0cb	0.013668249
66	0x3cf1618f	0.029465465
67	0x3d7e974e	0.062156014
68	0x3df60920	0.12013459
69	0xbcc460ca	-0.023971934
70	0x3cc03303	0.023461824
71	0xbcf3bcba	-0.029753078
72	0xbe141cb5	-0.14464076
73	0xbdc95050	-0.098297715
74	0xbd3f7017	-0.046737757
75	0xbd07841f	-0.033084985
76	0xbdc1a68d	-0.09455595
77	0xbdef673e	-0.11689614
78	0x3c959d21	0.018263401
79	0x3cde0601	0.027102472
80	0xbd98c6f3	-0.074598216
81	0xbdd06c0d	-0.10176859
82	0xbca2e2c2	-0.019883517
83	0xbaa8e950	-0.0012886915
84	0x3db833bf	0.08994245
85	0x3d095e77	0.033537354
86	0xbcb59f98	-0.022170827
87	0x3debbec4	0.11510995
88	0xbd14755e	-0.036244743
89	0x3e1c9997	0.15292965
90	0x3d98238f	0.07428657
91	0x3dcf863f	0.10133027
92	0x3d4bc7b9	0.049751017
93	0xbd1e7b71	-0.03869194
94	0x3d6c9389	0.057757888
95	0xbe04647a	-0.12928954
96	0x3e1da94b	0.15396611
97	0x3dcfe705	0.10151485
98	0xbe304026	-0.1721197
99	0x3d8ac8d2	0.06776585
100	0xbd861e71	-0.06548775
101	0x3dcbe698	0.09956092
102	0x3da22f24	0.079191476
103	0xbbe54597	-0.006996821
104	0xbc8aa768	-0.016925529
105	0xbdf0ba84	-0.11754325
106	0xbc8a24d4	-0.016863264
107	0x3d0b3fa3	0.033996236
108	0x3e3d1966	0.1846672
109	0x3cf4d2f7	0.029885752
110	0x3e1637a2	0.1466966
111	0x3cacca08	0.02109243
112	0xbe08a507	-0.13344203
113	0x3ddfb4c9	0.10923154
114	0x3da28766	0.079359815
115	0xbd111c43	-0.035427343
116	0x3cab90e7	0.020943118
117	0x3c0eab5c	0.008707847
118	0xbde5e537	-0.1122536
119	0xbe0f4949	-0.139928
120	0xbd9ea102	-0.077455536
121	0x3c9eaa39	0.019368278
122	0xbe0f7507	-0.14009486
123	0x3ca94a49	0.020665305
124	0x3d71d6b5	0.05904265
125	0xbc857436	-0.016290765
126	0x3d82d571	0.06388367
127	0xbdc10ee5	-0.09426669
128	0xbd96f493	-0.073708676
129	0xbdd7b45d	-0.105324484
130	0x3e2d9b3c	0.16953748
131	0xbe0c0cfb	-0.13676827
132	0x3d8ef232	0.06979789
133	0xbbe3e868	-0.006955195
134	0xbd9ba8d2	-0.07600559
135	0x3be3eaf1	0.0069554974
136	0x3b5ffee8	0.0034179036
137	0xbd3e6796	-0.046485506
138	0xbd262564	-0.040563002
139	0x3d48df33	0.049040984
140	0x3da6d4b8	0.08146042
141	0xbde70a11	-0.11281217
142	0xbb2d32c7	-0.002642797
143	0x3db2d127	0.08731299
144	0xbdb04258	-0.08606404
145	0x3da8a940	0.08235407
146	0xbd6c4e39	-0.057691786
147	0x3bb3041d	0.005463137
148	0x3db52b07	0.088460974
149	0x3d985481	0.07437993
150	0x3da0f35c	0.07858917
151	0x3dcf902c	0.101349205
152	0x3db4a601	0.08820725
153	0xbdd1426d	-0.10217748
154	0xbd046cf0	-0.032330453
155	0xbdc43abb	-0.095815144
156	0x3d39dcbf	0.045376536
157	0xbddc89fc	-0.10768506
158	0x3c4dd1e7	0.012562252
159	0x3e233941	0.1593981
160	0x3d75fb40	0.060054064
161	0x3d360d5d	0.044446338
162	0x3daf0dd5	0.0854756
163	0xbd8bc827	-0.068252854
164	0xbd22ecda	-0.03977666
165	0x3bb78501	0.005600572
166	0x3d53237d	0.051547516
167	0x3d4f57b9	0.05062077
168	0xbccb10bf	-0.024788259
169	0x3dfc948d	0.12333021
170	0xbd90239c	-0.07038042
171	0xbdb86f44	-0.09005597
172	0xbd87e256	-0.06634967
173	0x3cfa4510	0.03055051
174	0xbc714222	-0.01472524
175	0xbd375eb1	-0.04476804
176	0xbcfdb414	-0.030969657
177	0x3d966333	0.073431395
178	0x3d80ed0f	0.06295215
179	0x3d54ea87	0.051981475
180	0x3de9fcff	0.11425208
181	0xbcb6285b	-0.02223604
182	0xbe050678	-0.12990749
183	0x3c573cf6	0.013137093
184	0x3d4b44ca	0.04962615
185	0xbce86692	-0.028369222
186	0xbe1c69e6	-0.15274772
187	0x3da5dc8e	0.08098708
188	0xbd1827d2	-0.03714735
189	0xbd10546b	-0.035236757
190	0x3dc844f5	0.097787775
191	0xbda6e444	-0.08149007
192	0xbbf93c84	-0.007606091
193	0x3d95f596	0.073222324
194	0x3e14fd7a	0.14549819
195	0x3d34b25c	0.04411541
196	0x3d54a038	0.05191061
197	0x3d22926f	0.03969043
198	0x3db46ad8	0.08809441
199	0xbb582be7	-0.0032985152
200	0x3c05f0d4	0.008175094
201	0x3d851fd3	0.065002106
202	0x3e442d76	0.19157967
203	0xbce931e9	-0.028466182
204	0x3e108a37	0.14115225
205	0xbcc183f4	-0.02362249
206	0xbd8569c9	-0.065143175
207	0xbd0bc5e7	-0.03412428
208	0xbc3f404b	-0.0116730435
209	0x3df17a46	0.117909
210	0x3d84c2f6	0.06482498
211	0xbc0bd2f3	-0.008534181
212	0x3cc4bbd4	0.024015345
213	0xbcf1d886	-0.029522192
214	0x3d3384c2	0.04382778
215	0xbd359cc1	-0.044338945
216	0x3dda2e86	0.10653405
217	0x3ce2bef3	0.027678942
218	0x3c98c497	0.018648429
219	0xbd6a4348	-0.05719307
220	0xbcdc7f84	-0.026916273
221	0x3de826b8	0.1133551
222	0xbd4bfebe	-0.049803488
223	0x3cad3d25	0.02114732
224	0xbd8a626e	-0.06757055
225	0xbd9728c4	-0.07380822
226	0x3df4090c	0.11915788
227	0xbc344d84	-0.011004809
228	0x3df5f311	0.12009252
229	0x3c4bdd0e	0.01244284
230	0xbd193f24	-0.03741373
231	0x3d5dea3c	0.05417846
232	0x3d68bad7	0.05681881
233	0x3d43a56a	0.047765173
234	0x3dd70571	0.10499085
235	0xbcfeedbd	-0.031119222
236	0x3d4da094	0.050201967
237	0x3d735199	0.05940399
238	0xbd4cbd70	-0.04998535
239	0xbd382030	-0.04495257
240	0xbe0c36aa	-0.13692728
241	0xbd084d72	-0.033276983
242	0xbdf1d6b6	-0.11808531
243	0x3d5e7d61	0.05431879
244	0xbddb1286	-0.106968924
245	0x3d4a189e	0.049339883
246	0x3bf19766	0.0073727844
247	0x3e041c6c	0.12901467
248	0xbde72583	-0.11286452
249	0x3b603993	0.0034214004
250	0x3cd61469	0.02613278
251	0xbe1cc13a	-0.15308085
252	0xbe076207	-0.13220988
253	0xbb26cc62	-0.0025451411
254	0x3d032b0e	0.032023482
255	0x3d1384cc	0.036015317

lstm.weight_hh f4 [512, 128]
0	0xbce89244	-0.028390057
1	0xbdae135b	-0.084997855
2	0xbda449c5	-0.08021883
3	0x3ba6871f	0.0050820257
4	0x3b8fe427	0.0043912116
5	0x3c8250c1	0.015907647
6	0xbc8ba581	-0.017046692
7	0xbdc154ab	-0.09439977
8	0x3e620f2f	0.22076105
9	0x3d8ee0cd	0.06976471
10	0xbd6e5cf4	-0.058194116
11	0x3e6434f3	0.22285824
12	0xbc8da1a1	-0.017288985
13	0xbd8371d8	-0.06418198
14	0xbc221346	-0.00989229
15	0xbce509ba	-0.02795874
16	0xbd922ba9	-0.07137234
17	0xbd2a6b64	-0.041606322
18	0x3c9d655d	0.019213373
19	0x3d45e868	0.048317343
20	0x3da51940	0.08061457
21	0xbd03f74b	-0.03221826
22	0xbe509826	-0.2037054
23	0xbea7698a	-0.32697707
24	0xbf42e136	-0.76124895
25	0xbd6cfbf1	-0.057857458
26	0xbeb597b4	-0.35467303
27	0x3e059363	0.13044505
28	0x3dc250b3	0.094880484
29	0xbe6d72be	-0.23188302
30	0xbd97715d	-0.07394669
31	0x3d0146f2	0.0315618
32	0xbe236fe7	-0.15960656
33	0x3d31f5bb	0.043447237
34	0x3e55c482	0.20875743
35	0xbd9f4f9e	-0.07778858
36	0x3de8bb3f	0.11363839
37	0x3d989dfb	0.074520074
38	0xbe2c24d9	-0.16810931
39	0xbea13265	-0.3148376
40	0xbe421429	-0.18953003
41	0xbdb14720	-0.08656144
42	0x3ef7c130	0.48389578
43	0xbd86b67d	-0.065777756
44	0xbdba2d37	-0.09090655
45	0x3e0c3c27	0.13694821
46	0xbdd0a881	-0.101883896
47	0x3cad837d	0.021180863
48	0xbebfefda	-0.3748768
49	0x3cd44d8e	0.025915887
50	0xbe9f9110	-0.3116536
51	0x3e8c61a0	0.27418232
52	0xbcb177b1	-0.021663519
53	0x3d06163c	0.032736048
54	0x3ece5c1a	0.40304643
55	0x3d50f175	0.05101152
56	0x3e546904	0.20743185
57	0x3e3eb5e7	0.18624078
58	0x3e837e3e	0.25682253
59	0xbe73705f	-0.23773335
60	0x3ee41d0c	0.4455341
61	0x3df6f645	0.12058691
62	0x3e5f90bd	0.21832557
63	0xbcd8135c	-0.026376419
64	0x3dcd0888	0.10011393
65	0x3e4b6337	0.19862066
66	0x3e1435a3	0.14473586
67	0xbebcc574	-0.36869395
68	0x3d46cbe2	0.04853428
69	0x3d44e0dc	0.048066005
70	0x3d1c050b	0.038090747
71	0xbeb6ec70	-0.35727262
72	0x3ede19e5	0.4337913
73	0xbe20b1f2	-0.15692881
74	0x3c6ad2da	0.0143324975
75	0xbed23c15	-0.41061464
76	0x3dd01063	0.101593755
77	0xbd6937f1	-0.056938116
78	0xbe443957	-0.19162498
79	0xbe54fc39	-0.2079934
80	0x3dd4ddfe	0.10393904
81	0xbc4f4c51	-0.012652473
82	0xbc551cf3	-0.01300739
83	0x3d8aa4dc	0.06769726
84	0x3daa7fc5	0.08325151
85	0xbd8fa7bf	-0.07014417
86	0xbc924fe7	-0.017860366
87	0xbea9dc6c	-0.3317598
88	0x3db1d43f	0.08683061
89	0xbe937e03	-0.28807077
90	0xbe8c0bad	-0.27352658
91	0x3dbdf9a0	0.09276128
92	0xbd8d7706	-0.069074675
93	0xbe8cc8bc	-0.27496898
94	0xbe493976	-0.19650826
95	0xbe7ab6f1	-0.24483849
96	0xbe3518a7	-0.17685185
97	0x3e906fb6	0.2821023
98	0xbe8e585a	-0.27801782
99	0xbe278129	-0.16357864
100	0xbe285bf9	-0.16441335
101	0x3e025f02	0.12731555
102	0xbca60df0	-0.020270318
103	0xbe11f815	-0.14254792
104	0x3e640ce0	0.22270536
105	0x3e2c5a35	0.16831286
106	0x3db9c07e	0.09069918
107	0x3e1497f5	0.14511092
108	0xbe03b760	-0.12862921
109	0xbd6a80ba	-0.05725167
110	0xbe1158a0	-0.14193964
111	0xbd53395b	-0.05156837
112	0x3e31ad58	0.17351282
113	0xbc3c1aab	-0.0114809675
114	0xbdbba0de	-0.09161542
115	0x3d712a78	0.058878392
116	0xbe506680	-0.203516
117	0xbd94222b	-0.072330795
118	0xbc2f296d	-0.010691029
119	0xbbd533c3	-0.0065064146
120	0x3d8d78aa	0.069077805
121	0x3d04d240	0.032427073
122	0x3ef4b3cd	0.47793427
123	0x3d99249f	0.07477688
124	0xbeb0571f	-0.34441468
125	0xbd12ad94	-0.03581007
126	0x3d556c94	0.0521055
127	0x3d80541b	0.06266042
128	0x3e97e497	0.29666588
129	0x3dbd9cf2	0.092584506
130	0x3ecb029d	0.3965043
131	0xbdaf7abb	-0.08568331
132	0xbda20059	-0.079102226
133	0x3ca6cbd4	0.020360865
134	0x3e4614b3	0.19343834
135	0xbdaaeb57	-0.08345669
136	0x3dbce31c	0.09223005
137	0xbcc4f403	-0.024042135
138	0xbd2e422b	-0.04254357
139	0xbe5a767f	-0.21334265
140	0xbd163cc7	-0.036679056
141	0xbe48009a	-0.1953148
142	0xbe542fca	-0.20721355
143	0xbdd03072	-0.1016549
144	0x3d25ac9f	0.040447827
145	0x3ea380c3	0.31934175
146	0x3ea1d92b	0.31611
147	0x3e5af40d	0.2138216
148	0x3e669231	0.22516705
149	0xbaa716ec	-0.001274792
150	0xbdc0e4fd	-0.09418676
151	0x3c8682de	0.016419824
152	0x3e773c91	0.24144198
153	0x3e2d13dc	0.16902107
154	0x3d15c116	0.036561094
155	0xbd9722f7	-0.07379716
156	0xbe584495	-0.21119912
157	0xbdbeef5c	-0.09322998
158	0x3d9cd47b	0.07657715
159	0xbe57872d	-0.21047659
160	0xbe18ecb8	-0.14934051
161	0xbda5b75d	-0.080916144
162	0x3d5995d4	0.053121403
163	0xbe395696	-0.18099436
164	0xbe4146b3	-0.18874626
165	0x3e1b3cc4	0.15159899
166	0xbea91ee4	-0.3303138
167	0x3e91287a	0.28351194
168	0xbe2cee73	-0.16887836
169	0x3e20f645	0.15718944
170	0xbd199459	-0.03749499
171	0x3dbe66b0	0.0929693
172	0xbcc0afa1	-0.023521246
173	0x3e688f0c	0.22710818
174	0x3d9ab57e	0.07554148
175	0x3e098cc9	0.13432612
176	0xbddb2012	-0.10699476
177	0x3daac256	0.08337848
178	0x3e7552dc	0.2395739
179	0x3e5edeb9	0.2176465
180	0xbeb43cc4	-0.3520261
181	0x3da81b39	0.08208317
182	0x3edde8dc	0.4334172
183	0x3eac9cc9	0.33713368
184	0xbcc3fab6	-0.02392326
185	0xbe199942	-0.1499987
186	0xbe31cea7	-0.17363988
187	0xbedd1338	-0.43178725
188	0x3da06785	0.07832245
189	0x3b8e30c4	0.0043393094
190	0xbcd88754	-0.026431717
191	0x3d94e80a	0.072708204
192	0xbeab1463	-0.3341399
193	0xbd653105	-0.05595495
194	0xbd76f58a	-0.060292758
195	0x3da4aa5b	0.08040305
196	0x3e3a5569	0.18196644
197	0xbcfdb3c6	-0.030969512
198	0x3e277c5b	0.16356032
199	0xbdcac8b8	-0.09901565
200	0xbd951e33	-0.07281151
201	0x3d7b05fb	0.061285
202	0xbc878216	-0.016541522
203	0x3d849925	0.064745225
204	0xbe48c22d	-0.19605322
205	0x3eab8196	0.33497304
206	0x3d9699c4	0.07353547
207	0xbe30b300	-0.17255783
208	0xbe6748d8	-0.22586381
209	0xbeae569a	-0.34050447
210	0x3e1eed0f	0.15520118
211	0xbe0da570	-0.1383264
212	0x3ea7fa70	0.32808256
213	0x3dae9757	0.085249595
214	0xbe69b6d5	-0.22823651
215	0x3f03ac00	0.51434326
216	0x3d9e2a9e	0.07722972
217	0x3eb6c61c	0.3569802
218	0x3dd8fa1c	0.105945796
219	0x3d93428c	0.07190427
220	0x3ec47055	0.38366953
221	0x3e03969e	0.12850425
222	0xbde1f0e8	-0.11032277
223	0x3c495f19	0.012290739
224	0x3b96f025	0.004606264
225	0xbeae6cac	-0.34067285
226	0x3dd2638a	0.10272892
227	0xbeba77f6	-0.36419648
228	0xbea6f49c	-0.32608497
229	0xbe3623c6	-0.17787084
230	0xbe285308	-0.16437924
231	0x3d50ba9b	0.05095921
232	0xbd18984a	-0.03725461
233	0xbe3d396c	-0.18478936
234	0x3e0c74eb	0.13716476
235	0xbd637947	-0.05553558
236	0xbd869f70	-0.06573379
237	0x3e5ea062	0.21740869
238	0x3ea9aee9	0.33141258
239	0x3db05e08	0.08611685
240	0x3e4fd5a2	0.20296338
241	0x3e9f9607	0.3116915
242	0xbe9c05a2	-0.30473047
243	0xbe70d87d	-0.23520084
244	0xbd5fbde5	-0.054624457
245	0xbe77e799	-0.24209441
246	0x3e37613d	0.17908187
247	0x3d554406	0.052066825
248	0x3e0782c3	0.13233475
249	0x3d161e10	0.036649764
250	0x3e334916	0.17508349
251	0xbde575db	-0.1120412
252	0x3dfbd6ee	0.12296854
253	0x3d3ad9c1	0.045617823
254	0xbe2db10b	-0.16962068
255	0xbd1d534c	-0.038409516

lstm.bias_ih f4 [512]
0	0x3dd3dc8b	0.103447996
1	0x3c8c3d9b	0.01711922
2	0xbae2966c	-0.0017287261
3	0x3c010be4	0.00787637
4	0x3db18882	0.08668615
5	0x3da4d468	0.08048326
6	0xbdf63556	-0.12021892
7	0x3daadc73	0.083428286
8	0x3db1d97c	0.0868406
9	0x3ba1230c	0.004917508
10	0x3d915ad1	0.070974
11	0x3d5d71e8	0.054063708
12	0x3dff52e9	0.12466986
13	0xbca3ffbc	-0.020019405
14	0xbc18ef24	-0.009334359
15	0x3d9fbeb7	0.07800048
16	0xbc8fef3c	-0.01757013
17	0xbd09dcf1	-0.03365797
18	0x3cb2f0b2	0.021843288
19	0x3d450f11	0.04811007
20	0x3d2a6812	0.041603155
21	0x3e0a2966	0.13492355
22	0x3c8834c6	0.016626727
23	0x3e069a3d	0.13144775
24	0xbd15b784	-0.036551967
25	0xbd52e84d	-0.05149107
26	0x3d8f8792	0.0700828
27	0x3e037ae2	0.12839845
28	0x3da85f6c	0.08221325
29	0x3dac32f1	0.08408154
30	0x3e041f57	0.1290258
31	0x3ab1cc77	0.0013564964
32	0x3df97de4	0.12182215
33	0x3e1194f6	0.1421698
34	0x3d599088	0.05311635
35	0xbb667ca1	-0.00351695
36	0x3db53346	0.0884767
37	0xbd991b15	-0.074758686
38	0x3d8a34c0	0.067483425
39	0x3def1f9d	0.11675952
40	0x3db77391	0.089575894
41	0xbc603671	-0.013684855
42	0xbd0f7687	-0.035025146
43	0x3bdd1efb	0.006748078
44	0xbd879504	-0.06620219
45	0x3d9cabe0	0.0764997
46	0x3ca036a5	0.019557307
47	0xbd9e348b	-0.077248655
48	0x3e1a2d31	0.15056302
49	0x3dcd247e	0.10016726
50	0xbcd81e8f	-0.026381759
51	0x3e05eb38	0.1307801
52	0x3bbfc440	0.0058522522
53	0xbd5b3912	-0.053521223
54	0x3cbf1fcb	0.02333059
55	0xbd4d39d4	-0.050103977
56	0x3c869ea9	0.016433077
57	0x3d719223	0.058977257
58	0xbd2bf539	-0.04198191
59	0xbd5a1fec	-0.0532531
60	0x3b604e70	0.003422644
61	0x3d8c2dfb	0.068447076
62	0xbce1d7ec	-0.02756878
63	0x3c59d0aa	0.013294378
64	0xbdd3a70b	-0.10334595
65	0x3cc9ae62	0.024619285
66	0xbb3d00e3	-0.002883964
67	0x3c384769	0.011247494
68	0x3de0f438	0.10984081
69	0xbd2d9f71	-0.042388383
70	0x3dd23445	0.10263876
71	0x3ae4b125	0.0017447813
72	0x3e12d6e3	0.14339785
73	0x3d6087bd	0.05481695
74	0x3e236309	0.15955748
75	0x3d5e5592	0.054280825
76	0xbd468d3f	-0.048474547
77	0x3d388a62	0.045053847
78	0x3dfb4774	0.12269488
79	0x3d3a3571	0.045461122
80	0x3e38483f	0.1799631
81	0x3dec61f9	0.11542124
82	0xbd3b229c	-0.045687303
83	0x3a7f5808	0.00097405957
84	0x3ccc51ad	0.02494129
85	0x3daef476	0.08542721
86	0x3d964e49	0.073391505
87	0xbde05cd7	-0.10955208
88	0xbd191f62	-0.037383445
89	0x3dc0706a	0.09396441
90	0x3d2236af	0.03960293
91	0x3dc08a54	0.09401384
92	0x3cba85e1	0.022768917
93	0x3d470e6f	0.04859775
94	0x3c6b69b7	0.014368466
95	0x3e004c2f	0.12529062
96	0xbd8564a2	-0.06513335
97	0x3e0a1f75	0.13488562
98	0x3a68824a	0.0008869512
99	0xbd58636c	-0.05282919
100	0xbc72225e	-0.014778702
101	0xbd9093bc	-0.07059428
102	0xbd406b6e	-0.046977453
103	0x3e07ec4b	0.13273732
104	0x3dfdab5f	0.12386202
105	0xbcd48ec1	-0.025946977
106	0x3bf2dc41	0.00741151
107	0x3c3bcaa2	0.011461886
108	0xbcaed8f8	-0.021343693
109	0xbd5275b7	-0.051381793
110	0xbdaf0c1f	-0.08547234
111	0x3df30441	0.11866046
112	0x3db3917a	0.08767982
113	0x3cf8aa1a	0.030354548
114	0xbcf8438b	-0.030305644
115	0x3cbc8a08	0.023015037
116	0x3d2a76ce	0.041617207
117	0xbd9cfe42	-0.07665683
118	0xbcaef443	-0.021356707
119	0x3e020962	0.12698892
120	0x3b521e78	0.0032061618
121	0x3db29638	0.08720058
122	0x3e0afc56	0.13572821
123	0xbd5d59b5	-0.05404063
124	0xbd1cfcea	-0.038327135
125	0x3d27783e	0.040886156
126	0x3dd12e61	0.10213924
127	0x3c47b11f	0.012188225
128	0xbe00606f	-0.12536786
129	0x3d0f4363	0.034976374
130	0xbe149c88	-0.14512837
131	0xbcfd653f	-0.030932067
132	0xbd97b28b	-0.07407101
133	0xbdc3e041	-0.095642574
134	0x3d6ae19d	0.057344068
135	0x3d95ccb9	0.073144384
136	0xbde8ce5a	-0.113674834
137	0x3d3b0d23	0.045666825
138	0xbdd7fa45	-0.10545782
139	0x3b1ea642	0.0024207984
140	0x3bf463b2	0.0074581737
141	0xbd88a4f6	-0.06672089
142	0x3d1a84cb	0.037724297
143	0xbc23469f	-0.009965568
144	0xbd52307b	-0.051315766
145	0xbd839623	-0.06425121
146	0xbdd2f189	-0.102999754
147	0xbdc584bb	-0.09644457
148	0xbdabceb0	-0.08389032
149	0xbe070562	-0.13185647
150	0xbd7a5f6f	-0.06112617
151	0xbc9a1618	-0.018809363
152	0xbdeadb3b	-0.11467596
153	0xbd6747d3	-0.05646498
154	0xbd88d63d	-0.06681488
155	0xbe36c8db	-0.17850058
156	0xbdb12a21	-0.086506136
157	0x3d6319da	0.055444576
158	0x3d325cdb	0.043545585
159	0x3d0241fc	0.03180121
160	0xbd002e19	-0.031293962
161	0xbe230271	-0.159189
162	0x3d5ee0f4	0.05441375
163	0xbc95d7fc	-0.018291466
164	0xbd66d1ec	-0.05635254
165	0xbd221664	-0.039572135
166	0xbd69aa05	-0.05704691
167	0x3cb1cd4a	0.021704335
168	0x3c9459a8	0.018109158
169	0xbdd23576	-0.10264103
170	0xbd918296	-0.071049854
171	0xbdb9c6e0	-0.090711355
172	0x3d67d210	0.056596816
173	0x3da95fb1	0.08270205
174	0xbcd19e7f	-0.025588272
175	0xbcb16698	-0.021655366
176	0xbde7ff9e	-0.11328052
177	0xbdfa571f	-0.12223648
178	0xbd9adbea	-0.075614765
179	0xbd2530b1	-0.04032964
180	0xbe09fad2	-0.13474587
181	0xbdf74103	-0.12072947
182	0xbca92978	-0.020649657
183	0xbde35506	-0.11100201
184	0xbd92676a	-0.07148631
185	0xbd301bba	-0.042995192
186	0x3d75aa7c	0.05997704
187	0xbda41d80	-0.08013439
188	0x3d182b99	0.037150953
189	0xbce593ee	-0.02802464
190	0xbe33832a	-0.17530504
191	0xbc87bb49	-0.016568797
192	0xbd624802	-0.055244453
193	0x3d4cf96d	0.05004256
194	0xbc7d47fa	-0.015459055
195	0x3d72b4b1	0.059254352
196	0xbe0def70	-0.1386087
197	0xbd638358	-0.05554518
198	0x3b00c8ca	0.001965093
199	0x3d2f869f	0.042852994
200	0xbdbe2369	-0.09284098
201	0xbe2ae88d	-0.16690274
202	0xbd19b9f7	-0.037530866
203	0x3c947768	0.018123344
204	0xbd5e1da7	-0.054227497
205	0x3d37a356	0.044833504
206	0xbdcf07ac	-0.10108885
207	0xbe1a04e8	-0.15040934
208	0x3d436d5b	0.04771171
209	0xbe229a3e	-0.15879151
210	0xbd807fe6	-0.06274395
211	0xbdbee6e7	-0.09321385
212	0xbdc884b1	-0.09790934
213	0xbdbb073e	-0.09132241
214	0x3cd16a18	0.025563285
215	0x3dec8831	0.11549414
216	0x3d9d4d45	0.076807536
217	0x3d8a39b1	0.06749285
218	0x3d7b0acd	0.061289597
219	0x3d12e5fd	0.035863865
220	0xbe11ddc5	-0.14244755
221	0xbd45de64	-0.04830779
222	0x3c07a70b	0.008279572
223	0x3d342284	0.04397823
224	0x3d02b45e	0.031910293
225	0xbda265c8	-0.079295695
226	0xbdec865e	-0.11549066
227	0xbe02156b	-0.12703483
228	0xbd556085	-0.052094
229	0xbcc78bb6	-0.024358612
230	0x3d49e9a2	0.049295075
231	0xbdbe00e1	-0.092775114
232	0xbc4cd0eb	-0.012500982
233	0xbc8e183c	-0.01734554
234	0x3ca1cb06	0.01975013
235	0x3d9f8758	0.07789487
236	0xbdda679a	-0.10664292
237	0xbdedce58	-0.116116226
238	0x3d8102b3	0.06299343
239	0xbdd5704b	-0.10421809
240	0x3c446563	0.011987063
241	0x3d9e8d25	0.07741765
242	0x3d954f1c	0.072904795
243	0xbd572c69	-0.052532587
244	0x3d37e2fc	0.044894204
245	0x3ce26586	0.0276363
246	0xbd0265ee	-0.03183549
247	0x3bc26727	0.005932707
248	0xbd8638bd	-0.06553791
249	0xbdaf00a5	-0.08545045
250	0x3d0251c3	0.031816255
251	0xbd96f3a2	-0.07370688
252	0xbdece3fa	-0.115669206
253	0xbe06a2ee	-0.1314809
254	0xbd42485d	-0.047432292
255	0xbe10321e	-0.14081618
