evaluation_results/models/list_npi_2020_2_26-21_50_48-520-False-False-1.0-False-0.3-False-True-True-False.pth (torch_old, 963073 bytes, 16 tensors)

Mprog.weight f4 [3, 256]
00000000: 871f c63e 7c62 cabe 6de0 563f e9f4 e8bd
00000010: ff1d 883f 87a7 9e3f 61e2 a5be 40fe 993f
00000020: 7efe f03f 9b6e d63d 6991 8ebf 8c9f 2b3f
00000030: c700 44be c9b0 26c0 9e82 3cbe 2dfd f33e
00000040: a82d 2fbf ebd2 b03f f06e a93f b7e2 9abf
00000050: 864e 31bf 25fb 273e cd00 0d3e fa7d cabc
00000060: ec5b 913f 07ea 9e3d e645 b43d 10c1 17bf
00000070: 6abf 983f 106a 0cbf fd53 253f 2cb4 acbf
00000080: 1f93 85bf 52c8 07c0 c9ef c83e 923e db3e
00000090: e8b3 413f 8de5 16bd b877 e93f c1a4 5f3f
000000a0: 6614 363e 6673 a83f f685 28bf b66f a3be
000000b0: 95c9 0f40 f45f 0440 e134 973f d141 02bf
000000c0: 2228 3fbf c61c c53f a719 9b3f aa6b 9a3e
000000d0: c657 a33e 872a b4bf 502c 293f 19da a1bf
000000e0: 3179 94be d232 08bf 54bb b9bf b14a bf3f
000000f0: 509d 56be 8d5e 933c 36c4 c6be bb93 8ebf
00000100: 9957 843f 7955 163f e8a6 b1bf f50a 683f
00000110: 4e75 60bd 484f 533d e4e3 24c0 5ba9 c03f
00000120: 4755 49bf dd63 28bf a126 63bd 57b6 48bf
00000130: 06ca f83e a721 bc3e e4ca e83f fe77 a3bf
00000140: f326 6bbe 01e0 073f c4cd 1ebe eaac fb3e
00000150: 07d4 f53e e054 9c3e 71aa 0d40 6658 88bf
00000160: 0e71 8cbe 51e8 91bf 23df ec3d 62b7 373e
00000170: 9a7d 483f af8d a9bc 54f8 663e 6a08 9c3e
00000180: 6511 8abe 1890 ba3f 8070 6dbf 3751 653e
00000190: 447d 533f 10fa 2340 9c35 be3c caf1 083f
000001a0: 3051 ab3f 6535 34c0 9fc6 883f 6927 15bf
000001b0: 93e1 01bf a83e 3cbe 6a1c bf3f e097 afbe
000001c0: 247e 5d3f 506e da3e 02e9 e73e 2339 ae3f
000001d0: 174d ffbf 987d 763f 82f1 443f d484 bf3e
000001e0: d174 0cbe 4f89 80bf b45a bfbc f624 90bf
000001f0: 1038 903f b3e3 4e3e fbe5 e9be 2151 cebf
00000200: 1aa6 06bf 015f a0bf a3a0 463f 3e1c 3abf
00000210: 7fca e63d edac 923f 3211 2c3f fa76 2abf
00000220: b533 1bbe 6200 1fbf 0cb7 463e d1ea a4be
00000230: 48c3 333f ff5d 153e f482 91bf a92d 643f
00000240: 6372 cfbf 367c debf 5f6b be3f 76de b13f
00000250: 5114 6abf f3b9 a03c 5ae9 153d ef23 403f
00000260: 5fcc 56bf d384 17bf 7d5d 903f 7144 5ebf
00000270: 2b04 ee3f 7178 fb3b ff29 2bbe ef6c 18be
00000280: a9bb 1640 52b6 123f 175f 1040 e490 4cbc
00000290: a16b 1440 c8d5 2a3f 6741 573f bf26 34be
000002a0: f9a6 b8bf 8971 6a3c a2ff 80bf 09d3 0040
000002b0: 5670 403c d50b 143f 1080 b73f 8cdd 86bf
000002c0: 3928 04bd b437 9d3f 66d3 92bf a19c abbf
000002d0: 30e2 0a40 acc9 80bd 46b2 c9be 0f75 2e3f
000002e0: e0bb 67be 823a dfbf 1fba 9d3f 32a8 6fbd
000002f0: 495d fcbf 0ed1 453e 09f1 febf c263 98bf
00000300: a389 26bf 5035 013f 334b f1be d8a8 01be
00000310: 9e60 d3bf 67ee 393c 5035 d03f 91b5 ee3e
00000320: cf82 b23e e5d4 ca3e 2031 ea3f 7e10 a93e
00000330: b05f a8be 8a55 493d 3386 b63f 7d96 8b3e
00000340: 21e3 5c3f 6e58 4ebf 2846 44bf 0f67 b5bf
00000350: beb9 1f3f 118b e5be 0165 3cbf 8fbf ae3e
00000360: 4253 ec3f 2474 60bf 3a3d c5be 3dde 1bbe
00000370: 69c2 073f 1aec 753f 2236 60bf dc05 b3bf
00000380: b8e1 37bf 89a2 c03f 5bb5 86be 380c 133f
00000390: de55 bebe f2ea 8fbf b88a 93bf 0f0a 57bf
000003a0: cc30 aebf 9e17 aabf 5e4b 4bbe 8847 36c0
000003b0: d9e1 b73f ae08 1ebf 23d0 0cbf ddaf 6cbf
000003c0: 6268 7b3f 2efc 9f3f c751 9fbf eda7 fabf
000003d0: 8828 383f a74f 0a3d bc72 e63e 1e6e 1fbf
000003e0: f8ad 183f 5953 313f 9b49 523f b732 85be
000003f0: 5fbe 9a3f 52b3 f53d 2488 ffbe 3747 24be
0.38695928 -0.39528263 0.83936197 -0.11374838 1.0634154 1.2394875 -0.32399276 1.2030716
1.8827665 0.10470315 -1.1138126 0.67040324 -0.19140922 -2.60454 -0.18409202 0.47654095
-0.6842904 1.3814367 1.323698 -1.2100438 -0.6926044 0.16404398 0.13769837 -0.024718273
1.1356177 0.07759481 0.088023946 -0.59278965 1.1933415 -0.5484934 0.6458128 -1.3492484
-1.0435523 -2.1216016 0.39245442 0.42821175 0.7566514 -0.03684001 1.823966 0.8736077
0.17781219 1.3160217 -0.6582941 -0.31921166 2.2466786 2.0683565 1.1813012 -0.5088168
-0.7467061 1.5399406 1.2117203 0.30160266 0.31902903 -1.4075478 0.6608324 -1.2644683
-0.28998712 -0.53202546 -1.4510293 1.4944669 -0.20958447 0.017989421 -0.38821572 -1.1138834
1.0339233 0.5872417 -1.3879061 0.9064172 -0.05479937 0.05158928 -2.5764093 1.5051683
-0.7864575 -0.6577738 -0.05545676 -0.7840323 0.48591632 0.36744425 1.8186917 -1.2770994
-0.22964077 0.5307618 -0.15508181 0.4915536 0.48013327 0.30533504 2.213528 -1.0651977
-0.27430004 -1.1399022 0.115659975 0.17941049 0.7831665 -0.020697443 0.22555667 0.3047517
-0.26966396 1.4575224 -0.92749786 0.22394262 0.82613015 2.5621376 0.023218922 0.5349394
1.3384151 -2.815759 1.0685614 -0.5826326 -0.50734824 -0.18383276 1.4930546 -0.3429556
0.865206 0.42662287 0.45294958 1.3611187 -1.9945401 0.9628539 0.7693101 0.37406027
-0.13716437 -1.0041903 -0.02335868 -1.126128 1.1267109 0.20204048 -0.45683274 -1.6118509
-0.525972 -1.2528993 0.7758886 -0.72699344 0.11269092 1.1459023 0.6721374 -0.66587794
-0.15156443 -0.6210996 0.19405764 -0.322104 0.7021985 0.14586638 -1.1368089 0.8913217
-1.6206783 -1.7381656 1.4876517 1.3896015 -0.9143725 0.019619917 0.036599495 0.7505483
-0.83905596 -0.5918705 1.127853 -0.86823183 1.8595022 0.00767427 -0.16715239 -0.14885305
2.3552039 0.5730945 2.2558038 -0.0124857165 2.3190691 0.66732454 0.8408417 -0.17592905
-1.4425956 0.014309295 -1.0078013 2.0128806 0.011745533 0.57830554 1.4335957 -1.0536361
-0.03226492 1.2282624 -1.1470764 -1.3407174 2.1700554 -0.06288466 -0.39393824 0.6814737
-0.22630262 -1.743973 1.2322425 -0.058510013 -1.9715968 0.1931803 -1.9917308 -1.1905444
-0.65053767 0.50471973 -0.47127685 -0.12662065 -1.651386 0.011348343 1.626627 0.466229
0.34865424 0.3961555 1.8296242 0.33020395 -0.32885504 0.049153842 1.4259704 0.2726325
0.8628407 -0.80603683 -0.7666955 -1.4172076 0.62392795 -0.44832662 -0.7359162 0.34130523
1.8462908 -0.87677217 -0.38523275 -0.15221496 0.5303102 0.9606339 -0.875826 -1.3986163
-0.71828794 1.5049602 -0.26310238 0.5744052 -0.37174886 -1.1243575 -1.1526709 -0.83999723
-1.3608642 -1.3288457 -0.19852969 -2.848116 1.4365798 -0.61731994 -0.5500509 -0.92455846
0.9820615 1.2498834 -1.2446831 -1.9582497 0.71936846 0.03376737 0.4500941 -0.622774
0.59640455 0.69267803 0.82143563 -0.26015255 1.2089347 0.11997093 -0.49908555 -0.16042791

encoder.l1.weight f4 [100, 44]
00000000: 3b99 85bd 96f6 a93d f3b4 4f3c 7edd 31be
00000010: c5c7 50bd 52a6 8a3d 244f d5bb b437 a5bd
00000020: 8cdc c9bd 11b7 a9be b7df 6ebe 98ed bf3d
00000030: 0218 63be 47c3 e7bd a210 cbbd dced 56bd
00000040: 15ea 943c 4962 6dbd 5a8b 913e 9fd6 2cbe
00000050: caa5 1ebe ec18 5c3e 52b1 d7bd 9e3c 98bd
00000060: a2f1 9a3b 655a a4bd 2774 dd3d 21a7 3abd
00000070: 21d7 33be 5354 5a3e 28f6 4c3c 9d91 ee3d
00000080: f68b d6bd 271a 273e 6dc3 663e b369 fabd
00000090: 867c 093e 9ecc ce3d 2cbb 333d 7a41 b5bd
000000a0: aec6 673e f649 2e3d ac6c 82bd 7a23 15be
000000b0: dbbf 233e bc73 c5bd 4c8b 8b3e 3323 683e
000000c0: 296a 81bd e0ec de3c 2a1c 253c 0603 3abe
000000d0: a7f1 34be 1480 213d 1e0d f4bc 7efd 013d
000000e0: 3826 e8bd 73d1 dcbc f293 c3bd 883e df3d
000000f0: c964 69bd 57cb 5d3e 6117 bf3e 2505 bb3c
00000100: 5886 c73d 38c5 a93d b624 92bb 2221 aa3b
00000110: 2f98 ea3d eaa8 063d 93a4 d43d 9473 4b3d
00000120: 53e8 b13d 64d9 f2bd c41f 6e3c 47fe 843d
00000130: 787f 953c 93a2 de3d 23fa 873c 3db0 0cbe
00000140: cbcc 513d 4b91 0abe a567 69bd 6359 cb3d
00000150: ccef 6fbd 2e49 6abe da99 bbbc 157e 453e
00000160: 274e 0c3d f0e2 af3d 5576 613e e9cb 313e
00000170: 0093 1a3e 25a9 b4bd 9e0d c0bd c6df 313e
00000180: cdce 98bd cfd2 36be b89f 0a3e b3bb 30be
00000190: dc73 9bbe 3683 a53d 87ff c1bc 8743 57bc
000001a0: d751 be3d 7c95 4d3e 755d 9a3e 74e5 2a3e
000001b0: de72 2d3e 5457 783e 08f0 afbd 2788 cb3d
000001c0: 28ed 11bd 1c39 6a3e feba 21bd fb8f bf3d
000001d0: fcda b6bd 3980 82be d016 a6be 5c1c a6bc
000001e0: 2bac 56be 3177 903e a09e 203e a3c0 28bf
000001f0: 9fe6 bc3e 3f43 3abf d62f d03d a4c0 74be
00000200: 20d7 02bf 7075 1fbe 1b85 26bd 7127 db3d
00000210: d04a 88be 80d8 fb3d da47 a9bd ad77 0c3d
00000220: a8c6 bebe 4e6d fb3d c7a8 e43e edc4 e73e
00000230: 1373 7bba d018 a93c 5423 c53e f2ac 673d
00000240: e7ce 27bd 07fc 263c 4f76 423c 952c 773e
00000250: 646d 833e 4c9e 62be 3138 2bbe ae6e e2bd
00000260: c551 143e 6954 45bd 2bf6 373e f9bc a2bc
00000270: 594a 613e d40a 3fbd e948 f7bd 70c4 29bf
00000280: 0066 84bc cc8b ca3d 5970 01be c984 383d
00000290: 80cc f2bd 2f18 c53a c417 733d 290d 123e
000002a0: 500d 0cbc 46f7 933e 7ad3 04bc 6e17 64be
000002b0: dcb2 733c 7d37 99bd 722a 31bd 156b c93d
000002c0: 1de5 0a3e 6c8c 083e 36ab cb3d af41 183c
000002d0: 8a98 19be ae3b 10be 0ed3 e3be b8a6 a3bd
000002e0: 8129 423d ba9b 0fbc d3f6 593e 6586 f3bd
000002f0: 10cb 613d 97d5 b83d 7792 333e 083d 0f3e
00000300: ef25 18be 364f 31be 2210 53bd 7693 143e
00000310: c317 873d d859 f4bc ea89 cf3b 249d 4e3d
00000320: 0c3b 713d da3e e93d 9c12 02be e653 9d3e
00000330: a583 f1bd e7b3 1ebe ca9c 233e 0eed 7fbe
00000340: 96d1 67be 5162 b2bb e579 953e 2f6d f1bd
00000350: 93ed 62be 8f46 b23e e34a e8bb 90cb 873e
00000360: 4d34 333e a082 b13d 11ee 873b f1ff 46be
00000370: 3820 783e 30d8 dc3c 9582 6f3d f3aa f23c
00000380: c3f7 8e3e 7533 a63d f63a b3bd 523b 6c3e
00000390: fc26 57be b3eb 4bbe c0fa dcbe 437a 04bd
000003a0: 3665 023e 333a de3d ec9f 8fbd a29e e83c
000003b0: 5ae3 5c3e d3f4 3fbe c432 943e a219 0d3e
000003c0: 6d57 4c3d 70aa 9b3d 153e e4bb 7774 6fbd
000003d0: ed52 053e 6a73 863e 55ce 14be 6d43 d13d
000003e0: 1514 653e f215 d2be 2421 73bd d950 0bbd
000003f0: 7e0c be3d 559b 193e 2c30 d7bd bfe3 d2bd
-0.06523367 0.08298986 0.012677419 -0.17369649 -0.050971765 0.06770004 -0.0065096784 -0.08067265
-0.09856519 -0.3314748 -0.23327528 0.09371489 -0.22177127 -0.11316543 -0.09915282 -0.052472934
0.018178025 -0.05795506 0.2842663 -0.16878746 -0.15492931 0.21493882 -0.10531868 -0.07433437
0.004728512 -0.08025054 0.1081317 -0.045569543 -0.17562534 0.2132123 0.01250986 0.11648867
-0.10475914 0.1631857 0.22535487 -0.12227192 0.13426408 0.100976214 0.043879673 -0.08850379
0.22634384 0.042551003 -0.06368384 -0.14564314 0.15991156 -0.09641215 0.27254713 0.22669677
-0.063190766 0.02721256 0.010077516 -0.18165216 -0.17670308 0.039428785 -0.029791411 0.03173589
-0.11335415 -0.026955342 -0.09549703 0.10900599 -0.05698088 0.21659599 0.37322524 0.022829602
0.09742421 0.082895696 -0.0044599427 0.005191938 0.11454808 0.032875933 0.103829525 0.04967077
0.086868905 -0.1185787 0.014533941 0.06493812 0.018249258 0.10870852 0.016598767 -0.13739105
0.051220696 -0.13531987 -0.05698361 0.099291585 -0.058578297 -0.22879478 -0.02290051 0.19286378
0.03425422 0.08588207 0.22017796 0.17362942 0.15095139 -0.08821324 -0.09377597 0.17370519
-0.07461319 -0.17853855 0.1353749 -0.17259102 -0.3036183 0.08081667 -0.023681415 -0.013138658
0.092929535 0.20076555 0.30149427 0.16689092 0.1693835 0.24252063 -0.08590704 0.099380784
-0.03562656 0.22873348 -0.03948497 0.09353634 -0.08928487 -0.2548845 -0.3243928 -0.020277195
-0.20964114 0.28215936 0.1568551 -0.6591894 0.368947 -0.7275886 0.10165374 -0.23901612
-0.51109505 -0.15572143 -0.040654283 0.10700882 -0.26619577 0.122971535 -0.08265658 0.03429382
-0.37260938 0.122767076 0.44660017 0.4526743 -0.00095920375 0.020641714 0.38503516 0.056561418
-0.0409688 0.010191924 0.011869027 0.241381 0.25669396 -0.22130698 -0.16720654 -0.11056267
0.14484318 -0.048176203 0.17965 -0.0198655 0.22001018 -0.046641186 -0.120744534 -0.66315365
-0.016161919 0.098899454 -0.12640513 0.04504851 -0.118554115 0.0015037114 0.059348837 0.14262833
-0.008548096 0.28899592 -0.008107061 -0.22274563 0.014874186 -0.07481287 -0.04325337 0.098348774
0.13563962 0.13334817 0.09944765 0.009293004 -0.14999595 -0.14085266 -0.4449696 -0.079907835
0.047402862 -0.008765155 0.21285562 -0.11890868 0.055125296 0.09025114 0.1753634 0.13988125
-0.1485822 -0.17315373 -0.051529057 0.14509377 0.06596329 -0.029827997 0.0063335793 0.05044283
0.058894202 0.11388941 -0.12702411 0.30728072 -0.11792687 -0.15498315 0.15977779 -0.24992773
-0.22638544 -0.005443849 0.2919456 -0.11788403 -0.2216094 0.34819457 -0.0070890053 0.26522493
0.1750042 0.08667493 0.004148253 -0.19433571 0.2423104 0.026958555 0.058474142 0.02962253
0.27923402 0.081152834 -0.0875148 0.23069504 -0.21010965 -0.19914131 -0.43160057 -0.03234316
0.12733921 0.10850944 -0.070129246 0.028395955 0.21571103 -0.18745737 0.2894498 0.1377931
0.049888063 0.07600868 -0.0069654086 -0.05846068 0.13019915 0.2625993 -0.14531834 0.102179386
0.22370942 -0.41032368 -0.059357777 -0.03401265 0.092797264 0.1500066 -0.10507235 -0.10297345

encoder.l1.bias f4 [100]
00000000: 540b 03be 2042 253d 6b15 cf3d 79ab f0bc
00000010: e2b0 f7bd 352a efbd c0bd b63d c007 8b3d
00000020: d56f df3a 1e17 94bc 1343 eebc 2317 babd
00000030: 5079 d03c 8f11 3cbb c73c 4f3c 843d 8bbb
00000040: 2ad7 7d3d 3193 b73d e177 a0bd fbd8 a0bd
00000050: e011 223e 212b 053e f156 043e fa60 613d
00000060: 0ae7 b03d 6b22 acbd fc7f 2e3d 6f14 163c
00000070: 279d dd3d 56ad 673d fac9 2fbd 908b 063e
00000080: 95e3 8f3d 3de9 a63d 23c7 5fbd 2278 ab3d
00000090: a49e 9c3d 7d9c d8bc 1ed2 81bd 2404 b9bd
000000a0: c173 c2bc 7b80 503d f6b9 c83d a959 4abc
000000b0: 3eb5 b2bb 3683 b8bd 30fd 6b3d 3fc9 043c
000000c0: 3630 033d d182 1a3e 2244 083e f5fa c53d
000000d0: 1b04 9cbb 3b44 8b3d 32be 22bd 3773 b2bd
000000e0: ef81 43bd fdb5 453d 3f1f 01bd cd2b 783d
000000f0: 3d69 aebd 2adb 65bc 2edb ffbd da1d 6b3d
00000100: 7a74 c0bd 30a2 dc3d 590d 293e a751 293e
00000110: bbd3 1f3a d6ef f9bd 5586 56bd 05cb 323c
00000120: 227c 343d a36e 513e 0aa9 97ba 715d 0bbd
00000130: 9d0f 52bd 6da6 003d 43ec d03d 20f8 253e
00000140: 7cd0 82bd d61d 39bb 6453 8c3c 8782 ca3d
00000150: 611b 9abd 0c54 b23d 72df f63d 9793 5d3d
00000160: 1cf8 d83d ba2e 24be d3f4 d33d 19d6 c63c
00000170: c514 a6bc c1f4 a43c 3198 8db8 ea64 943c
00000180: 147a 71bd 5115 d4bc ecb7 f93c e752 18bd
-0.1279729 0.040346265 0.10111507 -0.02937864 -0.120942846 -0.11677972 0.08922911 0.067885876
0.0017046878 -0.01807743 -0.029084718 -0.09086444 0.025448471 -0.002869699 0.012648768 -0.0042492766
0.061972775 0.089636214 -0.07835365 -0.07853886 0.15827131 0.13004734 0.1292379 0.055024125
0.08637817 -0.08405002 0.042602524 0.009160145 0.1082099 0.05656179 -0.04291723 0.13139176
0.0702583 0.081499554 -0.05463327 0.08372523 0.07647446 -0.026441807 -0.06338905 -0.09033993
-0.023736836 0.05090378 0.09801094 -0.012350478 -0.0054537347 -0.090094015 0.057614505 0.008104621
0.0320284 0.15088965 0.1330724 0.09667007 -0.0047612316 0.06800123 -0.039732166 -0.08713382
-0.047731336 0.04826926 -0.03152394 0.060588647 -0.08516166 -0.014029304 -0.12492977 0.057401516
-0.09397216 0.10773122 0.16508998 0.16535054 0.0006096919 -0.12203948 -0.052374203 0.010912661
0.044063695 0.20452361 -0.0011570763 -0.03402466 -0.05128442 0.031408716 0.10201313 0.16207933
-0.063874215 -0.0028246543 0.017129607 0.09888177 -0.07524753 0.08707437 0.120543376 0.05409583
0.10594198 -0.1603345 0.10349431 0.024272012 -0.020273576 0.020136239 -6.751752e-05 0.018114526
-0.058954313 -0.02588907 0.030483209 -0.037188437

encoder.l2.weight f4 [32, 100]
00000000: 64cf ddbc de02 363e 6be3 0dbe 9504 bdbe
00000010: a8bd dd3d b859 c23e 30a9 8dbe f75d a5be
00000020: 0aa6 403e 9ef2 133e 32bb 85be 36e3 ba3e
00000030: 89a6 aebe 8844 3f3d a1d6 863e af80 ae3d
00000040: 728e 3f3d e6d1 b5bd 9973 00bd d194 d0bc
00000050: ae67 39be e002 ff3d 431d 3bbd 41e4 81be
00000060: 970f 89be 045e d33d 9fe3 bbbd fedf 273e
00000070: 2ed3 39be 904a 76bc 00f7 553e 77dd a73b
00000080: cd2b 9b3e e0c7 babd 9dc7 863e 7bda 6f3e
00000090: e14b 793d ffca 373d d97a d33d afe9 493f
000000a0: 6fcc 27be 701c 59be 867e a9bc e89a 873d
000000b0: 73ba 263e 7a1c f03d 3766 413a 070b 1d3f
000000c0: 4899 ba3e f092 21be 4f4c 6abe 8f56 a2be
000000d0: 1687 99bd 9c80 533e 06b9 6abe f96a 7d3c
000000e0: e758 6e3b 2d2b d43d 8658 afbd 6675 0f3e
000000f0: bccb 193d 77ec a8be 9bbd 0b3e d501 70bd
00000100: a874 2b3f 1bb3 b13b a8c6 94be 3a8c 90bc
00000110: 6873 19be d1c4 923c bce5 57be 1f5b 203e
00000120: e140 dfbd 7d94 8fbd a16a c93d d64e 043e
00000130: b8e7 0cbe 12d5 c9bd ca85 05bf a2c0 643d
00000140: 7b09 e53e 76a4 813e e9bd 42be 0ac3 f2bd
00000150: 5faa a53e 88bd 59be 9d85 01be c309 debd
00000160: 79ab f73c 3e96 89bd dc7b 013e e051 8e3d
00000170: fdd0 b3bd a351 dcbd da5a 60bc f31b cc3c
00000180: 6e8f 113f 8e65 183f 2b05 86be ecc2 573e
00000190: 890e 343c d80b bcbe 228e 003d dbac 31be
000001a0: 8802 2a3d 46e1 31be 5531 3d3e b7f2 843e
000001b0: 176d 203e c45e a7be 4128 3fbe c3b6 ed3e
000001c0: 21f8 12be 7161 a63e 27a5 90be 6902 89bd
000001d0: 43e2 3d3c baab 543a 2856 eb3d 2d45 4ebd
000001e0: 4278 8b3e df1f 273e 650f 1abf a4a1 bdbd
000001f0: a6e2 a33d 1ec8 863e ccbb 6abe e4dc 82be
00000200: 47c1 b6be 6c1f 493e a18e 3abe e114 253e
00000210: 90eb 7abe f875 403e e2c4 cfbe 2bad 133e
00000220: 21bc a4be 1649 873d 8d5e f23c ee44 c7be
00000230: 39e6 383e 88c0 943e d186 9e3b 4867 403d
00000240: cc5a a83e 0014 0f3e ba20 e6bd 534b 57be
00000250: 01ea 073e f281 583e 0aa9 1abf c7d9 663d
00000260: 2540 0bbc c9ef 443e fd40 a43e fc54 eebd
00000270: 8b60 f43d 7734 47be 86a3 f8be e072 6e3a
00000280: 28d2 44be f9ff 7d3e 1830 8fbd 33c6 99ba
00000290: b6b3 453e fbec 9a3d 46fd 013e 99b5 e8be
000002a0: 37da 58be f4bf 05bd 1f3c 033f 6ec4 083f
000002b0: c920 f6bd 0304 a0be 89b0 72bd 257e ea3e
000002c0: b36e bc3d a718 d73e 0e5f 2f3e 4f17 f5be
000002d0: 4c4a 86be 4118 9fbe c5ce 093f dd40 813e
000002e0: 1aa8 5a3d ea8d ed3d 7fcd 2b3e fd0c 1a3e
000002f0: da98 2cbc 1d41 733e 98e5 d73d 66d4 e4be
00000300: 3e38 073e 4b11 c53d a931 003f 5f0f 19be
00000310: ef2d b93d c3c3 44be ff8a 96be 0178 a7be
00000320: f5c7 543e 57d2 aebe c4a2 8cbc 040b 3fbe
00000330: 186f af3e 202e 183e 1a73 783e f14c 083e
00000340: 8d70 00be 9ccb a3be 3606 88bd 1ae1 a3be
00000350: d677 32be 1b59 1e3d 7763 753d 195c a6be
00000360: b1fe a53d 381d d4bd 51bb 65be 40bc aebd
00000370: fc48 c33d fcc5 bebc ff2c b8bd eb15 873e
00000380: 4f9f 363e 54df aa3c 7850 e2be 928f 0bbe
00000390: 4b91 b23c 772b b33a f270 04be c33a 3d3e
000003a0: f3ee 04be 5ee4 82be d4c4 cfbd 3870 b4be
000003b0: 5ef9 953d 5b03 a0be b91a f1be a059 babe
000003c0: 1cfe e8bd 52ce 623d de75 19be 1167 d4be
000003d0: a031 89bd 98e5 54bd 5101 8dbe ee2c 9a3e
000003e0: b0a0 d73d ed32 8b3e a16b 693d 4c92 70be
000003f0: 0c9b 08be cd43 e8be 7bca 093e 801d 4cbe
-0.02707643 0.17774531 -0.13856284 -0.36917558 0.1082719 0.37959075 -0.27668142 -0.32298252
0.18813339 0.1444802 -0.2611938 0.36501473 -0.3411143 0.046696216 0.26335624 0.08520638
0.046766706 -0.088779256 -0.031360243 -0.025461586 -0.18105957 0.1245172 -0.045682203 -0.25369456
-0.26769707 0.103206664 -0.09174275 0.1639404 -0.18146965 -0.0150324255 0.20895004 0.005122836
0.30306855 -0.091201544 0.26324168 0.23423187 0.06086338 0.044871327 0.10326166 0.788722
-0.16386579 -0.21202254 -0.020690214 0.06621343 0.16282062 0.117241815 0.0007377597 0.6134495
0.3644507 -0.15778708 -0.22880672 -0.31706664 -0.07496469 0.2065453 -0.22922143 0.015467399
0.0036368908 0.103597976 -0.085618064 0.14009628 0.037547812 -0.32992908 0.13646547 -0.058595497
0.6697488 0.0054229624 -0.29057813 -0.01764499 -0.1498543 0.017916115 -0.2108373 0.1565976
-0.109010465 -0.07010744 0.09834791 0.12920699 -0.13760269 -0.09855093 -0.5215727 0.05584777
0.44733796 0.25320786 -0.19017757 -0.11853607 0.32356545 -0.21263707 -0.12648626 -0.10841706
0.030233132 -0.067181095 0.12644905 0.0694921 -0.08780096 -0.107577585 -0.013693536 0.024915671
0.5685948 0.5952996 -0.26175818 0.2107045 0.010989794 -0.36727786 0.03138555 -0.17351095
0.04150632 -0.17371091 0.1847585 0.25966427 0.15666614 -0.32689488 -0.186677 0.464285
-0.14352466 0.32496217 -0.28251 -0.06689913 0.0115895895 0.00081127475 0.114910424 -0.05035894
0.27240187 0.16320752 -0.6017974 -0.09259346 0.08002214 0.26324552 -0.22923201 -0.2555915
-0.35694334 0.19640893 -0.18218471 0.16121246 -0.24503922 0.18795002 -0.40579897 0.14421527
-0.3217478 0.06605737 0.029586101 -0.38919777 0.18056573 0.2905314 0.0048378487 0.046973497
0.32881773 0.13972473 -0.11236711 -0.21024828 0.13272859 0.2114332 -0.60414183 0.056360032
-0.00849918 0.19232096 0.32080832 -0.11637303 0.119324766 -0.19453607 -0.48562258 0.0009096097
-0.19220793 0.24804677 -0.06991595 -0.0011732042 0.19306836 0.07564732 0.12694272 -0.45451048
-0.21176992 -0.032653764 0.5126361 0.5342473 -0.12017972 -0.3125306 -0.05925039 0.45799366
0.09200802 0.42010996 0.17126104 -0.47869346 -0.2622856 -0.31073192 0.5383113 0.252448
0.05338297 0.115993336 0.1677761 0.15044017 -0.0105344895 0.23755307 0.105418384 -0.44693297
0.13205048 0.09622439 0.50075775 -0.1494727 0.09041964 -0.19215302 -0.2940292 -0.32708743
0.20779403 -0.34144852 -0.017167456 -0.18656546 0.34264445 0.14861345 0.24262658 0.13310601
-0.12542935 -0.3199128 -0.0664181 -0.32007676 -0.17428526 0.038659196 0.05990931 -0.3249214
0.08105219 -0.103571355 -0.22434737 -0.085319996 0.09535405 -0.023287766 -0.08992957 0.2638391
0.17834209 0.020858444 -0.44202018 -0.13628986 0.021797797 0.001366957 -0.1293371 0.18479447
-0.12981777 -0.25564855 -0.10144964 -0.35241866 0.07322954 -0.3125256 -0.470907 -0.36396503
-0.113765925 0.055372544 -0.14986369 -0.41484883 -0.06698918 -0.05197677 -0.27540067 0.30112404
0.105286956 0.2718729 0.05698741 -0.23493308 -0.13340396 -0.45364228 0.13456146 -0.19933128

encoder.l2.bias f4 [32]
00000000: d985 34be a47b b4bd dc23 a73d fb59 17bc
00000010: 3700 003e fbb2 b8bc 74cc 8dbc 3b82 e0bd
00000020: 95fa 4b3c eb66 5e3d c5ac 7fbd a284 dcbd
00000030: a1c9 003e c03d 81bd 6cea 5fbc 9660 3cbe
00000040: 3c95 4b3d 7092 8fbd a317 913b 6184 77bd
00000050: d9e3 6e3d 613a ff3c 5498 e93c 1f5a 013c
00000060: 7d5d e7bc 30cf 9ebd 81bf 0ebe c859 1abd
00000070: ce23 2bbd 2320 3e3e 4d7d 83bd 8409 e93c
-0.17629184 -0.08812645 0.081611365 -0.009237762 0.12500082 -0.022546282 -0.017309405 -0.109623395
0.01244988 0.05429737 -0.062420625 -0.10767485 0.12576915 -0.06310606 -0.01366673 -0.1839622
0.049702868 -0.070103526 0.0044278665 -0.06042898 0.05832276 0.031155767 0.028515019 0.007895022
-0.02824282 -0.07754362 -0.1394024 -0.03768328 -0.041782193 0.18566947 -0.064203836 0.02844692

lstm.weight_ih f4 [512, 288]
00000000: 621c eb3c 06a2 b9bd fa3f 50be 993d a93d
00000010: c568 7fbd 0dd5 e53d 2fae 3abd 31dc 8b3e
00000020: aeac 973d 2791 1fbc 2286 54bc f7fa 323d
00000030: ffbd 0e3d 6c45 363e 99fa 1ebe 2ce1 db3d
00000040: 2f52 3c3d d684 c03d 6067 043d 8e2f 69be
00000050: 8dc1 3abe 1adf 8abd b911 333e 8ec6 b03d
00000060: 98f9 c7bc f16f 22be bce6 2cbc e961 00be
00000070: f710 2a3e 10ea c6bc da01 003e 27cd d6be
00000080: a011 b1bd 6a67 0bbe 73f9 c13c 6cf7 8ebc
00000090: 32f8 c13d 95ad b53d 5ec0 113e 1e82 7abb
000000a0: 068d 3bbd 0cd6 98bb 6493 83bd 9c94 1f3d
000000b0: 8f39 883d 9ff9 d6bb f0ca b33d 414a 893d
000000c0: f426 df3d 5c58 273d 553c 163e 248f c23c
000000d0: f515 07bd e8c4 edbd 4edf aa3b f6bd dabd
000000e0: b04c 8abd 1d79 1ebb e544 c43d cf40 92bd
000000f0: 9ea0 d8bc 9a11 f53d a16e 313d c808 9438
00000100: 6adf 3e3d 2c7b f3bb ba19 fabc f5f7 11be
00000110: ba2c 6abd 80d8 44bc 28a9 7cbb af68 b53d
00000120: 30ff f9bb 2188 8ebd 8968 75bc 0b36 1fbe
00000130: 6dfb bb3d f45c 103d 65d8 183d ae97 ce3c
00000140: cd00 f7bd e7af b3bc bd41 27bd 0a27 063e
00000150: 0cc2 973d e7aa 623d 61c7 593c acd7 91bd
00000160: f4e9 a0bc 245a babc 19ad 83bc 3656 df3c
00000170: 3ccc 7b3d 2b42 10bd 7b24 663d 88c9 9b3d
00000180: c570 b6bd 37cc ae3d 1c2b ffbd c957 053c
00000190: 096e 9f3c d495 6ebe f51a 21bd f364 743d
000001a0: e60d 803d f694 de3d 6914 d9bd d06c 75bd
000001b0: eeb2 33bb 7dfa 273d 0996 22bc 7171 7abd
000001c0: eb03 ddb8 f3ed 9e3c ef43 123b 2883 b8bd
000001d0: f168 b5bc 2d0d ab3c 646c bf3c 67bb 96bd
000001e0: b215 b0bd c480 cebc a83c a63d dbc3 d9bd
000001f0: 3b4b 9abd 4b34 68bd 7637 a63b 95c8 cfbc
00000200: 87ba 483d 0f74 95bd 2cf4 a93d 85fd 313d
00000210: f8ed c23d ce3c 513c 6dfa 8abd f882 a43d
00000220: 82bc 40bd 6527 1bbd b470 2abd 5994 743d
00000230: 3031 8bbd 679f f13d 5c24 f1bc 7be9 e1bd
00000240: c95b 92bb 5f8d a4bd 2d20 da3c ac1f b83c
00000250: 0e0c 643c 80a5 d53c ec1a 9bbd 6e6c 813d
00000260: 1a43 5f3d b4fc f3bd 5d02 dabc 6e88 963d
00000270: 0d98 eabc f31c a93c e2a9 ca3c b210 3e3d
00000280: 129a 223d 1e9f b3bc 48fc ec3b 1481 3ebd
00000290: 6402 bb3d 333c 6b3b 5c3d 863d 0ac1 e5bd
000002a0: f120 a33d 3485 e2bd 923a 413d 3e5e 85bd
000002b0: c9ed 7ebc a405 86bd 6e33 cfbd b8d8 24bd
000002c0: 3ec0 513c dfcf 0e3c 2257 bf3d 98a9 a93d
000002d0: 8687 3b3d 412d dd3c b9dc 17bc 8855 32bd
000002e0: c130 86bd cac9 a5bc bb14 703d b847 9abd
000002f0: cb35 db3b 157c 063e 1d4a 01bd 7c6d 97bc
00000300: 4476 03bc c113 5ebd 73c3 923c 65f8 383d
00000310: 0a98 7ebd 8c23 81bd e4b8 243d f89e c33b
00000320: c951 e1bd a215 9dbd aca3 c6bd 3493 f0bc
00000330: 463e 93bd 273b 5e3c 3fe7 cb3b bf14 1cbe
00000340: ef41 d93b 62db 8fbd d341 a1bd 741b f83c
00000350: a1f6 fbba 30fc 18be 353c 41bd 1676 003e
00000360: 2099 9abd 317b 293d 6846 c33d 61ec 653d
00000370: 47ae 053d 1139 5b3c e434 a9bc 933c e53d
00000380: 88f9 69bd 05ef 7e3c d175 1d3d 9bfe bc3b
00000390: b569 a7bc 82cd 87bc 88f0 b63c 4964 32bb
000003a0: 1a94 f73c eea2 ff3d 80e4 fd3c aeeb 5ebd
000003b0: d5b5 1fbd e9d5 8fbb 78a1 753c fee4 05bd
000003c0: 69a2 243d 033c 9dbd db96 b93d c0fe 853d
000003d0: ff5e 023e 80c5 3bbd 7fa2 1bbd 05e5 9a3d
000003e0: f093 9fbd f85f a9bd 7c02 ea3d 12dc c3bd
000003f0: d757 efbb 73b3 10bd 1c30 cd3c 898e 9cbc
0.028700057 -0.09064107 -0.20336905 0.08263702 -0.062355775 0.11222277 -0.04557627 0.2731643
0.07405983 -0.009739197 -0.012971433 0.04369637 0.034849163 0.1779992 -0.15525283 0.107363075
0.045976814 0.094003364 0.03232515 -0.22772047 -0.18237896 -0.067808345 0.1748723 0.08631621
-0.024411008 -0.15863015 -0.010553058 -0.1253735 0.16608034 -0.024281532 0.12500706 -0.41953394
-0.0864594 -0.13613668 0.023678517 -0.017451964 0.094711676 0.08870999 0.14233539 -0.0038224529
-0.045788787 -0.0046641883 -0.06424597 0.038960084 0.066516034 -0.006560519 0.08778942 0.06703616
0.108961016 0.04085575 0.14671452 0.023749895 -0.032979924 -0.116098225 0.0052146083 -0.106807634
-0.06752908 -0.0024181076 0.09583453 -0.071412675 -0.026443776 0.11966248 0.043318395 7.0588256e-05
0.046599783 -0.0074304547 -0.030529846 -0.14254744 -0.05717156 -0.012014508 -0.0038552973 0.088578574
-0.0076292977 -0.06959558 -0.014978536 -0.1554796 0.09178815 0.035244897 0.037315745 0.02521881
-0.120606996 -0.021934463 -0.040834177 0.1310083 0.074100584 0.055338766 0.013292165 -0.07121214
-0.019642808 -0.02274806 -0.01607375 0.027262788 0.06147407 -0.035219353 0.056187134 0.076067984
-0.08908228 0.08535045 -0.12459394 0.008138605 0.019461649 -0.23299342 -0.03933235 0.059666585
0.06252651 0.10868256 -0.10599596 -0.059918225 -0.0027419883 0.04101037 -0.0099234665 -0.061143342
-0.00010538831 0.019400572 0.0022318324 -0.09009391 -0.022144767 0.020880306 0.023367114 -0.07359963
-0.08597888 -0.025207885 0.08117038 -0.106330596 -0.0753388 -0.056690495 0.0050725294 -0.0253642
0.04900601 -0.07297527 0.08298525 0.043454666 0.09518045 0.012770845 -0.06786046 0.08032793
-0.047054775 -0.037879366 -0.04161139 0.059711788 -0.06796491 0.11797982 -0.029436283 -0.11030861
-0.004466508 -0.08034777 0.02662667 0.02247604 0.01391889 0.026079893 -0.07573494 0.063195094
0.054507352 -0.11913434 -0.026612455 0.07350241 -0.028636957 0.020643687 0.02473921 0.04640264
0.039697714 -0.021926459 0.0072322227 -0.046509817 0.09131315 0.0035894036 0.06554672 -0.1121846
0.079652674 -0.11060563 0.047174998 -0.06512116 -0.015559622 -0.065440446 -0.10117231 -0.04024574
0.012802182 0.0087165525 0.09342791 0.082843006 0.045783542 0.026999118 -0.009268933 -0.0435386
-0.06552268 -0.020237822 0.05861352 -0.075332105 0.006689762 0.13133271 -0.03156482 -0.018484823
-0.008023802 -0.054218058 0.017915463 0.045158762 -0.062156714 -0.06305608 0.040215388 0.0059698783
-0.110019274 -0.07670142 -0.09699187 -0.029367067 -0.07189612 0.013563908 0.006222635 -0.15242289
0.0066301743 -0.07024266 -0.07873883 0.030286528 -0.0019223281 -0.14939952 -0.04717656 0.12545046
-0.075487375 0.04137725 0.09534913 0.05613363 0.032636907 0.013380305 -0.020655103 0.11193194
-0.057122737 0.015559916 0.038442437 0.005767656 -0.020436147 -0.016577486 0.022331491 -0.002722042
0.030221988 0.12482248 0.030992746 -0.05442398 -0.038991768 -0.0043895137 0.01499211 -0.032689087
0.04019395 -0.07677462 0.090619765 0.0654273 0.1273155 -0.045842648 -0.037996765 0.07563213
-0.07791889 -0.08270258 0.11426255 -0.095634595 -0.0073041725 -0.035327386 0.025047354 -0.019110935

lstm.weight_hh f4 [512, 128]
00000000: 159c dabc e7ad 0cbe 5b33 98be 4a20 03be
00000010: 2a9a b73d 0dad 8abd 6399 c2be ac5a 373e
00000020: 829d e73d 8545 383d 9231 f43d 926f 73bd
00000030: 25f3 763d c42a 4a3e a7eb ebbd 4ca1 9fbd
00000040: 8b92 a53e 53f6 8fbd 91de c5be daca 93be
00000050: 7514 4f3e 4637 88be 70e6 9cbd 5261 e43d
00000060: 9490 703d 9d43 01be d9b8 45be dcc0 bb3e
00000070: f121 5e3e 19e0 0ebe 76ac 813e e58f 033e
00000080: 6fb7 af3d 0ade 273e 0221 383d dc76 73be
00000090: 43c7 ebbc 41da a1bd 7ac0 71be 644d bdbd
000000a0: 50ed ddbd af0b c9bd ed9f aabd b2a0 9d3e
000000b0: 33b1 253d 4426 cdbc c3ac 38be 6e9a 87bd
000000c0: e088 323e 79cd cd3d 4484 023d 0714 23be
000000d0: 8741 16be b247 e1bd 9e3b 09be 42f1 6fbe
000000e0: 50b7 e73d 4c9c 3fbe 3de3 cb3e 9753 97bb
000000f0: 4f6d 993a 9f3a a53d 946a 833e abcc 1bbd
00000100: a03c 993d 4af6 cf3d 5615 b33d 3cec 31bd
00000110: 7884 63bc bfc2 323e 8b9f 873d 3854 523e
00000120: aa6e 913e ce1c 463e b5aa ffbb 83b8 003e
00000130: a30d 913d 32e9 1e3e e4d7 7abe 49c0 7fbe
00000140: fbbc 023d 0bde 8ebe 1a8a 3a3d 9f82 50be
00000150: 79dc 1fbe 730e 7e3e 9701 cd3c b9f5 2f3e
00000160: 43ae 623e 04a2 82bd 557d cabb bb51 233e
00000170: cae9 ba3c 94e2 48be e568 8fbe 8646 993d
00000180: 60dd e7bc 9e7e a1be 4d02 2e3e a820 ccbe
00000190: 8314 4cbd fd9a 0dbe b506 2abd 6d8f 4cbe
000001a0: 4c73 a2bd 5a1b 803e 0728 d8bd 244e e53d
000001b0: 8804 e33b c241 49be f822 043e b936 543e
000001c0: 54ef 8c3e 21bc 34bd 0560 58be a252 3c3d
000001d0: e2aa 183e 6a94 01bc 916b 443e 550f c4be
000001e0: 1205 863e ad7c 673d 1493 72bb d9c1 e83d
000001f0: b0a2 3e3e 931d 453e 0a5c 133e 8cb6 8b3d
00000200: 8858 b73d 182b cdbd 803d 23bd 6c1b 8e3c
00000210: 6339 a43d 0c3a 543e 2af7 eb3d fc5b 193e
00000220: 7845 613d dab5 923d 27eb ad3d ad45 943d
00000230: b4b1 c13d 9c2e c43d b3ee 89bd ae09 0f3e
00000240: 1de7 acbd ca58 3fbd ae17 1a3d 4df1 1ebd
00000250: 0240 b0bd 0392 abbc 632a 393e bc73 07be
00000260: 50d4 013e 12b9 2fbd 706b 1c3e 26c5 2f3d
00000270: 3833 27be 95d0 1b3e 9d58 46bd d5b6 debc
00000280: 2817 0c3e afdf 3a3c 609b 13be 8927 563d
00000290: d025 fb3d 0226 96bd dd60 f83d fc69 e43d
000002a0: e65a fcbc 01d1 fe3b 7b31 063e 8d8b 843d
000002b0: a01f 68bd 1be4 66bd 72f9 da3d fd7f 503d
000002c0: 896e b3bd af9c 083e 4926 2dbd 73cf 19be
000002d0: 364b f93d 5fe1 1e3d f117 ac3d 9fe0 483c
000002e0: 1700 1d3d f3da d5bc 8d55 47bc 4e2f 3d3d
000002f0: 02b9 403e 5010 bc3c 665e debd 2ed9 673d
00000300: ae38 14be f9c7 2ebe 52de 82be 9e6e e03d
00000310: 970a 08bd a5da a43d 8b52 b83d d9cf 19bc
00000320: 6e12 67bc a68d 283c dea5 be3d 7f7a 15be
00000330: 0744 983d a269 febc bcbd 8f3d 1291 3f3c
00000340: 675b 4abb 2370 2e3e f452 9d3c 6b06 833c
00000350: 01eb 153e 2339 13be e638 d1bd 7aac 90bd
00000360: 9ffe c9bc e575 d63d 4338 f6bd 0d1b 9c3c
00000370: 109b d4bd b2da 393b 970d c93d 2d0b 96bd
00000380: 918d 89bd c49e d73d 83da 85bc 58c2 3b3e
00000390: d0f5 c7bd ef0a cf3d 96a5 1fbe 827c 0bbe
000003a0: cf24 edbd ead6 cabd fceb cb3c dbed 663d
000003b0: 3cee db3d 3e15 8a3d c690 33be d104 aebd
000003c0: 8855 72bd d39c ad3b 6399 043e 0a11 a1bd
000003d0: 7ebb 323e 52f6 c6bc 0956 c73d 8347 9e3c
000003e0: b099 89bd 2c29 06be 2304 7a3d f2cf 3dbe
000003f0: 1f7f afbc 4435 8e3d 4410 063e 4c10 c4bd
-0.026685754 -0.13738213 -0.2972668 -0.12805286 0.08964951 -0.06771288 -0.3800765 0.17905682
0.11309339 0.044988174 0.11923517 -0.059432574 0.060290474 0.19742876 -0.115195565 -0.07794437
0.32338366 -0.070294045 -0.38646367 -0.288657 0.20222647 -0.2660467 -0.0766114 0.11151375
0.05873163 -0.12623449 -0.19308795 0.36670578 0.21692635 -0.13952674 0.2532689 0.1284786
0.08579909 0.16393295 0.044953354 -0.2377581 -0.028781539 -0.07902957 -0.2360858 -0.09243277
-0.108362794 -0.098166816 -0.08331285 0.30786663 0.040452193 -0.02504266 -0.18034653 -0.06621252
0.17435026 0.100489564 0.03186442 -0.15925609 -0.14673434 -0.11000003 -0.13401648 -0.23431876
0.11314261 -0.18711966 0.39821807 -0.004618119 0.001170555 0.08067822 0.2566725 -0.038036983
0.074822664 0.10154398 0.08744304 -0.04343818 -0.0138865635 0.17457102 0.06622227 0.2053994
0.28404742 0.19346926 -0.0078023323 0.12570386 0.07082679 0.15518644 -0.24496418 -0.24975695
0.031918507 -0.2790378 0.04554186 -0.20362328 -0.15611447 0.248102 0.025025172 0.1718358
0.22136788 -0.06378558 -0.0061794915 0.15949146 0.022816557 -0.19617683 -0.28009716 0.074841544
-0.028303802 -0.31541914 0.16993065 -0.39868665 -0.04982425 -0.13828655 -0.041510303 -0.19976588
-0.079321474 0.25020868 -0.105545096 0.11196545 0.0069280304 -0.19653991 0.12903965 0.20724
0.27526343 -0.044124726 -0.21130379 0.045977242 0.14908937 -0.00790892 0.19181658 -0.38292947
0.26175743 0.056515384 -0.0037013935 0.113650985 0.18616748 0.19249563 0.14390579 0.068219274
0.08952433 -0.10017985 -0.039853573 0.01734706 0.08018758 0.20725268 0.11521752 0.14976496
0.05499789 0.07163592 0.084921174 0.07239852 0.09457722 0.095792025 -0.067349814 0.13968536
-0.08442519 -0.046715535 0.03762024 -0.03880434 -0.086059585 -0.020943647 0.18082576 -0.13227743
0.12678647 -0.042901106 0.15275359 0.042912625 -0.16328132 0.15216286 -0.048424352 -0.02718679
0.13680708 0.011405869 -0.1441474 0.052283797 0.122630715 -0.07331468 0.1212785 0.111530274
-0.030805063 0.00777638 0.13104813 0.0647193 -0.056670785 -0.056369882 0.10692109 0.05090331
-0.08761317 0.1334102 -0.04227284 -0.15020542 0.121725485 0.03878915 0.08403004 0.012260585
0.038330164 -0.02610538 -0.012166393 0.04618769 0.18820575 0.022956997 -0.10857849 0.056603603
-0.14474747 -0.17068471 -0.25560242 0.109585986 -0.033213224 0.08049516 0.09000119 -0.009387934
-0.014103515 0.010287678 0.093089804 -0.1459751 0.0743485 -0.031056229 0.07018611 0.011692302
-0.0030877234 0.17034964 0.019204594 0.015994271 0.14640428 -0.14377265 -0.10215931 -0.07064147
-0.024657546 0.10471705 -0.1202245 0.019055868 -0.10381138 0.0028359112 0.09817045 -0.0732635
-0.06716455 0.10528329 -0.016339546 0.18335855 -0.09763682 0.10109507 -0.1559051 -0.13621715
-0.11579286 -0.09904273 0.0248928 0.05637918 0.10738799 0.06742333 -0.17535695 -0.084970124
-0.0591636 0.005298236 0.12949137 -0.07864578 0.17454335 -0.024287377 0.09733207 0.019321209
-0.06718767 -0.13101643 0.0610391 -0.18536356 -0.02142292 0.06943753 0.13092142 -0.09573421

lstm.bias_ih f4 [512]
00000000: c1c4 123e 4988 843d 5042 3d3d 31f5 be3d
00000010: 02e3 5ebd 93c4 c63c b713 f43d f593 163d
00000020: 29da 1d3e 9516 ce3d faed 75bd 997b d63c
00000030: a5cb de3d 3bd4 233d 9590 68bd eedc ef3c
00000040: 9382 453d b775 4a3d 8e1c e63d ab9b e43d
00000050: a21c 4d3d dfab bbbd 4287 55bd f14f 15bd
00000060: 8387 88bd 2fc2 ec3d 0b55 9e3b 8d34 01be
00000070: 046a 57bc bd32 7cbd 39d5 02bd 751f 243d
00000080: 1bad b33d e1bd cc3d 6d45 d93d 87ce 073e
00000090: e64f 433d 04a4 0b3e 9597 9d3d 2f79 8b3d
000000a0: 657b 46bb 379e 753d 63f4 43bd 60ae 4dbc
000000b0: a9a7 14bc 7dff 36bd 5835 28bd 3b2d f73d
000000c0: 4baa b23b 2dad ec3c 6e01 0d3e e372 51bb
000000d0: 75ec 303d 4eb4 b0bd c09c a63d 5a62 0abd
000000e0: a723 c7bb e7ff 023e bd39 0f3d 0860 a4bb
000000f0: 86f9 13bd 3404 aabb 7c6d b93b c9bd 663d
00000100: 6387 b33d 38ae a63d 0f1c 993d 1472 203c
00000110: fa33 a2bc 27e5 1f3c 9722 063e 0d68 31bc
00000120: d76f 863c 7524 483d 19f1 8d3d 1869 0b3e
00000130: eefb b03d 4189 b53c 3534 853d 93a6 ca3b
00000140: 7514 5bbd 6575 67bd 8fd4 37bd ddf5 4e3d
00000150: c330 e6ba f338 903d 0842 a23d 35f7 71bb
00000160: 67c1 883d 3ba8 1b3e 7b9d 9f3d 3517 013e
00000170: 6b18 b93d aa9b dc3d 3599 86bb 33cc d03d
00000180: 0eff a13c 0285 72bd cc21 e9bc cf40 583d
00000190: daab dd3c d40c 943d cc44 f83b f566 5b3d
000001a0: 6efa 2c3d 5d4f 8d3d 8cda 4dbc 59a4 b83d
000001b0: 030d 8ebb feab 813d 6950 a83d 8ddb 2d3d
000001c0: e0c5 c0bc 2909 c5bd 405d 0bbd 1645 013e
000001d0: a372 8dbb f82f 8f3d e3de 0bbc dd9e f03d
000001e0: 4264 243e 0e45 f93d 9d29 b63d 8da8 c03c
000001f0: 533d c8bc c932 313d 809b f93b 94ab f93d
00000200: 7a14 0b3d 36e1 3c3d 5140 7cbd 993e 513d
00000210: b370 29bd d9af 153d 3853 9cbd 2365 9ebd
00000220: 2c3f 96bd 9614 87bd 72b2 a8bd 82d5 81bc
00000230: 5b38 07be 85e9 b3bd 11e9 66bd d551 c6bc
00000240: 43ee 3c3d 47ec e9bd 37ba 30bd 026c 333d
00000250: 0c67 d9bd fe86 5fbc 661b afbd acf8 833d
00000260: 65fb 0a3d e3b3 0cbd 9e88 2e3d 95c0 06be
00000270: 00cc 3fbd aacc b6bd 6f46 073d bef9 27be
00000280: 77ee c3bd 9968 c83c ac64 1c3c 308a 1cbe
00000290: d949 80bc 0a31 99bd 62ff 83bd 5244 b3bd
000002a0: 2394 c9ba ecd7 03be 9658 31bd 3966 f2bd
000002b0: 1708 37bd 97f6 d0bd 1327 593d b281 07be
000002c0: 8bb6 81bd 3a52 e4bc 326e dcbd 051b 2d3d
000002d0: c5f4 b3bd 84b8 37bd f09d fbbd 7fb9 7ebc
000002e0: 6cf0 503d e2b1 85bb f11a 50bc ebf8 0ebe
000002f0: 1a58 833d a478 f8bd 971b b8bc f32d 97bc
00000300: 120c b6bd 050f 413d 3e9f 56bc 0b04 28bc
00000310: 7b2f 9dbd ab7b 87bd d04c 22bd 71a6 84bc
00000320: e883 a2bd 6482 00bc 7882 8c3d c46e afbc
00000330: dd7e f5bd 775e 583d 11e0 1dbd a7f6 2cbe
00000340: bfb8 05bd ff21 9a3d 8188 2ebd f734 8c3d
00000350: 4ebf d33c fe41 97bd c5cd 9cbd 7523 d93c
00000360: ba60 39bc f59e a0bd f4e9 85bd 5d9e 05be
00000370: 9942 04be eb75 debd 6f14 abbd ba21 2f3b
00000380: 4e77 f1ba cff2 d3bd 6f27 c3bd 9558 0a3d
00000390: 9be6 42bd 7de1 08be ed44 59bd 6688 ed3c
000003a0: d82b f839 6c91 a3bd adf8 84bd 77a8 8dbd
000003b0: 79f3 823b 327a 34bd d549 97bd 0d3a cebb
000003c0: 5b77 a43c 7460 f2bd 7c49 f0bd 3a6b ab3d
000003d0: 7514 1cbe bff1 9dbd 477e 553d 8f09 0b3d
000003e0: 2950 7fbd 76a6 4fbd 6f59 33bd 78d6 01be
000003f0: 60cb 60ba 7d1c b4bb c4d3 dcbd 2abe d83b
0.14332868 0.06471307 0.04620582 0.0932411 -0.05441571 0.024263656 0.11917823 0.036762197
0.15415253 0.10062901 -0.060041405 0.026181983 0.10878686 0.03999732 -0.05677851 0.029280152
0.04822023 0.049428668 0.11235915 0.11162504 0.050076135 -0.09163641 -0.052130945 -0.03645319
-0.06666472 0.11560475 0.0048319153 -0.12617703 -0.013147835 -0.061571825 -0.031941626 0.040069062
0.087732516 0.09997154 0.10608945 0.13262378 0.04768362 0.13636786 0.076949276 0.06810223
-0.0030285951 0.05996534 -0.047840487 -0.012553781 -0.009073176 -0.044677246 -0.041066498 0.12069174
0.0054524294 0.02889117 0.13770077 -0.0031959347 0.043194253 -0.086281404 0.081353664 -0.0337852
-0.006077248 0.12792931 0.034967173 -0.0050163306 -0.036126636 -0.0051884893 0.0056588035 0.056333337
0.08766057 0.08138698 0.07476055 0.009792823 -0.019800175 0.009759224 0.13099132 -0.01082803
0.016410751 0.048862893 0.06930751 0.13614309 0.08641802 0.022160174 0.06504098 0.006184408
-0.053486306 -0.05650844 -0.044880446 0.050527442 -0.001756214 0.07042112 0.07922751 -0.0036921029
0.066775136 0.15200894 0.07793709 0.12606509 0.090378605 0.10771878 -0.004107619 0.10195198
0.01977494 -0.059208877 -0.028458498 0.05279618 0.027059484 0.07229009 0.0075765606 0.053564984
0.042231016 0.06899903 -0.012564313 0.09015722 -0.004335047 0.06331633 0.08218462 0.042445708
-0.023531854 -0.09620888 -0.034024477 0.1262401 -0.0043166443 0.06991571 -0.008537027 0.11749051
0.1605387 0.12171374 0.08894656 0.023517871 -0.024443304 0.043261323 0.007617414 0.12190929
0.033955075 0.046113215 -0.061584774 0.05108509 -0.041367244 0.036544655 -0.0763306 -0.07734134
-0.07336268 -0.06595723 -0.08237161 -0.015848879 -0.13205092 -0.08784775 -0.056374613 -0.024208942
0.04612566 -0.114220195 -0.04314634 0.043804176 -0.10615358 -0.0136430245 -0.08550148 0.06443915
0.033931155 -0.03435124 0.042610757 -0.13159402 -0.04682541 -0.08925755 0.033026155 -0.16403863
-0.09566968 0.024463939 0.009545486 -0.1528709 -0.015660213 -0.074800566 -0.06445195 -0.087532654
-0.0015379231 -0.12875336 -0.043297373 -0.11835904 -0.04468545 -0.10203283 0.05301578 -0.13233069
-0.063336454 -0.02787124 -0.107632056 0.042262096 -0.087869205 -0.044853702 -0.122859836 -0.015547155
0.051010534 -0.004080043 -0.012701736 -0.13962142 0.064132884 -0.121323854 -0.022474093 -0.018454527
-0.08889021 0.047133464 -0.01309949 -0.01025487 -0.07675072 -0.06615385 -0.039624035 -0.016192647
-0.07935315 -0.007843588 0.068608224 -0.021415122 -0.11987088 0.052824464 -0.038543765 -0.16890965
-0.03264689 0.075260155 -0.04261065 0.0684604 0.025848057 -0.07385634 -0.07656435 0.026506165
-0.011314565 -0.07842819 -0.06538764 -0.13048692 -0.1291603 -0.10862335 -0.08353507 0.0026722983
-0.0018422396 -0.103490464 -0.09529006 0.033775885 -0.047583204 -0.13367267 -0.05304425 0.028995704
0.00047334912 -0.079867214 -0.06492744 -0.06916898 0.0039963094 -0.044061847 -0.07387129 -0.0062935413
0.020076444 -0.11834803 -0.11732766 0.08370061 -0.15242179 -0.07712125 0.05212238 0.033944663
-0.062332306 -0.05069586 -0.043786462 -0.1267947 -0.0008575227 -0.00549656 -0.107825786 0.006614466

lstm.bias_hh f4 [512]
00000000: d6cd 19bd af59 f23d 2277 9e3d 8c0d 41bd
00000010: c1ac 35bc 7ea2 62bd d643 3d3d cdf8 c1b7
00000020: 40ed 8a3d 4118 883d 19c7 a13d fda5 f13c
00000030: 81d6 9f3d 299f f1bb a133 8a3d 8c40 b23d
00000040: 957a c73c 7d10 c4bd 540e 2a3d b86d 44bc
00000050: a010 4c3d d523 a3bd c550 83bd 0f35 fe3d
00000060: 1f4f bc3d 1def c6bc fa1c b6bc 1372 263c
00000070: fdc7 103d e462 963d 5da2 663b 6e3d e93d
00000080: a902 f33a 8665 583d a1bd f33d 55b2 803d
00000090: cb7d 8a3d d040 db3d 54c5 3e3d 43a1 70bd
000000a0: e2dc d03d a23a 233d 70f9 a33c 29ca 83bc
000000b0: 0387 c73d efa9 0fbc 6918 bebc 2da5 f23d
000000c0: 8f0d 3ebd f5f0 cf3d 88b1 34bd d13e 2a3d
000000d0: 698b 72bd e835 6c3c c5f5 20bd 163b df3d
000000e0: d9a0 c23d 4a6a 113e 1d2f d9bd a818 d63d
000000f0: 1cd0 3dbd 6dc2 3b3d f6ea 063e 19ea a73d
00000100: 757f a63d 1a1a 343d fbe2 e73c c7a6 443d
00000110: 5f5f 34bd 8d5c b2bd e94e debc b68c d93d
00000120: 75ac 3bbc e764 18bd 75ad 0abd ae84 e83d
00000130: bc74 b33d ec74 90bd bfb3 fc3a ee77 003e
00000140: 6aab e23b 45a1 5b3d 9ec2 ba3d 37b9 d43d
00000150: 342e 1e3e e479 ed3d 70ea b13d 9ea6 b13a
00000160: 061d 8c3c 9e41 1dbc 577b b33b cef9 f23d
00000170: 081f 1ebb ce8e 043d 4b2f d53d e3b9 34bd
00000180: 83e9 1b3d 9b94 7d3d 5517 72bd 971f 803d
00000190: fbe7 95bd 1e84 a1bc 59a2 bd3d 344f 293c
000001a0: 4e17 f3bb e697 60bd 2ec9 98bc 2326 e33d
000001b0: 9308 8e3c b68a 9e3d 2bfc ad3d 561e 77bd
000001c0: 53bf 1cbd 5e5c a63c 6f46 983d 38c7 923d
000001d0: 63ac 703d 99e6 233b 93a6 3a3c b9e6 d1bb
000001e0: 9d24 f73c 7cc0 8bbc 22bb 2b3e 27cb a93d
000001f0: fe87 663d f558 c33b 16b9 903c 9539 113d
00000200: 2992 59bc 62df c6bc 389d 9abd 8677 6abc
00000210: 54b0 7bbc b039 11be 29ec 08be b065 26bd
00000220: 2484 f43c 4cb2 c3ba dd0c 6ebd 107c 4ebd
00000230: 704d 3f3d 9d29 d4bd 52ff fdbd 92c6 183d
00000240: 7f97 853d 199c 253d d762 ff3d 6bd6 cb3c
00000250: ca72 adbd a597 913d 709a 61bd 4564 373d
00000260: 0f3d 4bbd 308f cbbc 42da 5c3c 866c 98bb
00000270: cf08 293a c4d3 003d 119a 06be 1634 213c
00000280: 8940 bf3c 26cd 1abd 5566 03bd 9d20 6ebd
00000290: 4bff a13c c6ab 44bb b8ee 273d b94e de3c
000002a0: d072 5c3d ef06 c1bd b0e1 65bd 0941 cbbd
000002b0: 256c 39bc 0357 8e3d cb11 323d fb7a 62bd
000002c0: fe28 ecbc 6293 47bd 36bc b2bd 396b 28bd
000002d0: 077b 01be b763 2c3c 3154 23be b25b dabd
000002e0: 3121 f1bd 0cc8 923d 687d de3c 310f 12be
000002f0: 8403 c63c 7ac0 e43c 7fbd 063e 55bb 76bc
00000300: d3be a73d e647 8a3c 0302 983c 0b64 babc
00000310: 8bd1 ccbd 5594 cfbd 66c4 813d da44 17be
00000320: 0332 9cbd f75c a3bc ca01 47bd b07d febd
00000330: 2a8a 11be e5fa 89bd ef15 433d cdd4 01be
00000340: cf0c a3bc ccfa c4bc 3deb 4a3b 5479 903c
00000350: 279a 0abe 253b 52bc 7711 85bc 9cea a4bd
00000360: f708 bbbd b85e 4cbd e302 a0bd 2885 97bd
00000370: ea6e f13c 64fb 5bbd dae5 cd3c c591 343d
00000380: 2c6a d03d ad92 583b 2f5a 453d 0b09 81bc
00000390: 4713 9abd 4508 423d 8761 783d 7026 81bd
000003a0: 2fda ef3b 1c07 213d 718f 4f3d e52f fdbd
000003b0: a8c5 cdbc 5c89 8ebd 372e f8bd 8fdc dbbb
000003c0: d0eb ae3c 7896 0c3d d6e7 10be 5074 b03d
000003d0: be4b 0fbd 9b26 493d 0d26 00be 434b eb3c
000003e0: ed96 fe3c 07ae 97bd e001 81bc e711 20bd
000003f0: 64f1 b2bd 5d76 6d3d cfef a2bc 9526 23be
-0.037549816 0.11833512 0.077375665 -0.04713206 -0.011088551 -0.055330746 0.04620727 -2.312325e-05
0.06783533 0.06645251 0.07899303 0.029498095 0.07804585 -0.0073737097 0.06748129 0.087037176
0.024350444 -0.095734574 0.04151757 -0.01198905 0.049820542 -0.07965819 -0.0641189 0.12412464
0.09194779 -0.02428394 -0.022230614 0.010159033 0.035346974 0.07343081 0.003519199 0.1138867
0.0018540221 0.052831195 0.11901403 0.06284014 0.06762274 0.107057214 0.046574906 -0.05874754
0.1019838 0.03985084 0.020016402 -0.016087608 0.09742548 -0.008768543 -0.023204999 0.11847911
-0.04639965 0.10153381 -0.04411462 0.041563813 -0.059214983 0.014417149 -0.039296884 0.108999416
0.095033355 0.14200702 -0.10604689 0.104539216 -0.046341047 0.045839716 0.13175568 0.081989475
0.08129779 0.043970205 0.028306475 0.048010614 -0.044036265 -0.08709059 -0.027137237 0.106225416
-0.011454691 -0.037205603 -0.033856828 0.11353432 0.087625 -0.07053551 0.0019279643 0.1254575
0.006917407 0.053620595 0.091191515 0.103868894 0.15447313 0.115955144 0.086872935 0.0013553684
0.017103683 -0.009598164 0.0054773497 0.11864053 -0.0024127383 0.03236275 0.10409411 -0.044122588
0.03806449 0.0619093 -0.059104282 0.06256025 -0.073196374 -0.019716319 0.09259481 0.010333825
-0.0074185496 -0.05483236 -0.018650617 0.110912584 0.017338073 0.07741301 0.08495363 -0.060331665
-0.0382684 0.020307716 0.07435309 0.07166904 0.05875815 0.0025009273 0.011392253 -0.006405678
0.030168826 -0.017059557 0.16770604 0.08290701 0.056282036 0.0059615322 0.01766638 0.035455305
-0.013279476 -0.02427644 -0.07549518 -0.014310723 -0.015361864 -0.14182162 -0.13371338 -0.04062432
0.029848166 -0.0014930456 -0.058117736 -0.050411284 0.04670471 -0.103594996 -0.12402214 0.037298746
0.06523036 0.04043207 0.12470024 0.024882516 -0.0846916 0.07109002 -0.055078924 0.04477336
-0.049618777 -0.02484855 0.013479771 -0.004651609 0.0006448151 0.031451955 -0.13144709 0.009839078
0.023346202 -0.0377933 -0.032080013 -0.05813657 0.019775053 -0.0030009612 0.040999144 0.027137147
0.05382043 -0.094251506 -0.056123435 -0.09924514 -0.011317288 0.0695019 0.043474 -0.055293065
-0.02882814 -0.04872454 -0.08727305 -0.04111788 -0.12644587 0.010521821 -0.15950085 -0.10662021
-0.11773909 0.07167062 0.027159408 -0.14263608 0.024171598 0.027923811 0.13158225 -0.015059312
0.08190694 0.016879987 0.018555647 -0.022752782 -0.10000905 -0.10135714 0.06336288 -0.14772359
-0.076267265 -0.01994179 -0.04858569 -0.12426317 -0.14212862 -0.067373075 0.04762834 -0.12678833
-0.019903569 -0.02404537 0.0030962967 0.017635979 -0.13535367 -0.012831484 -0.01624368 -0.08052561
-0.09132569 -0.04989502 -0.078130506 -0.073984444 0.029471833 -0.05370654 0.025134016 0.04408433
0.10176501 0.003304641 0.04818171 -0.015751382 -0.07523208 0.047371168 0.060639884 -0.063061595
0.0073197107 0.03931342 0.050673906 -0.12362651 -0.025118664 -0.06959793 -0.1211819 -0.0067096422
0.021352679 0.034323186 -0.14150938 0.08615935 -0.034984343 0.049109083 -0.12514515 0.028722411
0.031077826 -0.0740624 -0.015747964 -0.039079573 -0.08737448 0.05797421 -0.01988974 -0.15932687
