evaluation_results/models/list_npi_2020_2_25-10_0_22-8935-False-False-1.0-False-0.3-True-False-True-False.pth (torch_old, 964357 bytes, 16 tensors)

Mprog.weight f4 [4, 256]
00000000: d5a5 33be 3cc3 333f d4d6 3d3f bd08 023f
00000010: f834 a13f 9bb9 2cbf aecf dcbe 2d64 d83e
00000020: e34e 54bd d882 3dbe bac5 0d3f b25a b4bf
00000030: 324e d33f bc04 113f 2fb3 5bbf 6f46 a33c
00000040: 67b9 3d3f 6b55 5f3f 4860 cf3f 1fa4 86be
00000050: 4ab0 783f 18c1 a1be e2ba 813f 651b 463f
00000060: 05a5 fcbf 2b22 34bf d9d7 833f c630 84bf
00000070: 344f f3be 5ae0 913f 29de b93e f265 57bd
00000080: 4885 de3f 496d a33f 8f10 183d 673c 57be
00000090: 6090 6f3f abbf d23e 1be1 5dbf 9a74 88bf
000000a0: b2a5 a0bd 3ce1 4d3f 06a2 ad3f 0e0f 2540
000000b0: 5c54 fe3f 880c 43be bb73 9dbd 172f 813f
000000c0: d7c3 b43e e644 cebf 3d3d 0d3f 94a2 293f
000000d0: 45f4 913d 93db e83c 7da8 de3f 63b0 aa3d
000000e0: 16ae 2cbf b88a c1bf 2f23 d83f be89 293f
000000f0: c044 5f3f 4ce9 6f3d 29a7 703f 5acd 76be
00000100: 5999 0f3f 3110 7e3f a794 ccbe df01 e43f
00000110: f03c 13be 33f7 aabe 58b3 d1bf 0bfd 303d
00000120: f9b6 3fbf 948c ca3e aa3c 07be cdde 153e
00000130: a759 b03d ddec 4f3f 9b9e b93e 6b9e 56be
00000140: 12d2 aebf e32f a6bf 7b61 793d f61b 7cbf
00000150: 38be 1fbf a205 c0be 9e3e 27bf 0624 c2be
00000160: b452 f9bf 4541 103e 5783 3e3f b203 8bbd
00000170: d296 d8be 865b 0ac0 e67c f9be 140e 81bf
00000180: 107a 5038 954a 2cbf 11f6 86be a0a6 12bb
00000190: f6a5 41bf bbda 323f 899d 9dbf 666c bb3f
000001a0: f066 45bf 2e99 883f 87ad c6bf 245b 3a3f
000001b0: 3d98 b53e ca47 d9be bc60 363d 3e73 89bf
000001c0: b0ad debf cac6 673f 64df 223f 986a 483e
000001d0: e506 3abd 7e7f bfbf 1905 f1bd a5e2 abbf
000001e0: 96eb 423d d598 1a3f a2b5 103f cbd9 efbf
000001f0: 2425 ebbd b299 293f 8d87 d6be eda4 b0be
00000200: 6701 713f b315 efbf cf92 c3bf 520e 053f
00000210: 939c f2be e53a c03e afc4 263f 2d28 813f
00000220: cc8d 313e 404e 1abf 0284 acbf 3ef7 523f
00000230: be00 c0bf d6e1 d13e 5717 bf3e 42e8 fb3e
00000240: 3115 5440 d27d 47bf d3fa 663f 1a46 643f
00000250: 292c ba3e 4106 3ebf 3388 cfbf d7cf 7dbf
00000260: 93ce 9a3f d1f1 ae3f b04a 5a3e 2640 afbf
00000270: 1462 30be 8794 0240 da20 813f 8b31 22bd
00000280: 891e 543f ca3c edbe e037 3b3d 7fe9 543f
00000290: 5ac4 983e 701b a93f 7fb2 63bf 10c7 ed3c
000002a0: c18a cbbf 3b5b a6bf cc96 2cc0 4001 c63e
000002b0: cc0a 6fbf 5846 b33e cba7 9e3f f78f c3be
000002c0: bac9 8e3f 1583 dc3e 09d3 0340 174b ce3d
000002d0: 9d0b 303f 9a72 febe 359d c23f 5b07 803f
000002e0: db51 16c0 c391 b7bf d214 a5bf 417e d0be
000002f0: 33dc 8ebc 190e f6bf a6b7 a8bd ad8b 823f
00000300: 416a 02bf 5ada 093e dad2 a93f 6fd3 aabf
00000310: 543c 3b3e 217e b9bd df7e 56bc c3ec fe3c
00000320: 256f 18bf 3802 bebe e232 803f 554e 7dbf
00000330: 7e02 d93f 96d8 1940 09a1 a7bf bb21 9bbf
00000340: 3f96 cd3e 630c 97bf b4a6 67bf 9b0f 113f
00000350: 8f58 89bd 9ee5 163f 9712 d03f 6828 2b3f
00000360: 4b36 ee3f 7a85 483f 40f2 8ebe 8a00 9dbc
00000370: 91ca ad3e 8831 653e f5dd 823f b7a9 b33e
00000380: 6571 f0bf 003c e43e ae03 c73e c423 d3bf
00000390: 64b0 54bd 55ef 91bf 2f69 b1bf 5ea2 52bf
000003a0: da42 9f3f d455 fbbe 4f89 a6be c809 1040
000003b0: 42f9 febe 9df3 a73e 7151 02bf acc7 e93b
000003c0: ad99 433f 99dd 62bf cb29 c9bd c435 863f
000003d0: 9d56 8fbe f123 7abf 05e5 d3bf de0f a0be
000003e0: f222 cbbf 1bfe 99bf b5ac 463e 3237 8bbf
000003f0: 1827 ecbf c825 233f 310b 8ebf 2fbc 56bf
-0.17543729 0.7021978 0.74155927 0.50794584 1.259429 -0.6747071 -0.43127197 0.42263928
-0.051833045 -0.18506944 0.5537983 -1.4090178 1.6508238 0.5664785 -0.8582029 0.019931046
0.74111027 0.8723971 1.6201258 -0.2629709 0.97143996 -0.3159263 1.0135157 0.7738555
-1.973786 -0.70364636 1.0300246 -1.0327384 -0.47521365 1.1396592 0.36302307 -0.052587457
1.7384424 1.2767726 0.037125167 -0.21019135 0.93579674 0.41161856 -0.8667161 -1.0660584
-0.07844104 0.80421805 1.3565071 2.5790439 1.9869494 -0.19047749 -0.076880895 1.0092496
0.35305664 -1.6114776 0.5517157 0.662637 0.07126669 0.028425014 1.7395169 0.08334424
-0.67453134 -1.5120459 1.6885737 0.662258 0.8721428 0.0585721 0.94005066 -0.24101773
0.56093365 0.99243456 -0.39957163 1.7813071 -0.14378715 -0.33391723 -1.6382856 0.04321007
-0.7488857 0.39560378 -0.13206735 0.14635773 0.0861085 0.812208 0.3625382 -0.20958869
-1.3657858 -1.2983364 0.06088398 -0.98480165 -0.62399626 -0.37504297 -0.6532992 -0.3791811
-1.9478364 0.14087398 0.7441916 -0.06787814 -0.42302567 -2.1618361 -0.48728102 -1.0082421
4.9704744e-05 -0.67301303 -0.2635961 -0.0022377148 -0.7564386 0.69865006 -1.2313701 1.4642456
-0.77110195 1.0671747 -1.5521706 0.7279532 0.3546771 -0.42437583 0.044525847 -1.0738294
-1.7396755 0.90537703 0.6362212 0.19571912 -0.04541673 -1.4960783 -0.117685504 -1.3428541
0.047587954 0.60389453 0.5652715 -1.873834 -0.114816934 0.66250145 -0.41900292 -0.34500828
0.94142765 -1.8678497 -1.5279177 0.51974976 -0.47385082 0.37544933 0.65143865 1.0090386
0.17339247 -0.6027565 -1.3477786 0.8240851 -1.5000226 0.40992612 0.37322494 0.49200636
3.3137934 -0.7792636 0.9022648 0.89169466 0.36361817 -0.7422829 -1.621344 -0.99145263
1.2094291 1.3667547 0.21317554 -1.3691452 -0.17224914 2.0403154 1.008815 -0.03959803
0.8285909 -0.4633544 0.045707583 0.83168787 0.29837304 1.3211498 -0.8894424 0.029025584
-1.5901719 -1.2996591 -2.696704 0.3867283 -0.9337585 0.35014606 1.2394956 -0.38195774
1.1155312 0.43068758 2.0597556 0.10072916 0.6876772 -0.4969681 1.5204226 1.0002245
-2.348746 -1.4341358 -1.2896979 -0.40721324 -0.017438984 -1.9223052 -0.08238153 1.0198876
-0.5094338 0.13462201 1.3267472 -1.3345774 0.18284732 -0.0905726 -0.013091772 0.031118756
-0.59544593 -0.37111068 1.0015528 -0.9894765 1.6953886 2.4038444 -1.3096019 -1.2119669
0.4015369 -1.1800655 -0.90488744 0.5666444 -0.06706344 0.5894412 1.6255673 0.6685853
1.8610319 0.7832867 -0.27919197 -0.019165296 0.33943608 0.22382176 1.0223986 0.3509042
-1.8784605 0.44577026 0.38869995 -1.649529 -0.05192603 -1.1401163 -1.3860224 -0.82279
1.2442276 -0.4908892 -0.32526633 2.250597 -0.49799544 0.3280305 -0.5090552 0.0071343984
0.76406366 -0.8861938 -0.098224245 1.0485158 -0.27995768 -0.9771109 -1.6554266 -0.31262106
-1.587004 -1.2030672 0.1940182 -1.0876219 -1.844943 0.63729525 -1.1097165 -0.83880895

encoder.l1.weight f4 [100, 44]
00000000: fe84 8abe 3074 27be b202 10bd aea5 853d
00000010: 732f 493e d241 91be 3684 023e 8aa9 93bd
00000020: efc4 02bd c93c 5a3e ef05 5a3e b8d7 4b3e
00000030: 8913 893d 36b0 da3d 9b20 b2be 7505 d33d
00000040: a3b5 983c c80c debc a1fd 113d 2094 33be
00000050: c7dd 6ebd 679e 703d abad 723b 8d3b 033c
00000060: 73b7 36be 3190 673d 52f7 0abe 0281 e43c
00000070: 3f71 2f3e d2b1 723c 0174 743b 2e4e debd
00000080: 41f7 703c c2be ebbc aaac 16be d712 0c3c
00000090: a95f b3ba 484c 683c 2eac f53d d999 13be
000000a0: 0347 9f3c 11a3 423e 1301 a73c 861f 283e
000000b0: 7774 07be 5774 dbbd 99f9 a83d e5ed 463d
000000c0: 945f 723d 1610 a4bc c476 fdbd dd36 033d
000000d0: cf40 463e eb60 673c 37f9 54be 0cd5 843c
000000e0: 7d0c 253d 21aa 5ebd 65c6 d8bd a76d 4fbd
000000f0: b2b4 563d 9c80 883d 004d 433b 8302 a0bc
00000100: bd15 c83d 8803 a9bd a0e4 a83d ee14 5bbe
00000110: 2943 a83d 2dfb f93d f1bc 09be 119d d33c
00000120: 6dba 00bd c126 ff3d 7a20 1bbe 256e 383c
00000130: 8fe2 0cbe d55a eebb 9c64 893c 6809 75bd
00000140: c72d 803e 5469 163e cd7e c5bd f24b a93d
00000150: a922 a63d 914b 923d c0a6 183d 7d0b 13bd
00000160: 96b4 063e dedf 45be f806 afbd 49a5 083e
00000170: d603 b7bd ab0f 6b3e 5f22 473d 6321 0fbe
00000180: c39c 703d 67c7 80bd 1552 89bb 07b8 0c3e
00000190: 5225 6d3d 73ec c9bd 56f7 243e 92e4 d1bd
000001a0: c5ca 5ebd f526 053e 420a 58bd 53a9 8dbd
000001b0: 702d d8bd 5820 e73d 8e26 1d3e da2a 923c
000001c0: 8802 a5bd ebdf 09be 79ba a0bd 2060 cb3c
000001d0: a091 103c ec34 e23c 0335 a23c bc62 e73c
000001e0: 56a6 29bd dc52 28bd 844c 2b3d 9df9 ab3d
000001f0: 0adc 593d 8a03 0bbe 3fa4 bb3c 4060 4cba
00000200: d5b1 01be f621 3b3e 787a 83bd 03a6 483e
00000210: 4e8e 353e 5fbe ac3d 72fa d1bc da45 95bd
00000220: b0c7 57bd 1ac5 dfbc a0cf 14bc 25b9 e03d
00000230: 65f9 133e 2d73 2e3e 3fbe 92be 0033 a9bd
00000240: 702b 14be 477d 443e 033a cf3c 8b59 8a3d
00000250: c535 003e 5aaf 093e 67f7 173e 3d7a ae3c
00000260: 41b2 483d 14d1 44bd 516d 303b 431e 623d
00000270: 2900 c7bb b1fa 093e 7c9a 1bbd 2d06 fb3d
00000280: 2914 dc3d 1457 833c ec51 ec3d 4db6 d93c
00000290: f7d0 b53d 9c53 623e 3cf3 373e 071c ecbd
000002a0: a301 d63d 7bb7 07be afab 0e3e fc96 33bf
000002b0: 1a26 bd3b fd12 f5bd 0d45 ab3d b154 4c3e
000002c0: d3d2 643e 8b47 cfbc a942 babd e973 02be
000002d0: b05c 513c aa03 f93d 8697 e6bd 63b9 de3d
000002e0: 9c41 b43d 115a 0abd 57ca d3bd 6ecf bebd
000002f0: 4cf9 8d3c 0f87 8e3e 0bac 913d b9e3 efbd
00000300: 44d3 fa3d 73d7 96bc 99ff 0c3e d06b 64bd
00000310: 8105 c63c a507 f13c 0aa7 bcbd 4047 b83d
00000320: ceee 033d 1f12 82be 8583 863d fed3 2f3d
00000330: 70ef 733d 482c b33c 514d 08be 1f4c 543e
00000340: 9926 17bc 9464 c0bd b0e2 e83c f044 95bd
00000350: 4e6a 2a3e 7c44 d4be f7c2 073e e03d 763d
00000360: 533e 82bd 90c2 033e 93d6 6ebd 09ad 903d
00000370: 56c8 483e 7450 7bbd df41 983d 149c 3a3e
00000380: c030 b83d 23ec f1bd a274 12bd 1146 9dbc
00000390: 5004 c8bd 14de 563b 36b9 dbbe f5a6 6d3c
000003a0: 2c29 84be a7f5 d6bd b82f 673d 6efb 133e
000003b0: b3d4 3c3d 3278 0d3a aa2a b63d 1d8a e33d
000003c0: cee9 e63c cbfe b93d 993d 02be 93ca 3e3b
000003d0: ba5f acbd 1034 3cbd 1d39 9b3c 831d 80bd
000003e0: abdc 193e b4bf 9e3d 5d93 9c3d f99f 253e
000003f0: 1809 39bc bbf3 103d f4cc 7a3e 47d3 c2bc
-0.2705459 -0.16352916 -0.03515882 0.065257415 0.19647007 -0.2837053 0.12745747 -0.072100714
-0.03192609 0.2131225 0.21291326 0.19906509 0.06693179 0.10678141 -0.347905 0.10303775
0.018641299 -0.027105704 0.03564227 -0.17536974 -0.058316972 0.058744814 0.0037029784 0.0080098035
-0.17843418 0.056533996 -0.13570908 0.027893547 0.17133044 0.0148129035 0.003730059 -0.10854755
0.014707387 -0.028777484 -0.14714304 0.008549414 -0.0013685125 0.014178343 0.11995731 -0.14414157
0.01944304 0.19007517 0.020386254 0.16418275 -0.13228022 -0.107155494 0.08250732 0.048566718
0.05917318 -0.020027202 -0.12376168 0.032034744 0.1936066 0.014122228 -0.20798193 0.01621487
0.040295113 -0.054361466 -0.10584716 -0.050641682 0.05241842 0.06665155 0.0029800534 -0.019532448
0.09769771 -0.08252627 0.08246732 -0.21394703 0.08215935 0.12206111 -0.13450982 0.025831731
-0.03142779 0.124585636 -0.15149108 0.011256729 -0.137583 -0.0072740116 0.016771607 -0.059823424
0.25034925 0.14688617 -0.09643326 0.082664385 0.0811208 0.071433194 0.0372684 -0.035899628
0.13154826 -0.1932368 -0.08546251 0.13344301 -0.089362785 0.22955196 0.048616763 -0.1397758
0.05874325 -0.06288033 -0.004190693 0.13742076 0.05789692 -0.09859552 0.16109976 -0.102486745
-0.054392595 0.13003142 -0.052744158 -0.06917062 -0.105555415 0.11285466 0.15346739 0.017842699
-0.080571234 -0.13464324 -0.07848067 0.02482611 0.008823782 0.027613126 0.019800669 0.028245322
-0.041418396 -0.041094646 0.041821018 0.08397219 0.05318836 -0.13575569 0.022905467 -0.0007796325
-0.12665494 0.18274674 -0.064198434 0.19594578 0.17730066 0.08434748 -0.025632117 -0.07288714
-0.05268067 -0.027315665 -0.009082705 0.109728135 0.14450605 0.17036124 -0.2866077 -0.082616806
-0.14469695 0.19188415 0.025296217 0.0675536 0.12520511 0.13445798 0.1484047 0.021298522
0.04899812 -0.048050955 0.0026920626 0.05520464 -0.006073017 0.13474537 -0.037989125 0.12257037
0.10746033 0.016032733 0.11539063 0.026576186 0.088777475 0.22102207 0.1796388 -0.11528783
0.10449531 -0.13253586 0.1393268 -0.7015226 0.0057723643 -0.11966512 0.0836278 0.19954182
0.22346048 -0.025302669 -0.09094746 -0.12739529 0.012778446 0.12158902 -0.112593696 0.108752035
0.088015765 -0.0337773 -0.10341328 -0.09316908 0.017330788 0.27837417 0.07112893 -0.117133565
0.12247327 -0.018413281 0.13769378 -0.05576688 0.024172546 0.02942259 -0.09211548 0.08997965
0.032210164 -0.2540445 0.06568054 0.04292678 0.059554517 0.0218717 -0.13310744 0.20732163
-0.009225511 -0.09394184 0.028428406 -0.072885394 0.16642115 -0.414585 0.13257967 0.060117602
-0.06359544 0.12867188 -0.058310103 0.07064254 0.19607672 -0.061356023 0.07434439 0.18223602
0.08993673 -0.11812618 -0.03575576 -0.01919845 -0.097664475 0.0032786177 -0.42914742 0.014505138
-0.25812662 -0.10496073 0.056441993 0.14451382 0.046101283 0.00053966336 0.08894856 0.111103274
0.028187659 0.09081801 -0.1271881 0.0029112443 -0.08416696 -0.04594809 0.018948132 -0.06255629
0.15025584 0.07751408 0.07645295 0.16174306 -0.011293672 0.03538869 0.24492246 -0.023782386

encoder.l1.bias f4 [100]
00000000: 54c3 01bd 665d 993d eb8e e23c 2863 ae3d
00000010: 049c 39bc ed09 abbd ba7b 353d 9ebc e33b
00000020: 8bb6 9dbd 7326 2abd ec03 b83c dd02 66bc
00000030: c5bd be3c f306 643d 700c c33d 875d 223d
00000040: d4b0 afbc 3ce1 bb3d 42b4 95bc 3adb bdbc
00000050: 1e4b 063d 9510 24bd 53bd c43d 0b0a 083d
00000060: eeb1 ec3d a0be 973d f5b8 423c faa2 cebc
00000070: 5975 9ebd f01a aebc 1436 553d 2b12 813c
00000080: 8392 3d3d 857c 14bc c01b ac3c 4324 c13c
00000090: 2c32 8a3c 7b8b 6f3d 5b6d e0bc 1da0 e83d
000000a0: 3b2a 9f3d 3534 d63d b919 7d3d bcca 023e
000000b0: 926c 903c be17 db3c 01b4 443d f1c9 3cbd
000000c0: fec2 bb3d 8c33 e53d 330c 483d 86f4 e43d
000000d0: 4853 efbc f574 bfb9 ffac 9b3d b27a 023e
000000e0: ecb4 84bd a65a fc3b 9145 4ebc 4ef7 463d
000000f0: e636 183c 1ed6 0d3d 5940 42bd 8154 e93c
00000100: 6208 513d 9cc2 da3c d9f2 f93d 816a adbc
00000110: c051 c23c 8838 e4bb 05b4 2fbc 528e ad3d
00000120: bc5f 72bc 2267 79bd f85f 633c 77ab 933d
00000130: 4538 8e3d 1828 66bd 44f9 19bd aeca be3d
00000140: 6e94 78bb cde8 74bd 296e 673d 5dfe 3a3d
00000150: 538f a63c 99f3 ad3b 67cf 043e 1636 58bd
00000160: db39 34bc 364b ba3c 93fa 8d3d 5620 2d3d
00000170: a1c5 673c 06ea 633d e190 963d 0e1b 7ebc
00000180: 186f ea3c ce5e 453d 3e4a 063e f205 27bd
-0.03168042 0.074885175 0.02765604 0.08515006 -0.011328701 -0.083515026 0.044307448 0.006949975
-0.07700833 -0.041540574 0.022462808 -0.014038769 0.023283849 0.05567069 0.09523857 0.039639976
-0.021446623 0.091738194 -0.01827443 -0.023175824 0.03278648 -0.040054876 0.09606423 0.033212703
0.11557375 0.07409406 0.0118849175 -0.025224198 -0.07737226 -0.02125308 0.052053526 0.015755733
0.046282303 -0.009062891 0.021009326 0.023576861 0.016869627 0.05848263 -0.027395895 0.11358664
0.07771727 0.104591765 0.06179211 0.1277265 0.017629895 0.02674472 0.048023228 -0.046091024
0.09168051 0.111914724 0.04883976 0.11179452 -0.029214516 -0.000365175 0.07601356 0.12742117
-0.064798206 0.007701236 -0.012589828 0.048575692 0.009290433 0.034628026 -0.047424648 0.028482677
0.051033385 0.026704125 0.12204523 -0.02116895 0.023720622 -0.006964747 -0.010724072 0.08474411
-0.014793333 -0.06088937 0.013877861 0.07210439 0.06944326 -0.05619058 -0.037591234 0.09316002
-0.0037930268 -0.05979233 0.05650154 0.045652736 0.020332014 0.00530858 0.12969743 -0.052785955
-0.011000122 0.022740941 0.06932559 0.042267166 0.0141462395 0.055643104 0.07351852 -0.01550938
0.028617427 0.048186116 0.13114259 -0.040777154

encoder.l2.weight f4 [32, 100]
00000000: eb2f 9fbe c913 29be 65ab 9fbe 7e19 ebbd
00000010: ebe3 b6be 2108 003e f5cd 583e 8580 cd3d
00000020: 26f5 a33e c374 503e f61a b63e c728 c93d
00000030: c2b7 d5bd 7f76 ebbd 61a3 f13d 8809 c6be
00000040: c592 003e fc15 bdbd a03e 4dbd ecef e7bb
00000050: 84c0 6fbd 0e89 523e b58c 53bb bc27 5cbe
00000060: aa35 663e 0075 31bd b56a ef3d 6bf4 d03d
00000070: 407a afbe 3ad9 453e 3bf6 8d3e d4bc 80bd
00000080: 84c9 9abe 2bed 7ebe c38e 0ebe c790 64be
00000090: a568 cfbc c3ff a3be 94b6 05be 29d7 8c3d
000000a0: f095 77be 1b1a 68bd 1dac 8dbd 8e48 d23e
000000b0: f480 b9be 8940 bd3e a7ad 08bd 7ab6 2b3e
000000c0: dc9c cf3d c7e6 a73d be49 fd3d 6847 163e
000000d0: f6dd a73e 3681 d03c f4dc c7be cdeb f3bc
000000e0: a67d 243e b33c b53c 01f8 c3bd 49f3 fcbd
000000f0: 1111 c63e f138 ffbc 031f 9f3e a268 6a3e
00000100: 65dd 85be 80a4 743d 748d 9bbe 4ea4 903c
00000110: bbd6 91bd 9e95 5f3c ffb9 b0be 710e f2be
00000120: 7b29 293e 03f9 8e3d 7f2f 4dbe 8409 4cbe
00000130: 20bb 4b3d df9b f43d 70ac 43bc abdd 823e
00000140: fc3e 473e 580f 1fbe 86a7 503e 736d b1be
00000150: 3822 733e b181 993e bd70 373e ce12 2a3e
00000160: 1e0c 9e3d c608 24be c21f e63d 12b5 853e
00000170: 4226 993c bb38 9f3d a9a6 f3bd 0bd7 87bd
00000180: aa9d 443e 7eec f9bc 6fc6 173e 2559 05be
00000190: b6a0 96be 7d9d 363e 7dc6 44be c091 f2be
000001a0: b5cf 9abe 9d2a fa3d c737 083e 1771 593e
000001b0: 6cf7 7b3e f4a8 433e 60e7 0c3e b3db 0f3e
000001c0: bdc5 d33c 0eaf 283e 837a 713e 26a3 41be
000001d0: f8d4 b8bd 270d 81bc c847 37be b4ff 8b3e
000001e0: d95b afbd 0843 e0bd 2260 90bc 2f90 3ebe
000001f0: 7bd3 f03d 55fb bb3d 476f 04be 40a8 353e
00000200: ee61 edbd f0b3 aabd c9db 6d3d d854 f03d
00000210: 2169 a23d 0bda a8bd 0d1d 013d d2b6 58be
00000220: abcd dc3d 8797 003d a360 55bd 7efb 02bd
00000230: 4d28 d6bc 3fdd 283c f76f ccbe 7baa 8e3e
00000240: 458e 483d b455 803e 4a91 71be 9c77 883e
00000250: 7650 313e 6678 983e 521d f83d f8b7 24be
00000260: 6c05 b03d 6e49 3c3e 283b 5ebe 0f91 c3bd
00000270: 4e9f db3d 2560 9dbc e56c 0bbe 2b32 f6be
00000280: 643d 5b3e de19 84be 2c81 ab3d 1ad9 383e
00000290: 60f4 06bd 178f 23be 6910 94bd 6f3b 973e
000002a0: afa5 4a3d 9cd9 8cbc 0f92 11be 4cba f7bd
000002b0: ff59 b53d d649 4dbe afd6 5ebd 3360 033e
000002c0: ceb0 edbb 9a53 1f3e 569c 5d3d e013 f93d
000002d0: f821 a93d 8cd0 2ebd 52e9 31be 1783 16be
000002e0: a440 933e ba96 26be 30e9 aabc 6cc5 dcbd
000002f0: 8fe4 01bf f288 413c 5e3c c63d bad8 4d3e
00000300: ee0e 1c3e 4d45 063e c79a 573d eb64 643d
00000310: b189 7f3d 9b3c 923d 4ffe 463e 3523 a9bc
00000320: 2522 2bbd 820c 1ebb 13d7 a6bd 765c a63e
00000330: 2c6f cd3d a81b 4bbe e8fe 5ebd 3129 c73d
00000340: fced 84be 8ebd 353b 425d dcbc 77a9 f1be
00000350: 091b 473e 90b1 89be dac8 78be c4fa a23e
00000360: fda6 be3d 85dc b33d 2970 3f3c f106 dabe
00000370: ca97 2e3d 8f55 913d fef0 0b3e 386c 1abd
00000380: 3973 863d aa0c 71ba 473f 96bd 5df8 d9be
00000390: 4e36 0f3e 3612 ffbd ad79 c3bd 0377 3bbe
000003a0: 60f0 9e3d 0cef 713d d909 293e 0003 eabd
000003b0: c9b6 243d 36b1 33be c9ef 9cbd 0d6f 4fba
000003c0: 302e a23e 5d50 d43e 4af7 e93e fb11 72be
000003d0: 61d0 a13d b1bc 79be d3cf 9e3d bfbe 58be
000003e0: 94a1 90be 1746 3fbe 4688 ffbc 52d3 d63d
000003f0: 9d37 f5be 1277 78be ce15 ad3c 834d dd3d
-0.31091246 -0.16511454 -0.3118545 -0.114794716 -0.35720763 0.12503101 0.21172316 0.10034279
0.3202297 0.20357041 0.35567445 0.09822231 -0.1043544 -0.11497211 0.1179874 -0.38679147
0.12555988 -0.09232709 -0.050108552 -0.0070781615 -0.058533207 0.20560095 -0.0032279913 -0.21499532
0.22481409 -0.04332447 0.116902746 0.10202869 -0.34272957 0.19321147 0.2772692 -0.06286016
-0.3023187 -0.2489516 -0.13921647 -0.22320853 -0.025318453 -0.32031068 -0.1305793 0.06876976
-0.2417829 -0.05666552 -0.06917594 0.4107098 -0.36231196 0.369633 -0.033368733 0.16768828
0.101373404 0.08198314 0.12367581 0.14675677 0.3278653 0.025452238 -0.3903576 -0.029775525
0.16063556 0.02212367 -0.09568787 -0.123510905 0.38684896 -0.031155081 0.31078348 0.22891477
-0.26145473 0.059727192 -0.30381358 0.017656472 -0.07121035 0.013646511 -0.34516904 -0.47276643
0.1651973 0.06981089 -0.2003765 -0.19925505 0.049739003 0.119437926 -0.011942968 0.25559744
0.1945762 -0.15533197 0.20376405 -0.34653816 0.23743522 0.2998176 0.179141 0.16608736
0.07717155 -0.16018972 0.11236526 0.26114708 0.018695 0.07774492 -0.11897022 -0.06632813
0.19200769 -0.030508276 0.1482179 -0.13022287 -0.29419488 0.17833515 -0.19216342 -0.47376823
-0.30236593 0.12215159 0.13302527 0.21234547 0.24606103 0.19107419 0.13760138 0.14048652
0.025851125 0.16473028 0.23581891 -0.18909892 -0.090249956 -0.015753342 -0.17898476 0.27343524
-0.085624404 -0.10950285 -0.017623965 -0.18609689 0.11759087 0.09178797 -0.12933074 0.17739964
-0.11590944 -0.083351016 0.05807093 0.11734933 0.07930208 -0.082447134 0.031521846 -0.2116349
0.107814156 0.031394508 -0.052094113 -0.031978123 -0.026142264 0.010306655 -0.39929172 0.2786444
0.048963804 0.25065386 -0.2359058 0.26653755 0.1731585 0.29779357 0.121149674 -0.16085804
0.08594784 0.18387386 -0.21702254 -0.09549152 0.10723744 -0.019210884 -0.13615759 -0.4808515
0.21410137 -0.25800985 0.08374247 0.18051568 -0.032947898 -0.15972553 -0.072296925 0.29537532
0.049474414 -0.017193608 -0.14215873 -0.1209608 0.08855056 -0.20047697 -0.054403957 0.12829666
-0.007253743 0.15559235 0.05410417 0.12161994 0.08258432 -0.042679355 -0.17374161 -0.14698444
0.28760254 -0.16268435 -0.020863146 -0.10779843 -0.5073938 0.011812435 0.09679483 0.20102206
0.1524007 0.13112374 0.05263784 0.055760305 0.062387172 0.07140466 0.19432949 -0.02064667
-0.04178061 -0.0024116342 -0.08146491 0.32492417 0.1003097 -0.19834769 -0.054442316 0.097246535
-0.25962818 0.0027731392 -0.026899938 -0.47199604 0.19443907 -0.26893282 -0.24295369 0.31831944
0.09309194 0.08782295 0.011684456 -0.4258342 0.042625226 0.07096397 0.1366615 -0.03770086
0.06564946 -0.00091953075 -0.07336288 -0.425723 0.1398556 -0.12454645 -0.09544692 -0.18307118
0.07760692 0.059065863 0.16507663 -0.114263535 0.04021338 -0.1754807 -0.07662923 -0.0007912971
0.31675863 0.41467562 0.4569648 -0.23639672 0.07901073 -0.24388386 0.07754483 -0.21166514
-0.28248274 -0.18679081 -0.03119291 0.10489525 -0.47893992 -0.24264172 0.021128561 0.108058

encoder.l2.bias f4 [32]
00000000: 1457 0d3d 2358 bd3c 103e bf3d 48a2 113b
00000010: 2729 0fbd 0512 473d 05d7 e83d 59aa 413d
00000020: eb48 343d 3e69 a7bc ebd4 2cbd 6973 3a3d
00000030: f1d2 8dbc 5cbc 143c 43a4 573d 0ab6 fbbb
00000040: 1174 bb3d d026 953d 3848 dabc a784 c63d
00000050: 8db6 1c3e c7b2 25bd 0b04 78bd f547 c03d
00000060: ad5c d3bc 8e47 e73d 8c1d cd3d 8985 25bc
00000070: 50ae c13d 8675 7e3d 26e2 1fbd bded 963d
0.034506872 0.023113316 0.09338009 0.0022221971 -0.034951355 0.04860117 0.11369137 0.047281597
0.044014852 -0.020435926 -0.042195242 0.04552022 -0.017312499 0.0090781115 0.052646887 -0.007681613
0.09152997 0.072827935 -0.026645765 0.0969327 0.15304013 -0.0404537 -0.06055073 0.09388725
-0.025801027 0.11292945 0.10015401 -0.010102638 0.094570756 0.062123798 -0.03903403 0.07369564

lstm.weight_ih f4 [512, 288]
00000000: df9e 75be 3cf5 a3bb fe9b 463e 4985 683e
00000010: 0ea4 87bd df85 f8bd 55ab 59bd e9f9 033d
00000020: 0a69 c3bd abae 9f3d c5bf 77be 01f6 ccbd
00000030: 6571 11be c428 363e d165 bebd d840 bcbd
00000040: 18b2 5ebc a3cb bcbc b4c8 183c b254 28be
00000050: 0b9d c33d cc9e a73e bebe c1bd dc3d 6fbe
00000060: 68d9 c1bd 37f9 13be 3225 d1bd 888e ff3d
00000070: 2a90 a33d c04d dbbc 6f78 7b3d 37e6 183e
00000080: 9952 ac3d 976d b6bd cb9f 6b3d 80c9 b73d
00000090: 434f 8b3c af45 903d c4c7 023d 2ff8 a43c
000000a0: 87cf c43d ccba 363d 0c78 6cbd c8f0 b93c
000000b0: 9f8b 06bd 4808 ef3d 0158 4fbd c163 1b3d
000000c0: b0f5 2fbd 811f c3bc c4b4 0b3e d603 d0bd
000000d0: 53e0 a9bc e180 183d eb6c 413d 8bd8 82bd
000000e0: b542 c93d ee5b 1c3d b30f 78bd 0bbd 71bc
000000f0: c0eb 58bd 730f 9abc b2b4 c6bd 060a ecbd
00000100: f55c f6bd 6857 f8bc e5f9 093e c18a 6a3c
00000110: c692 ea3d 738f 50bd cfa6 a6bd 3a74 7dbd
00000120: c5a3 c0bd 9b69 21bd 62ef aebc bf75 dd3c
00000130: d4ba f1bd 8bbe 8f3c 458e 1bbe 0074 2ebd
00000140: 1e35 9bbb 20a9 41bd 64ec 713c 9d4f 06bd
00000150: 90b4 5c3d 1918 4a3d 10b2 c1bb 8249 45bd
00000160: 7c81 8fbd 3705 c7bd cd6d 353d 4117 b9bd
00000170: f576 393d e90d 083d 5863 45bc 4019 cbbc
00000180: 29b3 8fbd 90fe afbc 5c26 babb 12a4 443d
00000190: f376 0cbd a65b 6cbc 83db 84bd 42fb 56bd
000001a0: b379 a8bc a45e 0e3e 20aa 04bd b469 a73c
000001b0: e0f5 83bd bb47 883d 95b7 4e3b 2ff4 4d3d
000001c0: a394 363d a568 d73d f5cd 59bd 95a5 9fbd
000001d0: dfb5 7abc c7a0 fe3d 32ef 6e3d 1533 0d3d
000001e0: e650 893c 9600 f13d 65b7 903d 331e 82bd
000001f0: 9c35 06bd b99c 4abd 2c0f e33c 2b23 b6bc
00000200: 2576 7fbd 9111 aa3d f28c d33d 9560 e33d
00000210: 3c92 983d edc6 303c 34d7 4a3b e6c2 43bc
00000220: 30e4 123d 626c 34bc 6a83 55bd 4b52 87bd
00000230: f49c 5e3d cd0c 933c 8613 a73d 9f41 253c
00000240: 2e1e bb3c 6ebe b6bd b097 c23d 4605 7b3d
00000250: 5f24 e5bd ffb2 b5bd 3f8e 4e3d 5932 acbd
00000260: ab9a 533d 679b cc3d 41fd eb3c f0af e9bc
00000270: e3bd 953c a5b8 b43d 2334 38bd b347 e9bd
00000280: 9047 be3d 6fc9 d13d 7b4d a93c 8a2a 3d3d
00000290: 2b68 5e3c 4782 c5bd a190 fd3c 9a2c 68bc
000002a0: 7ae2 7e3b 62c2 0dbd 969e 37bd fbde 81bd
000002b0: 14cf 113d 80fc fa3b 988b 85bd 5050 47bd
000002c0: e61f 663d 599e 6ebc 21fd 4dbc f468 37bc
000002d0: 3641 51bd cff7 01be 6faa 303c 23d6 aabb
000002e0: 273a d43d 2e5a 8a3c 9ac0 27bc dfd6 a33b
000002f0: 8aa6 b43d b113 523c 75ae efbc 9505 ab3d
00000300: 3ada ca3d 7b28 e6ba 5784 29bd 4a87 053d
00000310: f4a4 99bd 952b 72bd d052 c73d ceb4 6b3d
00000320: dc17 4c3d 024e e03c 5479 3d3b 2a65 d63d
00000330: b4f9 9cbc 4f79 b6bd c698 393d a8c3 593d
00000340: 19ab 03bb 1546 b53c b137 9dbd 59fe b53d
00000350: 3fdf 033e b8a9 edbd a94e 02bd b410 90bb
00000360: 6da3 2f3d f45a a2bd 6199 3fbd bc9b 5abc
00000370: 2461 96bd 029e 82bd ff05 35bd 785f 98bd
00000380: 1f59 3b3c 3301 01be d62e 5b3c c923 28bd
00000390: 78a9 39bd c843 d8bd 8120 4f3d fecc 84bd
000003a0: 294e 2b3b bbf6 c73c 6c34 9fbd ae3c ee3c
000003b0: 4f41 2dbd 61ab 023d 9e4b 033d df03 53bd
000003c0: 0fa0 9fbc e5f5 a6bd 97d1 86bc 488b 4fbd
000003d0: 61a8 fcbc f058 6d3d 477f e13d 90cd 033d
000003e0: 7dc2 fabc 1c98 35bd 46fa d63c 512f fdbd
000003f0: 173e 03bd 3a69 8fbb 064c e13d 7bb1 d5bc
-0.23986386 -0.0050035994 0.19395444 0.22707094 -0.06623088 -0.12134909 -0.05314191 0.032220755
-0.09541519 0.07796987 -0.24194248 -0.10007859 -0.14203413 0.17788988 -0.09296764 -0.091920555
-0.013592266 -0.02304632 0.009325195 -0.16438559 0.09551438 0.3273834 -0.09460209 -0.23363441
-0.09465295 -0.14450537 -0.102121726 0.124783576 0.079864815 -0.026770473 0.06139415 0.1493157
0.08414192 -0.08907621 0.057525437 0.0897398 0.017005568 0.07044541 0.031928793 0.020137874
0.09609895 0.044611737 -0.057731673 0.022697821 -0.032847997 0.116715014 -0.050621036 0.03793693
-0.042958915 -0.023818733 0.13643175 -0.10156982 -0.020736849 0.037232284 0.047223013 -0.063889585
0.098271765 0.03817361 -0.060561847 -0.014754544 -0.052959204 -0.018806195 -0.09702434 -0.11525349
-0.12029449 -0.030315116 0.13474233 0.014315308 0.11453776 -0.050918054 -0.08137285 -0.06187842
-0.094062366 -0.039407354 -0.021354381 0.027033685 -0.11803213 0.017546913 -0.1519099 -0.042591095
-0.0047365567 -0.04728043 0.014765833 -0.03279077 0.053883135 0.049339388 -0.0059111193 -0.048165806
-0.07007119 -0.097177915 0.044294167 -0.090376385 0.045279462 0.03321639 -0.012047611 -0.024792314
-0.07016594 -0.02148369 -0.0056808423 0.048008032 -0.034293126 -0.014426148 -0.06487181 -0.052485712
-0.020565843 0.1390329 -0.032388806 0.020436145 -0.06443381 0.066543065 0.003154253 0.0502817
0.044575345 0.10518006 -0.05317493 -0.07795254 -0.0153021505 0.124330096 0.058333583 0.034472544
0.016762208 0.1176769 0.0706623 -0.06353416 -0.03276597 -0.04946587 0.027717195 -0.022233566
-0.06236853 0.08304132 0.103296176 0.11102406 0.07449767 0.010789615 0.0030951025 -0.011948323
0.035862148 -0.011012169 -0.05212728 -0.06607493 0.0543489 0.01795044 0.08158021 0.010086446
0.02284154 -0.0892304 0.09501588 0.061284326 -0.11188578 -0.088720314 0.050428625 -0.084080406
0.051661175 0.09990578 0.028807284 -0.028526276 0.018279022 0.08824281 -0.044971596 -0.11390629
0.09290993 0.102434985 0.020666828 0.046183147 0.01357464 -0.09643989 0.030952753 -0.01417079
0.0038892315 -0.034609206 -0.044828974 -0.06341358 0.035597876 0.007659495 -0.06520766 -0.048660576
0.056182764 -0.01456412 -0.012572558 -0.011194456 -0.05108758 -0.12692188 0.010782822 -0.0052135154
0.10362654 0.016888704 -0.010238791 0.00499998 0.08820827 0.012822078 -0.029257992 0.08350674
0.09904905 -0.0017559672 -0.041385975 0.032599725 -0.075021654 -0.059123594 0.09732592 0.057545476
0.04982744 0.027380947 0.0028911429 0.10468514 -0.019162036 -0.089098565 0.04531171 0.053165108
-0.0020090996 0.022128144 -0.07676638 0.088864036 0.1287813 -0.11604637 -0.031813297 -0.0043965224
0.042880464 -0.07927504 -0.046777133 -0.013342794 -0.07342747 -0.06377794 -0.04419517 -0.07440084
0.011434822 -0.12598114 0.013377866 -0.041049752 -0.045327634 -0.10559803 0.050568108 -0.06484412
0.0026139116 0.024409642 -0.077736706 0.029081669 -0.04229861 0.03190172 0.032054536 -0.051517364
-0.019485502 -0.081523694 -0.016457362 -0.05066994 -0.030842008 0.057946146 0.11010604 0.03217846
-0.030610317 -0.044334516 0.026242387 -0.123625405 -0.032041635 -0.0043765577 0.110008284 -0.026085606

lstm.weight_hh f4 [512, 128]
00000000: 46c6 2d3e ce55 a6bb 2e7e d63d 56a4 a03d
00000010: d7d7 273e b61d 22bd 3876 d93d f793 323d
00000020: ab18 ee3c d356 1abd ff81 25bd 99a6 dd3d
00000030: 96dd 4e3d 5492 9b3d 37ab 0c3e c026 1c3e
00000040: a5ab 5bbe 7f21 4bbe 2c98 10bd 81b5 59be
00000050: 6117 633c 7c35 5abe 52b5 a9bd a80d 5c3e
00000060: f005 e73d 50bb 253d a5fe 53bd 4897 72bd
00000070: 107b 043d 0329 cc3d 4b83 a53d df81 9ebd
00000080: e02f 2c3e d103 723b 8c82 163e 636c 9c3b
00000090: 8dbf 8abd 350a 83bc e7ea 3f3e 5435 d0bd
000000a0: 7ab7 9cbd 1d2f 5cbe c0ab adbd 44e3 053d
000000b0: affe 083e c1b7 083d 766d 333d 2db1 05be
000000c0: bfbd 96bd e8dc 623e d606 2abd e858 25be
000000d0: 0807 38be 3dd8 6d3c a034 02bd 7f88 543c
000000e0: 8675 c33d b9f5 96bb f306 0b3d bce3 38be
000000f0: fdec 01bc e1d7 a03d 9c76 113d d885 d9bc
00000100: 4446 debc 957e 37be e57f e73c 204c 22be
00000110: dd44 04be 97c6 2b3b ee3f a6bd 1439 e9bc
00000120: e4e1 26bd 8269 ad3d 6bfa 2e3e e91b 1d3c
00000130: 17f5 15be 81c3 29be e3c0 78bd b6ed 75bd
00000140: 7573 c6bc 52fe e0bd 9f87 593e d013 16be
00000150: 5c2b 03be 9b07 403d 8d52 2a3d a0cb 37bb
00000160: 0a22 9abd c475 d43d d2a4 b4bd 4b35 28bd
00000170: cafe 2bbe 1426 8fbd 7f19 de3d 2d38 783e
00000180: 62cc 81bd 3786 cdbb 7f4e d43c ffa5 fc3d
00000190: a5d6 f1bd 0580 d83d f438 9a3e f353 dbbd
000001a0: 4f0b 0e3b 444b 553d 4fba 9a3d abda be3d
000001b0: d722 71be efaa db3c 7794 ac3d 5df4 35bd
000001c0: 38e6 883c 96d1 ca3d 39de 943d 7778 133d
000001d0: bb76 dfbd 8376 aebc bbb5 0fbe b000 b6bd
000001e0: 3c88 193d 9801 84bd 427a e5bc a8e8 6abe
000001f0: 676f 693d 36bb ebbd 66d9 073e 35e6 5abd
00000200: 5d95 be3d 2bb9 a03d b033 843e e192 ad39
00000210: 7449 50be 8066 b73c 91ed 793e 83ab 253a
00000220: 7f2e 893d fd39 053e daf9 56be 8018 d0bd
00000230: a0aa 21be d87e 443e 8989 a83d 7c6d 1c3e
00000240: 1633 9e3c a1fc 2b3c ea0e dd3d 1b16 e53d
00000250: 2922 313d 7fdf 933d d90d 83bd f13d c6bd
00000260: 8a25 df3d 9a31 3f3d bf94 c5bc 0fd8 1e3d
00000270: 0204 47bc 04f1 0b3e 1745 f63d 3f3d 813b
00000280: 2ce0 483e d6d3 d6bd 807c 40bd a88a 33be
00000290: c40b 753d 014d 15bd 038c 473e fa79 a4bd
000002a0: d857 523d 661e 38be 6109 ab3d 55ef 64bd
000002b0: 3b6b 053e 2c9c 393c e5af 2b3e 6257 61be
000002c0: 82b6 09bd 34a7 b23c 0b15 b8bd 2faa 22bd
000002d0: eb1b cbbc 52c6 0abd 489f 29be 81fc 273e
000002e0: a2b8 8c3d 5c98 183e a287 6f3d 7a25 b9bd
000002f0: 21b0 c73a 1ddc 0a3e d633 2e3e f60c 21bc
00000300: 6220 b23c 5f2b 2fbe c8a0 9c3e 23ba 56bd
00000310: 7282 8a3d f04c 18bd a358 693c 3a49 9bbc
00000320: d393 00be 4d94 fa3c e461 763d 60cb f93d
00000330: 1120 9e3d 85cd 37be e128 c1bd 9cb6 46bd
00000340: a2a3 b83c b852 bebd a834 32be 157b 45bd
00000350: 19b5 72bd b203 fd3c c011 d4bd ddcf cb3d
00000360: 4811 b73d d11d 9e3d a79c 0f3d 6a87 2ebc
00000370: 87b4 c1bc 18db 04be efba 2abc 243c a43e
00000380: 3c6f 3b3d 6f89 23be c0ee 0e3e 0f0a 4e3d
00000390: 42ab 12be 59e3 53be aa61 48bd a9b5 52be
000003a0: 238a cb3d 4bf4 0c3d da90 db3d d800 9bbc
000003b0: 63a8 293d 9962 3bbd e42d d4bd d3f0 debd
000003c0: 0cd2 083e 32f2 43bd 718e b4bd 447b 61be
000003d0: bf75 02bd 6710 053e 5d68 8cbd 7d46 17be
000003e0: 7cb2 a9bd c850 a6bd c05c 65bc 8d2a 3b3e
000003f0: c650 5b3d 1be6 8fbd 0ab6 3e3e 5ba1 1abe
0.16970167 -0.0050761467 0.104732856 0.078438446 0.1639093 -0.039579116 0.106182516 0.04359814
0.029064497 -0.03768046 -0.040407177 0.108227916 0.05050429 0.07596269 0.13737188 0.15249157
-0.21452196 -0.19836996 -0.035301372 -0.21260644 0.013860554 -0.21309465 -0.08286537 0.21489584
0.11280429 0.04046184 -0.05175652 -0.059226304 0.032343924 0.0996876 0.08081683 -0.07739615
0.16815138 0.0036928544 0.14698237 0.004773663 -0.06774817 -0.015996078 0.18741952 -0.101664215
-0.07652183 -0.21502347 -0.08480024 0.03268744 0.13378404 0.033378366 0.043805562 -0.13055868
-0.0736041 0.22154582 -0.041510426 -0.16147196 -0.17971432 0.014516887 -0.03178847 0.012971996
0.095439 -0.004606929 0.033942174 -0.18055624 -0.007930038 0.07853676 0.035513505 -0.02655308
-0.027133115 -0.17919381 0.028259227 -0.15849352 -0.12916894 0.0026210898 -0.08117662 -0.0284696
-0.04074277 0.0846739 0.17087714 0.009589174 -0.14644276 -0.16578485 -0.060730826 -0.060041152
-0.024224976 -0.10986008 0.21243142 -0.14655995 -0.12809509 0.046882253 0.041582633 -0.0028044954
-0.07526024 0.103740245 -0.088204995 -0.04106645 -0.16796413 -0.06989685 0.10844707 0.2424018
-0.06337811 -0.006272103 0.025916336 0.12336349 -0.11808518 0.10571293 0.30121577 -0.107093714
0.002167422 0.052073732 0.07555067 0.09319051 -0.23548447 0.026814906 0.08426755 -0.044422496
0.01671134 0.099032566 0.07268948 0.036003556 -0.10911318 -0.021296745 -0.14034168 -0.0888685
0.03748344 -0.064456165 -0.028012399 -0.22940314 0.056991007 -0.11510317 0.13266525 -0.0534422
0.093058325 0.07847818 0.25820684 0.00033106565 -0.2034052 0.022387743 0.2440703 0.0006319808
0.066983216 0.13010402 -0.20993748 -0.10160923 -0.15787745 0.19189012 0.08229358 0.1527614
0.019311469 0.010497243 0.1079386 0.11185857 0.04324547 0.07220363 -0.063991256 -0.09679783
0.10895832 0.046678163 -0.02411878 0.03878027 -0.012146952 0.13666159 0.120248966 0.0039440687
0.19616765 -0.10489623 -0.046993732 -0.17533362 0.059825674 -0.03645039 0.19487004 -0.08031078
0.051353306 -0.17980346 0.08351398 -0.055892307 0.13029186 0.011328738 0.16766317 -0.2200599
-0.03362132 0.021808244 -0.08988389 -0.03971308 -0.024793586 -0.03388054 -0.16564667 0.16404916
0.068711534 0.1490187 0.05847896 -0.09040351 0.0015234986 0.13560529 0.17011961 -0.00982975
0.021743957 -0.17106389 0.30591416 -0.052423608 0.06763162 -0.03718275 0.014242324 -0.018955816
-0.1255639 0.030588293 0.06015195 0.12196994 0.0772096 -0.17949493 -0.09431625 -0.048513994
0.022538964 -0.09293121 -0.174029 -0.048213083 -0.05925474 0.030885551 -0.10354948 0.09951756
0.08938843 0.07720531 0.035061505 -0.010652402 -0.023645652 -0.12974203 -0.010420545 0.32077134
0.04576038 -0.15970396 0.13958263 0.05030256 -0.14323142 -0.20692195 -0.048921265 -0.2057711
0.09938457 0.034412663 0.107209876 -0.0189213 0.04142035 -0.045748327 -0.103603154 -0.10885777
0.13361377 -0.047838397 -0.08816231 -0.22019678 -0.031850573 0.12994538 -0.06855843 -0.14772983
-0.08285996 -0.081208766 -0.013999164 0.1827795 0.05354383 -0.07026311 0.1862413 -0.15100615

lstm.bias_ih f4 [512]
00000000: ec5c d4bc 97f9 9a3d b5bd 8e3d ce53 5e3d
00000010: 0c4e 683d 9604 313d 3f2d fc3d c086 f13d
00000020: 9350 0c3e a564 d33d a8bc 88bb 1126 023e
00000030: 2062 213d dfbf ae3d d264 523c edf2 b23d
00000040: 587d 213e 9bb2 28bd 5c61 103e 3fef bf3b
00000050: 6f28 eb3d 1630 90bc 6572 a93d 4eae c83d
00000060: 0799 8a3c 8ccb d43d 5e17 113e 4936 fa3d
00000070: 0925 5ebc 457f ab3d caef d03d b614 d53d
00000080: 600a 80bd 17bc f03d 82f7 f23d 8c17 a93d
00000090: a10e 053d 3964 a63c 96ee 2dbd 57e2 bfbc
000000a0: 52c4 b0bd f267 b13c 09cc 4f3d 5648 c93d
000000b0: e4c9 8a3d c52b 823d 5ea8 acbc 284b 873c
000000c0: 18ad 7c3d 44cf 5d3d 633f 1c3e e84d 243d
000000d0: e87b 443b 8e4c 923c 1de6 043e d2d7 ac3d
000000e0: 0391 cd3c 9941 1bbd 15bb c13d 9e50 4ebc
000000f0: 2a19 b63b b411 b53d 6c11 7a3d 5964 53bd
00000100: 06fa d13d 20c8 9c3d 7956 9c3c 4720 c43d
00000110: c818 133e 6b0b f73d b6e2 a73c 1cd7 a73d
00000120: 28db 8fbc 8460 acbd 8b9e 1f3e b62d a8bd
00000130: 38f6 fb3d 7f0c 4f3d 1e68 74bc 499d 883b
00000140: c6f8 d13d 35e5 473d caea 893d b9f8 4b3d
00000150: d758 df3d 0020 a8bc 975b 1cbd 16aa 3b3d
00000160: e883 2c3e 578b 8c3d 8dca 063d dea8 94bc
00000170: 5945 d5bd e081 453d 6788 063e 26e5 a1bc
00000180: 9c12 0e3e 6977 d6bc 5f31 3a3d c9d1 753d
00000190: 12c5 973d 4b30 b73c 2c33 303d 75cb a33d
000001a0: d12a c7bc 814b d33d 9af6 8d3c 59c6 443d
000001b0: 281b 8fbd ae0e bd3d 447e 453c 01ff 2f3d
000001c0: 3e34 85bd c4c7 07bd 4668 dabd d6ac 8e3b
000001d0: 01ff 803d e4e3 84bb 7ee4 083d dd3e 10bd
000001e0: ef51 c83d 484b c83b eb68 bf3d 75b2 2bbd
000001f0: 85dc cfbd 33e5 aa3c e775 42bc 4938 fe3d
00000200: 3793 8bbd 6d11 ae3c 4036 34bd e119 35bd
00000210: 7a0e 3e3d 1e41 bebd 06a0 093d 73a8 07bd
00000220: c5c4 ad3d 4db7 5c3d 2bc4 2c3d ec6b 59bd
00000230: f6ec debc 7193 b13c b175 7a3d 6939 473d
00000240: 1bec e6bc 886f ccbd b9cc c9bc 896b 97bd
00000250: 972f a1bc 5f36 95bd 939e a93d ee17 663c
00000260: a337 713d 883f 3c3d f658 0b3c c006 eebc
00000270: 31d6 81bc 8cbd 393d 4900 98bd 0c41 e6bb
00000280: 7ded 92bd 3f7c b03d 4c93 c8bd fd9e a0bc
00000290: 5cec 8c3b 19b0 4dbc 13e5 bebd eb70 6cbd
000002a0: b92f d8bd 8f34 bfbc 91bb 1fbb 9a93 efbc
000002b0: 827d aabd 7860 e1ba 530a 8bbd cd00 f0bc
000002c0: 8749 ad3d 3237 7fbd dd3c 84bc 7247 2dbd
000002d0: 4a75 46bc 4dd0 5b3d 223e d03c 6da0 5d3b
000002e0: ca01 843b 7d47 423d 5a84 523c 59f4 d7bd
000002f0: 8bd7 173d 6674 c8bd 6d37 aebd ebfb 5e3d
00000300: 09db 7abd 3ac8 14be 0818 77bd e477 783c
00000310: 5751 8bbc 7a91 23bd 2f85 373d d502 353c
00000320: 803b bcbc 8b16 84bd abee de3d f88c 733d
00000330: 5f2b 9ebd 1ba5 563d 29b6 95bd 4970 37bd
00000340: 7c46 d63d 5271 c8bd dbb0 c3bd 634d 073d
00000350: 87ba 9a3d c75e 803d 1966 fbbc a2ea acbd
00000360: 23e1 54bd 5837 9e3d 5ba1 bebd 7338 9d3d
00000370: 0a5c 87bd 4dc9 e2bc 7979 60bd c239 a1bd
00000380: 0ecc 7a3c 3725 ac3c a566 a83d 7304 abbd
00000390: 12b5 cfbc 1292 30bd a8a7 a3bd d404 853d
000003a0: e7c2 8a3d 6317 8fbd 270f a9bd 5c23 bc3d
000003b0: 3b6d 883d 9e60 ccbc 6c8c 723d d406 f6ba
000003c0: 1d1b babd 32ff 0cbd 445c fe3a d893 f5bc
000003d0: cfc3 cdbc c547 dc3d fb0d 69bd 6c3c 97bd
000003e0: 4ced ad3c eb77 f93c a926 4abc b3fb 82bd
000003f0: 1919 85bd 9468 823d 6eb5 28bd e7d8 f3bd
-0.025923215 0.07567137 0.069697775 0.05427914 0.056715056 0.043217264 0.123133175 0.1179328
0.13702612 0.10321931 -0.00417288 0.12709834 0.03940022 0.0853269 0.01284142 0.08737741
0.15770471 -0.041185956 0.1409964 0.005857378 0.114823215 -0.017601054 0.08273772 0.09798871
0.016918672 0.10390386 0.1416907 0.12217385 -0.013558635 0.08373884 0.10201986 0.10404341
-0.06251979 0.11754625 0.118636146 0.08256444 0.032484654 0.020311462 -0.04246386 -0.023423357
-0.08631195 0.02165601 0.050731692 0.0982825 0.06776789 0.063560046 -0.021076377 0.01651533
0.061688513 0.054152742 0.15258555 0.04011336 0.002998108 0.01785877 0.12978406 0.08439602
0.025093561 -0.037904356 0.09459511 -0.012592463 0.005557199 0.08841267 0.06105177 -0.05160937
0.10252766 0.07655358 0.019084202 0.09576469 0.14364922 0.12062725 0.020493846 0.08195326
-0.017560557 -0.084168464 0.15587823 -0.08211844 0.12302822 0.050549027 -0.014917402 0.0041691405
0.10252528 0.048802573 0.067342356 0.049797747 0.10905617 -0.020523071 -0.038173284 0.045816503
0.16847193 0.068625145 0.03290801 -0.018146928 -0.10413618 0.04821956 0.13137971 -0.019762587
0.13874286 -0.026179986 0.04545724 0.06001452 0.07410635 0.022361895 0.04301755 0.07997791
-0.024312409 0.103171356 0.017329503 0.04804072 -0.069876015 0.092313156 0.01205403 0.0429678
-0.06504105 -0.033149496 -0.1066442 0.0043540997 0.06298638 -0.004055487 0.033421032 -0.0352162
0.097812526 0.00611249 0.093461834 -0.041918237 -0.10149483 0.020861244 -0.01186893 0.12413079
-0.068151884 0.021248544 -0.04399705 -0.044214133 0.046400525 -0.09289764 0.033599876 -0.03311963
0.084847964 0.053885747 0.042179268 -0.053081438 -0.027212601 0.02167675 0.061147396 0.048638735
-0.028188756 -0.099822104 -0.024633752 -0.073935576 -0.019676013 -0.07285761 0.08282199 0.014043791
0.05889095 0.045959026 0.008505097 -0.029055953 -0.015849205 0.04534678 -0.074219294 -0.007026797
-0.071742035 0.08617448 -0.0979372 -0.019607062 0.004300637 -0.012554192 -0.09321036 -0.057724874
-0.105559774 -0.023340492 -0.0024373273 -0.029245187 -0.0832472 -0.0017194888 -0.067890786 -0.029297257
0.0846129 -0.062308498 -0.016142303 -0.042304464 -0.012112925 0.053665448 0.025420252 0.0033817545
0.0040285336 0.047431458 0.012848938 -0.105446525 0.037070792 -0.09787826 -0.085066654 0.054439466
-0.061244044 -0.14529505 -0.060325652 0.015165303 -0.01700656 -0.03993366 0.04480475 0.0110480385
-0.02297759 -0.06449612 0.10885366 0.05946061 -0.07723116 0.05240355 -0.07310135 -0.044784818
0.104626626 -0.09787239 -0.09555217 0.033032786 0.075551085 0.06268077 -0.030688332 -0.0844319
-0.05197252 0.077254 -0.0930812 0.076767825 -0.06609352 -0.027683878 -0.054803345 -0.078723446
0.0153074395 0.02101384 0.08222703 -0.08350458 -0.025354896 -0.043108054 -0.07990962 0.064950615
0.06775456 -0.069868825 -0.08254843 0.09186432 0.06661459 -0.024948414 0.059215948 -0.0018770345
-0.09087203 -0.03442306 0.0019406159 -0.029977724 -0.025117783 0.107558765 -0.0568981 -0.073845714
0.021231316 0.03045269 -0.012338319 -0.06395664 -0.064989276 0.06367603 -0.04118865 -0.11906605

lstm.bias_hh f4 [512]
00000000: a802 d93c b56a a53d 5e14 d7bc efcc ba3d
00000010: 72c0 efbc 619c b0bd 0923 9d3d f5a5 90bc
00000020: abcf 673d 59c1 c73d e3b5 e7bc 6e41 debc
00000030: a859 cf3d b73a 59bd a0a5 59bd 2434 0a3d
00000040: cee3 b73d 3af3 65bd fbf4 7f3d e55b c8bd
00000050: bce9 2c3e 4c46 6bbd 321e d83d 1995 063e
00000060: 27ef 33bd 7f3a 6c3d b016 a73d 2d86 fe3d
00000070: 8d06 003e 84df 013e 5872 283d c5c0 203d
00000080: 1db8 823d b4b8 0a3e 1f00 623d 8a73 e43d
00000090: 1137 143d ce49 4e3d 8aec fe3c 8265 913d
000000a0: 91ac 6ebd 56b6 e93b bad4 a8bc feb7 0a3e
000000b0: 3048 553d 0879 9cbd 5c1c 253e c514 d63b
000000c0: e2b7 a23d 8b87 993d 9191 6f3d 1af4 373d
000000d0: 034a 05bd 4bd9 843d fabd babc a338 a63c
000000e0: ff6b 063e efbb a03a b1c3 383d 20b2 cd3c
000000f0: 77da 96bc 4a98 d23d ad1d 47bd e1b3 13bd
00000100: 1705 993b dce6 06bd c3f5 b13d 68b1 1b3e
00000110: acc9 d73d 2efb 2d3e 30b3 0c3d bf7a 73bd
00000120: 8c1c 083d d709 75bd 8ea8 21bc 91b4 0d3d
00000130: 06ec 0e3e 338e 06bd d58b 08bd aae9 123e
00000140: 0670 9c3d 5e48 8fbb 991a a83c c395 983d
00000150: 86df f63d 7c51 55bc dbb3 283d f240 ea3d
00000160: c66a 213d 9a59 c43d 3d15 0b3e 0557 423c
00000170: 038f b23c 9379 05bd 2494 31bb f6d3 aabc
00000180: 829b 073e 40e4 fa3c f146 603d 48c9 4abc
00000190: f823 2e3d c60e 163e 426e 583d 40e1 393c
000001a0: 311a 703c cb0b 723a 88c0 e53d d06a a03d
000001b0: aa29 d3bc 1b5e 1abd 5406 813d 5247 973c
000001c0: fdd0 533d f5a3 113e 470e e53c 9785 d9bc
000001d0: af17 0bbd ebb7 cb3b 903c 6a3d aa56 f03d
000001e0: f364 c93c dde2 233e c5d0 013e a693 b73d
000001f0: a9ce 863d a80a a13d a02f bfbd bc55 2d3d
00000200: a5c3 5d3d 22b1 2bbe 951e 9a3d 31a3 e53a
00000210: 9731 c0bd 5795 53bc 3aaf 933c 4db3 953c
00000220: 8309 a5bd e5b6 2b3d 1573 12bd 0596 a7bd
00000230: a7cd 29bd a46f a3bd 22f7 28bc 50ee 8fbc
00000240: baa2 c0bd 2f41 7a3d f7af f53c 6915 9ebd
00000250: 8895 853c 3c32 8bbd c3af f73b 3a4f 22be
00000260: 1cb6 71bc a7da d4bd ccf1 a73d 766d 67bd
00000270: b0a8 3b3d 012a c1bc d36e a1bc 35b9 a4bd
00000280: 08f0 c0bd 7f67 85bc 7298 aa3d 2e81 23bb
00000290: 8f7c 653d 1055 6cbb 8bfe 963d 235e 14bd
000002a0: 3fb6 b6bd 8cfb 42bd 6b3e 73bd ba77 81bd
000002b0: e084 c73d 495b 353d 7c7b cdbb 9e8c 24bd
000002c0: 284b 8a3d f60b 82bc 4fdf e83c b450 61bc
000002d0: 90e2 6fbc 57fd 84bd 3ed1 4cbd 5eb8 20bd
000002e0: ce61 47bd 5b7c 253d 0696 f1bc 7f46 2abd
000002f0: cb0d ff3c e5b3 5abc 71da 0e3d e303 2f3d
00000300: 3435 7abc 9e29 7abd 22a5 b2bd 6266 433d
00000310: 3e4d acbd fd73 90bc 091f 7bbc e433 993c
00000320: 634f 513d 54b0 26bd 75b9 d23d 7038 eabd
00000330: 7f95 c4bd 514f a6bd c4aa e53c 773d d73d
00000340: b43a 5c3d 3294 e7bd ad28 7cbd a9ea 26bc
00000350: 0222 afbc dfce 11bc bb57 76bd faf5 75bd
00000360: ff6a 0cbe 027c 583d f4c6 84bd 0fe2 a6bd
00000370: 636b 073d f9aa e8bd 015c 6ebd 415e d13d
00000380: 3d29 593d 0456 b8bd 51d6 ba3d f74e 5abd
00000390: fd37 6b3d 1e8f f8bd 6035 9c3b dae3 9fbc
000003a0: f086 a03d 877a 0abd d9f2 81bd fa29 c6bd
000003b0: f3ed 27bd ddc7 04be ac0c dfbd ffa4 77bb
000003c0: 62bb e03c 6b49 a4bd 2cb3 193c 91a2 96bd
000003d0: b32d d3bc a76b 103d ff73 adbd 39ba b0bb
000003e0: a7d3 77bd 2ec4 933d be1c ef3c 6dc5 a3bd
000003f0: 0119 12bd 663a cb3c 5bef bcbd 37e7 abbb
0.026490524 0.080769934 -0.026254829 0.09121119 -0.02926657 -0.08623577 0.07672698 -0.01765726
0.056594532 0.09753675 -0.028284973 -0.027130809 0.101245224 -0.05303451 -0.053136468 0.03374113
0.08978997 -0.056140162 0.06248949 -0.097831525 0.16886038 -0.057440087 0.10552634 0.13142814
-0.043929245 0.057672974 0.08158624 0.12427936 0.12502499 0.1268292 0.04112467 0.03924634
0.06382773 0.13547021 0.055175897 0.1115485 0.036185328 0.050363354 0.03111865 0.07099439
-0.05827004 0.007132332 -0.020609248 0.1354675 0.052070796 -0.076402724 0.161241 0.0065332376
0.07945229 0.07496556 0.058488432 0.044910528 -0.032541286 0.06486758 -0.022795666 0.020290678
0.13127135 0.001226304 0.0451085 0.02510935 -0.018414719 0.10282953 -0.048612285 -0.036060218
0.004669796 -0.03293501 0.086894535 0.15204394 0.10536513 0.16990349 0.034350574 -0.05944323
0.03323035 -0.059823837 -0.009866847 0.03459603 0.13957223 -0.032850455 -0.03333648 0.14346948
0.07638554 -0.0043726405 0.020520495 0.0745044 0.120543525 -0.013019916 0.04118715 0.114381686
0.039408468 0.09587403 0.1358232 0.011861567 0.021796709 -0.032586645 -0.0027096355 -0.020853024
0.13242915 0.030626416 0.054755155 -0.012377091 0.04251477 0.14654073 0.052839525 0.011345208
0.014654682 0.00092333247 0.11218363 0.07832873 -0.025776703 -0.037687402 0.06300035 0.018466625
0.05171298 0.14222701 0.02796091 -0.026552958 -0.033958133 0.006216993 0.057186663 0.1173528
0.02458427 0.1600451 0.12677296 0.089637086 0.06582386 0.07863361 -0.093352556 0.04231809
0.05414166 -0.1676679 0.07525364 0.0017519948 -0.093844585 -0.012914023 0.01802789 0.018273974
-0.08058455 0.04192247 -0.035754282 -0.08182911 -0.04145589 -0.07980278 -0.010312827 -0.017569691
-0.09406038 0.06109732 0.029991133 -0.077189274 0.016306654 -0.06796691 0.007558794 -0.15850535
-0.014752891 -0.10393267 0.08200416 -0.056500874 0.04581517 -0.0235796 -0.019706165 -0.08043138
-0.09420782 -0.016284702 0.08329858 -0.0024948823 0.05602699 -0.0036061443 0.07372769 -0.03622259
-0.089214794 -0.047603175 -0.0593857 -0.06321664 0.09742141 0.04427651 -0.006270824 -0.040173166
0.06752616 -0.015874844 0.028426794 -0.013752151 -0.014641419 -0.06493633 -0.050004236 -0.039238326
-0.04867726 0.040401798 -0.029490482 -0.041571137 0.031134507 -0.013348554 0.03487629 0.042728316
-0.015271474 -0.061074845 -0.08722903 0.04770506 -0.0841317 -0.017633433 -0.015327224 0.018701501
0.0511011 -0.040695503 0.10289279 -0.11436546 -0.095988266 -0.08120597 0.028035529 0.1050977
0.05376692 -0.11307563 -0.06156223 -0.010187783 -0.02137852 -0.00889942 -0.06014226 -0.060049035
-0.13712691 0.052852638 -0.0648326 -0.08148586 0.033061396 -0.113607354 -0.05819321 0.10223056
0.053017844 -0.09000781 0.09122909 -0.053297963 0.05742644 -0.121366724 0.004767105 -0.019517828
0.07838237 -0.033808257 -0.06345148 -0.09675975 -0.04099841 -0.12966867 -0.10891089 -0.0037787554
0.027433101 -0.08021816 0.009381097 -0.07355226 -0.025778627 0.035258915 -0.0846939 -0.005393293
-0.06050458 0.07215153 0.02918851 -0.0799664 -0.035668377 0.02480812 -0.09225341 -0.005246069
