evaluation_results/models/list_npi_2020_2_25-10_0_11-1679-False-False-1.0-False-0.0-True-False-True-False.pth (torch_old, 964357 bytes, 16 tensors)

Mprog.weight f4 [4, 256]
000000 23 e7 1f 3f dc 96 81 bf ee 66 de be 7c 0e a4 3f
       0.6246206 -1.0124164 -0.43437904 1.281692
000010 38 db 4d be 6e 09 35 3f d0 b6 39 c0 82 3c b9 3e
       -0.20103157 0.70717514 -2.901783 0.36178976
000020 e2 81 5b 3f 79 8a 0e 3e 28 62 0e c0 5a a0 1a 3c
       0.8574506 0.1392001 -2.224741 0.009437645
000030 a7 73 0b 40 fe 18 91 3f b3 41 47 3f cb 61 57 3f
       2.1789339 1.1335752 0.77834624 0.84133595
000040 fd 71 96 bf d1 04 99 3f e7 1d 84 bf 50 d1 4b bf
       -1.1753536 1.1954595 -1.0321625 -0.7961626
000050 57 03 ba 3b d3 dd c1 3e 65 00 e4 bf 4b 93 c7 3e
       0.0056766677 0.3786455 -1.781262 0.38979563
000060 ae 3a 59 3f 3e 04 4c 3f 72 45 8e 3f 8b 11 e7 bf
       0.84855163 0.79693973 1.1114943 -1.8052229
000070 f0 45 53 bf a7 4a 26 3f 8e 62 10 be 04 14 0a c0
       -0.8252859 0.6495766 -0.14100096 -2.1574717
000080 61 d1 9f 3f bc ef 45 3f 6a 73 73 bf 44 6b 84 bf
       1.2485772 0.7731893 -0.9509798 -1.0345235
000090 3d 2c 97 be 7e e8 12 3f ec 6b 17 bf f4 3f 92 bf
       -0.2952594 0.57386005 -0.5914905 -1.1425767
0000a0 95 f2 f2 bf 88 59 90 bf 63 fe 13 3e 55 7e 11 3e
       -1.898028 -1.1277323 0.1445251 0.14208348
0000b0 5a 26 9a bf 8e c7 7a 3f 68 3f 09 3e 4f b0 83 3f
       -1.2042954 0.97960746 0.13403094 1.028818
0000c0 2f 90 36 c0 7d 48 b8 3f f5 fd c6 3e 20 80 ba bf
       -2.8525503 1.4397122 0.3886563 -1.4570351
0000d0 1e 5d 07 bf d7 cb be bf 7c 43 ed 3e 0e ae da bf
       -0.5287646 -1.4905957 0.4634055 -1.7084367
0000e0 91 47 61 3f 53 39 a9 be 91 3c 48 bf 1f ae a0 bf
       0.87999827 -0.33051547 -0.78217417 -1.2553138
0000f0 83 c7 af be 06 e0 ba 3e 78 f8 05 bf 34 d3 48 3e
       -0.34331903 0.3649904 -0.5233226 0.19611818
000100 7e 7c e8 3f 54 a7 c2 bd 1e e6 ac bd 31 fe f2 3d
       1.8162992 -0.095045716 -0.08442329 0.118648894
000110 4d 8e de 3c d5 6e e3 be 18 46 1d bf 9b a6 ab 3e
       0.027167464 -0.44420496 -0.6143508 0.33525547
000120 a4 01 68 3c 0f a5 a3 be a9 f0 00 3e 87 fb 58 bd
       0.014160547 -0.31961867 0.12591805 -0.05297425
000130 18 ce 41 be e6 41 c8 bf ee 6f dc bf 25 5d 67 bf
       -0.18926275 -1.5645111 -1.7221658 -0.903765
000140 8c 7f 03 3e b1 3d a0 3e b7 76 b1 be 4f d6 10 3f
       0.12841624 0.31297067 -0.34660885 0.5657701
000150 df 64 86 be 59 3a 20 3f 09 b3 db 3e 9b 7b 0b 40
       -0.26248834 0.6258903 0.4291003 2.1794193
000160 3d c0 90 3e 71 c1 48 3f 34 b1 f7 bf ef e1 0b 40
       0.28271666 0.7842017 -1.9350953 2.185665
000170 8f 23 62 3e fa 83 c7 bf db 93 9a bf c4 48 fa 3e
       0.22083877 -1.5587151 -1.2076372 0.4888364
000180 ce 19 07 bf 7d ee ba bc 56 6a 69 3f 57 9e 77 bf
       -0.5277375 -0.022818798 0.9117788 -0.9672598
000190 69 81 8a 3f 3a 04 0a 3c 43 e6 22 3f 06 77 3b 3f
       1.0820743 0.008423859 0.636326 0.7322849
0001a0 3b 5b 08 be 76 91 08 c0 e6 63 b7 bf ce 17 0c be
       -0.13316052 -2.1338782 -1.4327362 -0.13680956
0001b0 ff 99 76 3f 43 27 72 bf 1f 8a c3 3e 37 e2 d9 3e
       0.9632873 -0.9459116 0.38191316 0.425554
0001c0 83 2c 99 3e 96 3f 18 3f 49 2f 03 be 5a b5 cb be
       0.29916772 0.59472024 -0.12811007 -0.39786798
0001d0 ef 61 68 be dd 8c e3 3e 9f 7f 20 3e bb 3b aa 3e
       -0.22693609 0.44443408 0.15673684 0.33248696
0001e0 86 00 43 3f d7 9c 07 c0 a4 4c 0b bf d8 b4 17 c0
       0.76172674 -2.1189477 -0.5441382 -2.3704128
0001f0 b5 69 e4 3a 82 da dc bf ce 3d 3a 3f 7d 68 10 3f
       0.0017426523 -1.7254183 0.72750556 0.56409436
000200 09 62 09 3f 72 fa 13 bf 21 45 e7 3e 4a 98 36 bf
       0.53665215 -0.57804024 0.4516993 -0.71326125
000210 bb 1d d3 3f 91 76 b4 bf 22 81 8b bf e1 a3 51 3f
       1.6493448 -1.4098684 -1.0898783 0.81890684
000220 5f 67 cc bf 19 6e c7 3f 16 45 37 3f 2e bb 16 3f
       -1.5969046 1.5580474 0.7158979 0.58879364
000230 9c 37 b3 be b2 cb 3f bf 42 94 8d 3f 72 dd 5c bf
       -0.35003364 -0.7492019 1.106087 -0.862754
000240 c5 33 9f bf ab 79 ac bf 95 fa ea 3f 92 9c f2 bf
       -1.2437674 -1.347463 1.8357722 -1.8954031
000250 e2 aa 2a bf d6 e0 14 3d 05 40 c0 be 2c 29 a3 3f
       -0.66666996 0.036347233 -0.37548843 1.274694
000260 16 ab 32 be ce 76 83 3f 4f e7 26 3e f0 70 a1 bf
       -0.17448077 1.0270631 0.16299175 -1.2612591
000270 c2 07 86 3e 87 b6 2a 3f 25 f3 cb 3e a3 5d 1e bf
       0.26177794 0.66684765 0.39833942 -0.6186163
000280 fd 6e c4 be 69 fa 54 40 c4 ee b6 bf be 21 7d 3f
       -0.38365927 3.3277838 -1.4291615 0.9887961
000290 9f 43 3f 40 8a f3 bf 3e 91 6c a0 3f 27 ac 07 3f
       2.9885023 0.37490493 1.2533132 0.5299706
0002a0 0f d2 01 bf 30 93 df 3e b1 78 78 bf ad 78 ec 3f
       -0.5071115 0.43666983 -0.9705916 1.8474327
0002b0 31 28 2b 3f 81 49 4b 3f fb b7 b3 3f a0 62 32 3e
       0.668582 0.79409033 1.4040521 0.17420435
0002c0 a0 2a 6f be 66 16 ec 3d 97 8e 33 bf 15 73 60 3f
       -0.23356104 0.1152771 -0.7013945 0.876756
0002d0 42 5f 3e 3f 9f ab ec be 03 29 8b bf 8e 4a 92 3e
       0.743641 -0.46224687 -1.0871891 0.28572506
0002e0 d4 8b 1b c0 d9 32 aa 3f b2 68 ec 3e 6f 6d 03 bf
       -2.4304094 1.3296767 0.46173626 -0.5133886
0002f0 c2 fe b3 3f 1d 14 c3 3f 5d bd 8a 3d a4 62 11 bf
       1.4062121 1.5240513 0.067743994 -0.5679114
000300 62 0d e8 be e7 16 a6 3f 35 ab ad 3e 2e de 30 3f
       -0.4532271 1.2975739 0.33919683 0.6908902
000310 51 df e7 bf c1 bc b6 bf 49 6a 1f c0 50 91 3c be
       -1.8115026 -1.4276353 -2.4908621 -0.18414807
000320 cc b7 2d be 0d 8d db 3f fc 06 5e bf 97 9d 9c 3e
       -0.16964644 1.715242 -0.8672941 0.30588982
000330 33 21 e1 be 8e 08 52 3f d9 5c 5f bf 24 42 0a 3d
       -0.43970641 0.82044303 -0.8725105 0.033754483
000340 a7 c9 18 3f 64 c6 23 c0 d0 12 cc be 12 27 80 be
       0.596827 -2.5589838 -0.39858103 -0.25029808
000350 c4 fa 9c 3f 20 b3 7f 3e 85 e9 c1 3d bd 23 99 3d
       1.2264028 0.24970675 0.094683684 0.0747752
000360 6a f5 8d 3d 8d f0 9d be 0a dd 1a bf b3 04 4d bf
       0.06931575 -0.30847588 -0.6049353 -0.80085295
000370 e4 6a 04 be b1 6d c9 be b4 3d a0 3f 16 6e fb be
       -0.129314 -0.393415 1.251883 -0.49107426
000380 cd 03 ff 3e cf c2 98 bf b9 78 1c bf 43 03 9f bf
       0.49807587 -1.1934451 -0.6112171 -1.242287
000390 a3 52 f7 3e d8 f3 a4 be 2b 80 c7 3f c3 9d 37 bf
       0.48305234 -0.32217288 1.5585989 -0.717251
0003a0 9d 5a fa 3d cf d9 c0 bb 15 f9 ad 3f 0b 9e 29 be
       0.12224314 -0.00588534 1.3591639 -0.16564195
0003b0 26 0b 1c bf 35 8b ca bf ee 02 2c bf a1 18 7b 3f
       -0.6095451 -1.5823733 -0.6719197 0.98084456
0003c0 c8 65 08 c0 c2 9b 19 40 8c 23 22 3f ab ce 3b be
       -2.1312122 2.4001317 0.6333549 -0.18340556
0003d0 44 79 d4 3e db 20 1d 3f 23 a0 e5 be 6d 4c 48 3f
       0.41498768 0.6137826 -0.44848737 0.78241616
0003e0 18 67 44 3f db 0b 51 3f 65 36 9f be a0 31 83 bf
       0.7671981 0.81658715 -0.31096187 -1.0249519
0003f0 12 01 77 3d 6b 6e bc 3f 7d 54 ba 3f 00 4f 3d bf
       0.060303755 1.4721197 1.4557034 -0.7394867

encoder.l1.weight f4 [100, 44]
000000 3f 17 1c 3e 26 2f 24 ba 00 9f 99 bb a8 a3 26 3d
       0.15243243 -0.0006263129 -0.0046881437 0.04068342
000010 cb bd d3 bc 41 d5 93 bd 8c 05 73 3e c6 3b d5 bd
       -0.025847336 -0.07218409 0.23732585 -0.104117915
000020 97 c1 a1 3d f8 90 46 3e 8f 4a 7a 3e 4a a5 fb 3d
       0.078982525 0.19391239 0.24442504 0.12287386
000030 af 6f fd be ae 85 10 3e ae ce 81 3d e2 74 b9 be
       -0.4949927 0.14113495 0.06338249 -0.36221987
000040 6b 5e 7d 3e a4 5d ea 3c 0a bc e1 bd 7d 85 67 3d
       0.24743049 0.028609104 -0.11022194 0.05652379
000050 e0 16 10 3e 48 6a 03 3e 0f 1f 75 be a6 68 b6 3b
       0.14071226 0.12833512 -0.23937629 0.0055666743
000060 c2 cc 3e 3e 22 ec 1d be 94 24 bc 3d 25 eb 4c bc
       0.18632796 -0.15422109 0.09186664 -0.012507235
000070 02 e1 13 3e 4a 59 b0 3d 9b 5a 09 3e 12 e1 95 3d
       0.14441302 0.086107805 0.1341347 0.073183194
000080 26 d3 35 be a1 27 59 bc 54 d7 e9 bc d0 59 69 bd
       -0.17756328 -0.013254077 -0.02854506 -0.056970417
000090 33 b9 73 be 74 b6 6d 3d 88 c5 b1 3d 3f dd 22 3e
       -0.23801117 0.05803533 0.08680254 0.15904711
0000a0 42 f5 0a be d5 13 00 3d bd 50 82 3d d1 e0 07 3c
       -0.13570121 0.031268913 0.06363056 0.0082933465
0000b0 e7 a7 49 3e 37 e8 31 3e ca 8e c7 3d 9e 2d 81 be
       0.19692956 0.17373739 0.09744032 -0.25230116
0000c0 a7 ec 4a 3d 1b 9f 38 bc 83 82 a4 bd 8c 40 d0 3d
       0.049542096 -0.011268402 -0.08032706 0.10168561
0000d0 14 62 ee bc 99 00 89 3d a9 53 f2 3d ce a6 70 be
       -0.029099502 0.06689567 0.11832363 -0.23501131
0000e0 4c 8e 65 3c 72 b1 53 3e 52 48 32 be d8 54 10 bc
       0.014010977 0.20673159 -0.174104 -0.008809291
0000f0 a5 bb fb bc 55 79 ab 3c 76 bb e9 bc 4f 49 1d bd
       -0.030729124 0.020931879 -0.028531771 -0.03839999
000100 94 59 1d 3e a7 4a e3 bd 72 88 08 be 2a c0 16 bc
       0.15366203 -0.11098223 -0.133333 -0.009201089
000110 32 c9 28 be e9 c0 a8 bc 16 64 5f 3d 19 0e 2d 3e
       -0.16483 -0.0205998 0.05453881 0.16899909
000120 9d d3 52 3e 44 fb 17 bc 07 36 f0 3c ea 35 ad bd
       0.20588537 -0.009276215 0.029322637 -0.08457549
000130 83 b3 17 be 15 a9 34 3d 62 48 ca bd 2d 3a 0e be
       -0.14814572 0.04410656 -0.09877087 -0.1388938
000140 47 1e 07 be 6c 55 38 bd c6 22 04 3e 8a e9 90 3e
       -0.13195144 -0.04500334 0.1290389 0.28303176
000150 1d 7d 8a 3e 85 62 05 be 31 28 3f bd 9f 8e a5 3d
       0.2704858 -0.13025863 -0.04666919 0.080838434
000160 b2 91 68 3e 3c 67 47 3e 8d 82 86 be 34 50 1c 3e
       0.22711828 0.19472975 -0.26271477 0.1526497
000170 f0 0e 61 3d 54 38 03 be ba 03 81 3e e5 a2 4d be
       0.054945886 -0.12814456 0.25198156 -0.2008167
000180 38 aa 34 be 1c 0c 5d 3e 46 e9 3e be 4e 76 3b be
       -0.17643058 0.2158665 -0.18643674 -0.18306848
000190 70 4b 59 3e d7 0b c4 bd 14 d6 dc 3c e8 06 5c 3d
       0.21220183 -0.09572571 0.02695755 0.053717524
0001a0 0b b3 57 ba 04 3f 82 3e 12 7e 60 3d 66 f2 53 bd
       -0.00082282786 0.25438702 0.05480773 -0.05174484
0001b0 59 8c 69 3d e1 a4 c9 3d 69 a0 13 3e b2 4c 8d 3d
       0.05701861 0.09845901 0.1441666 0.06899394
0001c0 74 ad 4f 3d f6 ba 94 3d dc ed 8f bd 7c 77 6b bb
       0.050702527 0.072622225 -0.0702779 -0.0035929373
0001d0 4a 2b 17 bd 2e 1e 91 3c 58 e0 9c 3d f9 4f 33 3c
       -0.036906518 0.017714586 0.07659978 0.01094436
0001e0 f2 51 59 3e 45 0f 96 bd e3 9b 80 bd eb ce 8f bc
       0.21222666 -0.07327131 -0.06279733 -0.01755472
0001f0 56 83 d7 3d 9e 99 00 be b5 6a 54 bd db 1f 41 be
       0.10523097 -0.125586 -0.051859576 -0.18859808
000200 95 d2 d4 3d 9f 34 b8 3d 37 f7 b0 3d 60 be f5 3d
       0.10391728 0.08994412 0.086409025 0.11999202
000210 7e ac 08 3e fb d2 71 3d 23 b3 29 bc 57 c5 50 3d
       0.1334705 0.059039097 -0.010357651 0.050969448
000220 15 2d 74 bd b7 8d 61 be 88 2e bb bc 9d e0 7f 3d
       -0.059613306 -0.22026716 -0.022849336 0.062470067
000230 17 af be 3d 3b ce 60 3c a7 d1 1d bd 35 ba d7 bd
       0.093107395 0.013721044 -0.03853002 -0.10533563
000240 39 fb 9d 3c 89 7f b4 bd 4b aa bf 3c 44 5d aa bc
       0.019284831 -0.08813388 0.023396632 -0.020796426
000250 ff 62 56 be b8 0b 77 bc 63 06 0f 3d b3 71 95 3e
       -0.20936202 -0.015078478 0.0349182 0.29188308
000260 b3 c2 01 3e 52 f2 c9 3d 0c f3 6c 3e ea 95 65 3d
       0.12671928 0.09860672 0.2313959 0.056051172
000270 eb b2 77 3c 02 59 7c be e4 51 8b 3b e7 2d cb bd
       0.015118341 -0.24643329 0.0042517055 -0.099208646
000280 07 c7 c6 bd 9c f7 a9 bc c1 d7 e9 ba b8 f1 07 3e
       -0.0970593 -0.020747952 -0.0017840789 0.13275802
000290 91 86 83 3c 5d a8 7b bd 0c 33 0d 3d 56 7b 71 3d
       0.016055377 -0.06143986 0.03447251 0.058955513
0002a0 6b 6e 06 3e a0 9f 5c 3e 2a e0 0d 3e 51 11 df 3d
       0.13128059 0.21545267 0.13855043 0.10891975
0002b0 f3 3d 63 3e e3 ed ef bd 06 28 73 3c 28 63 4b bd
       0.221916 -0.11715295 0.014841085 -0.04965511
0002c0 3e bd 0f 3d 1e d0 fb bd 3a 36 e4 3d 04 b9 8d 3d
       0.035092585 -0.122955546 0.111431554 0.069200546
0002d0 cf 7c 70 bd ef cf c5 3d 94 13 ad 3c 29 7e a2 3d
       -0.058712777 0.09658801 0.0211275 0.079342194
0002e0 92 42 a9 bd 84 8b 14 be 37 13 bf 3d 55 17 a1 3d
       -0.082646504 -0.14506346 0.09329837 0.07865778
0002f0 c8 d4 d1 be 00 dc 14 be 12 09 45 3d 37 aa 9e bd
       -0.40982652 -0.14537048 0.048104353 -0.0774731
000300 7c cf 34 bd d6 a9 8e bd 98 8a 4a 3e 86 d3 86 3d
       -0.044143185 -0.069659874 0.19779432 0.06583314
000310 bf e0 86 3e 14 2f 36 bd 4d ca 84 be 28 9d d2 bd
       0.26343343 -0.04447849 -0.25935593 -0.102838814
000320 0c 36 9e 3d 57 1d 02 be 38 2f 40 bd 12 82 07 bd
       0.077251524 -0.12706505 -0.04692003 -0.03308303
000330 c0 05 9b 3c dd 05 79 3e df 55 ba 3d 46 c6 e5 3d
       0.01892364 0.24318643 0.0909841 0.11219458
000340 b0 f3 14 bd b1 78 97 3d 02 42 8c 3d b1 dc d5 be
       -0.03636521 0.07396067 0.068485275 -0.41769937
000350 d6 78 cd 3d 82 19 79 be db 1b af 3d a8 98 bb 3d
       0.10032813 -0.24326137 0.08550235 0.09159976
000360 0e f5 03 3e 78 bc 4b 3e 47 a7 a4 bd 97 50 55 3e
       0.1288645 0.19896114 -0.08039718 0.20831524
000370 1d ff b2 bd a1 af 80 bc 88 50 6f 3c 32 e4 9b bc
       -0.08740065 -0.015708746 0.0146066025 -0.01902971
000380 67 b5 80 bc b5 45 10 3e f5 ae 4f 3c 09 8a b1 bc
       -0.0157115 0.14089091 0.01267599 -0.021672266
000390 64 7b c4 3b 30 c4 8a 3e e6 53 f2 3d 4a ba e5 3d
       0.0059961546 0.27102804 0.118324086 0.112171724
0003a0 4d ca 00 3d a3 0b d0 bd 12 9f 13 3e fe 36 f8 3d
       0.03144293 -0.101584695 0.1441615 0.12119864
0003b0 3d d9 19 3e 9d 56 c8 bb a1 5b db bc 4f 23 64 3c
       0.15024276 -0.0061138407 -0.02677709 0.013924434
0003c0 77 0b aa 3c 5b 74 b6 3c 15 6b a1 3d c1 68 32 3e
       0.02075742 0.02227228 0.078817524 0.17422773
0003d0 27 ce b7 3d 3c 93 ba 3d 4a eb bc 3c 97 5f 86 3d
       0.08974867 0.09110114 0.023061413 0.06561201
0003e0 1d a2 ff 3b 3c 2e 54 bc 1d 53 3a 3e b8 e1 fb be
       0.007801308 -0.012950476 0.18195768 -0.49195647
0003f0 a9 5a 08 be d7 05 1a 3e dd 3d ce 3d 3d 58 c0 3e
       -0.13315834 0.1504129 0.10070393 0.3756732

encoder.l1.bias f4 [100]
000000 3d b4 84 bc 19 a2 df 3c 44 e8 25 bd f8 55 4c 3d
       -0.016199226 0.027298974 -0.04050471 0.049886674
000010 05 33 a6 bd 87 bd 36 3a 48 3d dc 3d 92 13 ca 3d
       -0.081152 0.0006970991 0.10753876 0.09867014
000020 8f 9d f9 3d 1d 67 1f bd 42 4f 5f bd ae 7e 20 3e
       0.12188255 -0.038916696 -0.054518946 0.15673324
000030 7b 5a c3 3c 5b 6a e2 bd 71 33 19 3d 24 02 43 bd
       0.023846855 -0.11055442 0.037402574 -0.047609463
000040 a6 b7 70 bd 37 a3 08 bd f6 c2 98 3c 99 e6 29 bc
       -0.05876889 -0.03335878 0.018647652 -0.01036992
000050 ae cd 42 3d 95 95 a8 3c 0a 89 9f bd f3 46 1a 3d
       0.047559433 0.020579139 -0.0778981 0.03766532
000060 ff 56 18 bd 91 e3 a4 bd fb 72 6b bd 3a 53 f0 3c
       -0.03719234 -0.08051217 -0.0574827 0.02933656
000070 72 49 1f bd a6 8e 63 bc 19 69 43 3d d7 17 eb bc
       -0.038888402 -0.0138889905 0.04770765 -0.028697891
000080 97 22 7c 3a ee 7a 19 3d d1 d5 0e 3d 54 11 ac bd
       0.00096181914 0.03747075 0.03487188 -0.084017426
000090 20 1e f1 bb fa cf ae bc e6 34 38 3c 56 26 51 bd
       -0.0073583275 -0.021339405 0.011243081 -0.05106195
0000a0 2c 8b 18 bd 67 2c c4 3c f0 66 cd 3d e4 ee 71 bd
       -0.0372421 0.023946954 0.100293994 -0.059065714
0000b0 f2 fa 14 3c 69 62 30 3d 5d e5 18 3c 3d 6d f4 3d
       0.009093033 0.0430626 0.009332028 0.11934898
0000c0 80 8f 61 bd bb 90 97 3c 6c 9e 28 bd cc 92 9f bd
       -0.055068493 0.01850163 -0.041166708 -0.07791671
0000d0 72 69 c5 3d 24 88 04 3e 0f e3 d8 bd 53 6e 6d bd
       0.09639253 0.12942559 -0.10590183 -0.05796654
0000e0 df bb 79 bc da 4d e0 3c 73 6d e6 bd c2 8f 67 bb
       -0.015242546 0.027380873 -0.112513445 -0.003533349
0000f0 ce 50 5a 3d b3 55 df bd 58 18 c6 3c d4 32 81 3d
       0.053299718 -0.10905018 0.02418153 0.06308523
000100 96 64 54 3d 84 fb be bd 93 cb 4d 3c e0 2e 74 3d
       0.05185374 -0.093253165 0.012560743 0.059615016
000110 5e 8e 82 3d dd 90 02 3e 27 be b8 bd d4 17 d5 bd
       0.06374811 0.12750573 -0.09020644 -0.104049355
000120 bd 57 ed 3d 02 59 f3 bc 44 c7 74 3d e5 4e e7 3c
       0.115890004 -0.029705528 0.059760347 0.028235862
000130 79 72 6e 3d b4 77 8a 3d 73 1e 93 3d 12 e3 fd 3d
       0.05821464 0.06761113 0.07183542 0.12396826
000140 e7 4b 84 3d 7c 6a d7 3c fb 94 d4 3d 4f 79 8c bd
       0.0645979 0.026295893 0.10379978 -0.06859075
000150 6f 88 44 bd 87 76 92 3d 35 f1 f8 bd a1 7a 17 3c
       -0.047981676 0.071515135 -0.121553816 0.009245546
000160 0f ac aa bc ac d7 7e bd f7 69 37 3d 1a 75 5d bd
       -0.020833997 -0.0622174 0.04477879 -0.054066755
000170 9b fd e8 3c e5 21 5c 3d d1 0f b7 bc 9c 9f 36 3d
       0.028441241 0.05374326 -0.022346409 0.04458581
000180 a0 ef ae 3b 3a a3 bf bd d7 f0 85 3d 78 c1 cc 38
       0.005338624 -0.09357305 0.06540077 9.7635144e-05

encoder.l2.weight f4 [32, 100]
000000 73 a5 8b be d2 97 54 be 39 b1 b8 3e cb fa 12 be
       -0.27274665 -0.2076104 0.3607271 -0.14353482
000010 ac bc d8 3c f4 6d 06 3e ff fc 1d 3d 70 2d 66 3c
       0.026457153 0.13127881 0.038571354 0.014048919
000020 7c a9 7d be 72 5d e0 3c 22 ac 9f 3e 0b e8 6d bb
       -0.24771684 0.027388308 0.31186014 -0.0036301638
000030 c2 42 4b be bf 56 41 3e 42 07 c1 3d 36 10 14 be
       -0.19849685 0.18880747 0.094252124 -0.14459309
000040 06 9c 83 bc 1f 9d 09 3d b2 23 f8 bd ed 4b 6a be
       -0.016065609 0.033597108 -0.12116183 -0.22880526
000050 ed b6 58 be c5 36 cc be a5 f7 02 3f 8b b4 31 be
       -0.2116353 -0.39885536 0.51159126 -0.17354028
000060 a0 27 84 3e 08 90 f4 3d 7c 95 34 3d 6b f3 02 3e
       0.2581148 0.11941534 0.044087872 0.12788169
000070 04 8d 67 be 09 97 33 3e 84 48 46 3d 0b 9c c9 3e
       -0.22612387 0.17538084 0.048409 0.39376864
000080 dc 7a ee bb 20 c5 39 be eb d9 08 be 8c c5 38 3d
       -0.0072778296 -0.18141603 -0.13364379 0.04511027
000090 90 6c 34 be cd 1d 0e be aa ee 1f 3d 50 a8 87 3d
       -0.17619538 -0.13878556 0.039045967 0.066239
0000a0 86 d2 38 3e e6 f6 b0 bd 06 b4 ac 3d 0c f4 9b 3e
       0.18049058 -0.08640842 0.08432774 0.3045963
0000b0 91 cc 66 be c1 c5 25 be d6 5b 82 be 80 bb f7 bd
       -0.22538973 -0.16188718 -0.2546069 -0.1209631
0000c0 65 c6 37 3e 70 12 d0 3d f7 a2 ca be b3 02 8a bd
       0.17946775 0.10159767 -0.39577457 -0.06738796
0000d0 01 76 9e be 2a 08 00 be 7b f0 91 3e fa 58 13 be
       -0.30949405 -0.12503114 0.28503785 -0.1438941
0000e0 3a 0b ed bd 86 ce 81 3e 6b 44 ad 3e c8 d0 41 be
       -0.11574407 0.25352877 0.3384126 -0.189273
0000f0 cf 51 84 3e f6 ad 07 3d 36 70 00 3d d8 2c 4d bd
       0.25843665 0.033124886 0.031357013 -0.050091594
000100 53 c1 29 bd e2 ce 3c 3d ed 25 fc bd e8 13 ce bd
       -0.041444134 0.046095736 -0.12311921 -0.100623906
000110 7b 5f 03 be ea a8 f8 3c 98 da 8f 3e 82 14 ae be
       -0.12829392 0.030353982 0.2809646 -0.3400002
000120 2b 03 37 3e aa f0 b7 bd 57 cd 41 bd b5 38 3f 3c
       0.17872302 -0.0898145 -0.047314968 0.011671235
000130 4a cc 5f 3e ef 92 82 be 9c d7 a8 3d cc 13 d5 3c
       0.21855274 -0.25502726 0.08244249 0.026010416
000140 fa 27 25 3e 83 56 0c 3e 22 f7 65 be c7 73 3a 3e
       0.16128531 0.13704877 -0.22457555 0.18208228
000150 1d 33 32 3d 7c f8 ce be 62 e7 08 bc 43 ee b7 bb
       0.043505777 -0.40423954 -0.008355947 -0.00561312
000160 c2 47 7b 3e d5 42 03 be 76 a2 95 3e 9d 0d 16 3d
       0.24539092 -0.12818463 0.2922551 0.036634076
000170 a9 6f 1d bd ce 7c 7e be 7f 41 03 bd e6 fb 2a 3e
       -0.038436566 -0.24852297 -0.032044884 0.16697654
000180 3e 1a 24 3e 21 08 64 bb 3f 9a f1 3d 88 d6 e9 bd
       0.16025636 -0.0034794884 0.11796998 -0.11417872
000190 96 01 5e be 74 4e b5 3d 5b 60 a4 bd e2 41 ed bc
       -0.21680292 0.08852854 -0.08026191 -0.02896208
0001a0 82 01 8d 3e 6d 43 7a 3d 5d 05 90 be e0 34 9a 39
       0.27540213 0.06109946 -0.28129092 0.00029412564
0001b0 04 00 30 be 33 f3 12 be e2 17 aa 3d 50 01 f0 bd
       -0.17187506 -0.14350586 0.083053365 -0.11719
0001c0 bc ca 07 3f 56 e4 82 3e be 46 49 be d9 fc 0b 3e
       0.53043723 0.25564831 -0.19655892 0.13670672
0001d0 32 32 a1 be 82 e4 63 3e 41 a3 4d 3b 24 b2 f2 bd
       -0.31483608 0.22255138 0.0031377824 -0.11850384
0001e0 5b 4a b6 be c5 53 31 be 69 35 66 3e c0 05 8d bd
       -0.35603604 -0.17317112 0.22481312 -0.06885862
0001f0 dd 56 5d 3e 0a 44 a3 3e fa 62 85 3d 82 07 1b 3d
       0.21615167 0.31887847 0.06513019 0.037848957
000200 6e 09 6b be 8c 13 19 be ff dc 02 3e 26 f2 6a 3d
       -0.22952816 -0.14948863 0.12779616 0.057359837
000210 51 b7 25 3d ac fb 59 be b9 0c b4 be 8e d9 90 3d
       0.040458027 -0.21287411 -0.35165957 0.07072745
000220 8c 61 db 3e a4 51 d4 bd a0 b8 11 3e ae 12 41 be
       0.4284786 -0.10367134 0.14230585 -0.18854782
000230 bb b8 e6 3e b1 4b 9a 3e d7 43 ef 3d d0 24 f2 3d
       0.45062813 0.30135873 0.11682861 0.11823428
000240 54 c7 60 bd f0 dc 2f 3c 3b 86 b0 bd 28 c5 4e be
       -0.054877594 0.010733828 -0.086193524 -0.20192397
000250 ad 75 cc 3e 4f c6 d5 3d e1 9f 68 bd d3 a3 a4 3e
       0.3993353 0.10438215 -0.056793097 0.32156238
000260 63 d9 a1 bd c9 e9 cf bd d2 40 5c 3e 7d 28 11 bd
       -0.07902791 -0.10152013 0.21509102 -0.035439003
000270 00 3d 7e 3e 2a fc 97 bd 71 8b 03 3e 38 b6 87 be
       0.24827957 -0.07421143 0.12846161 -0.2650621
000280 5e d6 8e 3e 16 d2 0d 3e 6e a7 33 3e e5 53 ba 3c
       0.27897924 0.13849673 0.17544338 0.022745082
000290 a2 0a 03 be f0 f8 a7 be 2e b3 40 3b 44 cb be bd
       -0.12797025 -0.32807112 0.0029403674 -0.093161136
0002a0 5b 6e b8 3e 78 ba 05 3d ef 64 b1 3e d6 7a 71 be
       0.36021695 0.032648534 0.3464732 -0.23582014
0002b0 61 51 a8 3e fb 41 4c 3e 6d b7 ee 3d 1d 61 ac bc
       0.32874587 0.19947045 0.116560794 -0.021042401
0002c0 5f 84 03 3d 43 33 5b be 44 67 a6 bd 6d 95 87 be
       0.03210866 -0.21406274 -0.08125165 -0.2648119
0002d0 c0 46 15 bd f0 2e 45 be c6 67 43 3e 53 d6 8f 3e
       -0.036444426 -0.19256186 0.19082555 0.28093204
0002e0 e4 21 73 bd 09 21 4c be f0 2a 36 be b0 96 79 3d
       -0.059358492 -0.19934477 -0.17789817 0.060934722
0002f0 b2 c3 9c 3e b5 c1 63 bd 7e 6c 8e 3e c7 af 0d be
       0.30618054 -0.055604655 0.27817148 -0.13836585
000300 95 6b 76 be 7f 1e 77 be 19 e1 5d 3e 1b 29 b9 3d
       -0.24064477 -0.24132727 0.21667899 0.09041043
000310 16 bb 17 bd d8 d3 b7 3e 9f 98 f5 bd ed 2d 6a 3d
       -0.037043653 0.3590381 -0.11992001 0.057172704
000320 20 e1 18 bd 96 cc ab 3d 47 82 64 bd f0 2d fe 3d
       -0.03732407 0.08388631 -0.055788305 0.12411106
000330 0e 23 69 3c 4b 99 83 3d ec ce 88 3e 9a 03 7e bd
       0.014229549 0.06425723 0.2672037 -0.062015153
000340 da c5 67 bd e3 69 77 3e 46 96 31 bd 8c 69 2b 3e
       -0.05658517 0.24161486 -0.043356203 0.16739482
000350 ce 7b 2d be 45 50 08 3f ff e4 d8 3d ea 13 c8 be
       -0.16941759 0.5324748 0.105905525 -0.39077693
000360 aa 08 fc 3e ad 57 74 be 13 27 26 be 05 c7 65 3e
       0.4922536 -0.2386157 -0.16225843 0.22439201
000370 81 47 a7 bd b0 cd f4 bd 3b f6 b9 3e 76 39 c1 3c
       -0.08167935 -0.11953294 0.3632067 0.02358697
000380 f5 4e 93 3d 48 68 89 bc e6 19 f1 3d 6e 0b 2b 3e
       0.07192794 -0.016773358 0.11772518 0.16703579
000390 2f 14 cc 3d 9c f3 b8 3e f9 4e 18 be 09 c4 91 3b
       0.09964787 0.3612336 -0.14873876 0.004448418
0003a0 e0 eb a7 3a 31 66 69 3d 53 f6 b2 3d 7e f9 20 3d
       0.0012811385 0.056982223 0.08738389 0.039300434
0003b0 69 d3 8b be 35 07 28 3e 47 39 cb 3e 2f 70 ea bd
       -0.2730973 0.16409 0.39692137 -0.114471786
0003c0 b1 3d e4 bd fa 2a 17 3e 69 02 41 be 7b 72 5c be
       -0.11144579 0.14762488 -0.18848576 -0.21528046
0003d0 1b 38 57 be 76 b9 0b bf 0b e1 ba 3d 83 26 33 bd
       -0.21017496 -0.54579866 0.09124955 -0.0437379
0003e0 1d 44 4c be 4c 3b bb 3d ad a6 57 3e 2c 29 50 bd
       -0.19947858 0.09142169 0.21059676 -0.050820515
0003f0 07 10 49 be e9 1f 6b 3d 75 35 08 3e ea 2b 20 3e
       -0.1963502 0.05740348 0.13301642 0.15641752

encoder.l2.bias f4 [32]
000000 41 ed 07 3d 1a d4 f9 bd e6 e9 37 bd e8 3a b5 3d
       0.033185247 -0.12198658 -0.044900797 0.08849126
000010 33 03 54 3d c1 a9 ba 3b d8 33 15 bd e8 dd 01 3e
       0.051760864 0.005696506 -0.036426395 0.12682307
000020 59 c1 89 3d bb af 8b bc 48 15 82 bd f4 d3 dc 3d
       0.06726331 -0.017051568 -0.06351715 0.10782614
000030 5b 36 15 be b3 93 68 bd 4a 62 a0 bc 8f e5 0b 3d
       -0.14571516 -0.056781482 -0.019578118 0.03415447
000040 05 ae 49 3d ee 12 2c 3d ef 77 9e ba 20 f6 e2 3c
       0.049238224 0.04201024 -0.0012090186 0.027705252
000050 f5 61 86 3d 3e 79 39 3d a4 2d ce bc 96 10 81 3d
       0.065616526 0.04528164 -0.025168248 0.06301992
000060 27 86 6d 3d cc 76 fa bc a5 d7 0b 3b 3d 08 24 3d
       0.057989266 -0.030574225 0.002133825 0.04004692
000070 e7 15 70 3d 24 38 4d 3d a5 14 a8 bd a7 d7 c3 ba
       0.058614638 0.050102368 -0.08207063 -0.0014941589

lstm.weight_ih f4 [512, 288]
000000 60 ea 33 3e 48 df 14 3e 66 17 fb 3d 98 6f 93 3c
       0.17569876 0.145383 0.12260322 0.017997548
000010 b7 cd 61 3d 14 49 57 bc 96 71 5c 3e 38 48 1c bd
       0.055127826 -0.013139982 0.21527705 -0.03815481
000020 13 13 bd bc 17 a1 d9 3d 28 bd dd 3d 88 74 8a bb
       -0.023080384 0.106264286 0.10827094 -0.0042253174
000030 5a c7 2d be 77 16 a2 3d 91 b0 89 3d db ad 22 be
       -0.16970578 0.07914441 0.067231305 -0.15886633
000040 5a 08 4f be bb 62 a5 bd 13 c1 d7 3c a4 48 08 bd
       -0.2021803 -0.08075472 0.026337182 -0.0332724
000050 c9 ab 61 be 5f 9d 60 3c 56 4e 87 3e 74 33 38 bd
       -0.22038187 0.013709395 0.26426953 -0.044970945
000060 75 8f c3 3d 7f 80 31 be 94 bc a6 3c bf a9 59 3d
       0.09548847 -0.17334174 0.020353593 0.053140398
000070 2f d3 5b bd 0a 3c 4f 3d 55 8a 80 bd 72 ed bc 3d
       -0.053668197 0.050594367 -0.06276385 0.092249766
000080 28 33 38 3d a2 14 65 3d 79 26 3e 3d 25 d3 55 bd
       0.04497066 0.05592788 0.04642341 -0.052203316
000090 e0 f3 80 bd 07 a9 e8 3c af 48 95 3c 65 38 cc 3b
       -0.062965155 0.028400911 0.018223135 0.0062323087
0000a0 46 e8 2f 3d 13 22 1b 3e 70 f1 7c bd b2 5b 73 bd
       0.042946123 0.15149717 -0.06175369 -0.05941362
0000b0 38 66 be 3d cf f9 c8 3d 5b 66 ae bc 34 2a 1d 3d
       0.092968404 0.09813272 -0.021289041 0.038370326
0000c0 8b ec bc bd 1a 7d 8d bd 39 1a 0d be 83 88 ac 3c
       -0.092248045 -0.06908627 -0.13779534 0.021061188
0000d0 e6 85 16 bd e4 52 82 3d e2 f6 8a 3d fd d4 d0 bc
       -0.03674879 0.063634664 0.067853704 -0.025492186
0000e0 a5 4d cd 3d 71 ee 8d 3d a4 9a 8d bd 9a fb 8e bd
       0.10024575 0.06930245 -0.06914261 -0.06981583
0000f0 51 9c 80 3d 1a 13 c3 bc b4 d8 57 3d 0c ee b0 bd
       0.06279815 -0.02381282 0.0526969 -0.08639154
000100 33 71 00 3e 6b f3 c2 3d 0b 7c 8d bd b3 82 11 be
       0.12543182 0.095190845 -0.06908425 -0.14210014
000110 1a 90 06 3d 75 9f 82 3c 74 b7 c4 bc ea 94 30 3d
       0.03285227 0.015945176 -0.024013259 0.043110766
000120 7e 16 48 bc 67 8b a4 bd c7 73 b3 bd 82 a9 dd 3c
       -0.012212394 -0.080344014 -0.08762317 0.027058367
000130 41 85 92 3d 1a f6 b4 bc 65 51 3c bb 84 f2 d4 3c
       0.071543224 -0.022090007 -0.0028735038 0.025994547
000140 29 3c 74 3d da 6b de bc 00 20 68 bd 3e a2 d8 3c
       0.059627686 -0.027151037 -0.056671143 0.02644455
000150 99 4e 18 be 5b 4a 5e bd ad 02 5b bd b5 02 fa bc
       -0.14873733 -0.05427013 -0.05346935 -0.030518869
000160 a3 1b af 3d 1d 64 61 3d c4 96 99 bd cc c5 49 bd
       0.08550193 0.055027116 -0.074994594 -0.0492609
000170 dc 6d 60 3d d8 eb f5 3d 98 25 8d bc 40 a1 06 3b
       0.05479227 0.12007874 -0.01722984 0.002054289
000180 8a 4b c3 ba 0e d6 36 3d ec 86 1c 3d 22 73 9e 3d
       -0.0014899832 0.044637732 0.03821461 0.077368036
000190 27 54 65 bd 09 64 cd 3c ec 3d 34 bd 8f 9e 19 3d
       -0.055988457 0.025072115 -0.044004366 0.03750473
0001a0 61 31 20 be cb e1 38 bc bd e5 c6 3d ec 72 1b bd
       -0.15643837 -0.011284302 0.09711788 -0.037951395
0001b0 0a 2f 9e bd 18 10 06 be 2b bb 80 bd 78 82 99 3c
       -0.07723816 -0.13092077 -0.062856995 0.01873897
0001c0 58 d6 10 bd e9 a5 16 bd 30 3d aa bd 53 45 dc 3c
       -0.035360664 -0.036779318 -0.08312452 0.026888525
0001d0 9f 6e ea 3c 18 7d 20 bd 3d db a3 3d c7 3b a7 bd
       0.028617201 -0.0391818 0.08000801 -0.081656985
0001e0 7d 81 eb 3d 5c b9 da bd 23 d4 a7 bc 76 3f 72 3b
       0.11499307 -0.10679886 -0.020486897 0.0036964095
0001f0 41 d1 57 3d 05 fd d6 3b c3 b9 73 bd 39 b8 63 bd
       0.052689794 0.006560924 -0.059503328 -0.05559561
000200 6c c5 a0 bd 4e ed f3 3d 35 38 97 bd fb 03 ea bc
       -0.07850155 0.11910497 -0.073837675 -0.028566351
000210 cc ac de 3d 19 20 5d bd 34 5b 78 3d 40 26 e2 3d
       0.10872802 -0.05398569 0.060633853 0.11042452
000220 64 de 1f bc c7 ba bf bd 44 81 0a be 89 34 c9 3c
       -0.009757612 -0.09361797 -0.13525873 0.024561184
000230 89 ea d4 3c 21 81 86 bc 3a 2e d6 bc 8b 68 6e bd
       0.025990741 -0.016418995 -0.02614509 -0.05820517
000240 9b e7 08 bc b1 40 54 3d fa 6f 5f bb 9c a5 a9 bc
       -0.008356 0.051819507 -0.0034093843 -0.020708852
000250 11 83 bf bd 1c 78 c9 ba e0 48 c3 3c d7 58 99 bd
       -0.09351171 -0.0015370878 0.02383846 -0.07487648
000260 83 1b d5 3d bc 9b 0a be c7 04 85 3d 6f 09 c3 3d
       0.10405638 -0.1353597 0.06495052 0.09523284
000270 0b 51 0a 3e 84 85 81 3b 5a 51 4e 3d 0f cf 81 3d
       0.13507478 0.003952684 0.05037055 0.063383214
000280 98 c7 eb 3b 11 16 4d bc cf 47 2f 3c 29 ec 63 bc
       0.0071954243 -0.012517468 0.010698273 -0.013911285
000290 99 4d 81 bd 13 b4 fa bd bd 75 e8 3c 85 2a 4a 3d
       -0.06313629 -0.12241378 0.028376454 0.049356956
0002a0 ed 65 f2 bc 7c 18 9a 3d c7 54 a2 3d 5e 4a 94 3d
       -0.029589618 0.07524201 0.07926326 0.07240747
0002b0 bd 9c 29 3d bc 86 8c bc 93 21 2e 3c ec 31 b8 bd
       0.041409243 -0.01715409 0.010628122 -0.08993897
0002c0 b0 12 b2 bb 50 ad a6 3b e4 e9 2a 39 04 c6 ba 3a
       -0.0054343566 0.0050865784 0.00016299594 0.0014249687
0002d0 f1 1a c3 bd ed 9b 94 3d b0 7b 08 be 07 f2 c8 3d
       -0.09526623 0.07256303 -0.13328433 0.09811788
0002e0 5a 0a 7a b9 13 fc 6a 3d 96 0f 98 3d fb 12 80 3d
       -0.00023845714 0.057369303 0.07424848 0.0625362
0002f0 9f 14 27 3d e3 ea 09 3d 5a 0e 8e 3d 25 f6 22 3d
       0.04079115 0.03367127 0.06936331 0.039785523
000300 de 74 31 bd 13 d2 36 bd 8b de 2d 3d 4e 95 09 bd
       -0.043324344 -0.044633936 0.04244856 -0.033589654
000310 c6 dd 88 bd a6 41 e3 bc 8c 51 99 bd 38 58 89 3d
       -0.06682925 -0.027741265 -0.07486257 0.067062795
000320 8d 14 8b bd 2e db aa bd 76 f6 00 bd 17 a9 ec 3d
       -0.06791029 -0.083425865 -0.031485043 0.11555689
000330 f5 0a db 3c e1 25 c9 bd 8d 78 d2 3d a0 a4 2c bc
       0.026738623 -0.09821678 0.102768995 -0.0105372965
000340 30 1b 8f 3c 6e 0d fc bb 05 f9 35 3d 35 20 02 3e
       0.017469019 -0.0076920306 0.044426937 0.12707599
000350 da d7 61 3d 5a 4f c4 bc 31 3a 9b 3b 43 4a 15 3d
       0.055137493 -0.023963619 0.0047371616 0.036447775
000360 0c 46 89 bd 96 09 a4 3d 43 8a 21 3e 92 07 8b 3d
       -0.067028135 0.08009641 0.15775399 0.06788553
000370 7a 48 f1 3d 5d 3a 12 3d 99 a1 91 bd 17 f8 cd 3c
       0.11781402 0.03570019 -0.071109004 0.025142713
000380 aa ab ee bc 05 11 d4 bc 19 c7 7d 3c 57 86 ac 3d
       -0.02913459 -0.025887022 0.015489363 0.08424061
000390 e7 ed c0 3c 38 2d 7b bd 27 10 fc 3c 15 0c 93 3d
       0.02355094 -0.06132242 0.03076942 0.07180039
0003a0 d0 bc c7 bd 47 e3 08 bc 2a b8 95 bd 31 df 06 3d
       -0.0975281 -0.008354968 -0.07310517 0.032927696
0003b0 a1 31 a9 bd 54 50 12 bd 12 31 05 3d 7d 05 39 3d
       -0.08261419 -0.035721138 0.0325175 0.04517125
0003c0 07 93 18 bc 73 62 8a bd d8 00 28 3d 9b 43 e1 3c
       -0.009312398 -0.06757059 0.04101643 0.027498057
0003d0 70 1b be 3d 08 3d 86 3d 1f 82 c9 bc f9 5c 4b 3d
       0.09282577 0.065546095 -0.02459818 0.049649213
0003e0 cd 3f f4 3c a4 b9 3d 3d 37 d2 ba 3d 35 c1 ad ba
       0.029815579 0.04631962 0.091221265 -0.0013256433
0003f0 fa dd 7f bd 74 d3 68 bd 26 5b 84 3d 35 5f 74 bd
       -0.062467553 -0.056842282 0.06462698 -0.05966111

lstm.weight_hh f4 [512, 128]
000000 2c 34 df bd 6d 3b cc bc 39 42 73 3c 12 83 4b 3e
       -0.10898623 -0.02493068 0.014847332 0.19874218
000010 14 c1 19 3d 16 a2 cb 3d 3c 9f 98 be d0 4f b4 3d
       0.03753765 0.09943025 -0.29808986 0.088042855
000020 69 d0 1b be d3 8f 84 be c8 64 fc 3d 89 d0 ed 3d
       -0.15216221 -0.2589098 0.1232391 0.116120405
000030 22 ef bf 3d a3 c6 9a be 98 4c 40 be b2 83 2e 3e
       0.09371783 -0.30229673 -0.18779218 0.17042425
000040 02 69 44 bd 5c e9 18 be ca 9c b9 bc eb 3c 36 3e
       -0.047951706 -0.1493277 -0.02265777 0.17796676
000050 df 00 0f bd 9a 4c 4c bd 76 22 6b 3d 67 90 2d 3e
       -0.03491294 -0.04987774 0.05740591 0.16949616
000060 90 12 ab bb c2 6a 50 3c dc 83 93 bd 80 f9 f8 3d
       -0.0052207187 0.012720766 -0.072028846 0.12156963
000070 75 5a ce 3c 5d 12 d1 bd d8 5b 0d be 85 e9 87 bd
       0.025189618 -0.10208581 -0.13804567 -0.06636337
000080 de e2 e6 3d 94 d0 58 3e 0d 52 a4 bd 64 09 c0 3e
       0.1127374 0.21173316 -0.080234624 0.37507164
000090 4a 4a db bd a8 65 78 bc 34 a4 bd 3c ef 83 67 bd
       -0.10707529 -0.0151609555 0.023149587 -0.056522306
0000a0 ec 66 8a 3e fa fe 63 bd 7e f9 14 3e ce 7b ea bd
       0.27031648 -0.055663086 0.14548299 -0.11449395
0000b0 be ca 8b 3e 7f 83 8f 3d 23 fd 99 3b 8f fc 77 3d
       0.27303118 0.07007503 0.0046993657 0.060543593
0000c0 24 f2 b0 be ca b6 c7 b9 08 8f c0 bd 6a d8 03 3e
       -0.3455974 -0.00038092426 -0.09402281 0.12875524
0000d0 f6 4a 35 3d 42 83 05 be 26 5f 54 3e 95 e7 3f 3e
       0.04426094 -0.13038352 0.20739421 0.18740685
0000e0 31 69 30 3d b2 40 29 be 11 d6 f4 bc c5 3f 98 be
       0.04306907 -0.16528586 -0.029887231 -0.29736152
0000f0 62 61 92 3e 34 11 10 3d 35 76 4d be ee 54 a4 3d
       0.28589922 0.035172656 -0.20064624 0.080240116
000100 fb 2d 7e be 36 fd a5 3e fe 54 33 be 81 20 60 be
       -0.24822228 0.32419747 -0.1751289 -0.218874
000110 17 a8 a0 3e b4 b8 cb be 86 38 9a 3d 08 2c ba bc
       0.31378242 -0.39789355 0.07530312 -0.022726074
000120 1b d2 1b 3e 6c 59 bd bd dc c1 3d bd df 9e dc 3d
       0.15216868 -0.092455715 -0.046327457 0.1077249
000130 b5 e0 c8 be 83 82 84 be 6d 9b ce 3b 07 1b 41 bd
       -0.39233938 -0.25880823 0.0063051493 -0.047144916
000140 7f a7 a3 bd e2 36 05 be d8 26 cb bd 05 23 6e 3d
       -0.07990932 -0.13009217 -0.09919518 0.058138866
000150 38 0c 57 be b9 a6 6a bd 5e 12 8f bd 96 61 f7 bd
       -0.21000755 -0.057287905 -0.06985925 -0.1207916
000160 11 d8 9c be b1 42 18 be 56 62 2e 3d 0f d5 28 bd
       -0.30633596 -0.14869191 0.04257425 -0.041218814
000170 c3 02 ed bc fb cf 2d 3c 7a bd f9 3d c2 48 02 3e
       -0.028931981 0.010608668 0.12194343 0.12723067
000180 57 31 a3 3e ff 82 6e be 22 8e 0b 3f 8e a5 00 3e
       0.3187358 -0.23292159 0.5451375 0.12563154
000190 0f f8 83 3d 82 ed 11 be b8 a1 eb bc 00 1e 3b be
       0.06443798 -0.14250758 -0.028763637 -0.18273163
0001a0 6c 49 8e 3d d6 27 8f 3e 9b 5d eb bd 93 74 23 be
       0.06947598 0.2796008 -0.11492463 -0.15962438
0001b0 e6 4e 0f 3e fa a2 84 bc 5b 6f 68 3d 59 6b d5 3d
       0.13994941 -0.016190995 0.05674682 0.104208656
0001c0 da cb 3a bc cb f9 41 be c8 07 49 bd e7 f9 4a 3d
       -0.011401141 -0.18942945 -0.049079686 0.04955473
0001d0 7f 7f c0 3d 76 05 74 bd 53 cb ae be 97 5e 77 bd
       0.09399318 -0.05957552 -0.341395 -0.060392942
0001e0 a6 5e fa bd a7 a6 86 3c 34 18 53 3d 08 f4 3b 3d
       -0.12225084 0.016436888 0.051536754 0.045887023
0001f0 b8 34 83 3d 23 bf 2a be 26 f2 03 be 2b 5e 91 bb
       0.0640654 -0.16674475 -0.12885341 -0.0044362745
000200 37 1a 12 be 74 2d 4d be 65 a0 75 bd 55 3a d3 3d
       -0.14267813 -0.2003687 -0.059967417 0.1031386
000210 07 58 39 3d df d7 94 3e 32 13 6d be 3e 59 7c 3d
       0.045249965 0.29070947 -0.23151854 0.061608545
000220 45 0c b6 3d f3 26 3c be 17 58 47 3e 72 65 32 3e
       0.08889059 -0.18374233 0.19467197 0.17421511
000230 9a 32 29 be ee 26 17 3d ad e1 c0 3e 6e 3f 7c 3c
       -0.16523209 0.03690236 0.37672177 0.015395982
000240 28 be 8b 3c 3f d5 d5 3a 97 6d da bd 49 bf 59 3e
       0.017058447 0.0016314163 -0.10665434 0.21264376
000250 68 37 3b bd 43 4a 38 bd bc 6b f2 3d 40 5c b8 bd
       -0.045707136 -0.044992696 0.11836955 -0.0900197
000260 8f fc c1 3d e7 e8 0d be 58 f0 d6 bc 53 78 14 3c
       0.09472 -0.13858376 -0.026237652 0.009061891
000270 0b e1 a0 3c 5c 53 5e be 78 dd d6 bd 1d ee 0e be
       0.019638559 -0.21711487 -0.104914606 -0.1395802
000280 97 f8 0c 3e 24 0f 83 bd 34 e7 d2 3d c0 d5 9b 3e
       0.13766704 -0.06399372 0.10298005 0.30436516
000290 2d 8f a5 3d c9 2b 22 bc f6 69 b7 3e a7 d6 8c 3d
       0.08083949 -0.0098981345 0.3582303 0.06876879
0002a0 7e 0b e4 3d 3a 0e b0 bd f5 c7 57 be c3 e8 45 be
       0.111350045 -0.085964635 -0.21072371 -0.19327073
0002b0 80 66 fc bc 2f 23 4b 3e 3d 1b 96 be 7f 08 91 bc
       -0.030810595 0.1983764 -0.29317656 -0.017704247
0002c0 ec 5d 2d bd 0a 9b 0b be 71 b7 e6 3d 45 d1 de bc
       -0.0423259 -0.13633361 0.112654574 -0.027199397
0002d0 17 84 58 be ff e1 0d be b7 7e 27 3e c5 48 6d be
       -0.21144138 -0.13855742 0.16356932 -0.2317229
0002e0 e6 ac d7 bd 82 90 09 bd 48 1c 54 3e 7e 7c c3 3d
       -0.10531025 -0.03358508 0.20713913 0.095452294
0002f0 2f 4e 0c 3e 75 59 e0 3b 56 af 02 3e ea ca 23 be
       0.137017 0.0068466016 0.12762198 -0.15995374
000300 a1 d5 de bd 6a 70 73 3e f9 90 53 3e c4 50 75 bd
       -0.1088059 0.23773351 0.20660771 -0.059891477
000310 c8 a6 f5 3d c8 1a f5 3d 43 06 a2 3c 7a a7 b5 3d
       0.119947016 0.11967999 0.019778376 0.08869834
000320 63 51 bd bb 51 22 7b bd 51 1e 64 3e 5d db 6f 3b
       -0.0057775243 -0.061312024 0.2227719 0.0036599257
000330 54 3c 57 be 96 5a bd bc cf 08 18 3e 27 c5 97 bd
       -0.21019107 -0.023114484 0.1484711 -0.07410651
000340 49 36 ee 3d c7 80 c4 bd b2 ca 14 be dc db 1a 3e
       0.11631448 -0.09594875 -0.14530447 0.15122932
000350 cd b6 de 3c a3 88 cd 3d 6e 74 52 3e 2c 25 2d be
       0.027186776 0.10035827 0.20552227 -0.16908711
000360 ca 88 e1 bd 34 3c 73 bc 70 34 14 3e c6 b5 6c be
       -0.110124186 -0.0148458965 0.14473128 -0.23116216
000370 6d 46 18 be 9f 3e 7b be e2 d4 11 3e 6e 01 1f be
       -0.14870615 -0.24535607 0.14241365 -0.15527889
000380 ef 15 87 be 59 ff a9 3d d3 76 f2 bd 03 20 9c bd
       -0.26383922 0.08300657 -0.1183907 -0.07623293
000390 90 39 8e be 0e 11 5a be b7 fe 60 be 61 aa 83 bd
       -0.27778292 -0.21295568 -0.21972166 -0.064289816
0003a0 49 cc 32 3c 65 91 32 bd 96 fb 5f 3e 7b f0 7d bc
       0.010912963 -0.04359569 0.21873316 -0.01549923
0003b0 1e 6d 74 3e 52 18 d6 bd a9 50 83 3e a8 86 4a be
       0.2386975 -0.104538575 0.25647476 -0.1977793
0003c0 06 6f 1e be e7 bd 89 3d 27 89 04 be a5 4f af 3d
       -0.1547204 0.06725674 -0.12942944 0.08560113
0003d0 e1 e0 12 bd 69 fd 22 3e 65 49 1e be 8d 39 9c bd
       -0.035858992 0.15916981 -0.15457685 -0.076281644
0003e0 5a 65 33 3e 03 e0 11 be b4 dc cc 3d 8d ae e9 bd
       0.17519131 -0.1424561 0.10003033 -0.11410246
0003f0 57 4c 0e 3e c0 73 c0 bd c2 97 a6 3e 5d 1c cc bd
       0.13896309 -0.093970776 0.32537657 -0.09966347

lstm.bias_ih f4 [512]
000000 5f e9 1b bc ad 2f 0c 3e d6 06 0a bc 94 69 61 bd
       -0.009516089 0.13690062 -0.008424481 -0.055032328
000010 8b c2 98 bb 85 9a ec 3d 74 b5 f8 3d fc 6b 23 3c
       -0.004661863 0.1155291 0.121439844 0.009974476
000020 13 96 99 3d bb b2 f7 3b ea db 8b bd 7f 8e 5b 3c
       0.074993275 0.007559148 -0.06829055 0.013400673
000030 36 2a 04 3e 47 b8 09 bd 6e db 9f 3d a2 e8 2d bd
       0.12906727 -0.033623006 0.07805525 -0.042458184
000040 ea 17 5d 3c 3c 4c a9 3c c7 e0 b2 bc 48 94 10 3c
       0.013494471 0.020666234 -0.021835698 0.0088244155
000050 1a 98 c5 3d 42 85 de 3c 8e bb ee 3d 97 89 17 bd
       0.09648152 0.027163152 0.11656867 -0.03699645
000060 3d ff c8 3d 33 19 11 3e 5f e3 7d 3d df 42 83 3d
       0.09814308 0.14169769 0.061984416 0.06409239
000070 a7 62 23 bd 2e 3d 0d 3d 14 e8 df 3c 0e 72 b9 3d
       -0.039889004 0.034482174 0.027332343 0.09054957
000080 ac 6a d4 bc 41 b3 53 3d b5 0d 14 3d f1 15 e5 3b
       -0.025929771 0.05168462 0.036145885 0.006991141
000090 d3 46 da 3d 48 97 34 3e 6c 23 20 bd 2b d8 6b 3c
       0.1065804 0.17635834 -0.03909628 0.0143948
0000a0 f0 40 3c 3d 77 66 dd 3c 3c 4e e4 3d 11 88 5d 3d
       0.045960367 0.027026398 0.111477345 0.05408484
0000b0 c0 1b d5 3d 57 7e 88 3d b7 0b 2c 3d 00 8e 5b bc
       0.104056835 0.066647224 0.04200336 -0.013400555
0000c0 91 8f c9 3d 64 08 94 3d f5 aa 1f bd 1d 6d bb 3d
       0.09841836 0.07228163 -0.038981397 0.09151671
0000d0 9d 57 cc 3c 0d 88 6b 3d f5 f0 8d bd 1b 49 7e 3d
       0.024944121 0.057502795 -0.069307245 0.062081438
0000e0 bb 77 82 3d db c8 3f bd b1 cf f1 3d 62 44 da 3d
       0.06370493 -0.04682241 0.11807192 0.10657574
0000f0 ab d0 0c 3e df 21 25 bd 33 f0 e9 bb c9 19 98 bc
       0.13751476 -0.040315505 -0.0071392297 -0.018566983
000100 69 d9 44 3d 4b 5d 9e 3d 34 05 1c 3d db 4b fe 3d
       0.0480589 0.07732638 0.0380909 0.12416812
000110 d3 27 5b bc 1e 2a 92 3b 11 70 f3 bc 08 1b 1c 3e
       -0.013376194 0.004460587 -0.029716523 0.15244687
000120 d9 4b de 3c 6e a0 f1 3d 95 bd eb 3d 3e 35 f7 bc
       0.027135776 0.11798178 0.11510769 -0.030176755
000130 04 9b 02 3c c3 1f 27 3d 5f 1f 21 3d bd d3 3d 3d
       0.007971529 0.040801775 0.03933656 0.046344507
000140 98 6c 6f bd 38 b5 9f bc 25 74 e0 3c d4 80 a8 3d
       -0.058453172 -0.019495592 0.027399132 0.08227697
000150 40 19 1e 3d 5e 16 3c bc 75 7c af 3d 98 96 83 bd
       0.0385983 -0.011479942 0.0856866 -0.06425208
000160 53 e1 e2 3a 9c e8 f4 3c 19 d1 78 3c 26 10 66 3d
       0.0017309583 0.029896073 0.0151865715 0.056167744
000170 fe cc 15 3d 80 65 c2 3d a4 fe 1b bb 1f 8f 21 3e
       0.03657245 0.09492016 -0.00238029 0.15777253
000180 a3 2f c4 bd aa 68 7d bc aa 7d c2 3c ff 79 c8 bc
       -0.095793985 -0.015466848 0.023741562 -0.024472235
000190 fa 6e 8a 3d 6e 39 1d 3e a3 1b 03 3e 25 d9 41 bd
       0.06759448 0.15353939 0.12803511 -0.047326226
0001a0 a7 9b 87 3d b9 33 1c 3e ce a5 b6 3d 49 54 ad 3d
       0.06621485 0.15254106 0.089183435 0.08463342
0001b0 9a 6b 5a 3d c9 98 d8 bc 74 42 96 3d f4 4b 4c 3d
       0.053325273 -0.026440041 0.07336894 0.049877122
0001c0 aa 66 db 3c 13 f4 92 bd 6c f3 d3 bc 3c c2 bf 3c
       0.026782352 -0.0717546 -0.025872909 0.023408048
0001d0 34 c2 74 3d 96 74 0e bd 0a 1c 43 bb 04 51 03 3e
       0.05975552 -0.034779154 -0.0029771351 0.12823874
0001e0 05 eb 53 3d 98 c4 c0 3d ca 9e 99 bb f0 40 f9 3d
       0.051737804 0.09412497 -0.0046881186 0.12170589
0001f0 c5 d1 75 3d 11 ed aa bd 5c 52 08 3d 71 e2 03 3d
       0.060014505 -0.08345998 0.03328167 0.032198373
000200 d0 1c ca 3c 08 2e 4d bc 95 0a 8a 3d 80 d0 8f bd
       0.024671942 -0.012523182 0.067402996 -0.0702219
000210 44 c3 2b 3b 24 29 20 bd 35 9c ab bd 9c 46 3f 3d
       0.0026208917 -0.039101735 -0.083794035 0.046698198
000220 23 31 2b 3d 81 14 bb bd dd df e1 3b 5b d5 4f bd
       0.041794907 -0.0913477 0.0068931417 -0.05074058
000230 d6 5a 21 be e5 cb 68 3d 1c 9f 68 3d 3f 16 32 3c
       -0.15757307 0.056835074 0.056792364 0.010869562
000240 11 89 24 3d 58 af 93 bd 0b bc 65 3d af 6f d0 bd
       0.04016978 -0.072111785 0.056087535 -0.10177552
000250 a7 f4 6f 3c 1a 1b 51 bd 88 0e 14 bb 8a 3a cc bd
       0.014645732 -0.051051237 -0.002259167 -0.09972103
000260 f1 bd 55 3d e4 84 a3 bd 9e e4 49 3d 3a c0 a1 bc
       0.052183095 -0.07984331 0.049290292 -0.019744981
000270 01 e4 68 3c de 9f 6d bd 00 ab f0 3c ae 1b 6f 3c
       0.014214517 -0.05801379 0.029378414 0.014594002
000280 de 42 bb bd c2 63 80 3d c5 a3 da bc 9f e2 e5 ba
       -0.09143613 0.06269027 -0.02668942 -0.0017538852
000290 f5 45 87 3d 31 5e ce 3d fc 87 45 bc be ac 8c bd
       0.0660514 0.10076559 -0.012056347 -0.068688855
0002a0 68 9d 8d bc c7 04 83 bd 54 40 96 bd 89 ad 20 3d
       -0.017286971 -0.063973956 -0.07336488 0.039227996
0002b0 3c 24 d5 bd 0f 99 06 3d 22 92 c4 3d fb 3e 8e 3d
       -0.10407302 0.03286081 0.09598185 0.06945606
0002c0 c4 75 81 bd ff 00 8f 3d cb 38 c3 3c 91 1d b3 bd
       -0.0632129 0.06982612 0.023830792 -0.08745874
0002d0 81 a3 a7 bc b8 2e ab 3d 8f 4a d9 bc 03 0b de 3d
       -0.020463707 0.0835852 -0.02652481 0.10841944
0002e0 9a f8 8a 3d 6b 47 21 bd ea 75 90 3d 96 48 44 bc
       0.06785698 -0.03937475 0.0705374 -0.011980196
0002f0 2e cb 93 bc bb 98 c3 3c 5d aa f4 bb 4b 4a b7 bd
       -0.01804122 0.023876539 -0.007466598 -0.08949717
000300 be 30 00 be e1 84 23 3d 1e 2b 5c bd d6 65 09 3d
       -0.12518594 0.039921645 -0.053752057 0.033544384
000310 89 bc 69 bd 22 7c 1b 3d 70 53 4d 3d ac c6 05 3c
       -0.057064567 0.03796018 0.0501284 0.008165043
000320 65 82 96 3d 20 4c f9 3c 30 47 07 3d b6 37 43 bd
       0.073490895 0.030431807 0.033026874 -0.047660552
000330 45 2e 7a b9 74 73 11 3c 68 d9 1f 3d 91 0e 10 be
       -0.00023859095 0.008877624 0.039025694 -0.14068057
000340 62 d4 b6 3d d0 12 c8 bc bb 12 a0 3d 9b 9e c6 3d
       0.089272276 -0.024423033 0.078160726 0.0969822
000350 31 02 08 3d 46 ac c8 bd 88 cc 99 bd b3 a2 89 bd
       0.033205215 -0.097984836 -0.07509714 -0.067204855
000360 40 a0 13 be 49 33 56 3a 80 8a 3d 3d f6 2d 75 bc
       -0.144166 0.0008171094 0.046274662 -0.014964571
000370 f6 1e 70 3c 35 9d c7 bd 48 96 0f bc 53 e1 f1 bc
       0.014655819 -0.09746782 -0.008763857 -0.029526388
000380 9c 81 a0 3c 71 3b 0f bd cd 87 34 bd 11 b4 3d 3d
       0.019593053 -0.034968797 -0.044074822 0.046314303
000390 27 b3 fc bd 94 9e ac bd 28 51 ce 3c d9 53 dc 3c
       -0.12338858 -0.08428684 0.025185183 0.02689545
0003a0 51 5e a9 bd 2b db b1 bd b5 d4 39 3d 5c 6d a8 bd
       -0.082699426 -0.08684381 0.04536887 -0.08223984
0003b0 9c db a2 bc 36 f7 2e 3d 1a 32 3d 3d 6b 85 cd bc
       -0.019880109 0.042716227 0.04619036 -0.025088033
0003c0 29 d6 48 bd 70 e3 75 bd 73 c6 60 3d 1d c2 2e 3c
       -0.049032364 -0.060031354 0.054876756 0.010666397
0003d0 67 a2 ab 3c 08 ed 18 be 30 96 fc bd c9 9a ab 3c
       0.020951463 -0.1493417 -0.123333335 0.02094783
0003e0 c5 77 c6 bd c7 1b a3 bc 32 94 ae bd 90 b3 9b 3d
       -0.09690813 -0.019910706 -0.0852436 0.07602608
0003f0 7f bb f5 bc a2 c6 e9 bc 82 8e 57 3d 95 98 ee bc
       -0.029996632 -0.028537098 0.05262614 -0.029125491
