evaluation_results/models/list_npi_2020_3_3-21_1_16-3657-False-False-1.0-False-0.3-True-False-True-False.pth (torch_old, 964357 bytes, 16 tensors)

Mprog.weight f4 [4, 256]
-0.16824497 0.6718419 0.6965604 0.5018473 1.2498367 -0.6857533 -0.45748168 0.39585328
-0.06568406 -0.17333867 0.56811285 -1.41491 1.6081342 0.5715475 -0.82655716 0.051520247
0.68035585 0.86453474 1.6082511 -0.28669092 0.94570976 -0.3152736 0.9918824 0.75662225
-1.9307019 -0.7255494 1.0002639 -1.034553 -0.46438125 1.1251714 0.3902582 -0.04382864
1.7651536 1.2694626 0.02111036 -0.15960619 0.9188061 0.39009073 -0.8669547 -1.0512412
-0.1032795 0.8081742 1.3236681 2.5856597 1.9751749 -0.17965369 -0.09776661 1.0045695
0.35445485 -1.5891857 0.54724616 0.6629628 0.054623067 0.008534982 1.7391582 0.10661969
-0.6657165 -1.5277694 1.6617011 0.6773998 0.85857105 0.041272197 0.9118527 -0.2733113
0.5756924 0.96348286 -0.3600088 1.7518188 -0.12439629 -0.31298196 -1.5961595 0.016305963
-0.7777957 0.41587508 -0.1310008 0.13220654 0.05559028 0.7877069 0.35190076 -0.20379165
-1.3239188 -1.3059447 0.026745882 -1.0316839 -0.6227888 -0.36762068 -0.6663855 -0.37994817
-1.913812 0.110676214 0.73015213 -0.062474765 -0.39912048 -2.1648357 -0.49139178 -0.97374487
-0.031471565 -0.6615913 -0.21042813 0.022005355 -0.74556506 0.6893849 -1.1980083 1.4579211
-0.7843683 1.0746843 -1.5064877 0.7192271 0.34567383 -0.43951976 0.06319355 -1.075098
-1.7211689 0.89642507 0.61114204 0.15631384 -0.07405642 -1.4654984 -0.1584872 -1.3441597
0.011843848 0.60247415 0.5460698 -1.864804 -0.077157624 0.6396243 -0.4409835 -0.2788373
0.91977936 -1.8644024 -1.4917276 0.5631007 -0.40595585 0.3794107 0.64201087 0.9920196
0.1458724 -0.62220514 -1.3671641 0.8192551 -1.5222865 0.4139647 0.38838708 0.45121354
3.281798 -0.76162845 0.9041801 0.8824122 0.33568886 -0.7049105 -1.5711583 -0.9802167
1.2248323 1.366044 0.19465257 -1.3778636 -0.14827543 1.9896107 1.0159214 -0.06921771
0.7872261 -0.44755903 0.0641145 0.81525266 0.2931311 1.267617 -0.89879334 0.059601612
-1.5540037 -1.2862439 -2.6743252 0.38297153 -0.9354119 0.32462206 1.1657467 -0.33639205
1.1101754 0.42076752 2.0557733 0.096164405 0.70441705 -0.46201324 1.4809009 0.94804645
-2.3722932 -1.4324472 -1.2736255 -0.3939231 -0.01019593 -1.8726217 -0.10487916 0.99600416
-0.49667585 0.16229104 1.3339275 -1.32545 0.21266872 -0.069637775 -0.015834326 0.023528263
-0.58596426 -0.34589776 1.0099796 -0.94536245 1.7152882 2.4098072 -1.2956846 -1.1686972
0.41662458 -1.164289 -0.9133945 0.550624 -0.07257666 0.57206005 1.6144067 0.6930044
1.8641165 0.77948046 -0.25901946 -0.009453957 0.37258384 0.23388754 0.9957478 0.37992558
-1.8687983 0.43749306 0.37713712 -1.6538235 -0.047290806 -1.1406056 -1.3826632 -0.7822215
1.2598262 -0.48359504 -0.30399084 2.2277787 -0.4889329 0.32591876 -0.48997703 -0.017715385
0.7699794 -0.88427967 -0.09360204 1.0089669 -0.27610582 -0.98061633 -1.6380093 -0.27648205
-1.5625521 -1.1876117 0.17698957 -1.0884012 -1.8581067 0.6312928 -1.1011959 -0.8025541
00000000: 6948 2cbe d5fd 2b3f c851 323f 1179 003f
00000010: a6fa 9f3f 878d 2fbf 0a3b eabe 48ad ca3e
00000020: 5d85 86bd b17f 31be d86f 113f c51b b5bf
00000030: 57d7 cd3f f050 123f 4099 53bf e506 533d
00000040: cd2b 2e3f 2652 5d3f 2cdb cd3f 27c9 92be
00000050: 091a 723f 8b6b a1be 01ec 7d3f ffb1 413f
00000060: 3d21 f7bf 9bbd 39bf a608 803f 3c6c 84bf
00000070: 61c3 edbe 9e05 903f eccf c73e a985 33bd
00000080: 8ef0 e13f c07d a23f a2ef ac3c ce6f 23be
00000090: e036 6b3f f9b9 c73e bef0 5dbf 128f 86bf
000000a0: 3484 d3bd 81e4 4e3f f56d a93f 737b 2540
000000b0: 88d2 fc3f 23f7 37be dc39 c8bd bc95 803f
000000c0: 1b7b b53e 706a cbbf 5318 0c3f eeb7 293f
000000d0: 70bc 5f3d 4fd6 0b3c bc9c de3f 6d5b da3d
000000e0: 666c 2abf f38d c3bf 9fb2 d43f 136a 2d3f
000000f0: 50cb 5b3f 090d 293d 2e6f 693f 75ef 8bbe
00000100: 9460 133f d0a6 763f 1353 b8be 993b e03f
00000110: 7bc3 febd 2c3f a0be f44e ccbf 1594 853c
00000120: 9e1d 47bf 94ed d43e 1325 06be 2761 073e
00000130: a2b2 633d 29a7 493f 562c b43e c2ae 50be
00000140: 2c76 a9bf 3229 a7bf 2e1a db3c 380e 84bf
00000150: 166f 1fbf c738 bcbe 3d98 2abf 9188 c2be
00000160: cbf7 f4bf 36aa e23d 40eb 3a3f 8ae5 7fbd
00000170: 8559 ccbe ab8c 0ac0 b497 fbbe 5847 79bf
00000180: 54e8 00bd 0c5e 29bf 797a 57be 9344 b43c
00000190: 5add 3ebf 877b 303f 5658 99bf 299d ba3f
000001a0: 5ccc 48bf 418f 893f 97d4 c0bf 441f 383f
000001b0: 29fc b03e bc08 e1be 9f6b 813d d09c 89bf
000001c0: 434f dcbf 1d7c 653f ce73 1c3f bc10 203e
000001d0: e4aa 97bd 7495 bbbf 784a 22be 6d0d acbf
000001e0: b30c 423c bf3b 1a3f 3bcb 0b3f e6b1 eebf
000001f0: d104 9ebd 6bbe 233f 97c8 e1be c3c3 8ebe
00000200: a976 6b3f bda4 eebf eef0 bebf 5e27 103f
00000210: 72d9 cfbe 1f42 c23e d35a 243f fff4 7d3f
00000220: 935f 153e d648 1fbf 3cff aebf b4ba 513f
00000230: 49da c2bf 2ef3 d33e acda c63e 7605 e73e
00000240: fa08 5240 15fa 42bf 5978 673f c4e5 613f
00000250: 69df ab3e 0475 34bf b71b c9bf 7bef 7abf
00000260: 4ec7 9c3f 88da ae3f 0153 473e d65d b0bf
00000270: 84d5 17be 90ab fe3f b609 823f 04c2 8dbd
00000280: a687 493f 7526 e5be 774e 833d 66b4 503f
00000290: 4815 963e 4641 a23f 5217 66bf d220 743d
000002a0: 98e9 c6bf a4a3 a4bf 2528 2bc0 d814 c43e
000002b0: 2777 6fbf dd34 a63e 3037 953f 943b acbe
000002c0: 3a1a 8e3f d76e d73e ca91 0340 d8f1 c43d
000002d0: ad54 343f 008d ecbe 298e bd3f 2cb3 723f
000002e0: a7d3 17c0 6e5a b7bf 2906 a3bf 4ab0 c9be
000002f0: d40c 27bc 11b2 efbf e3ca d6bd 21fa 7e3f
00000300: 4c4c febe 9f2f 263e 23be aa3f 58a8 a9bf
00000310: d4c5 593e 409e 8ebd fdb6 81bc 58be c03c
00000320: c101 16bf 8319 b1be 0347 813f 4603 72bf
00000330: 908e db3f 483a 1a40 fed8 a5bf df97 95bf
00000340: d14f d53e 6c07 95bf 39d4 69bf b2f5 0c3f
00000350: 12a3 94bd 8772 123f e1a4 ce3f bd68 313f
00000360: 5f9b ee3f 088c 473f 339e 84be c5e4 1abc
00000370: 4fc3 be3e 3780 6f3e 54e9 7e3f 9b85 c23e
00000380: c834 efbf 17ff df3e 1e18 c13e 7db0 d3bf
00000390: 01b4 41bd 5dff 91bf 1cfb b0bf ab3f 48bf
000003a0: fc41 a13f c599 f7be b0a4 9bbe ed93 0e40
000003b0: 6a55 fabe d3de a63e 45de fabe db1f 91bc
000003c0: 5f1d 453f 2760 62bf 6db2 bfbd d425 813f
000003d0: be5d 8dbe ac09 7bbf 4aaa d1bf 0e8f 8dbe
000003e0: b501 c8bf a903 98bf c13c 353e bb50 8bbf
000003f0: 71d6 edbf 689c 213f fdf3 8cbf 2f74 4dbf

encoder.l1.weight f4 [100, 44]
-0.24293181 -0.2776696 -0.036986176 0.052698083 0.28977042 -0.26195025 0.0952523 -0.043820985
-0.17270738 0.28781432 0.25426406 0.2103719 0.09012894 0.1731679 -0.27820572 0.14269386
-0.028141191 -0.06328813 -0.01242562 -0.31955525 -0.043845117 -0.006246653 0.029398626 0.04598843
-0.22859393 -0.000104151804 -0.08995733 -0.010466887 0.19277345 0.05350443 0.045078773 -0.3191208
-0.0066824597 -0.05923282 -0.112594955 -0.0001012655 0.008259598 -0.0056520533 0.079692475 -0.26365626
0.040536977 0.19710019 -0.026078409 0.124190584 -0.078863315 -0.035455205 0.13995895 0.068800755
0.06285398 -0.02774268 -0.13301146 0.09143121 0.17428987 -0.024412923 -0.03001202 -0.038538735
0.03391921 -0.25491843 -0.09470681 0.02074579 0.095144875 0.08185972 -0.011633871 0.040993832
0.093903355 0.00631652 0.0649902 -0.25199494 0.07936255 0.14575644 -0.008835698 0.07213948
0.03438334 0.08015025 -0.21202198 -0.022850689 -0.1879649 -0.022719005 -0.003678576 0.07402065
0.24743551 0.22508715 -0.0842245 0.12313294 0.071906574 0.10208169 0.05748193 -0.028982047
0.084470786 -0.22132416 -0.05769268 0.16320768 -0.14167011 0.29530713 0.024460843 -0.18372494
0.11665909 -0.1702241 0.022446977 0.1534584 0.04004806 -0.1007595 0.23625304 -0.13042207
-0.06311373 0.08475832 -0.033061326 -0.050572194 -0.064961076 0.21801576 0.116795905 -0.017385287
-0.08114852 -0.26530078 -0.07596587 0.07015503 -0.0051377066 -0.045155745 0.02798405 0.014551936
-0.009316161 -0.065073356 0.05826221 0.04041258 0.043518987 -0.18823658 0.03839673 0.013301521
-0.16834891 0.19540064 -0.057307117 0.20684792 0.123800725 0.09555001 -0.07316584 -0.056221604
-0.07642753 -0.028353306 0.0145323165 0.15177418 0.1667794 0.1411037 -0.3038259 -0.13927448
-0.12468339 0.10756672 0.011417365 0.10020499 0.14119032 0.1634271 0.18715522 0.024596088
0.051516782 -0.05362225 0.018295985 0.034137823 0.022705862 0.21376091 0.013395803 0.10025008
0.032474943 -0.019319884 0.15348086 0.050604578 0.01784846 0.25110328 0.28025785 -0.18691038
0.073703684 -0.14478898 0.13818583 -0.7869827 0.019006995 -0.2112657 0.1102716 0.20542705
0.24648069 -0.03194752 -0.24062575 -0.13213924 0.106409356 0.17575651 -0.09102753 0.031284925
0.06469212 -0.13440862 -0.21973547 -0.17125155 -0.124180734 0.28265843 0.16513401 -0.11922396
0.21903443 -0.10282865 0.15299304 -0.115680985 0.05225764 -0.021741131 0.030709796 0.07947356
0.08611311 -0.32560468 0.07530551 -0.012941098 0.015471485 -0.15179393 -0.07824779 0.19704154
-0.031718954 -0.08405349 0.02645149 -0.24267836 0.15958898 -0.51158905 0.15781197 0.032072604
-0.113043524 0.22871847 -0.060218904 0.06005433 0.18210544 -0.073313124 0.027894579 0.15652622
0.16020456 -0.1767441 -0.012440882 0.03619119 -0.052537404 -0.034049094 -0.5264152 -0.0066964873
-0.27158386 -0.061855163 0.034710947 0.18477008 0.0852115 -0.077987164 0.12072971 0.108063735
-0.050535362 0.10890313 -0.13702859 0.007453359 -0.1252551 -0.056820653 0.016469752 -0.06284015
0.119164 0.069063775 0.070189625 0.23676117 -0.02475087 0.035862032 0.30137363 -0.07894811
00000000: 1ec3 78be b62a 8ebe d17e 17bd f2d9 573d
00000010: ca5c 943e 581e 86be a313 c33d a27d 33bd
00000020: 34da 30be 665c 933e e62e 823e bb6b 573e
00000030: 8695 b83d ed52 313e fb70 8ebe 571e 123e
00000040: 5b88 e6bc 359d 81bd d494 4bbc bf9c a3be
00000050: f096 33bd b9b0 ccbb 63d5 f03c 5d5e 3c3d
00000060: 8714 6abe 136c dab8 8c3b b8bd 4e7d 2bbc
00000070: 6766 453e 7627 5b3d 85a4 383d cd63 a3be
00000080: 89f8 dabb 1d9e 72bd 2f98 e6bd 805e d4b8
00000090: 4453 073c dc34 b9bb cf35 a33d f4fd 86be
000000a0: 1a0a 263d a2d4 493e 63a2 d5bc a257 fe3d
000000b0: 1783 a1bd 7a39 11bd 6651 0f3e 69e7 8c3d
000000c0: 96b9 803d 9e44 e3bc 2834 08be 4940 bb3d
000000d0: 0b79 323e 9cfd c7bc c5db f5bc cbda 1dbd
000000e0: dfee 0a3d ab84 82be a5f5 c1bd 13f3 a93c
000000f0: 51db c23d 12a6 a73d fe9b 3ebc 26e9 273d
00000100: 6750 c03d cffa ce3b 9519 853d 7b05 81be
00000110: d588 a23d 2d41 153e 9ac3 10bc ddbd 933d
00000120: 8cd5 0c3d d025 a43d 4a1c 59be 5e31 bbbc
00000130: df79 40be 351d babc 4414 71bb 2398 973d
00000140: bc5f 7d3e 3f7d 663e e57d acbd 1f2d fc3d
00000150: c143 933d 3510 d13d 2c72 6b3d c26b edbc
00000160: 05ff ac3d cda2 62be 294f 6cbd ea1f 273e
00000170: f811 11be 7f32 973e 1b62 c83c 6422 3cbe
00000180: f6ea ee3d 3a4f 2ebe b9e2 b73c 3324 1d3e
00000190: 6f09 243d ff5a cebd 51ec 713e 5d8d 05be
000001a0: c541 81bd c595 ad3d 506b 07bd ca24 4fbd
000001b0: 500a 85bd 863f 5f3e b132 ef3d 976b 8ebc
000001c0: 3231 a6bd 81d5 87be fe93 9bbd 71ad 8f3d
000001d0: 355a a8bb 3bf5 38bd ce3e e53c 3e6b 6e3c
000001e0: d0a2 18bc 2e45 85bd 5ba4 6e3d a987 253d
000001f0: f740 323d 17c1 40be e445 1d3d 9fee 593c
00000200: a863 2cbe 1b17 483e deba 6abd f1cf 533e
00000210: 3c8b fd3d b9af c33d f9d7 95bd a048 66bd
00000220: 0986 9cbd 3145 e8bc f418 6e3c b16a 1b3e
00000230: 38c8 2a3e 7d7d 103e 128f 9bbe f89d 0ebe
00000240: 015a ffbd f14b dc3d e60f 3b3c 4638 cd3d
00000250: 3294 103e 6f59 273e 9ea5 3f3e bc7d c93c
00000260: 4303 533d 01a3 5bbd 76e1 953c 1ad4 0b3d
00000270: a501 ba3c 24e4 5a3e 127a 5b3c ea4f cd3d
00000280: 7204 053d bc44 9ebc 162a 1d3e bf46 4f3d
00000290: ef36 923c 9c90 803e f57d 8f3e 6f65 3fbe
000002a0: f5f1 963d 9043 14be 9680 0d3e b377 49bf
000002b0: 8fb4 9b3c 0956 58be 14d6 e13d 785b 523e
000002c0: 6f65 7c3e 67db 02bd 9966 76be 824f 07be
000002d0: 26ed d93d 84f9 333e a46c babd 9f24 003d
000002e0: 4d7d 843d 6aa2 09be 5602 61be 915c 2fbe
000002f0: 7852 febd 9bb8 903e e418 293e b12b f4bd
00000300: 904a 603e d497 d2bd 35aa 1c3e 27ea ecbd
00000310: 1b0c 563d 751a b2bc 1c93 fb3c 09c3 a23d
00000320: 125c b03d a8b5 a6be c639 9a3d e606 54bc
00000330: 1d7c 7d3c de6f 1bbe 6140 a0bd 42c5 493e
00000340: bceb 01bd 3c24 acbd ccb0 d83c ad80 78be
00000350: 4b6b 233e 80f7 02bf 7699 213e 905e 033d
00000360: 5d83 e7bd 2d35 6a3e 19a8 76bd 87fb 753d
00000370: d979 3a3e 3125 96bd 2c83 e43c 6948 203e
00000380: aa0c 243e 68fc 34be d7d4 4bbc 373d 143d
00000390: 7631 57bd 1077 0bbd 26c3 06bf 356e dbbb
000003a0: 0a0d 8bbe d75b 7dbd 112d 0e3d 5e34 3d3e
000003b0: 5e83 ae3d bcb7 9fbd 2341 f73d 8550 dd3d
000003c0: 2bfe 4ebd 9b08 df3d 3951 0cbe 4f3b f43b
000003d0: df42 00be c6bc 68bd 93eb 863c 56b2 80bd
000003e0: 410c f43d 4f71 8d3d 94bf 8f3d 8571 723e
000003f0: 56c2 cabc 11e4 123d a54d 9a3e 8caf a1bd

encoder.l1.bias f4 [100]
-0.06111273 0.094407 0.027113328 0.096064225 -0.019516256 -0.07820513 0.06586355 0.023558643
-0.06028908 -0.03103297 0.08052386 0.016257523 0.0150303375 0.06321673 0.079299636 0.031144261
-0.03209345 0.08485901 -0.042295303 -0.03796431 0.0025860902 -0.055645257 0.12621522 0.050973825
0.11329684 0.08679872 0.02382154 -0.050109815 -0.0926471 -0.02186195 0.05269611 0.043466818
0.06585548 -0.017549848 0.03067527 0.025318779 0.044369493 0.05189863 -0.018652229 0.108965635
0.079369456 0.13417292 0.01586911 0.12581407 0.0039130887 -0.0032156103 0.05561375 -0.045544326
0.11121629 0.14236175 0.036637276 0.1401295 -0.0092598805 -0.0105457995 0.06368787 0.12441855
-0.088821374 -0.0018727141 0.0065002018 0.059340175 -0.00088320166 -0.0055081355 -0.021363543 0.031732906
0.038026206 0.03381027 0.1133103 -0.04887771 0.04477877 -0.014162542 -0.025698863 0.09743688
-0.015571746 -0.08458478 0.022807712 0.11958345 0.050529484 -0.0455495 -0.026706466 0.11011278
-0.0020010667 -0.053001884 0.078339815 0.021364572 0.018846288 0.033155814 0.104122214 -0.02120069
-0.03569229 0.028413251 0.12609524 -0.0077037015 0.047145784 0.02225138 0.084690236 -0.000494133
0.034557097 0.07032146 0.0937183 -0.019540362
00000000: 5851 7abd 7558 c13d c51c de3c 52bd c43d
00000010: 8ee0 9fbc 032a a0bd 78e3 863d 0efe c03c
00000020: aff1 76bd db38 febc b2e9 a43d 7f2e 853c
00000030: ce41 763c c677 813d d967 a23d 4022 ff3c
00000040: 6c74 03bd 90ca ad3d d73d 2dbd 7780 1bbd
00000050: 657b 293b 48ec 63bd 903e 013e eec9 503d
00000060: 2c08 e83d 87c3 b13d 6425 c33c f33f 4dbd
00000070: c3bd bdbd d517 b3bc e0d7 573d 430a 323d
00000080: 3ddf 863d b3c4 8fbc b44a fb3c 5469 cf3c
00000090: c9bc 353d a893 543d 8fcc 98bc 6029 df3d
000000a0: 748c a23d a064 093e f0ff 813c 67d5 003e
000000b0: 5e39 803b fdbc 52bb 3ecb 633d b08c 3abd
000000c0: 5ec5 e33d 47c7 113e f810 163d 1c7e 0f3e
000000d0: c1b6 17bc 4ac8 2cbc c96e 823d 27cf fe3d
000000e0: fbe7 b5bd dc75 f5ba a5ff d43b af0e 733d
000000f0: a986 67ba 977d b4bb 9902 afbc 5dfa 013d
00000100: 5ec1 1b3d a37c 0a3d 3b0f e83d fe33 48bd
00000110: f269 373d 020a 68bc 6c86 d2bc fd8c c73d
00000120: a320 7fbc c93a adbd 3dd7 ba3c 2be8 f43d
00000130: 01f8 4e3d 1d92 3abd 85c7 dabc cf82 e13d
00000140: 5424 03bb 8118 59bd a070 a03d c104 af3c
00000150: 8863 9a3c 64ce 073d 073e d53d 12ad adbc
00000160: 1432 12bd e8c2 e83c 1c1f 013e 556f fcbb
00000170: f01b 413d 8748 b63c 1372 ad3d b488 01ba
00000180: be8b 0d3d b304 903d 61ef bf3d 1c13 a0bc

encoder.l2.weight f4 [32, 100]
-0.3966594 -0.24206823 -0.36232892 -0.12784614 -0.34081405 0.15975583 0.25331596 0.10558515
0.3527459 0.25522983 0.58225495 0.03911056 -0.22602008 -0.110782735 0.070607625 -0.56342083
0.20076276 -0.1365997 -0.08893164 0.08804946 -0.07528351 0.21873954 -0.07425893 -0.289167
0.25210983 -0.07664082 0.14862089 0.052223578 -0.46650848 0.14406288 0.31763324 -0.13579726
-0.38314366 -0.2617638 -0.23092858 -0.28088403 -0.02239322 -0.41978818 -0.12910147 0.104610085
-0.25112218 0.018581279 -0.18988968 0.5507859 -0.4101013 0.4540328 -0.05390073 0.24963832
0.063197516 0.16171835 0.11018656 0.15958804 0.37973565 0.0023808891 -0.44212073 -0.02300832
0.21811509 0.025898408 -0.107563175 -0.1114018 0.46945062 -0.008605608 0.34389535 0.24206746
-0.2900216 0.019063296 -0.36408803 -0.0035058914 -0.1267277 0.040836733 -0.35721686 -0.54613644
0.2212873 0.060821604 -0.27593622 -0.21727312 0.010880435 0.14388232 -0.037387367 0.2964536
0.27967128 -0.104352005 0.2784767 -0.3419356 0.27218908 0.40039694 0.21643996 0.17605066
0.13377286 -0.21705078 0.17557128 0.34796262 -0.023699308 0.080491126 -0.18441476 -0.114843756
0.1958817 -0.085624315 0.08392094 -0.13480923 -0.3150139 0.19885083 -0.20117648 -0.6221689
-0.32352945 0.06584704 0.1592126 0.22609283 0.2346975 0.12938179 0.18218258 0.16294147
0.025686322 0.18828055 0.29676914 -0.18988182 -0.21298133 -0.034549024 -0.26867592 0.24873805
0.057114862 -0.037032288 0.0014772163 -0.08782473 0.15660286 0.04885437 -0.17329416 0.26857862
0.0065225554 0.14972858 -0.029286422 0.26296112 0.09531249 -0.14517339 -0.0071380227 -0.21888186
0.15929624 0.17359158 -0.0038821541 -0.114649504 -0.08807577 0.018084757 -0.50170386 0.257443
0.08893455 0.22928742 -0.34892195 0.3226498 0.11893813 0.3469903 0.08507891 -0.25177637
0.021856839 0.18837075 -0.19316453 -0.12105413 0.20137595 -0.005338546 -0.20342155 -0.62349355
0.25446552 -0.3952446 0.13358717 0.18670782 -0.009080702 -0.1279803 -0.09693048 0.44870496
0.032121018 -0.0717324 -0.18003024 -0.22945663 0.16368406 -0.28793138 -0.07886617 0.09380018
-0.06799665 0.17080015 -0.043686863 0.12637547 0.14829774 -0.097585894 -0.28751317 -0.101785585
0.33736068 -0.2966756 -0.055187795 -0.19922486 -0.4747802 0.037558574 0.09593315 0.34071732
0.07651768 0.17676666 0.097455174 0.049287483 -0.05322917 0.031607814 0.27335668 -0.050975643
-0.013730477 0.04321397 -0.0019911926 0.3179731 0.16971174 -0.26051283 -0.014010526 0.07104865
-0.4034261 0.03466297 -0.07984372 -0.498472 0.18217167 -0.25086373 -0.28946912 0.42190146
0.13114668 0.12867792 0.09852851 -0.44768003 -0.02908534 0.053551003 0.21123852 -0.019776499
0.07752626 0.036162563 -0.16677713 -0.43169037 0.13274805 -0.10625553 -0.13404055 -0.22041936
0.11767113 0.028131414 0.1628641 -0.06587707 -0.051999554 -0.25551072 -0.08119738 0.011911556
0.38013497 0.5484038 0.56150264 -0.2552817 0.117504284 -0.20864816 0.094042 -0.30017874
-0.30543378 -0.2496464 -0.046014737 0.13603215 -0.48432308 -0.37172475 0.05478305 0.079178505
00000000: f116 cbbe bce0 77be 2d83 b9be 19ea 02be
00000010: 2e7f aebe 0897 233e a1b2 813e 073d d83d
00000020: 1c9b b43e 7cad 823e a90e 153f 6532 203d
00000030: cf71 67be 0fe2 e2bd bb9a 903d 593c 10bf
00000040: c194 4d3e cbe0 0bbe cb21 b6bd 4653 b43d
00000050: 3e2e 9abd 42fd 5f3e 1115 98bd b20d 94be
00000060: 8a14 813e ddf5 9cbd 1330 183e 64e8 553d
00000070: 33da eebe 3885 133e d3a0 a23e 700e 0bbe
00000080: 682b c4be e805 86be 8b78 6cbe 08d0 8fbe
00000090: fc71 b7bc 7aee d6be 2d33 04be d03d d63d
000000a0: 1693 80be c437 983c 7172 42be 4e00 0d3f
000000b0: ccf8 d1be fd76 e83e 03c7 5cbd 30a1 7f3e
000000c0: b36d 813d 7f99 253e 7ea9 e13d 0c6b 233e
000000d0: b66c c23e b108 1c3b a65d e2be f27b bcbc
000000e0: 9059 5f3e e628 d43c 154a dcbd a026 e4bd
000000f0: d55b f03e 89fe 0cbc 0d13 b03e 88e0 773e
00000100: b67d 94be a12a 9c3c bf69 babe 19c3 65bb
00000110: e8c4 01be 6b44 273d 21e5 b6be 99cf 0bbf
00000120: 2399 623e 1320 793d 8347 8dbe d87c 5ebe
00000130: da43 323c e355 133e 7f23 19bd c4c8 973e
00000140: 1331 8f3e 81b6 d5bd 7f94 8e3e 2f12 afbe
00000150: 5e5c 8b3e d400 cd3e 70a2 5d3e a046 343e
00000160: c1fb 083e 8f42 5ebe f5c8 333e 2828 b23e
00000170: 0d25 c2bc 88d8 a43d 39d7 3cbe 3433 ebbd
00000180: 3695 483e cd5b afbd bede ab3d 6e0b 0abe
00000190: 8049 a1be 8d9f 4b3e 3501 4ebe 7646 1fbf
000001a0: a7a5 a5be d0da 863d a108 233e e184 673e
000001b0: 8b54 703e a97c 043e 128e 3a3e 21da 263e
000001c0: 1f6c d23c 9ecc 403e 20f2 973e 6170 42be
000001d0: c717 5abe 4783 0dbd e48f 89be 30b5 7e3e
000001e0: 46f1 693d 2baf 17bd 279f c13a 74dd b3bd
000001f0: 805c 203e 851b 483d 0674 31be 2383 893e
00000200: 29bb d53b 7352 193e 14ea efbc d7a2 863e
00000210: 3233 c33d 55a8 14be 13e6 e9bb 9122 60be
00000220: 8e1e 233e fec1 313e bd6b 7ebb 5ccd eabd
00000230: 1261 b4bd 7c26 943c aa6f 00bf 92cf 833e
00000240: 5123 b63d 52ca 6a3e e6a5 b2be 5b32 a53e
00000250: d695 f33d b6a8 b13e da3d ae3d d5e8 80be
00000260: 1d0d b33c 43e4 403e eccc 45be 3aeb f7bd
00000270: 7f35 4e3e f8ee aebb bd4d 50be 469d 1fbf
00000280: 4e49 823e 805d cabe 13cb 083e 5630 3f3e
00000290: 3ac7 14bc 450d 03be 7d83 c6bd a8bc e53e
000002a0: 5491 033d 70e8 92bd d959 38be aef6 6abe
000002b0: cb9c 273e be6b 93be 9684 a1bd 4f1a c03d
000002c0: d441 8bbd 3ce6 2e3e fff0 32bd 9268 013e
000002d0: 5ddb 173e 1ddb c7bd ed34 93be f674 d0bd
000002e0: 8aba ac3e dde5 97be 990c 62bd 9a01 4cbe
000002f0: 6416 f3be 05d7 193d 9978 c43d 8072 ae3e
00000300: 4db5 9c3d 5202 353e 9496 c73d ace1 493d
00000310: d506 5abd 3277 013d 68f5 8b3e d6cb 50bd
00000320: cbf5 60bc 2201 313d ab7e 02bb 5fcd a23e
00000330: eac8 2d3e f061 85be 688c 65bc f481 913d
00000340: de8d cebe c2fa 0d3d 1b85 a3bd b937 ffbe
00000350: 368b 3a3e 3671 80be 4c35 94be 7803 d83e
00000360: 514b 063e 25c4 033e 51c9 c93d 5136 e5be
00000370: 6144 eebc 4c58 5b3d e94e 583e 5302 a2bc
00000380: 16c6 9e3d 321f 143d a0c7 2abe 8506 ddbe
00000390: 1bef 073e 809c d9bd ed41 09be 9db5 61be
000003a0: 90fd f03d da73 e63c d9c5 263e 8fea 86bd
000003b0: 7cfd 54bd 4dd2 82be d04a a6bd b028 433c
000003c0: 0da1 c23e 3164 0c3f a3be 0f3f 48b4 82be
000003d0: 16a6 f03d dda7 55be 1899 c03d 07b1 99be
000003e0: d161 9cbe 4ea3 7fbe f379 3cbd 034c 0b3e
000003f0: 32f9 f7be b552 bebe 3164 603d 5728 a23d

encoder.l2.bias f4 [32]
0.0135580655 -0.008136064 0.115788184 0.013191637 -0.05319338 0.050613657 0.1020592 0.029158076
0.06861615 -0.037970267 -0.039486866 0.052414626 -0.008466733 0.015986374 0.06977724 -0.028640596
0.092967704 0.06295231 -0.037306238 0.09973158 0.16351588 -0.061271597 -0.06927491 0.09786725
-0.029903265 0.12703016 0.1001473 -0.004286023 0.11025291 0.040673327 -0.032995854 0.056918543
00000000: a622 5e3c 204d 05bc 5b22 ed3d bc21 583c
00000010: 4de1 59bd 4450 4f3d 6a04 d13d ebdc ee3c
00000020: a086 8c3d b686 1bbd fbbc 21bd b8b0 563d
00000030: 0db8 0abc dbf5 823c 5fe7 8e3d af9f eabc
00000040: da65 be3d 24ed 803d 6dce 18bd 1240 cc3d
00000050: b570 273e edf7 7abd 01e0 8dbd a06e c83d
00000060: b1f7 f4bc 3214 023e 071a cd3d c471 8cbb
00000070: 47cc e13d 1399 263d a926 07bd 6b23 693d

lstm.weight_ih f4 [512, 288]
-0.2514806 0.015847793 0.30386585 0.085817724 -0.15907139 -0.123883165 0.0060984753 0.029545268
-0.050378457 0.16784759 -0.48673066 -0.048867576 -0.1640282 0.22490415 -0.04358682 -0.073864035
0.07929959 0.009510322 0.0049930993 -0.1319832 0.16256231 0.23675612 -0.05343676 -0.1803847
-0.026943944 -0.17233115 -0.18278845 0.16682757 0.1548083 -0.0063529224 0.055031102 0.18329118
0.077070296 -0.085143335 0.04581436 0.08820055 0.003310176 0.06396543 0.023437962 0.025015915
0.09276421 0.039089624 -0.05836488 0.017549112 -0.035439853 0.123975895 -0.0536225 0.043070983
-0.039118063 -0.04065412 0.13942952 -0.10805653 -0.03253698 0.030999728 0.053899217 -0.058043297
0.09488241 0.04060302 -0.05522246 -0.010822556 -0.05735773 -0.025607977 -0.11466083 -0.12139467
-0.12319695 -0.027367743 0.13771497 0.0055627655 0.111710906 -0.05932465 -0.07850473 -0.06326506
-0.096526116 -0.039256852 -0.02128956 0.008210439 -0.12629612 0.01503174 -0.1603106 -0.043021753
-0.0005834643 -0.044827804 0.0034469431 -0.048162837 0.05880383 0.05415013 -0.006610707 -0.040410023
-0.05445738 -0.10213537 0.037131794 -0.10018305 0.048315693 0.034127504 -0.007804115 -0.033031944
-0.081351295 -0.020397961 -0.009160416 0.0523032 -0.03680109 -0.018466692 -0.04703024 -0.044675503
-0.026648596 0.14333798 -0.035459816 0.02599382 -0.06351398 0.06870802 0.007454007 0.04193007
0.045546934 0.11170678 -0.053329386 -0.079627685 -0.019378096 0.14573431 0.057310935 0.027911665
0.03512946 0.12166631 0.067221686 -0.066712484 -0.03664672 -0.034926757 0.023373764 -0.025187835
-0.06012818 0.09034087 0.106997915 0.109727874 0.07840294 0.0016538092 0.0086333295 -0.017657125
0.03529105 -0.0058781505 -0.054580573 -0.06938321 0.05962974 0.01620258 0.08248109 0.028046412
0.020667227 -0.09261021 0.09241403 0.06495505 -0.11494146 -0.09367075 0.044116896 -0.088689566
0.056207325 0.10286931 0.036610354 -0.022800826 0.015028831 0.09263578 -0.051238623 -0.1189527
0.09326179 0.105605684 0.018781178 0.054205514 0.005538614 -0.08980073 0.03061652 -0.020771138
0.00826533 -0.037666753 -0.05055572 -0.059289638 0.049943093 0.012557812 -0.06380969 -0.063755065
0.04395628 -0.017344305 -0.016228447 -0.008915593 -0.046954777 -0.12037137 0.00926779 -0.0017957177
0.1002399 0.019392388 -0.0063055106 0.010055704 0.09297356 -0.00025951237 -0.02373837 0.07526263
0.102824114 -0.003898279 -0.036994286 0.033575892 -0.07320329 -0.059204973 0.09274672 0.060484234
0.052499358 0.036039002 0.020994496 0.10860953 -0.022992346 -0.09493054 0.04628587 0.06934904
-0.0013854796 0.015687054 -0.08082814 0.092622735 0.13040988 -0.12011172 -0.032463927 -0.0026645847
0.044380557 -0.07215677 -0.03985998 -0.0078080827 -0.012190712 -0.04500494 -0.047380265 -0.08933672
0.0077247215 -0.11905332 0.013291744 -0.021998357 -0.03761147 -0.11323067 0.04856086 -0.062166966
-0.0022890659 0.02155286 -0.07076836 0.03607546 -0.04501824 0.03202756 0.03513598 -0.046067346
-0.012726506 -0.080121875 -0.0109992875 -0.06747044 -0.032764077 0.050839324 0.103204705 0.03707642
-0.025751209 -0.04461524 0.0219221 -0.12596631 -0.025319291 0.0006460046 0.1017471 -0.019359086
00000000: 11c2 80be 3bd3 813c 4e94 9b3e 34c1 af3d
00000010: 9ce3 22be 75b6 fdbd b8d5 c73b eb08 f23c
00000020: a459 4ebd 3de0 2b3e c334 f9be 5e29 48bd
00000030: 02f7 27be 464d 663e 1888 32bd 0746 97bd
00000040: d367 a23d 2ed1 1b3c 279d a33b 9b26 07be
00000050: bc76 263e 3270 723e 81e0 5abd c4b6 38be
00000060: 8cb9 dcbc 9477 30be e52c 3bbe d9d4 2a3e
00000070: 1186 1e3e 2d2c d0bb 4b68 613d afb0 3b3e
00000080: 08d7 9d3d a15f aebd d7a7 3b3d 7da2 b43d
00000090: 8aef 583b 4f00 833d f800 c03c 2dee cc3c
000000a0: 2afb bd3d 711c 203d 0310 6fbd 28c3 8f3c
000000b0: 6129 11bd 13e7 fd3d 44a3 5bbd 336b 303d
000000c0: 433a 20bd ef84 26bd 9dc6 0e3e be4c ddbd
000000d0: 7f45 05bd 24f3 fd3c 6dc5 5c3d cfbe 6dbd
000000e0: b551 c23d 5a4f 263d f230 62bd 1751 31bc
000000f0: f0ef 6abd d2c7 d1bc 4cd3 eabd c59d f8bd
00000100: af4e fcbd 5132 e0bc 2705 0d3e dc47 b63b
00000110: b0c8 e43d 67fe 72bd 16c7 a0bd 1d91 81bd
00000120: 7caf c5bd cbcb 20bd 7167 aebc 1485 063c
00000130: c553 01be b047 763c 7628 24be 9437 30bd
00000140: a0f3 18ba 5c9d 37bd 1ce6 613b 6546 45bd
00000150: 49dc 703d 87cc 5d3d a19e d8bb fb84 25bd
00000160: b40e 5fbd 592c d1bd 8217 183d c52c cdbd
00000170: ade6 453d 48c9 0b3d a9b9 ffbb 814c 07bd
00000180: 829b a6bd a019 a7bc 9215 16bc e13b 563d
00000190: bdbc 16bd 7647 97bc c8a2 40bd a9fd 36bd
000001a0: 284e dabc 31c7 123e 503e 11bd fef0 d43c
000001b0: 9e13 82bd cab6 8c3d be40 f43b ddbe 2b3d
000001c0: 6c8f 3a3d 86c6 e43d ea6f 5abd d713 a3bd
000001d0: d0be 9ebc 603b 153e dfbe 6a3d 01a7 e43c
000001e0: e9e3 0f3d 302c f93d 86ab 893d 8ea0 88bd
000001f0: df1a 16bd 5c0f 0fbd 567a bf3c b856 cebc
00000200: f748 76bd a204 b93d b921 db3d 02b9 e03d
00000210: b891 a03d a1c4 d83a cf72 0d3c ada5 90bc
00000220: 598d 103d 809d c0bb e18f 5fbd c918 8ebd
00000230: 503e 743d 46bb 843c d9eb a83d 97c1 e53c
00000240: 514e a93c 6caa bdbd 9143 bd3d 2707 853d
00000250: 6e66 ebbd 73d6 bfbd ebb3 343d e0a2 b5bd
00000260: a739 663d 25ad d23d bdf4 153d ccc8 babc
00000270: 7c3b 763c d4b7 bd3d 97df 51bd 799d f3bd
00000280: 0a00 bf3d cb47 d83d fcda 993c 9a06 5e3d
00000290: 437d b53b 72e9 b7bd 7fcf fa3c 3c28 aabc
000002a0: 4f6b 073c 7448 1abd 8413 4fbd b1d9 72bd
000002b0: 2191 4c3d 48bf 4d3c a8ae 82bd 0492 82bd
000002c0: 800b 343d a515 8ebc 85f1 84bc b512 12bc
000002d0: a753 40bd 4485 f6bd eed7 173c 4a5e ebba
000002e0: 944a cd3d c9dc 9e3c 759e cebb aec0 243c
000002f0: ec68 be3d 290f 88b9 f876 c2bc 4b23 9a3d
00000300: 7395 d23d 457a 7fbb 5287 17bd e086 093d
00000310: 9beb 95bd ea80 72bd fef1 bd3d 51be 773d
00000320: 9109 573d a29d 133d a6fc ab3c ac6e de3d
00000330: 725a bcbc f16a c2bd 4196 3d3d df06 8e3d
00000340: fb98 b5ba 2382 803c 3989 a5bd fdb0 bd3d
00000350: 2b8a 053e 22fd f5bd e5f8 04bd 50a0 2ebb
00000360: 63c8 353d eec6 93bd 3844 23bd f2da ffbb
00000370: 8dbb 47bc 1a57 38bd cf11 42bd 2cf6 b6bd
00000380: a91f fd3b 3ad2 f3bd 9dc5 593c e635 b4bc
00000390: 7c0e 1abd 7be5 e7bd c1e7 463d caa2 7ebd
000003a0: 2704 16bb a08f b03c 00ef 90bd ddc3 133d
000003b0: 0c65 38bd 552f 033d bfea 0f3d 1db1 3cbd
000003c0: d682 50bc f016 a4bd 5b36 34bc f12d 8abd
000003d0: a033 06bd e53c 503d fd5c d33d 72dd 173d
000003e0: 33f4 d2bc 78be 36bd fa95 b33c 50fd 00be
000003f0: 676a cfbc a358 293a c960 d03d f296 9ebc

lstm.weight_hh f4 [512, 128]
0.27669337 0.014718305 0.18530491 -0.019464461 0.14943258 -0.11231529 0.091795675 0.21390118
-0.106487766 -0.09665101 -0.19253588 -0.036972888 0.19908838 0.032325577 0.22272593 0.04289821
-0.21069776 -0.18613303 0.08840001 -0.21852186 -0.116473615 -0.30371535 -0.22488141 0.15769291
0.11271424 0.12254943 -0.018527599 0.08316276 0.13135071 -0.15549707 -0.2791261 -0.11067243
-0.011271144 -0.24263652 0.11954797 -0.059784606 0.060983498 -0.063047275 0.013370591 -0.024727363
-0.068916775 -0.2420718 -0.117331766 -0.07521191 0.19936658 -0.08134346 0.025482634 0.08396421
-0.08585013 0.14519766 0.0499486 -0.2829874 -0.19059701 -0.008392372 0.048652858 0.01933302
0.021860931 0.047331385 0.06637427 -0.15871802 -0.009774256 0.18921843 -0.11695816 0.0054667853
0.015553346 -0.14296398 -0.11271899 -0.09819174 -0.09069635 0.08843659 -0.14304285 -0.03773963
0.05288532 0.0791909 0.25793925 0.09830566 -0.36629057 -0.09788692 -0.023366896 -0.120205805
-0.03863815 -0.04241142 0.3264826 -0.25308266 -0.25046375 0.022301668 0.14911725 0.013407593
-0.09853005 0.09915132 -0.031285193 -0.08729788 -0.15730841 0.1377448 0.25834528 0.285254
-0.13658573 0.15110357 0.04733791 0.19404525 -0.022050705 0.123360045 0.25911513 -0.17423218
-0.08818603 -0.04036668 0.16005099 0.082432896 -0.2906306 -0.042610317 0.06659051 -0.10214281
-0.061234023 0.19902521 -0.076813854 0.20767725 -0.064159945 0.0942955 -0.09512796 -0.12605424
0.16199495 -0.1213958 -0.07016891 -0.4246977 0.012972072 -0.10507869 0.059219427 -0.014988159
0.021326292 0.0038447408 0.28257278 0.012203447 -0.18455821 -0.021443544 0.26245943 0.08104772
0.0702017 0.21684465 -0.15592836 -0.07378 -0.10912425 0.18283536 0.11439961 0.15078878
-0.07748321 0.04126425 0.1526152 0.11931934 0.09038995 0.08705519 -0.1576039 -0.134627
0.05445235 0.10114779 0.023887029 0.048467357 0.007428788 0.16095297 0.0895652 -0.022129633
0.21784236 -0.060629543 -0.12424104 -0.261791 0.094727814 -0.099092506 0.2070698 -0.052865963
0.034598593 -0.14589007 0.14736044 -0.038860906 0.083675615 -0.031230783 0.032823175 -0.31650132
-0.018312912 -0.031906813 -0.07798812 -0.09580773 0.03444726 -0.027980352 -0.15434125 0.18913034
0.16917808 0.13478424 0.09087243 -0.0823413 -0.017549979 0.06817791 0.16184068 0.04705024
-0.08992037 -0.21356206 0.26370835 -0.089730516 0.052676965 0.012872819 0.052465625 -0.14003967
-0.19148824 0.035140503 0.006372192 0.11012513 0.04878387 -0.17001769 -0.16387272 -0.080328405
0.03887845 -0.19407159 -0.23613182 -0.054165263 -0.12627786 0.0868835 -0.110031515 0.03417135
0.11684861 0.07602553 0.044133756 0.025918448 -0.042337522 -0.09292781 -0.059852704 0.38238105
0.023647938 -0.056579344 0.18769889 0.15529662 -0.1618844 -0.18484597 -0.03349704 -0.2555079
0.14733498 0.03243335 0.17380306 -0.09886293 0.015741246 -0.03904238 -0.12944002 -0.10421589
0.10935083 0.052905057 -0.09444553 -0.28699055 0.11895388 0.03192238 -0.1588421 -0.105485745
-0.105945736 0.013774021 0.04141371 0.28234112 -0.07918463 -0.061261814 0.23096973 -0.116510116
00000000: c1aa 8d3e 0c25 713c 92c0 3d3e ef73 9fbc
00000010: db04 193e 8f05 e6bd 5fff bb3d e908 5b3e
00000020: 4216 dabd f7f0 c5bd 2028 45be e270 17bd
00000030: d3dd 4b3e d367 043d 4412 643e 09b6 2f3d
00000040: 27c1 57be a899 3ebe 100b b53d 32c4 5fbe
00000050: b889 eebd 9480 9bbe 5047 66be 407a 213e
00000060: b9d6 e63d 32fb fa3d 31c7 97bc 3d51 aa3d
00000070: cd80 063e a03a 1fbe 9ee9 8ebe 3aa8 e2bd
00000080: 9baa 38bc b575 78be 91d5 f43d b4e0 74bd
00000090: d5c9 793d ee1e 81bd 5310 5b3c 0a91 cabc
000000a0: 3d24 8dbd ace1 77be a34b f0bd b408 9abd
000000b0: c126 4c3e 6697 a6bd f5c0 d03c 6df5 ab3d
000000c0: 31d2 afbd b2ae 143e e796 4c3d b9e3 90be
000000d0: dd2b 43be 2980 09bc 3848 473d 4860 9e3c
000000e0: b215 b33c 8ede 413d 3cef 873d fa86 22be
000000f0: 3324 20bc 7ac2 413e c387 efbd b822 b33b
00000100: 76d3 7e3c 2665 12be 37d9 e6bd c018 c9bd
00000110: 02bf b9bd 3e1e b53d d379 12be df94 1abd
00000120: 479e 583d d72e a23d 9d10 843e 7a54 c93d
00000130: 708a bbbe f078 c8bd ef6b bfbc 762e f6bd
00000140: 0943 1ebd 99b7 2dbd ba28 a73e 0d94 81be
00000150: c93c 80be fdb1 b63c 31b2 183e 85ab 5b3c
00000160: 1fca c9bd d90f cb3d e724 00bd 3bc9 b2bd
00000170: 7515 21be f90c 0d3e d545 843e d00c 923e
00000180: 21dd 0bbe e5ba 1a3e 65e5 413d ccb3 463e
00000190: aea3 b4bc 31a4 fc3d bdaa 843e ec69 32be
000001a0: e19a b4bd 8857 25bd 68e4 233e 94d2 a83d
000001b0: 89cd 94be 2888 2ebd 9b60 883d 4030 d1bd
000001c0: 87d0 7abd 44cd 4b3e 9550 9dbd 58a9 543e
000001d0: 4a66 83bd 001e c13d 73d2 c2bd 5d14 01be
000001e0: 01e2 253e 5c9e f8bd b8b4 8fbd fa71 d9be
000001f0: d088 543c 7f33 d7bd 1290 723d e590 75bc
00000200: 7ab4 ae3c 0cf8 7b3b 61ad 903e f7f0 473c
00000210: d4fc 3cbe 5faa afbc 1561 863e 59fc a53d
00000220: e9c5 8f3d 860c 5e3e afab 1fbe f819 97bd
00000230: 897c dfbd 3139 3b3e 584a ea3d 6068 1a3e
00000240: 84af 9ebd b404 293d 2947 1c3e b35d f43d
00000250: 5e1e b93d fe49 b23d eb62 21be a9db 09be
00000260: 6d09 5f3d 9326 cf3d bbae c33c b585 463d
00000270: 316d f33b dbd0 243e f66d b73d 3449 b5bc
00000280: 1112 5f3e af56 78bd 1672 febd 7809 86be
00000290: a800 c23d 03f1 cabd 1b0a 543e fb89 58bd
000002a0: 41b7 0d3d 3564 15be a8e5 163e 9d2c 1fbd
000002b0: 1f5e ab3d b3d7 ffbc 9871 063d 760c a2be
000002c0: f604 96bc b8b0 02bd 3cb8 9fbd d836 c4bd
000002d0: 9218 0d3d 0d37 e5bc a20b 1ebe 62ab 413e
000002e0: 053d 2d3e e104 0a3e 531b ba3d 8ea2 a8bd
000002f0: f9c4 8fbc dca0 8b3d 90b9 253e c1b7 403d
00000300: 2c28 b8bd 03b0 5abe c804 873e a2c4 b7bd
00000310: cdc3 573d 84e8 523c 32e6 563d 8f66 0fbe
00000320: 7e15 44be 7def 0f3d d2cd d03b 4989 e13d
00000330: 98d1 473d 1e19 2ebe 40ce 27be 3883 a4bd
00000340: 023f 1f3d b4ba 46be 8acc 71be 65dc 5dbd
00000350: fc4e 01be faef b13d 3458 e1bd 42f7 0b3d
00000360: 534e ef3d 46b3 9b3d 99c5 343d ed52 d43c
00000370: 1c6a 2dbd f050 bebd 1c28 75bd 73c7 c33e
00000380: 52b9 c13c bebf 67bd 2334 403e 1406 1f3e
00000390: 06c5 25be 4348 3dbe 3134 09bd eed1 82be
000003a0: fbde 163e d5d8 043d 6ef9 313e a678 cabd
000003b0: c9f3 803c e7ea 1fbd ed8b 04be 246f d5bd
000003c0: 54f3 df3d f9b2 583d a86c c1bd 6df0 92be
000003d0: 189e f33d 0bc1 023d 81a7 22be e908 d8bd
000003e0: 14fa d8bd 6eac 613c 6ca1 293d 048f 903e
000003f0: 8d2b a2bd abed 7abd 5483 6c3e db9c eebd

lstm.bias_ih f4 [512]
-0.02258041 0.037641708 0.057368573 0.07376349 0.04353984 0.04461364 0.13566142 0.104004905
0.12540977 0.087098 -0.011739555 0.099900395 0.04390916 0.0737349 0.054749895 0.07962393
0.17437933 -0.054594133 0.1241441 0.023224574 0.14081874 -0.021815786 0.11477872 0.112975635
0.017719198 0.06142461 0.14027448 0.11009055 0.0063950876 0.07862288 0.08243296 0.10168675
-0.026819538 0.080636 0.13306898 0.056008935 0.059299726 0.017301623 0.0070369537 0.01286358
-0.07771858 -0.0008685954 0.08955308 0.07701921 0.044183698 0.07254003 -0.043237075 0.059210345
0.03711341 0.029972756 0.13978228 0.07796436 -0.039976634 0.009320293 0.12369914 0.12562478
0.026306165 -0.02016832 0.091250055 -0.015881352 0.025304753 0.11632011 0.08923178 -0.0416038
0.07219991 0.10066322 0.0054551493 0.10322522 0.14629686 0.07889665 0.030881532 0.11684281
-0.009362824 -0.037928965 0.14159876 -0.076528065 0.0905585 0.052731212 -0.0058101984 0.005318774
0.122348145 0.025439898 0.06998722 0.027848553 0.097541235 -0.025102925 -0.025035325 0.028648805
0.18233266 0.074556455 0.040997952 -0.04323257 -0.09947106 0.055960767 0.15797561 -0.07267074
0.17210032 0.016764686 0.03701361 0.06990865 0.03911972 0.03810078 0.03665205 0.06893807
-0.005525371 0.11241456 0.023963025 0.05395594 -0.021477029 0.12795742 0.031192843 0.04520548
-0.04340915 -0.02897568 -0.10606168 0.013116693 0.047486074 0.06476197 0.036339536 -0.024624279
0.08720561 -0.023593824 0.073027276 -0.02014 -0.08573372 0.03147779 0.00071839354 0.112738214
-0.07504757 0.027803017 -0.07568762 -0.06643826 0.008593181 -0.12053068 0.034498636 -0.035884257
0.07797131 0.043793734 0.016132101 -0.050986405 -0.04264337 0.011583814 0.011471441 0.08325442
0.03226495 -0.09358593 -0.03337705 -0.098692484 -0.058302406 -0.050456483 0.033209205 0.005192664
0.020662734 0.04887982 -0.01613073 -0.028574351 -0.056773942 -0.00965421 -0.11187979 -0.0053176587
-0.08283866 0.07640659 -0.11721164 -0.039726295 -0.0311196 0.0032262425 -0.10613762 -0.040969234
-0.11679261 -0.025672391 0.026381547 -0.06908571 -0.12924126 -0.021084739 -0.049671996 -0.0509309
0.035044014 -0.059390616 -0.0049063503 -0.09726126 -0.057442896 0.030387094 0.01054912 -0.005917857
-0.03648289 0.020695344 -0.045093585 -0.113039985 0.042380717 -0.1158503 -0.10778633 0.0111507615
-0.056078237 -0.16972956 -0.06318044 -0.07224856 -0.069975354 -0.015937187 0.026562389 0.017353455
-0.06552799 -0.04470065 0.14530924 0.03795962 -0.05366894 0.021983573 -0.086427085 -0.049376152
0.06011037 -0.046039965 -0.08652513 0.037761476 0.09493451 0.085088655 -0.024905577 -0.07954471
-0.08087474 0.07753257 -0.093869604 0.029435065 -0.084131934 -0.059104532 -0.12500407 -0.12741211
0.002693108 0.029426774 0.09567801 -0.08152654 -0.050620165 -0.042239264 -0.11569653 0.036496367
-0.023922585 -0.059898153 -0.13251422 0.08637392 0.02246613 -0.01375587 0.03138576 -0.025527071
-0.11918814 -0.03230319 0.016952207 -0.037131093 -0.06572363 0.13788144 -0.02681988 -0.045420703
0.045981403 0.0058851135 -0.028860815 -0.082795836 -0.04995361 0.06641627 -0.03724145 -0.12195203
00000000: 8dfa b8bc 312e 1a3d 4ffb 6a3d 5011 973d
00000010: d556 323d cbbc 363d d4ea 0a3e 8600 d53d
00000020: 6b6b 003e 7060 b23d 4357 40bc 9498 cc3d
00000030: 17da 333d 5302 973d 6d41 603d df11 a33d
00000040: 7f90 323e 199e 5fbd 433f fe3d 7641 be3c
00000050: ca32 103e 05b7 b2bc 1b11 eb3d c55f e73d
00000060: da27 913c 5f98 7b3d 1da4 0f3e 2777 e13d
00000070: e28d d13b 0805 a13d 9dd2 a83d 2541 d03d
00000080: a6b4 dbbc 7d24 a53d 3c43 083e a069 653d
00000090: 45e4 723d 22bc 8d3c 3f96 e63b c4c1 523c
000000a0: eb2a 9fbd 73b2 63ba 9b67 b73d 3fbc 9d3d
000000b0: f7f9 343d de8f 943d 5c19 31bd 8c86 723d
000000c0: 3b04 183d 6d89 f53c 1623 0f3e c7ab 9f3d
000000d0: 8abe 23bd 24b4 183c fa55 fd3d c8a3 003e
000000e0: 0780 d73c 0838 a5bc 4fe1 ba3d 9c19 82bc
000000f0: ea4b cf3c 3d39 ee3d 27bf b63d bf68 2abd
00000100: 8cdd 933d 8528 ce3d 1cc1 b23b bf67 d33d
00000110: d8ce 153e 9194 a13d 44fb fc3c 484b ef3d
00000120: 8866 19bc 675b 1bbd 44ff 103e bfba 9cbd
00000130: bc76 b93d affc 573d 7a63 bebb 1c49 ae3b
00000140: aa91 fa3d 5567 d03c 7655 8f3d a622 e43c
00000150: b3c3 c73d a6a4 cdbc e216 cdbc e6b0 ea3c
00000160: 6ab5 3a3e 0eb1 983d 78ed 273d a314 31bd
00000170: 7cb7 cbbd 1e37 653d 5cc4 213e 66d4 94bd
00000180: 113b 303e 1856 893c 959b 173d 442c 8f3d
00000190: 003c 203d 900f 1c3d 7620 163d 672f 8d3d
000001a0: 2c0e b5bb 9b39 e63d 1b4e c43c e700 5d3d
000001b0: 98f0 afbc 4507 033e 2288 ff3c 6229 393d
000001c0: cbcd 31bd 685e edbc de36 d9bd 66e7 563c
000001d0: c280 423d eca1 843d c4d8 143d dbb8 c9bc
000001e0: db98 b23d d647 c1bc 538f 953d a4fc a4bc
000001f0: 2995 afbd dbee 003d 9352 3c3a 4be3 e63d
00000200: 8ab2 99bd 27c3 e33c 1c02 9bbd c810 88bd
00000210: 6aca 0c3c cad8 f6bd 714e 0d3d 5ffb 12bd
00000220: 6caf 9f3d 0f61 333d 7827 843c 1fd7 50bd
00000230: d0aa 2ebd 0aca 3d3c b6f2 3b3c 4b81 aa3d
00000240: 4128 043d fba9 bfbd 60b6 08bd 491f cabd
00000250: 81ce 6ebd 75ab 4ebd 6006 083d 3927 aa3b
00000260: e544 a93c 3536 483d 9824 84bc c214 eabc
00000270: cb8b 68bd b12c 1ebc 3b21 e5bd c13f aebb
00000280: 51a7 a9bd 0f7b 9c3d a80c f0bd 0ab8 22bd
00000290: 88ee febc 5e6f 533b ae5e d9bd 5bcf 27bd
000002a0: f730 efbd e84e d2bc 1d1e d83c cf7c 8dbd
000002b0: d257 04be e7b9 acbc dd74 4bbd eb9c 50bd
000002c0: 508a 0f3d 9343 73bd 73c5 a0bb e930 c7bd
000002d0: 3e49 6bbd 5bee f83c 37d6 2c3c 95ea c1bb
000002e0: 156f 15bd 4889 a93c 0db4 38bd 8281 e7bd
000002f0: 6797 2d3d ec42 edbd 14bf dcbd afb1 363c
00000300: 4bb2 65bd 96cd 2dbe bf64 81bd 0ef7 93bd
00000310: 3d4f 8fbd b48e 82bc 5e99 d93c d528 8e3c
00000320: 8a33 86bd 0718 37bd f2cb 143e 8c7b 1b3d
00000330: f6d3 5bbd e516 b43c af00 b1bd a63e 4abd
00000340: 4b36 763d 6794 3cbd 1634 b1bd c7ab 1a3d
00000350: 066d c23d f642 ae3d c806 ccbc 56e8 a2bd
00000360: a8a1 a5bd 65c9 9e3d b53e c0bd ce21 f13c
00000370: 5d4d acbd 9817 72bd 1101 00be 5278 02be
00000380: db7e 303b 6b10 f13c d5f2 c33d 63f7 a6bd
00000390: 1757 4fbd 1403 2dbd 4df2 ecbd 377d 153d
000003a0: 4cf9 c3bc c457 75bd cfb1 07be cfe4 b03d
000003b0: e40a b83c 4d60 61bc 5b8e 003d 261e d1bc
000003c0: e918 f4bd 5a50 04bd 5bdf 8a3c c616 18bd
000003d0: 1c9a 86bd cb30 0d3e 5db5 dbbc 0f0b 3abd
000003e0: ff56 3c3d e9d7 c03b 846d ecbc dd90 a9bd
000003f0: 289c 4cbd 4105 883d 7e8a 18bd fcc1 f9bd

lstm.bias_hh f4 [512]
0.029833542 0.04274038 -0.038584206 0.11069602 -0.042441893 -0.084838144 0.08925605 -0.03158546
0.044979617 0.081415445 -0.035851758 -0.05432783 0.10575398 -0.06462697 -0.011228582 0.025987484
0.10646573 -0.06954735 0.04563867 -0.08046347 0.19485478 -0.061654363 0.13756777 0.14641339
-0.043129273 0.015192886 0.08017152 0.112197064 0.14497678 0.12171346 0.021538135 0.03688888
0.099527836 0.09856064 0.0696099 0.084993675 0.06300025 0.047354024 0.08061963 0.10728246
-0.04967676 -0.015392058 0.01821242 0.11420409 0.028486699 -0.067422986 0.13907981 0.04922852
0.05487742 0.0507845 0.045683302 0.082761474 -0.07551555 0.05632962 -0.02888049 0.06151958
0.13248686 0.018962346 0.04176336 0.021820594 0.0013330493 0.13073756 -0.020432169 -0.026054816
-0.025657587 -0.008824084 0.07326632 0.15950346 0.10801247 0.12817171 0.044738453 -0.024555106
0.041427784 -0.013584902 -0.02414662 0.04018618 0.1071026 -0.030667868 -0.02422927 0.14462014
0.09620842 -0.027735366 0.023165245 0.052555464 0.10902903 -0.017599668 0.054324828 0.097212605
0.053268395 0.10180561 0.14391448 -0.013223909 0.026461754 -0.024846006 0.023887476 -0.07376109
0.16578667 0.073571295 0.046311233 -0.0024829905 0.0075282142 0.16227815 0.046474047 0.00030480803
0.033441953 0.0101666255 0.118817925 0.08424447 0.022622216 -0.0020446393 0.082139984 0.0207043
0.07334547 0.14640199 0.028542254 -0.017790345 -0.049459413 0.07503443 0.06010525 0.1279435
0.013977011 0.13033819 0.10633858 0.1114163 0.08158495 0.08925174 -0.08076478 0.030926805
0.047246326 -0.16111186 0.043562446 -0.02047128 -0.13165192 -0.040547542 0.018927079 0.015509566
-0.08746128 0.03183021 -0.061800987 -0.07973407 -0.056886815 -0.08989571 -0.05998892 0.01704611
-0.033606067 0.067332976 0.02124792 -0.10194603 -0.022319587 -0.04556566 -0.042054214 -0.16735707
-0.05298101 -0.10101028 0.05736862 -0.056018777 0.004891004 -0.07858092 -0.057366654 -0.078722775
-0.105304204 -0.026052142 0.06402414 -0.022613978 0.020606656 0.012174575 0.060800646 -0.019467272
-0.10044708 -0.04993461 -0.030566463 -0.10305668 0.05142778 0.02491081 0.011947685 -0.061807342
0.01795747 -0.0129558975 0.039662696 -0.06870847 -0.0599715 -0.088214934 -0.06487623 -0.048537746
-0.08918853 0.01366537 -0.08743278 -0.049163748 0.036444202 -0.031321317 0.01215622 -0.0005604697
-0.010105871 -0.08551025 -0.09008366 -0.039708916 -0.13710181 0.006363123 -0.03356918 0.025006942
0.008550289 -0.020900453 0.13934867 -0.13586697 -0.07242542 -0.11162595 0.014710525 0.1005052
0.009251527 -0.06124359 -0.052534867 -0.0054595745 -0.0019951197 0.013508629 -0.054358892 -0.05516212
-0.16602759 0.05313073 -0.065621175 -0.12881944 0.015023289 -0.14502814 -0.128394 0.05354175
0.040403254 -0.08159486 0.10468043 -0.051320095 0.03216112 -0.120498404 -0.031021072 -0.0479721
-0.013294702 -0.023836477 -0.11341652 -0.10224917 -0.08514667 -0.11847497 -0.13674094 -0.02742881
-0.0008836698 -0.07809835 0.024392888 -0.08070535 -0.06638444 0.06558176 -0.054615323 0.023032354
-0.03575464 0.047583915 0.012665569 -0.09880588 -0.020633643 0.027549405 -0.088306785 -0.008132466
00000000: 7965 f43c 8910 2f3d 790a 1ebd 98b4 e23d
00000010: 8dd7 2dbd 9fbf adbd e0cb b63d c15f 01bd
00000020: 8c3c 383d 24bd a63d 4bd9 12bd dc86 5ebd
00000030: 8b95 d83d 255b 84bd 16f8 37bc b4e3 d43c
00000040: b40a da3d d76e 8ebd 9def 3a3d 08ca a4bd
00000050: 0388 473e 4989 7cbd 91de 0c3e 64ed 153e
00000060: 52a8 30bd 95eb 783c f730 a43d 93c7 e53d
00000070: cb74 143e e844 f93d be70 b03c cb18 173d
00000080: 40d5 cb3d 29da c93d a38f 8e3d 2a11 ae3d
00000090: 4606 813d 4bf6 413d e81b a53d e8b6 db3d
000000a0: dc79 4bbd f82e 7cbc 3732 953c d5e3 e93d
000000b0: f05c e93c 1015 8abd f06a 0e3e d8a3 493d
000000c0: 25c7 603d 6803 503d 6a1e 3b3d d97e a93d
000000d0: e6a7 9abd e3b9 663d c796 ecbc f5fb 7b3d
000000e0: a3aa 073e ec56 9b3c 0f10 2b3d 1ac1 b23c
000000f0: b6b9 ae3a 11e0 053e 5d61 a7bc e970 d5bc
00000100: dc2f d2bc e492 10bc a70c 963d e054 233e
00000110: a435 dd3d 723f 033e ab3f 373d ca27 c9bc
00000120: 2eb0 293d 3593 5ebc 22cf c5bc 449a 243d
00000130: 9c58 db3d 2e3b fbbc 767c c6bc 4d17 143e
00000140: ec08 c53d 4735 e3bc 0ac5 bd3c 6644 573d
00000150: 9d4a df3d 2e2d 90bc b683 5e3d 6717 c73d
00000160: f62f 5a3d 767f d03d 515e 133e 18a9 58bc
00000170: 52c6 d83c da89 cbbc abaf c33c 0e10 97bd
00000180: fbc3 293e 8cac 963d d9b0 3d3d abb9 22bb
00000190: 3daf f63b 3e2c 263e 925b 3e3d a4ce 9f39
000001a0: 6efa 083d eb91 263c d056 f33d 5d88 ac3d
000001b0: 3a52 b93c 5bff 05bb 0239 a83d 109c a93c
000001c0: 2636 963d 67ea 153e 72d1 e93c 0fbd 91bc
000001d0: f495 4abd a7ab 993d ec30 763d 9f03 033e
000001e0: d5ff 643c 6077 053e 0bc8 d93d 3b2e e43d
000001f0: 0316 a73d 9ec9 b63d 0168 a5bd 365a fd3c
00000200: 5d85 413d 82fa 24be 896e 323d 63b3 a7bc
00000210: c3cf 06be 2e15 26bd f60c 9b3c d61b 7e3c
00000220: e61e b3bd 6560 023d 0823 7dbd 9e4b a3bd
00000230: 2602 69bd 3e1b b8bd f1b6 75bd 49a4 8b3c
00000240: 84a6 09bd dfe5 893d 1e10 ae3c 15c9 d0bd
00000250: 91d7 b6bc 0fa3 3abd 0a41 2cbd a75f 2bbe
00000260: 9e02 59bd 7ade cebd 5cfb 6a3d f273 65bd
00000270: b744 a03b 09ef a0bd 4cf9 6abd 6839 a1bd
00000280: bba9 d7bd 4d6b d5bc 171f 833d f340 b9bc
00000290: 4acf a83c de77 473c 190a 793d d479 9fbc
000002a0: 33b7 cdbd 3c88 4cbd 8566 fabc 610f d3bd
000002b0: f0a5 523d c111 cc3c 39c0 433c b229 7dbd
000002c0: 8b1b 933c f944 54bc 5a75 223d 07b7 8cbd
000002d0: ada4 75bd 08aa b4bd d4dd 84bd 84cf 46bd
000002e0: 7aa8 b6bd b7e4 5f3c f50f b3bd ed5f 49bd
000002f0: 8446 153d c84a 00bd e22a 473c 7cec 12ba
00000300: 1893 25bc ff1f afbd c87d b8bd d1a5 22bd
00000310: 6b64 0cbe bf81 d03b d67f 09bd 5cdb cc3c
00000320: 8316 0c3c 6d37 abbc 6bb1 0e3e b620 0bbe
00000330: c753 94bd 259c e4bd 6a04 713c acd5 cd3d
00000340: b793 173c 8fda 7abd cd2e 57bd 3be6 b2bb
00000350: 8ec0 02bb 4c53 5d3c 6ea7 5ebd adf1 61bd
00000360: 2303 2abe 9c9f 593d 6564 86bd 3ee9 03be
00000370: 3e24 763c 4282 14be b779 03be 984e 5b3d
00000380: e27d 253d 351b a7bd b162 d63d 0535 52bd
00000390: 61bb 033d dec7 f6bd e71f febc 657e 44bd
000003a0: 06d2 59bc b744 c3bc ec46 e8bd 0368 d1bd
000003b0: 6161 aebd 01a3 f2bd d105 0cbe 62b2 e0bc
000003c0: 14a6 67ba 07f2 9fbd 98d3 c73c d948 a5bd
000003d0: 91f4 87bd bb4f 863d 51b4 5fbd 59ae bc3c
000003e0: 7573 12bd 5ae7 423d 3f83 4f3c bd5a cabd
000003f0: e307 a9bc 4aaf e13c 30da b4bd 093e 05bc
