evaluation_results/models/list_npi_2020_2_25-9_58_57-3657-False-False-1.0-True-0.0-True-False-True-False.pth (torch_old, 972357 bytes, 16 tensors)

Mprog.weight f4 [4, 256]
000000 be 9b 45 bf 71 d4 82 3f 9f 34 88 bf 3c e2 9d be
       -0.7719077 1.0221082 -1.0641059 -0.30836666
000010 72 5a 87 bf a5 74 83 3d 35 96 a1 3d 0b fe 89 3e
       -1.0574477 0.064187326 0.07889978 0.26951632
000020 df 24 c6 3f 38 3b 03 bd 81 e7 e5 bf 5b d3 74 bf
       1.5480002 -0.032038897 -1.7961274 -0.95635
000030 5b 69 aa 3e 19 7b 49 bf bf 53 11 bf e9 6d 23 3f
       0.33283505 -0.7870346 -0.5676841 0.63839585
000040 91 c2 e8 3f 11 18 b1 3f 07 6a cd bf 6c ba c3 3f
       1.8184377 1.383547 -1.6047982 1.5291266
000050 59 1b 06 3e 40 bf 88 bf 46 13 c4 3f ea a8 27 bd
       0.1309637 -1.0683365 1.5318382 -0.040932573
000060 9e dd 8b bd a8 8e dd be 42 f8 12 3f 2e c6 09 3c
       -0.068293795 -0.432729 0.5741006 0.008409066
000070 73 dc 94 3f b9 da b8 bf a5 8c 4b 3f 8c d3 8f 3e
       1.1629776 -1.4441749 0.7951148 0.28091085
000080 5e 7b 61 be 19 e6 8a bd b1 90 28 bf 24 63 5f 3e
       -0.22019717 -0.06782169 -0.6584578 0.21815163
000090 1f ba 26 3c 0f c3 c8 3d c0 b3 15 3d 3b 13 e0 3e
       0.010176211 0.098028295 0.036548376 0.43764672
0000a0 9d c7 9a 3f 91 2f 1a bf 64 1e cd bf 29 dc 5b 3f
       1.2092167 -0.6022883 -1.60249 0.8588281
0000b0 d5 a3 72 bf d5 bf 32 be e0 b5 8c bf 89 ef 27 bd
       -0.9478124 -0.1745599 -1.0993004 -0.040999923
0000c0 94 10 66 bf d0 d0 87 3f 06 c6 ea bd f5 2b b1 3f
       -0.89869046 1.06106 -0.11463551 1.384154
0000d0 f6 40 96 bf a2 dd 2c bd fc d8 04 40 5b eb 15 3e
       -1.1738575 -0.042203553 2.0757437 0.14640562
0000e0 cd 98 8d bf 39 38 93 3f 55 11 07 bf 8c 92 36 be
       -1.1062256 1.1501533 -0.5276082 -0.1782934
0000f0 d8 a9 88 bf 87 de e4 3f 4f 0d 2f bf 0a 64 9f 3d
       -1.0676832 1.788041 -0.6837968 0.07782753
000100 a1 2e 19 3f 8b 09 88 3e 69 94 05 c0 db 16 f4 be
       0.59836775 0.2656978 -2.0871832 -0.47673687
000110 d9 db e6 3e e1 f0 c5 bc 28 18 63 bf 2f 18 8c bf
       0.45089605 -0.024162712 -0.88708735 -1.094488
000120 73 33 f0 bd 1c 44 cf bf 3e 72 aa 3f d3 27 8e 3f
       -0.11728563 -1.619266 1.3316114 1.1105903
000130 43 c2 a2 bf 06 f0 30 3f df f0 19 3f 76 6c 5f 3f
       -1.2715534 0.69116247 0.60133165 0.87274873
000140 5f 13 46 3f 0e a7 1e bf 1d 39 5e be 08 d3 25 be
       0.7737331 -0.61973655 -0.21701474 -0.16193783
000150 bd 95 2a 3f b6 30 13 bf 15 1f 9e be 47 81 43 bf
       0.6663473 -0.574962 -0.3088309 -0.76369137
000160 3a 43 4f 3f 65 f2 c2 3e e0 41 15 3f 44 bc b4 3f
       0.80961955 0.38075557 0.5830364 1.4119954
000170 18 f7 b3 bd f5 7f d1 be 3d f9 fd 3e 14 92 ba be
       -0.08787364 -0.40917936 0.49604216 -0.36439574
000180 17 14 63 3d ad 3d 09 bf 3b 8e 56 be 52 74 80 3e
       0.05543908 -0.53609735 -0.20952694 0.25088745
000190 a1 5b 36 bf 3f 85 8c 3f 85 6b 4d 3f f0 32 70 bf
       -0.71233565 1.0978163 0.80242187 -0.93827724
0001a0 ca 75 35 3f fa 7c 6f 3f f3 4a 1c 3e 65 3e bb bf
       0.70882857 0.93550074 0.15262966 -1.4628416
0001b0 10 d6 e1 3f f8 64 6f be 04 4b 80 3d b0 3b 72 3f
       1.7643452 -0.2337836 0.06264308 0.94622326
0001c0 34 32 68 3e a5 97 ca bf 2e 03 0a bf 2a 76 65 bf
       0.22675401 -1.5827528 -0.539111 -0.8963343
0001d0 8e 84 86 be 70 20 27 3e 20 6c e5 bf 7c 33 55 3a
       -0.26273006 0.16320968 -1.7923622 0.0008132977
0001e0 c8 50 19 bf c7 37 83 bf b6 03 3b bf ee 1f 01 c0
       -0.5988889 -1.0251397 -0.7305254 -2.0175738
0001f0 cd 21 7b bf f9 f5 b5 be 7b 05 0e 40 ab 79 98 3f
       -0.9809845 -0.35539225 2.2190845 1.191213
000200 79 6f 14 be 35 2e e1 be 0c 30 9c 3e 33 37 e3 bf
       -0.14495648 -0.43980566 0.30505407 -1.775122
000210 d0 7e e0 3e 19 73 31 bf ec 7d b3 3f 59 e8 83 bf
       0.4384675 -0.6931625 1.4022803 -1.0305282
000220 c2 26 aa 3f 34 5e 87 3f 2d 5c 28 3f 9b db 47 bf
       1.3293078 1.0575624 0.6576565 -0.78069466
000230 06 df a0 3f b0 23 18 3f f8 5c b9 3f a8 c4 e2 3e
       1.2568061 0.59429455 1.4481497 0.44290662
000240 7f 16 b2 be d8 0b 33 3e d2 16 c5 bf 3a f4 b1 3e
       -0.34782788 0.17484987 -1.5397589 0.34756643
000250 aa 4b 95 bf 8b ee cd 3d fe 7a 2b 3e 35 b8 be 3f
       -1.1663716 0.10055264 0.16746137 1.4899966
000260 00 d7 cb 3e b3 65 c6 bf a3 b9 e6 be b6 d4 4f bf
       0.3981247 -1.5499786 -0.45063505 -0.81183946
000270 c2 e5 8b be c7 3c 0b 3f 55 91 cc bd 5a d1 cb 3e
       -0.2732373 0.54389614 -0.099886574 0.3980816
000280 e1 1b a5 3f 50 6c 97 bf 26 a9 dc bf 36 54 3c 3f
       1.2899133 -1.1829929 -1.723912 0.73565996
000290 0c 9c d5 3f 0a 7c 59 bf d7 2d b0 bf e6 09 4a be
       1.6688247 -0.84954894 -1.3763989 -0.19730338
0002a0 28 89 92 3f c8 8c cd 3f e8 4c ab be 4d 32 e3 bf
       1.1448107 1.6058588 -0.33457112 -1.7749726
0002b0 15 97 9f be 1a 41 3e bf 7e a2 c7 3e c6 d5 1a 3f
       -0.31169954 -0.7431809 0.3899116 0.6048244
0002c0 e0 58 68 3f 5e ef 65 3f 44 44 8d be 8e d7 59 3f
       0.9076061 0.8981837 -0.27591145 0.85094535
0002d0 5c 75 10 40 45 1d a3 3f 3e 0f c1 3f ee f1 eb bc
       2.257163 1.2743307 1.5082777 -0.028801885
0002e0 c0 8c 20 bf 96 37 8d 3d d5 a7 cc bc da b0 88 3d
       -0.6271477 0.06895368 -0.024982372 0.06674357
0002f0 18 7d 8d bf c1 3d 98 3f a7 80 f9 3e 90 e7 16 bf
       -1.10538 1.1893846 0.48730966 -0.58947086
000300 11 60 d2 3f 10 b7 1c bf 4d 4c 0d 3f 1b d4 63 bf
       1.6435567 -0.6121683 0.5519455 -0.8899552
000310 67 68 ce bf 5c 68 fb 3e 7e c2 a2 3f 1d 75 31 bf
       -1.6125611 0.49103057 1.2715604 -0.69319326
000320 03 a1 57 be 50 53 20 bf 42 de a8 3d 1e 36 a2 3e
       -0.21057515 -0.62627125 0.08245517 0.31681913
000330 a5 d5 d1 3e fc d5 cc 3d 90 c0 81 bf a8 7b a1 3e
       0.4098331 0.10001752 -1.013689 0.31539655
000340 bb 39 d2 3f 35 27 15 40 fe af ea bd c4 cc 86 3f
       1.6423868 2.330518 -0.11459349 1.053124
000350 3e cd 75 3f 97 49 fa 3f 89 05 c6 bf 2d 32 15 3f
       0.960163 1.9553708 -1.5470439 0.5827969
000360 d3 b1 93 3f e4 77 6c bf 95 78 8d 3f 94 51 52 3f
       1.1538643 -0.9237044 1.1052424 0.8215573
000370 fb 37 7a bf a0 f0 e6 bd 6f d8 4c 3f 89 25 3d 3e
       -0.9774167 -0.11276364 0.8001775 0.1847135
000380 09 a2 9e 3e 2c 93 69 bb 52 ab 0f 40 ca 68 cc 3e
       0.30982998 -0.00356407 2.2448316 0.39923698
000390 fa 99 10 bf 15 dc 9c bf a9 03 92 bf dd 90 a4 be
       -0.5648495 -1.2254664 -1.1407367 -0.32141772
0003a0 ce 69 0e bf 50 bd 53 bf 38 71 9c 3e d7 4e bb bf
       -0.55630195 -0.8271074 0.3055513 -1.4633435
0003b0 18 93 15 bf 66 35 94 3f 7e b6 63 3d 97 fb 30 be
       -0.5842757 1.1578796 0.05559396 -0.17283474
0003c0 38 dc aa bd ff 11 8e bf 02 4a 0b c0 14 48 06 3f
       -0.08342785 -1.1099242 -2.176392 0.5245373
0003d0 45 a7 fd bd 6d 93 97 be 70 37 5d 3e 75 78 0a be
       -0.1238542 -0.29604664 0.21603179 -0.13522513
0003e0 ca 80 4b 3f 85 56 ab bd e8 fa 1e 3f 74 cf 6f 3f
       0.7949339 -0.08366112 0.621016 0.93675923
0003f0 f0 26 ce 3f e5 d0 e3 3f 3e bf 26 3e ae 61 7c bf
       1.6105633 1.7798125 0.1628389 -0.9858655

encoder.l1.weight f4 [100, 64]
000000 b8 32 7e 3e cc 6b 7b bd 9e ff 0a 3c 53 71 34 bd
       0.24824035 -0.0613821 0.008483795 -0.044053387
000010 59 9e 63 3d fb 7b 27 3d 3b a9 e9 bc 87 ec d1 3c
       0.055570934 0.04088972 -0.028523078 0.02562548
000020 e5 cd 07 be d3 9b 42 bd 19 d8 4f be f1 29 38 3d
       -0.13262136 -0.047511887 -0.20297278 0.044961873
000030 23 4a d2 3c 9d c4 d9 3d c3 6d 03 3d 5a 2d 14 3e
       0.025670117 0.10633204 0.0320871 0.14470425
000040 df e9 57 3d 60 20 31 3d 06 e5 16 3d 19 42 d9 bd
       0.05271327 0.043243766 0.036839508 -0.1060831
000050 b2 9b 9a 3d 62 74 b8 3d 27 21 38 bc 0a 84 db 3c
       0.07549228 0.09006573 -0.011238373 0.02679636
000060 47 6d 50 3e b6 35 90 3d 58 15 19 3e ea 5b 47 3d
       0.20354186 0.070414945 0.14949548 0.04867164
000070 02 c7 a6 bd 41 a0 44 bd f5 65 db 3d 38 86 9c 3b
       -0.081434265 -0.048004393 0.10712806 0.0047767423
000080 76 08 6e bd 76 f5 5c be 2d c9 84 bd 6d 2b 21 be
       -0.058113538 -0.21578011 -0.06483684 -0.15739222
000090 77 58 aa 3d 87 bd 22 be ef 81 64 3b 91 27 c4 bb
       0.083176546 -0.15892611 0.0034867486 -0.005986162
0000a0 de 52 2e 3e 49 4f 18 3e 62 e3 aa 3d 0a 6c 56 bd
       0.17023799 0.14873995 0.08344151 -0.052349128
0000b0 aa 15 5f 3e 88 f4 d5 bd 16 af 94 bd 46 f8 a4 bd
       0.21785608 -0.10447031 -0.072599575 -0.08055167
0000c0 a4 3c c0 be ad 48 ee 3d cd 2f 71 3c b6 c3 03 3e
       -0.37546265 0.116349556 0.014720869 0.12867627
0000d0 24 25 e8 3d a6 4d 05 3e 7d 7d 84 bd 08 b3 35 3d
       0.11335209 0.13017902 -0.064692475 0.04436019
0000e0 13 ca 1d 3e 48 c5 df be ab d2 41 be ba 13 59 3e
       0.15409116 -0.437052 -0.1892802 0.21198931
0000f0 20 30 ba be 65 34 1a 3e 59 63 7e bd 99 dd 68 3e
       -0.3636484 0.1505905 -0.062106464 0.22740783
000100 8e d9 48 3d f1 45 22 3e 36 80 56 bd f7 e6 0b 3e
       0.0490356 0.15846993 -0.052368365 0.13662325
000110 46 1c a1 3d c1 9a 86 be 08 88 2d 3e 3e 65 b0 3d
       0.07866721 -0.26289943 0.16946423 0.086130604
000120 82 f2 09 3d 9d 27 32 bc 18 55 14 be 5a d2 9d 3d
       0.03367854 -0.010873702 -0.14485586 0.07706137
000130 3c d2 29 3e 74 78 d0 3d 7b 00 06 be 32 46 0e 3e
       0.16584104 0.101792246 -0.13086121 0.13893965
000140 4e 4b 00 3e 94 7c d9 bb 9e c4 73 ba 48 78 b6 3d
       0.12528726 -0.0066371653 -0.00092990126 0.089096606
000150 af d1 1b 3d 2e 6d 50 3c 6d 51 3b bd 12 d7 a3 bd
       0.038041767 0.012721343 -0.04573195 -0.08000006
000160 09 d4 25 3e 42 62 7d 3c 86 3e 37 3e 70 a4 db 3d
       0.16194166 0.015465321 0.17894945 0.10724723
000170 a6 47 3c 3e 71 bd b0 bd 1a 0c 4b 3e cd 11 34 be
       0.18386707 -0.08629883 0.19828835 -0.17584915
000180 44 55 04 be 31 68 b5 be 61 6a 0e be 71 79 16 be
       -0.12923151 -0.35431054 -0.13907768 -0.14694764
000190 d9 a3 bf 3c 9b b1 eb 3c 7f d4 c2 bd 73 5f 96 3d
       0.023393558 0.028771212 -0.09513187 0.07342424
0001a0 74 28 44 3d 16 9f cd bd 85 3c bf be b5 bc c3 be
       0.04789014 -0.10040109 -0.3735086 -0.3822991
0001b0 3d 1f 60 be 07 38 e4 bd cc 9a e5 3d da 4c 35 3d
       -0.21886916 -0.11143499 0.11211166 0.044262744
0001c0 66 c3 37 3e f6 df 06 3d e3 c5 25 be d6 c7 1f bc
       0.17945632 0.03292843 -0.16188769 -0.009752234
0001d0 08 78 7c bc 96 6b d2 bc 00 e1 b0 3d fe 02 40 3d
       -0.015409477 -0.025686067 0.08636665 0.046877854
0001e0 31 da 33 bd 43 98 fb be de df 42 3d 31 c5 c7 3d
       -0.043909255 -0.49139604 0.047576778 0.09754408
0001f0 ec c6 e4 be f5 76 5c 3e 21 31 c1 3d 3a 7c 28 3e
       -0.44683015 0.21529754 0.09433199 0.16453639
000200 ff 98 05 3e 6c f6 ca 3c 8a 4c 31 3e f0 d3 10 3d
       0.13046645 0.024775706 0.17314354 0.03535837
000210 79 02 e1 be ba c9 95 be d1 f0 b6 3e ea 57 86 3e
       -0.439472 -0.29255468 0.35730603 0.26238948
000220 6a 02 d6 bc ae 21 c4 be 92 77 e5 be ef a7 43 3d
       -0.026124198 -0.38306946 -0.44817787 0.047767576
000230 d9 c1 e0 bd 64 09 b1 3d a1 d3 92 3e da 05 05 bf
       -0.109744735 0.08644369 0.28677085 -0.51962054
000240 a4 f8 4d bf db 45 08 3e b9 75 3b 3e ef 97 6b 3e
       -0.8045752 0.13307898 0.18306626 0.23007177
000250 5e 2e 82 bd 04 d3 5b 3d e0 48 82 3d 36 43 c0 3d
       -0.063565 0.053668037 0.06361556 0.093878195
000260 c7 9e d4 3d af 37 1b be c7 8c ae be 0e 08 39 3d
       0.10381847 -0.1515796 -0.3409178 0.045173697
000270 37 e5 3b 3e bf cc ab bd 86 fd 87 bc 78 e9 eb 3d
       0.18349157 -0.083886616 -0.016600382 0.1151914
000280 ef a4 be 3b c6 81 7b bd fa ac e4 3d 3f 6e 25 3d
       0.0058180015 -0.06140306 0.11165805 0.040388342
000290 2a 2e 00 be bc 67 3e be bc 77 66 3d 88 d5 af bd
       -0.1251761 -0.18594259 0.05626653 -0.0858565
0002a0 11 77 06 bc b3 dc d6 bd 32 c3 79 3e 68 19 c2 bd
       -0.008207099 -0.10491314 0.24390867 -0.09477502
0002b0 27 fe 02 be 91 ac 2f 3e a6 ac d7 bc f2 94 c9 3d
       -0.12792264 0.17155673 -0.026327442 0.09842862
0002c0 83 c8 ad 3d 7b a7 ba bd 4d 2c 5d 3d 62 23 34 3d
       0.0848551 -0.091139756 0.053997327 0.043979056
0002d0 af f9 09 be a3 c0 b8 3d 2f 1c bd 3d 6c 83 77 3d
       -0.13474153 0.090211175 0.09233891 0.060428068
0002e0 25 00 fc bd df f2 14 3e c6 bc 11 3e 7e 47 bd 3d
       -0.12304715 0.14545773 0.14232168 0.09242152
0002f0 ad 8d f4 3c 84 2c 0d 3c 04 56 88 3d a6 3b bb bc
       0.029852713 0.00861657 0.06657031 -0.022855591
000300 b9 7b 3a be f2 01 84 3d 3c f4 70 3e c1 42 89 3e
       -0.18211259 0.064456835 0.23530668 0.26808742
000310 50 9d 0a 3d 80 11 0c be 58 77 fe be fa 2b 3f bf
       0.03384143 -0.1367855 -0.49700427 -0.7467648
000320 7e ae d7 3d 38 eb 59 3e 99 8c 47 3e e2 ec e0 3d
       0.105313286 0.21281135 0.19487227 0.10982682
000330 45 1e d2 3d 41 a7 11 3d 4b 35 99 be 49 7f 31 bf
       0.1025968 0.035559896 -0.29923472 -0.69334847
000340 91 0e 83 be 54 11 af bd 74 2e b9 3e 2d 2f cd 3d
       -0.2559705 -0.08548227 0.36168253 0.10018764
000350 9f 9b 02 3e de f0 31 3d 87 69 4a be 42 81 3e be
       0.12754677 0.0434426 -0.19766818 -0.18603995
000360 6e 8b 30 be 2d ed 20 3e fd 78 9d 3d 14 d0 86 3d
       -0.17240688 0.15715475 0.07689092 0.065826565
000370 3e 37 83 3d 3d c9 39 3c f4 cb dc bc bb 0d 1d 3e
       0.06407021 0.011339483 -0.026952721 0.15337269
000380 0e 59 ba 3d db 44 8f bd 09 59 3b bd b8 14 bc 3c
       0.09099017 -0.06995555 -0.045739207 0.022959098
000390 23 d1 63 bd ca 93 c3 bd d7 ca 34 be 82 a5 68 3e
       -0.05561937 -0.09549673 -0.17655502 0.22719386
0003a0 d9 6e b5 3d 57 a1 12 3e f8 84 ee bc f6 e6 13 3e
       0.08859033 0.14319359 -0.029116139 0.14443573
0003b0 5c b2 64 3e 28 1d af bd 61 3e e6 3d 20 61 54 be
       0.22333664 -0.08550483 0.112423666 -0.20740175
0003c0 56 f2 23 3d 57 66 97 bc 1a b9 68 bd 92 e1 0c bc
       0.04002603 -0.018481417 -0.05681715 -0.008598702
0003d0 e4 88 7a bd 09 1a 3c bd 1c 90 51 3c d8 2d 81 3d
       -0.061165705 -0.045923267 0.012790706 0.06307572
0003e0 b3 0c 34 bd c1 29 98 3c 6f 6e c5 3c 54 35 6a bd
       -0.043957423 0.018574597 0.02410051 -0.057179764
0003f0 4b 85 1c bc c9 e7 d9 bd a4 06 6b 3c 83 13 b2 3d
       -0.009553264 -0.10639913 0.014344845 0.08695128

encoder.l1.bias f4 [100]
000000 c2 d7 00 3e a0 ca b7 3c 32 c8 b2 3b cc 04 43 3d
       0.12582305 0.022435486 0.005455994 0.047611997
000010 71 f6 21 bd 44 8e e7 bc b8 49 18 3d 66 0a 20 bd
       -0.039541665 -0.02826608 0.03717968 -0.039072417
000020 02 7f f7 bc 79 9f e1 3d 4d a8 22 bc 4c 66 7c 3d
       -0.03021193 0.11016745 -0.009927821 0.061620995
000030 3a 58 87 bd b0 11 97 bc 6e 07 d1 3d 89 d5 12 3e
       -0.06608625 -0.018441051 0.10206495 0.1433927
000040 ac 83 7b bd 85 0a aa 3b 23 5e c4 3d ff 23 60 bd
       -0.06140487 0.0051892423 0.09588268 -0.05472183
000050 9c 19 28 bd eb f4 93 3d 49 de e1 3b b5 5a 95 3d
       -0.041040048 0.07224449 0.0068929535 0.072926916
000060 cf 94 b8 3d 97 f2 fb 3d 0d 8b b8 3d b2 6d a5 3c
       0.09012758 0.1230213 0.09010897 0.020193908
000070 a5 ad 8b bd 77 b7 80 3d 0f e6 a9 bd b6 a3 87 3d
       -0.068202294 0.06284993 -0.08295833 0.06623022
000080 9d 4b 18 3c d1 f1 4e 3d 72 bd 52 bd 43 30 7f 3d
       0.009295371 0.050523583 -0.0514502 0.062301885
000090 70 5f 51 bd d2 4b d2 bc 23 6d f7 b9 0c 65 7a 3d
       -0.051116407 -0.02567092 -0.00047192824 0.061131522
0000a0 3b d4 30 3c 40 5c 73 3c 60 be a6 bd 27 7c ae 3d
       0.010792787 0.014853537 -0.0814178 0.08519774
0000b0 88 56 63 3d a5 0e e0 bc 74 3c 96 3c 56 94 62 bd
       0.055502445 -0.027350733 0.018339373 -0.055317245
0000c0 9a b5 1b bd f9 f8 6a 3d 92 0b 01 bc 82 cd 46 bb
       -0.038014986 0.057366345 -0.007876294 -0.0030334895
0000d0 1d 1c b9 3d 21 c1 f7 3d af 66 ae bc 1d 23 89 3d
       0.09038565 0.12097383 -0.021289198 0.066961505
0000e0 cf 44 33 bd ee fa b1 bd 5a 3e 0f 3e bd fc 9b 3d
       -0.043766793 -0.08690439 0.13988629 0.076165654
0000f0 7e fe c8 3c 83 d7 5a bd c1 07 b1 bc df b3 fd bc
       0.024535414 -0.053428184 -0.021610143 -0.030969558
000100 33 ab 7d 3d b9 72 0e bd ad 99 a4 3c 74 cb 59 3d
       0.061930846 -0.034777377 0.02009281 0.053172544
000110 c2 9d 4b bc c9 7a ea 3c 23 e3 b8 3c a8 fe 02 bd
       -0.012427749 0.028623002 0.022569245 -0.03198114
000120 04 af 12 3d 8c 43 7c 3c 8a 54 3f 3d fc 2d 12 3d
       0.03581144 0.015396964 0.046711482 0.035688385
000130 e7 24 2e 3d 84 01 2e bd 40 8d 35 bd 78 eb 9b bc
       0.04251566 -0.042481914 -0.04432416 -0.019033179
000140 f4 ad be ba 84 c0 d2 bc ec 54 39 3d 05 40 e9 bd
       -0.0014547692 -0.025726564 0.045247003 -0.11389164
000150 74 00 92 3c 15 9e 7a 3d e9 97 02 3d d5 71 54 3d
       0.017822482 0.061185915 0.031883154 0.05186637
000160 83 32 11 3d 44 fc 16 3d 0d 1c f0 3d 2f bb 8f 3d
       0.035448562 0.036861673 0.117241 0.07018124
000170 53 69 44 3e 85 83 2d bc fc ad 8f bd e1 a1 cd 3d
       0.19180803 -0.010590439 -0.07015607 0.100406416
000180 89 d5 09 bc ff 35 c2 3d 7a 88 df 3d 5f 04 da bd
       -0.008412727 0.09482955 0.10914703 -0.10645365

encoder.l2.weight f4 [32, 100]
000000 5d 83 cf 3c e6 31 db bb 46 68 d2 be 5b 57 08 3f
       0.025331194 -0.006689298 -0.4109518 0.53258294
000010 8b 97 b9 bd 95 e8 3a bd b8 f8 a7 be 2f b8 39 3e
       -0.09062108 -0.045631964 -0.32806945 0.18136667
000020 c4 e2 9f 3e 29 2c 93 3e 81 76 b9 3c d4 5a 6d 3e
       0.31227696 0.2874463 0.022639515 0.2317918
000030 98 1f c6 bd 3b 40 15 3d 35 be d6 3e 7c 20 21 be
       -0.09673995 0.036438208 0.4194199 -0.15735048
000040 28 49 27 3e cd dd e0 3e a1 fd 06 3c 83 bd d3 3e
       0.163365 0.4391922 0.008239181 0.41355523
000050 2e b3 ca 38 f3 c9 14 3e 9a ba a2 3e 2c 74 d7 be
       9.6654854e-05 0.14530163 0.3178299 -0.4208082
000060 cd f6 24 3e e0 8f b0 3d df 45 e2 bd b1 94 a2 be
       0.16109772 0.08621192 -0.11048483 -0.31754068
000070 07 ab 6f 3e 35 69 de 3d 0b df 53 be ae ae 92 bc
       0.23405086 0.108599104 -0.20690553 -0.01790556
000080 50 43 92 3e 9c e5 14 3c 33 1b ab 3d e7 f4 c8 be
       0.2856698 0.009087946 0.08354797 -0.39249346
000090 a6 c4 07 3e 53 38 b3 bd 94 b3 a1 be d0 49 d4 3e
       0.13258609 -0.08750977 -0.3158232 0.41462564
0000a0 fa 08 4c 3e 1f 2c f7 bd 12 b5 93 bd be fa 5a bd
       0.199253 -0.12068962 -0.07212271 -0.053461783
0000b0 f3 b9 0a bd 79 0e e9 3e 13 fe 9f be ba 6e 22 3e
       -0.03386874 0.45518854 -0.3124853 0.15862551
0000c0 0f 0a a9 3d 1f 86 45 bd 92 c3 2e be 87 76 8f be
       0.08253872 -0.04822361 -0.17066792 -0.28020117
0000d0 fe f7 49 3e 86 21 8c be 24 44 4f 3e 24 52 45 3c
       0.19723508 -0.27369326 0.20240837 0.01204351
0000e0 62 cd 81 3e bf 5b f5 bd 7b 81 44 be e5 79 0c bf
       0.25352007 -0.1198039 -0.19190018 -0.54873496
0000f0 2d cc b3 3d c2 d8 0f be c6 ef 84 be da e6 00 bc
       0.08779178 -0.1404753 -0.25964183 -0.007867539
000100 b8 a0 8f 3e a0 09 92 3e 35 ab a2 3e 50 45 89 3e
       0.28052306 0.28522968 0.31771246 0.26810694
000110 dc fa 49 3e d0 37 5c 3d bf 47 8b bd b6 6f 2c be
       0.19724602 0.053764164 -0.06800794 -0.1683949
000120 fd c8 13 be e1 fa 82 bd b3 42 b9 bd 56 2a de 3e
       -0.1443214 -0.063955076 -0.09045925 0.43391675
000130 90 be 90 3e 46 d2 d2 3e 27 8c ae be 4f a1 af be
       0.28270388 0.4117605 -0.34091303 -0.34302756
000140 8c 2a dd be 21 ce 72 3d 27 76 04 be e9 f7 b2 be
       -0.43196523 0.05927861 -0.12935697 -0.34954765
000150 5d f5 92 be 18 e8 da 3d bd 3c 31 3e 01 08 dd 3e
       -0.28702822 0.106887996 0.17308326 0.4317017
000160 69 ae d0 3d 74 a1 9c bd 76 a4 6b 3e 7a e8 c4 3b
       0.10189516 -0.07647982 0.23011956 0.0060091587
000170 32 73 0c be 32 7e 96 bd 2f 1d 47 bd b2 1f 45 3f
       -0.13715819 -0.073482886 -0.048611816 0.7700149
000180 b8 7e ee bd 54 55 b7 3e 73 ab 08 3f 54 a6 31 bd
       -0.116452634 0.35807288 0.5338661 -0.043371513
000190 21 e5 19 be 30 cc 57 be 35 f9 f1 3d 67 57 bf 3d
       -0.15028812 -0.21073985 0.118151106 0.093428425
0001a0 fb b3 00 3e 46 e5 e9 be 1f 82 cd bd 72 45 4f 3c
       0.12568657 -0.45682734 -0.10034584 0.012650834
0001b0 b9 f8 31 3d 29 69 f0 3d 29 db ce bd f0 17 9b 3e
       0.04345009 0.11738808 -0.10100395 0.302917
0001c0 c5 fd 02 3f bd 82 56 3d 1a 17 71 bd ba a3 99 bd
       0.5116847 0.052370775 -0.058859922 -0.075019315
0001d0 4a 95 6b bd 68 be 93 3e cb 62 27 3e 32 41 f4 3e
       -0.05751542 0.28856206 0.1634628 0.4770599
0001e0 2c 59 14 be b1 e5 a5 3e 41 b0 03 be a7 a4 46 3e
       -0.14487141 0.32401803 -0.12860204 0.19398747
0001f0 07 d6 5e 3d 8c e0 a7 3c 48 0d 58 3d 37 65 25 3d
       0.05440333 0.020492814 0.05274704 0.04037973
000200 8d 95 b9 3e c2 08 40 be c8 e2 03 be a4 f1 b6 3e
       0.3624691 -0.18753341 -0.12879479 0.35731232
000210 40 d7 6e bd 5e 12 ea be 6e 3b 97 bd 4b 8f 61 3e
       -0.058310747 -0.45717138 -0.07384382 0.22027318
000220 3d 3b 06 bf e8 d0 90 be ba 8b bb 3e 76 d6 9c 3d
       -0.5243414 -0.28284383 0.3663004 0.07658093
000230 8b e1 2d bc c5 09 a3 be f1 57 e9 be e3 6a 43 3e
       -0.010612856 -0.3184339 -0.45574906 0.19083743
000240 b9 fc ec 3d 7f 41 8c be 95 9d fe 3c c0 e6 82 bd
       0.115716405 -0.2739372 0.031081 -0.06391668
000250 cc 9a a4 3e e9 75 98 3e be eb 44 be 37 b3 ef be
       0.3214935 0.29777458 -0.19230554 -0.46816418
000260 6f 59 3f 3e 74 67 b9 bd 30 c9 68 bd 48 58 97 3c
       0.1868646 -0.09052935 -0.056832492 0.018474713
000270 54 64 46 be c8 7f 0e be 8a 08 c8 3d a3 fe 75 3d
       -0.1937421 -0.13915932 0.09767254 0.060057294
000280 32 ef 96 3e 0b c5 0f be a7 3e 79 3d 0b f1 3c bd
       0.29479367 -0.1404001 0.060850766 -0.046128314
000290 3a 34 70 be aa df 22 3e 2b dc 33 3f 5b 1e 29 be
       -0.23457423 0.15905634 0.70257825 -0.16515486
0002a0 38 8f 90 bc 03 58 8a bc 8d b2 1c be d9 46 15 3e
       -0.017646417 -0.01688767 -0.15302487 0.14577807
0002b0 2a 48 07 be b5 8c 42 3d ed 76 08 3e b6 41 92 bb
       -0.13211122 0.04749747 0.13326617 -0.0044633998
0002c0 aa df aa 3d 20 92 d6 bd 52 6e c8 be dd d3 38 be
       0.08343442 -0.1047709 -0.39146668 -0.1804957
0002d0 a2 98 e1 be 65 2d a3 3e 92 0e 06 3c 93 0c 5e 3d
       -0.44061762 0.3187057 0.008182185 0.05421121
0002e0 e1 cc 69 be a7 7f 1a 3d 07 27 06 3d 72 82 8b bd
       -0.22832061 0.037719395 0.032752063 -0.0681199
0002f0 ba 22 0d 3f 46 9b a5 3d 50 ed b0 3e f7 70 8f be
       0.55131114 0.08086257 0.34556055 -0.28015873
000300 47 14 96 3e 05 7a 58 bd 96 43 07 3f 09 17 4d be
       0.29312345 -0.052850742 0.528375 -0.20028318
000310 b6 7e 54 be 0f c7 f5 3d 6e b8 11 bd 24 6f e9 bd
       -0.20751461 0.12000858 -0.035576276 -0.113981515
000320 9c 9c 1f 3e a3 36 e8 3e be 18 ca be ca 0b 4a bd
       0.15587085 0.45354185 -0.39472002 -0.04932765
000330 b0 fc 87 bd 34 07 e5 3e 52 c2 ff bc 37 10 a4 be
       -0.06639993 0.44732058 -0.031220589 -0.3204362
000340 22 88 bd 3d d7 95 7a be 49 b7 45 3e b3 28 be be
       0.09254481 -0.24471222 0.19308199 -0.37140426
000350 1a bd 83 bb 01 3f 5b be 7d 19 e3 3d 64 34 55 bd
       -0.0040203454 -0.21410753 0.11088846 -0.052051917
000360 69 1a 32 be 78 b8 94 bd 87 dd 94 be 61 2c 21 be
       -0.17392887 -0.07261747 -0.29075262 -0.15739585
000370 f1 7a 46 3d fd 28 5d be 9b 88 0b be 7b 7e 70 be
       0.04845709 -0.21597667 -0.1362633 -0.23485748
000380 05 3b 6c 3d 1f 98 13 3e 77 44 44 be 76 50 15 be
       0.057673473 0.14413498 -0.19166742 -0.14581475
000390 99 7e 91 3c b3 4f 12 3e 32 be 86 3e 37 bf 68 be
       0.017760562 0.14288215 0.26316983 -0.22729193
0003a0 73 97 78 bd c0 33 1f 3e 23 82 a6 3e 16 fc 13 bd
       -0.06069131 0.15547085 0.3252116 -0.03612908
0003b0 f0 4e 98 3e 3e 18 9d 3e 18 48 c0 be 92 35 ae bd
       0.29747725 0.30682558 -0.37555003 -0.085063115
0003c0 30 26 82 bd 15 51 ce 3e 9d 4e de 3e e5 e4 da 3c
       -0.0635494 0.40296236 0.43419352 0.026720474
0003d0 0d 4c d8 3e b8 94 83 3e 27 5e 75 bd 8d 28 fa bd
       0.42245522 0.256994 -0.059904244 -0.12214766
0003e0 ef 0c 42 be eb 8e 74 be ee 4f 7f 3b f2 62 bf 3d
       -0.18950246 -0.23882644 0.0038957554 0.09345044
0003f0 9c d0 4f 3e 5a 5e 7f ba db 22 12 be d1 5a 30 3e
       0.20294422 -0.00097415375 -0.14271109 0.17222144

encoder.l2.bias f4 [32]
000000 f8 62 1a 3d d9 fa b5 bc b2 f0 5f 3d b9 7f 4e be
       0.03769204 -0.02221434 0.054672904 -0.2016591
000010 51 ee 0a be 01 ca 81 3c dc ba 30 bd 52 8d c6 3d
       -0.13567473 0.015843393 -0.043146953 0.096949235
000020 1f cd 1b 3d 52 ac 18 3e d7 39 85 bc a7 96 72 3e
       0.038037416 0.14909485 -0.016262932 0.23690282
000030 34 b0 0a 3d 19 7c 05 bd 0f df e0 3d e9 be 01 be
       0.033859447 -0.032589052 0.10980045 -0.12670483
000040 a4 bd ce bc d6 7e d0 3c 1b 26 f6 3d 4f 85 f4 3d
       -0.025236912 0.025451105 0.12018987 0.11939489
000050 5d 82 48 3b 33 25 4d bc 12 48 20 3e d9 2d 84 bb
       0.003059528 -0.012521076 0.15652493 -0.004033786
000060 0b 5f f6 bd 59 86 81 bb 6f 34 eb bc bd 9c dc bc
       -0.12029847 -0.003952783 -0.028711526 -0.026930207
000070 70 8b 7e bd b0 8a 27 3d 37 eb da bb 00 0f 9d bc
       -0.062144697 0.040903747 -0.006680872 -0.019172192

lstm.weight_ih f4 [512, 288]
000000 4f 52 ff 3d c3 b6 a2 3c 9c 55 a4 3d 8f 39 82 be
       0.12466871 0.019862538 0.08024141 -0.2543454
000010 f7 e5 82 3e ca 50 1b be b7 9c 15 be fe 14 b3 3e
       0.25566074 -0.15167537 -0.14610563 0.34976953
000020 1a f0 09 3e 6d 69 85 3c 5d 22 9a 3c bb 51 77 be
       0.13470498 0.016285622 0.018815214 -0.24152271
000030 b9 c9 e7 bd 52 16 5c be d0 01 8c bc 38 8d b5 3d
       -0.113177724 -0.2149289 -0.017090708 0.08864826
000040 84 87 99 3e 5e 17 89 3e da 69 0b be dc 3a 65 3e
       0.29986203 0.2677564 -0.13614598 0.22385734
000050 da 42 b9 be c9 30 65 be a6 89 97 be b5 20 6c 3e
       -0.36183816 -0.22381891 -0.29597205 0.23059352
000060 51 f7 1e be 22 f9 88 3e 3d 72 a6 be 35 96 4f bb
       -0.15524031 0.26752573 -0.32509032 -0.0031675224
000070 f3 92 91 bc 26 f6 cf bd 7d a3 13 be fc 7c 0d 3f
       -0.017770266 -0.10154371 -0.14417835 0.55268836
000080 64 25 f1 3c 76 03 0e 3e ac 77 da bd fe 5c 3e bc
       0.029436775 0.13868508 -0.10667357 -0.011618851
000090 86 b9 1b be 9a 19 1d 3e a7 4f 00 3e 63 1b ee bd
       -0.1520749 0.15341797 0.12530385 -0.11626317
0000a0 06 29 c0 3d f9 60 73 3c 2a 49 1e bd cd 99 2e be
       0.093828246 0.014854663 -0.038643993 -0.17050858
0000b0 cb f0 a1 3d 41 db 7d 3d 5b 59 a0 bc 72 18 2b 3e
       0.07907256 0.061976675 -0.019573858 0.16708544
0000c0 75 5e 0d 3e 97 14 52 3e 63 26 02 be b0 29 01 be
       0.13805564 0.20515667 -0.12709956 -0.12613559
0000d0 b6 25 8b bd 94 e0 1c be 16 7e 7b 3d 88 4c b9 3d
       -0.06794302 -0.15320045 0.06139954 0.090478
0000e0 6b e6 ed bd ae 8d 43 3d 72 92 c0 3b 78 31 4c bd
       -0.11616214 0.04774254 0.0058768326 -0.049851865
0000f0 a9 27 71 3d d6 21 23 be 81 3c 41 3e 16 a0 0d 3e
       0.058875713 -0.15930876 0.18870737 0.13830599
000100 ca 29 17 bd fd 14 41 be e4 b2 8a 3d 30 d7 b6 3c
       -0.036905088 -0.18855663 0.06772402 0.022319406
000110 56 22 09 bd 97 2f c5 3d a3 f3 ba bd ec 46 e5 bd
       -0.03348001 0.09628218 -0.09128501 -0.11195168
000120 3d ff 30 3b f5 2a 77 bd 85 52 f9 bd 08 62 2e bd
       0.0027007603 -0.0603437 -0.121739425 -0.04257396
000130 e0 f9 e4 3c bc 8c 29 bd 4c 4b b7 3d 21 0a c4 bd
       0.027951181 -0.04139398 0.089499086 -0.095722444
000140 5d 63 aa bd 91 ab 22 3d ac eb ac 3c a5 d6 04 bd
       -0.08319733 0.0397144 0.02110847 -0.032431263
000150 40 3e fa bd 42 e5 39 bd cd 98 de 3d 8c f4 e8 3d
       -0.122189045 -0.045384653 0.10868988 0.113747686
000160 d9 f5 a7 3c 93 5c 8b 3c 1a 05 67 bd 2a b7 39 3d
       0.020502971 0.017011916 -0.05640135 0.045340694
000170 02 f4 02 ba d1 09 8b 3d ed 5d 06 bd ac 33 cb 3c
       -0.00049954664 0.06788982 -0.03280442 0.024804913
000180 d5 09 24 3d 5e 51 52 bd cf 56 c0 bd 23 93 8c be
       0.04004844 -0.05134713 -0.093915574 -0.27456006
000190 8b 0c 99 bd 00 54 11 bd 2c a9 38 bd 0f 1c 51 3c
       -0.074730955 -0.0354805 -0.04508321 0.012763037
0001a0 f0 c0 85 bd da 4b 5c 3d 36 de 0a bd fa ec 5f 3d
       -0.065309405 0.053783275 -0.033903323 0.054669358
0001b0 53 3c c7 3d e1 02 5d 3d 02 e0 70 3d 33 47 95 bd
       0.09728303 0.053957824 0.05880738 -0.07288971
0001c0 f0 26 7b bc 9d a1 03 3e 54 21 7a bd ed e9 ae bd
       -0.015329108 0.1285462 -0.06106694 -0.085407116
0001d0 76 f7 50 3d b7 aa 48 be 45 90 a7 bd 23 30 80 3d
       0.051017247 -0.19596373 -0.08181814 0.06259181
0001e0 7c b3 ed bd f1 a0 d8 3c 89 01 01 bd ed 70 de bc
       -0.116064996 0.02644393 -0.031495605 -0.027153457
0001f0 cc ab 78 3c a8 25 2e 3d f0 ad 21 bd f4 58 de 3b
       0.015177678 0.04251638 -0.03947252 0.0067855064
000200 a8 ca f5 3d 6a 2b 57 3d 18 05 59 3d 82 c3 63 bd
       0.12001544 0.052531637 0.052983373 -0.055606373
000210 d1 50 1d be 12 98 3d 3d b5 14 96 3d 38 9b cc bd
       -0.1536286 0.046287604 0.07328168 -0.09990543
000220 b5 06 ae 3b 91 2a 80 3d 69 7d 3d bd 9a 61 ac bd
       0.005310858 0.06258119 -0.04626218 -0.084170535
000230 a5 f7 ff 3b a3 61 b1 3b 39 2f 1f bd 29 15 14 3b
       0.007811504 0.0054132505 -0.038863394 0.002259562
000240 54 87 95 bd 0d 51 2b be 2b 70 64 bd ed bf 09 bb
       -0.073012024 -0.16730137 -0.055771034 -0.0021018938
000250 5d 54 0c be e9 1a 0d 3d 87 13 fb bd 11 9c 37 3d
       -0.13704057 0.03444949 -0.12259584 0.04482657
000260 09 e4 a4 3d cd 8b a0 bc d5 d3 97 3d a8 db 6e be
       0.08051307 -0.019597912 0.07413451 -0.2332598
000270 fa f6 93 bd e6 fb 52 bd 3d c7 5a 3e 92 0f 5b bd
       -0.072248414 -0.05150976 0.21365066 -0.053481646
000280 42 5d 11 3d 56 07 02 be 18 dd d2 bc 18 74 a4 bc
       0.03548933 -0.12698111 -0.025740191 -0.020074889
000290 3d 3c c4 3d 72 f3 58 bd 78 44 60 3e 20 44 fe bd
       0.09581802 -0.052966543 0.21901119 -0.124153376
0002a0 cb c3 1b 3e 53 0d 04 bc 75 59 ee 3d 29 e8 70 bc
       0.15211408 -0.008059817 0.11638156 -0.014703789
0002b0 4c 91 35 3e a6 87 2e bd 8a 5f 07 be 7c 6a 60 3d
       0.17731208 -0.042609833 -0.13220039 0.05478905
0002c0 c5 cd 58 be 9e 85 c5 3b fb c3 ac bd 0c e4 4b 3d
       -0.21172245 0.0060278913 -0.08435818 0.04977803
0002d0 c6 ed 79 bd 1b cf 13 3e 0b fc b4 3d 1c 89 1e 3e
       -0.061017774 0.14434473 0.08837136 0.1548199
0002e0 28 78 93 bd 46 fd 4d 3e 10 6c d1 3d c2 af 98 bd
       -0.07200652 0.20116147 0.102256894 -0.07455398
0002f0 13 11 9b bd 08 80 32 3d a6 18 ad bd fc 98 36 bd
       -0.07571616 0.04357913 -0.08451967 -0.04457949
000300 af 4d d2 3c f1 45 17 be e0 d9 3e 3b ff ca a7 3d
       0.025671808 -0.14772774 0.0029121563 0.08193015
000310 0c 42 91 3d 56 8f a7 bd 05 d9 09 be 38 53 33 be
       0.070926756 -0.08181636 -0.13461693 -0.17512214
000320 ee 15 4a 3d 69 58 bd 3c 10 41 a0 bd 62 71 ba bd
       0.04933732 0.023113446 -0.0782491 -0.09103657
000330 5d 1c dd bc 96 be e3 3d 8b eb 26 3e 9f d7 7e bc
       -0.026991064 0.11120336 0.1630079 -0.015554338
000340 ea 8d 84 bd 21 08 86 bd f5 66 54 3b 37 8f c5 3b
       -0.064723805 -0.06544519 0.003241 0.0060290354
000350 90 a8 e0 bb d0 bb 9e bd 8e 3b 10 3d 02 38 a0 bd
       -0.0068560317 -0.07750666 0.035213046 -0.07823183
000360 d2 f1 9d bd ab 92 a3 bd b8 de 82 bd 9e 86 3a 3d
       -0.07712139 -0.07986959 -0.063901365 0.045538537
000370 5d 9d e7 3c 5e 2d 19 3d b8 99 a2 3d d8 3b dc 3d
       0.028273279 0.03739678 0.07939476 0.10753602
000380 72 99 bb bd 22 51 e5 bd 93 22 0b 3e 47 aa 95 bd
       -0.09160127 -0.111971155 0.13587408 -0.073078685
000390 5c 96 fd bd 94 ed 14 3e 8b 81 a2 bc 15 6b 04 be
       -0.123821944 0.14543754 -0.019837162 -0.12931474
0003a0 3c f1 d1 3b 58 cc 50 be cb de 82 bb 9e 06 c3 3d
       0.006406931 -0.20390451 -0.003993844 0.095227465
0003b0 c1 4d 4b 3e 99 43 47 bc b6 c7 a6 3d cd 4d 85 bd
       0.1985388 -0.012162113 0.081435606 -0.0650898
0003c0 9d 99 28 3e ef 19 32 3e c1 c8 b6 bd d7 75 92 bc
       0.16464849 0.17392705 -0.089250095 -0.017878456
0003d0 40 74 2f 3e 39 81 40 3d f5 72 88 3d 10 2c 7a 3d
       0.1713419 0.046998236 0.06662551 0.061077178
0003e0 9b 5a e4 3c 7b 4a 17 be c8 fa fd 3d c1 fe 1d bd
       0.027875235 -0.14774506 0.12401348 -0.03857303
0003f0 6a 5d 66 bd fd 67 55 bd 05 9f 82 3d ca c1 51 3e
       -0.05624143 -0.052101124 0.06377987 0.20484081

lstm.weight_hh f4 [512, 128]
000000 c5 16 4b be 9b 91 ce bd e6 3c 00 be 8f a2 8f 3e
       -0.19832905 -0.10086366 -0.12523231 0.2805371
000010 0b f4 ef 3d db 26 cf bd 6f cf cf bd c1 74 12 be
       0.117164694 -0.10114833 -0.10146987 -0.1430235
000020 9f 77 d6 3e b8 98 dd 3d f4 c8 ab 3d e6 04 32 3e
       0.4188814 0.108201444 0.08387938 0.17384681
000030 c0 49 dd 3d ed 64 84 3e 74 a2 a1 be 9f f3 cd bd
       0.10805082 0.2585825 -0.31569254 -0.10056233
000040 b0 ff 13 3e 36 e1 cb bc 48 aa f4 bd 8a 5d 36 bd
       0.14453006 -0.024887662 -0.11946541 -0.0445228
000050 e8 ae 18 be 87 95 bc bd 5f cd 5b 3d bf f6 93 3d
       -0.14910471 -0.092082076 0.053662654 0.072247975
000060 be e7 09 3d 05 fd ef bc c4 ec 55 3e 46 25 86 3d
       0.033668272 -0.029295454 0.208911 0.06550078
000070 d3 25 3f be 8a 46 92 bc 57 10 39 3e ae e8 88 3d
       -0.18666773 -0.017855901 0.1807264 0.06685005
000080 49 4d c7 bd 9f 2a 85 3e 9c b3 38 3d ca 43 9f 3e
       -0.09731538 0.2600908 0.045093164 0.31106406
000090 45 47 02 be 5a 5c 08 be f4 6b 1c 3c 4e 78 c4 bd
       -0.127225 -0.1331648 0.009547222 -0.09593259
0000a0 27 d7 0f 3e 86 af ad bd e6 7b 63 3e 03 6c cf bd
       0.14046918 -0.08480744 0.22215232 -0.101280235
0000b0 27 27 ba bb 32 72 cb bd e9 47 14 bd 05 18 22 be
       -0.005680937 -0.099338904 -0.03620139 -0.15829475
0000c0 ff 9f 7c 3e 0e e7 77 be 11 96 ff bc d5 f0 27 bd
       0.24670409 -0.24209234 -0.031199487 -0.04100116
0000d0 5c e8 ab 3d 84 0d dc 3d 56 30 ab 3d fe 9c a1 bd
       0.083939284 0.107447654 0.08358829 -0.07891272
0000e0 bf 5f 24 bd 22 1b ea 3d dd 16 64 be fa 1f 4f bd
       -0.040130373 0.114309564 -0.22274347 -0.050567605
0000f0 35 5e b0 3c 3c 11 36 bd ee 65 4f bd ac 7a 31 3d
       0.021529296 -0.04445003 -0.050634317 0.04332988
000100 d1 58 47 3d f8 3a 39 bd 65 ff 5e ba dd e0 f7 3c
       0.048668686 -0.045222253 -0.00085066847 0.03025859
000110 78 23 55 be db c7 4d 3e 4b 92 e3 bd c6 b3 57 be
       -0.20814312 0.2009577 -0.111118875 -0.21064672
000120 d6 dc 29 3e 91 c2 85 be 8c da 54 3d de ab 28 3e
       0.16588148 -0.26125005 0.051966235 0.16471812
000130 2e 71 16 3e 66 8b a4 bc 7f 53 98 3d 5f 5e 27 3e
       0.14691612 -0.020086002 0.074378006 0.16344593
000140 60 d1 92 3e 4a 2e 33 3e f6 30 ef bd f6 ab 6a 3d
       0.28675365 0.17498127 -0.116792604 0.0572929
000150 ff cf 53 3c c7 57 84 3e 93 d7 ff bd 0f 65 3b be
       0.012928008 0.2584822 -0.124922894 -0.1830027
000160 77 55 56 3d 32 fb 09 3e c6 00 27 be d7 b0 7c be
       0.0523276 0.1347473 -0.16308889 -0.24676834
000170 39 e5 aa 3e 1e 7c 52 be a6 99 df 3d 0d f2 25 3e
       0.33378008 -0.2055516 0.10917978 0.16205616
000180 80 b6 34 be 59 84 af bd aa ec 8e 3d 46 be 16 3e
       -0.17647743 -0.08570165 0.06978734 0.14721021
000190 a8 0e 76 3e 4a 4c 7b 3b 30 69 41 3e db 7a 59 bc
       0.24029028 0.0038345032 0.18887782 -0.01327392
0001a0 5f 99 ab bd af 01 2f 3d de 08 38 bd d0 4b eb bc
       -0.083788626 0.042726215 -0.04493033 -0.028722674
0001b0 6a 86 2c be dd 21 6d bd cd c9 43 3e 80 c2 8f bd
       -0.1684815 -0.057893623 0.1911995 -0.0701952
0001c0 2a 4f 0f be 3f 87 95 be 37 72 3c 3e 5c 6e 5a be
       -0.13995042 -0.29204747 0.18402945 -0.21331161
0001d0 d9 6d 68 bd 1e 11 9e 3d 4a ae a3 bd 83 c6 56 bc
       -0.056745384 0.077181086 -0.079922274 -0.013108852
0001e0 e1 09 50 3c a7 ff 6c bb 7d 1b 78 3c 76 18 e1 3d
       0.012697668 -0.0036163123 0.0151432725 0.10990994
0001f0 a4 da 43 be 67 33 5e be ad 6c ad bc df bc 8f 3c
       -0.19126374 -0.21699296 -0.021169985 0.017546115
000200 b5 df 9c 3e 23 9e 69 3e c4 c5 39 bb fc 3e 0d be
       0.30639425 0.2281423 -0.0028346637 -0.13793558
000210 84 56 a0 3e f6 5a 68 bd 6c e6 8b 3e d7 8e a7 3d
       0.31316006 -0.056727372 0.27324235 0.081815414
000220 b8 f9 c5 3d a5 a8 50 3d a1 0c 48 be 2b d4 26 be
       0.09666771 0.050942082 -0.19536068 -0.16291873
000230 85 f1 66 3e 2e dd 71 be 16 4e 2f ba 6b 71 ab be
       0.2255307 -0.2361953 -0.0006687356 -0.3348497
000240 c9 6d 06 3e 08 6d b9 be f9 5c c6 3d 7f c8 71 be
       0.13127817 -0.36215997 0.09685702 -0.2361164
000250 5c d8 5a bd c2 80 02 3e 92 08 c5 bc b8 34 e0 bc
       -0.053428993 0.1274443 -0.024051938 -0.027368888
000260 d6 83 72 3d fc c7 ae be d3 9c 2e be a5 66 5a be
       0.05920776 -0.3413695 -0.17052011 -0.21328218
000270 26 1c e9 be c0 c8 04 3c 92 11 03 be af d8 33 3e
       -0.45529288 0.008104503 -0.12799671 0.17563127
000280 a2 72 1e 3e 67 15 96 3e 28 4e 67 3d db c9 51 ba
       0.15473416 0.29313204 0.05647102 -0.0008002796
000290 8d 40 3d be 4c 1b 3e 3e d7 88 dc 3c 79 4e 60 be
       -0.18481655 0.185651 0.02692072 -0.21904935
0002a0 39 dd 4e 3d 49 04 0b be 5f 3a 2f 3e 14 d8 8e 3e
       0.050503943 -0.13575853 0.1711211 0.2789923
0002b0 a1 af 2b 3e f4 9b 40 be 05 37 36 bd d6 48 96 be
       0.16766216 -0.18809491 -0.044486064 -0.29352444
0002c0 25 d3 71 be cc eb 14 3d 4a 5d 1d 3e b3 13 dd 3c
       -0.23615701 0.036357686 0.15367618 0.026986932
0002d0 c2 85 46 3e 28 4e 71 3c 25 9d ea bb 56 42 f7 bd
       0.19386962 0.014728107 -0.0071598464 -0.120731995
0002e0 e6 ae ab 3d b9 5c 65 3c ca f8 e6 3d 92 42 22 3e
       0.083829686 0.013999158 0.112779215 0.15845707
0002f0 44 06 24 bd e5 b6 82 3e f4 30 8b 3e 60 be f8 bd
       -0.040045038 0.25530162 0.27185786 -0.12145686
000300 70 90 b7 3d 40 1f 83 3e 64 64 50 3d 01 29 ec 3b
       0.08963096 0.2560978 0.05087699 0.0072070365
000310 d4 96 ae 3e 54 c2 93 bd 60 b6 10 3e b4 13 ad 3d
       0.34099448 -0.072147995 0.1413207 0.08451024
000320 06 96 ea 3c ee 5c a4 3d b4 83 0f be 57 73 27 bd
       0.02863599 0.080255374 -0.14015085 -0.04088148
000330 91 29 4a 3e 3e 5a 65 bd 96 a2 70 3e 81 08 93 be
       0.19742419 -0.055994265 0.23499522 -0.28717425
000340 1e ee 79 bd d8 29 0b 3e 56 7c 38 be 72 03 74 3e
       -0.061018102 0.13590181 -0.1801618 0.2382944
000350 26 11 03 bc dc d5 0c 3d b0 18 84 3d 3a 35 eb 3d
       -0.007999694 0.03438364 0.06450021 0.114847615
000360 e4 25 73 be 15 af d4 bd 5b cd 4f 3e 77 d4 5e be
       -0.23744923 -0.10384957 0.2029318 -0.21760736
000370 86 3f 88 be fc f4 85 be f9 bf 0c be d0 96 cc bd
       -0.26610965 -0.2616347 -0.13745107 -0.09989703
000380 ac 16 53 3e 33 b7 41 bd 96 9e 18 3d ff 61 87 bb
       0.20614117 -0.047293853 0.037260614 -0.004131555
000390 ad d1 50 3e 7b 02 03 be 2a 61 94 bb 12 84 89 be
       0.20392485 -0.12793915 -0.0045281844 -0.26858574
0003a0 50 9c be be e6 8b f7 bc 2d 90 89 3e 31 26 a4 3d
       -0.37228632 -0.030218076 0.2686781 0.08015097
0003b0 9b 12 79 3d a9 62 82 3e 17 ef b9 bc ca c3 01 be
       0.06080876 0.25465897 -0.022697015 -0.12672344
0003c0 c7 4a 36 3e 32 04 61 bd 72 33 3e 3e 8b 17 23 3e
       0.17801963 -0.05493564 0.18574312 0.1592695
0003d0 b0 d9 2b 3d 9f fc 07 3e 42 6c 40 3e da f2 b2 3c
       0.04195565 0.13279961 0.18791297 0.021844316
0003e0 f8 80 0e bd dc b3 31 3e ab f0 23 3e 72 84 c2 3e
       -0.034790963 0.17353767 0.16009776 0.37991673
0003f0 e9 04 6f 3d 91 bf 4a 3d 5a 21 15 3e 02 f8 9b 3d
       0.058354292 0.0494991 0.14563504 0.07615663

lstm.bias_ih f4 [512]
000000 c4 ae 6c bc 6c 45 a8 bc 97 3e 31 3d 63 6b ab 3c
       -0.014445964 -0.020540915 0.04327258 0.02092523
000010 18 da 00 3d 65 82 2c bd 3e 3c 55 3d 4c a9 36 bd
       0.03145799 -0.04211654 0.052059405 -0.044595048
000020 05 df 00 be 20 7b a7 3d 35 67 7c 3d 36 4f 2b bd
       -0.12585075 0.08177781 0.061621863 -0.04182359
000030 b8 85 65 bc 56 4e 23 bd cb 1b 25 3d ce 2b 39 3e
       -0.014008932 -0.03986963 0.04030971 0.18083116
000040 7a 51 ea 3d 48 db 24 3d aa ff 0f 3e b0 03 6e 3d
       0.11441322 0.040248185 0.14062372 0.058108985
000050 b5 9f e4 3d a0 f1 f2 3d 42 7d 03 3e 87 dc 2c 3d
       0.11163274 0.118624926 0.12840751 0.0422025
000060 49 62 b9 3d b7 37 9f b9 db 5d c7 bc 54 08 21 3d
       0.090519495 -0.00030368354 -0.024336746 0.039314583
000070 d9 11 f1 3d f4 6e c9 bd 99 11 ab 3d 11 92 17 3e
       0.11770982 -0.09835616 0.08352966 0.14801814
000080 4a 74 01 bd fe 53 b5 bd f3 fe 81 bc fd 2d 8f 3c
       -0.031605043 -0.08853911 -0.01586864 0.017477984
000090 ab 26 59 3c 7e e9 e0 bc c2 01 3b 3d f7 bb 42 ba
       0.013253848 -0.027455088 0.045655973 -0.00074285216
0000a0 fe ab b6 3d 50 cd a9 bd aa e8 1c 3e b4 bd 8f 3d
       0.08919524 -0.082911134 0.1532313 0.07018605
0000b0 76 c5 88 bc b0 d2 a6 3c 2e b1 3f 3e 6b f1 25 3e
       -0.01669572 0.020364136 0.18719932 0.16205375
0000c0 ea a0 2a 3d e8 97 38 3d 84 5e 37 3b 29 22 3b 3d
       0.041657366 0.045066744 0.002797992 0.045686875
0000d0 bf 02 3d bd 52 e5 ac 3d af 9f 9b 3d 2b 14 1d 3e
       -0.046145197 0.08442177 0.075988166 0.15339725
0000e0 ca fa a6 3d ff 66 8c bd b6 b1 ab bc 82 75 91 3d
       0.08153303 -0.068555824 -0.020958763 0.07102491
0000f0 b2 50 68 bc f4 a2 e1 3d 3f 91 03 3e 9b cd 04 3e
       -0.0141793955 0.11017409 0.12848376 0.12969057
000100 6c e2 8e 3c b1 41 61 3e 5d 7b c5 3d 19 c7 b0 3d
       0.01744195 0.21997716 0.0964267 0.08631725
000110 d8 76 c5 3d d2 65 c1 bc fe 8f 16 3e 39 c1 92 3b
       0.09641808 -0.023608122 0.14703366 0.0044786003
000120 ae de 65 bd 8d 6f e6 ba 6e 36 85 3c ea 4c a8 bd
       -0.056120567 -0.0017580852 0.016261306 -0.08217795
000130 f2 0c f0 bc 1e 36 f7 3d c6 87 82 3d ea 47 08 3d
       -0.029303048 0.12070869 0.06373553 0.033271708
000140 1f 43 0e 3d 6a e6 50 3a 7a 01 91 3d c2 1f 45 3b
       0.03473198 0.00079689047 0.0708036 0.0030078744
000150 81 73 2c 3d 9a da 37 3d 65 2c 85 3d 72 5c 2a 3e
       0.04210234 0.04488621 0.06502608 0.16636828
000160 e3 9f 39 3e 72 18 09 3e be 96 69 bc 43 b1 1c bc
       0.18127398 0.13388231 -0.014257131 -0.009563747
000170 8b 99 aa 3d 07 d5 6a 3d bb 12 2b bc 25 bd 26 bd
       0.08330067 0.057332065 -0.010441477 -0.040707726
000180 a9 5e 81 bd 94 8e e8 3d b3 00 28 3d 0c ca 65 bd
       -0.06316883 0.113553196 0.04101629 -0.05610089
000190 d6 ed 0b 3e f5 2c 5e 3d 4d 83 78 3d fa 7f 22 bd
       0.13664946 0.054242093 0.060672093 -0.03967283
0001a0 b1 61 21 3e 92 07 2c 3d 09 0f 8a 3d 42 a5 c0 3d
       0.15759923 0.041999407 0.06741149 0.094065204
0001b0 cb 9f 8c 3c 05 2a aa 3d 4b 2d 7d 3d 05 e2 fc 3d
       0.017166039 0.08308796 0.061810773 0.12347797
0001c0 d3 27 a0 bb dc 92 2b 3d 75 73 1d 3e b3 13 a8 bc
       -0.00488756 0.041888103 0.15376075 -0.020517206
0001d0 94 25 8a 3d 59 58 4e bd c6 95 38 3d 0e ee bb 3d
       0.06745449 -0.050377224 0.04506471 0.09176265
0001e0 34 53 37 3d e3 42 67 3c 54 22 d9 3d 48 f7 08 3e
       0.044757083 0.014115068 0.10602251 0.1337558
0001f0 f6 07 cc 3d 3b 6b 97 3d 18 2e 25 bc 7b b5 52 bd
       0.09962456 0.073934995 -0.01008179 -0.051442605
000200 9c 11 98 bd 5e a8 6d 3d 8c e5 b3 3d 06 04 4e bd
       -0.07425234 0.058021896 0.08784017 -0.050296806
000210 5c 1a db bd 6d e0 9c bd a6 e8 2a be 92 66 50 bd
       -0.10698387 -0.07659993 -0.16690311 -0.05087907
000220 44 26 1c 3d b3 d7 ce 3c 45 8a c3 3d e6 eb 0d 3c
       0.03812243 0.025249338 0.09547857 0.0086622
000230 76 8b 21 be b2 69 80 bd 9a c7 09 be 45 7f 95 3d
       -0.15775856 -0.0627016 -0.13455048 0.07299665
000240 d7 9b e1 bc f0 86 53 3a ca db d1 bd d7 17 a9 bc
       -0.02754013 0.00080691185 -0.102469996 -0.02064125
000250 a9 10 85 3c e3 5a 67 3d e4 53 98 bd aa 2f b4 bd
       0.016243296 0.05648316 -0.07437876 -0.08798154
000260 b8 8f 74 bd 4c 96 47 3d 45 3f d6 bd 3d cc 7f bc
       -0.059707373 0.04872732 -0.104612865 -0.015612659
000270 4b 24 0b be 72 f7 c2 3d 77 eb f6 bc 08 6e 22 bd
       -0.13588063 0.09519853 -0.030141575 -0.039655715
000280 21 7b fc ba 0b f1 85 bd 5b df 96 bd c4 8c fb bc
       -0.001926277 -0.06540116 -0.073668204 -0.03070677
000290 99 38 03 3d 92 ee 8a bd 0e 34 0e be 0b 6b d6 3c
       0.032036398 -0.06783785 -0.13887045 0.026174089
0002a0 f6 af e0 bd e6 d9 17 be b3 9b 85 bc 12 ca 7b 3b
       -0.10971062 -0.14829215 -0.016309595 0.0038420004
0002b0 70 19 29 be 8a 78 1c be 77 ea cb bd e5 4e 14 3d
       -0.1651361 -0.15280357 -0.0995683 0.036208052
0002c0 da 10 55 3c 76 45 53 bd 6f c7 8f 3c d5 c2 48 bc
       0.013004506 -0.051579915 0.017551152 -0.012253483
0002d0 18 2c ce bb f2 fb 07 be 10 19 ae bd 7d 49 07 be
       -0.0062918775 -0.13279703 -0.08500874 -0.13211627
0002e0 92 99 a6 bd 25 49 35 3c 83 81 20 3d 57 e8 39 3d
       -0.0813476 0.011064802 0.039186012 0.045387592
0002f0 17 04 54 3d 73 7e 11 3d ed f3 3a be 86 f3 02 be
       0.051761713 0.035520982 -0.18257113 -0.1278821
000300 b8 d3 b9 bc 05 ef 25 bd 72 f5 2a bd 6d 21 c3 3c
       -0.022683963 -0.04051115 -0.04173798 0.02381965
000310 fe 59 fc bd eb 57 2d 3d 0a 01 2c bd 40 46 ba 3d
       -0.12321852 0.042320173 -0.04199318 0.090954304
000320 4c 93 2a 3d be b9 28 bd a2 8f 13 be 0c d2 41 bb
       0.04164438 -0.041192763 -0.1441026 -0.002957466
000330 16 d9 fc bd 24 04 db bd 9c 91 89 bd fa ae 42 3d
       -0.12346093 -0.10694149 -0.06717226 0.047530152
000340 c9 20 16 bd 2e 85 b2 bd cb f1 dc bd 88 8e eb bd
       -0.03665236 -0.08716808 -0.10788306 -0.11501795
000350 e0 93 15 bc 3a 77 a7 bd 26 bd 17 be e3 a1 d8 bc
       -0.009129494 -0.081770375 -0.14818248 -0.026444381
000360 d5 0d b2 3d 39 0c dc 3d f5 38 ec bd 55 a2 df bc
       0.086940445 0.10744519 -0.11534301 -0.027299086
000370 70 e5 a5 bc e6 b1 86 bd cb c3 8e 3c 42 0c d4 bd
       -0.020251006 -0.065769 0.017427346 -0.103539005
000380 7b f2 8f bd a2 ee ff 3c 69 df 38 bd d6 29 ba bd
       -0.07028671 0.031241719 -0.045134936 -0.09090011
000390 af 22 98 bc 1c 21 be bd 8c 08 bf bd a3 8d ba bd
       -0.018571226 -0.09283659 -0.09327802 -0.09109046
0003a0 99 8b 8c bd 3b bb c3 bd 65 71 17 bd f4 a6 77 3d
       -0.06862564 -0.09557196 -0.036973376 0.060461953
0003b0 9c a5 ee bd 37 21 ed bd 1c 43 21 be 06 81 c3 3d
       -0.11652681 -0.11578601 -0.15748256 0.09546094
0003c0 cc 4d d2 3d bc ee 6f bd c3 3d a9 3d e5 fc db 3d
       0.10268745 -0.058577284 0.08263733 0.10741595
0003d0 e5 e2 5a bd 91 2d 48 bd b7 99 a2 bd f2 f2 a5 bd
       -0.05343904 -0.04887158 -0.07939475 -0.08102979
0003e0 4e b7 1f 3c 42 6b dc bd d3 7d b6 3d 89 4e 80 bd
       0.009748293 -0.10762645 0.08910718 -0.062649794
0003f0 78 2f 1d bd b5 3f 97 3d a8 f7 06 bd 5f ce 72 bd
       -0.038375348 0.07385198 -0.032951027 -0.059278842
